models_pytorch/mnist_pytorch_model.pth (torch, 932905 bytes, 12 tensors)

cnn.0.weight f4 [32, 1, 5, 5]
0	0x3cf94478	0.030428156
1	0x3c6866db	0.014184679
2	0xbdfc3d01	-0.12316323
3	0x3d7d39a6	0.061822556
4	0xbeb1c627	-0.3472149
5	0x3d485ee9	0.04891864
6	0xbc88e07c	-0.016708605
7	0x3e363118	0.17792165
8	0xbde024e3	-0.109445356
9	0xbebecf3b	-0.3726748
10	0x3d452427	0.04813018
11	0x3e2684a3	0.16261534
12	0xba37d95d	-0.00070132856
13	0xbe2fe6b3	-0.17177849
14	0xbe7cd73c	-0.2469148
15	0x3cf54c7f	0.029943703
16	0x3a8be323	0.001067255
17	0x3e20374d	0.15646096
18	0xbe569365	-0.20954664
19	0xbe3658e6	-0.1780735
20	0x3d50de84	0.050993457
21	0xbe040c54	-0.12895328
22	0x3dded832	0.1088108
23	0xbe608ccd	-0.21928711
24	0xbdb653be	-0.08902691
25	0xbe26694d	-0.16251107
26	0xbe07e8ea	-0.13272443
27	0xbb2b365c	-0.002612493
28	0xbe08cbc5	-0.13358982
29	0x3ca50fdd	0.020149166
30	0xbe1062e6	-0.14100227
31	0xbdf035a1	-0.11728979
32	0x3dcdd135	0.10049669
33	0x3e41d650	0.1892941
34	0x3bdb9edc	0.006702287
35	0x3d39cad6	0.045359455
36	0x3e5a2531	0.2130325
37	0x3e092355	0.13392384
38	0x3dd176c3	0.1022773
39	0xbde042e0	-0.109502554
40	0xbd50a7fd	-0.050941456
41	0x3e3f122d	0.18659277
42	0x3d70a375	0.058749635
43	0xbdbdcbfb	-0.09267422
44	0xbbd7abb0	-0.006581746
45	0x3e3a8360	0.18214178
46	0x3e3a2459	0.18177928
47	0xbe32405f	-0.17407368
48	0xbe432389	-0.19056524
49	0xbdefdd75	-0.117121615
50	0xbe432cc3	-0.19060044
51	0xbd371587	-0.044698264
52	0xbd8746b1	-0.0660528
53	0xbd2b4f13	-0.041823458
54	0xbd307fa7	-0.04309049
55	0xbde47eb3	-0.111569785
56	0xbe480d17	-0.19536243
57	0xbdc6d466	-0.097084805
58	0xbd64041c	-0.05566798
59	0xbdec93e0	-0.115516424
60	0xbd5f9509	-0.05458549
61	0xbc8cd299	-0.017190265
62	0xbe025014	-0.1272586
63	0xbe68af9a	-0.22723237
64	0xbe32bbf7	-0.17454515
65	0xbd181744	-0.037131563
66	0x3d162c86	0.036663555
67	0xbda96055	-0.08270327
68	0xbd296cc4	-0.041363493
69	0xbe8731e8	-0.26405263
70	0xbd431164	-0.047624007
71	0x3e8d70c7	0.27625105
72	0x3ea00738	0.31255507
73	0xbd2d98bb	-0.042381983
74	0xbe3a2d9d	-0.18181463
75	0x3e5cb955	0.21555074
76	0xbd0d0cab	-0.03443591
77	0xbdaaca97	-0.08339422
78	0x3d116f5c	0.03550659
79	0x3e617f7c	0.22021288
80	0x3e67f10a	0.22650543
81	0xbe03619d	-0.12830205
82	0x3e08916e	0.13336727
83	0xbe40170f	-0.18758796
84	0xbdbb9ca7	-0.091607384
85	0xbbeddfcd	-0.007259345
86	0x3907e1d5	0.00012958732
87	0xbe39d06c	-0.18145913
88	0x3d91e98c	0.07124624
89	0xbd458fd6	-0.048232876
90	0x3e57ec75	0.21086295
91	0xbd1db330	-0.038500965
92	0x3df78c96	0.120873615
93	0xbc9a2b2f	-0.01881942
94	0xbd1096e9	-0.03530017
95	0x3deaff38	0.1147446
96	0xbd4d34f7	-0.05009934
97	0xbdb9b52b	-0.09067758
98	0x3cbbd061	0.022926511
99	0x3db01cc5	0.08599237
100	0x3e660a95	0.22464974
101	0x3e2afd84	0.16698271
102	0xbe07a5b9	-0.13246812
103	0xbde95516	-0.11393182
104	0xbe5783fd	-0.21046443
105	0xbdad21a6	-0.084536836
106	0x3e75ed9b	0.2401642
107	0x3d3ae94d	0.04563265
108	0x3db34bac	0.08754668
109	0xbde3d68e	-0.111249074
110	0xbce8acf8	-0.02840279
111	0xbdf09a6b	-0.11748203
112	0x3e1e5b35	0.1546448
113	0xbe527643	-0.20552926
114	0xbe51413c	-0.20435041
115	0xbde74e48	-0.11294228
116	0x3e382b4d	0.17985268
117	0x3e29e796	0.1659225
118	0xbe1b07fb	-0.15139763
119	0xbe32f4ea	-0.1747624
120	0xbe10de52	-0.14147308
121	0x3e5690ad	0.20953627
122	0x3deb59e2	0.11491753
123	0x3c076f7e	0.008266328
124	0x3cb5f054	0.022209324
125	0xbe11556f	-0.14192747
126	0xbe35cfd7	-0.17755066
127	0xbde72fcd	-0.11288414
128	0xbe2748d2	-0.16336372
129	0xbe13c95e	-0.14432284
130	0x3e0941b2	0.13403967
131	0xbcf53452	-0.029932175
132	0x3d67ee8a	0.056623973
133	0xbdc80527	-0.09766608
134	0x3ddec1eb	0.10876831
135	0x3df1ac01	0.11800385
136	0x3e1fd47d	0.15608402
137	0x3db4b41e	0.08823417
138	0x3e2a5f63	0.1663795
139	0xbd19653e	-0.037450068
140	0xbe2d1f0f	-0.16906379
141	0xbd1c155c	-0.038106307
142	0x3e4323b1	0.19056584
143	0x3cf013df	0.02930635
144	0x3e1ae7b5	0.15127452
145	0x3dbf71e7	0.09347897
146	0xbc120fbb	-0.008914883
147	0xbdb05a75	-0.08611003
148	0xbdc41ce9	-0.09575827
149	0xbc04d0df	-0.008106439
150	0x3d85b9bf	0.06529569
151	0x3d3050a8	0.04304567
152	0xbdb111a8	-0.08645946
153	0x3dd4b9ed	0.10387025
154	0x3d5d990d	0.05410104
155	0x3da07048	0.07833916
156	0x3e0477fd	0.12936397
157	0xbe0ab008	-0.13543713
158	0xbde6de2b	-0.11272844
159	0x3dce8ba9	0.10085232
160	0x3e21858a	0.15773597
161	0xbd846d92	-0.064662114
162	0x3d277a9d	0.040888418
163	0x3dab9027	0.08377104
164	0x3e0a8aa4	0.1352945
165	0xbe3b6a9e	-0.1830239
166	0xbe4a4439	-0.19752587
167	0x3de0789e	0.10960506
168	0xbddb212f	-0.10699689
169	0x3e192766	0.14956436
170	0xbe83dc81	-0.2575417
171	0x3d5e0b61	0.05421007
172	0xbbeae32a	-0.0071681933
173	0xbc7a6895	-0.015283723
174	0x3e0d01fb	0.13770287
175	0x3e4255c3	0.18978028
176	0x3cc1befb	0.023650637
177	0x3a8e7eec	0.0010871566
178	0xbd8042e0	-0.062627554
179	0xbd641dc5	-0.055692453
180	0x3ced5a22	0.028973643
181	0x3e5554cb	0.20833127
182	0xbe222edc	-0.15838188
183	0xbd2209f2	-0.039560266
184	0xbd014c7f	-0.031567093
185	0x3dd114dc	0.10209057
186	0xbdd0f770	-0.10203445
187	0xbe001428	-0.12507689
188	0xbd3226f5	-0.043494184
189	0xbea9a261	-0.33131698
190	0x3c51f44f	0.012814595
191	0x3daa7693	0.083233975
192	0xbe59ca01	-0.21268465
193	0x3cc955bb	0.024577012
194	0xbe5ff653	-0.21871309
195	0x3da6127a	0.08108993
196	0x3d2e3311	0.04252917
197	0xbe27302f	-0.16326974
198	0xbdba8061	-0.091065176
199	0xbe61ab84	-0.22038084
200	0x3dddeab9	0.108357854
201	0x3d4eb19f	0.05046236
202	0xbe3846b0	-0.17995715
203	0xbe3a8282	-0.18213847
204	0xbe3c563a	-0.18392268
205	0xbd9d1b51	-0.07671226
206	0x3d47fa15	0.04882248
207	0xbde0d27f	-0.10977649
208	0xbe579f16	-0.2105678
209	0x3dc3c49c	0.09558985
210	0x3daf0159	0.08545179
211	0xbe0ec16e	-0.13940975
212	0x3dd5bd5f	0.1043651
213	0x3cc2b912	0.023769889
214	0x3e273ae0	0.16331053
215	0x3e00cc53	0.12577944
216	0x3d85c264	0.06531218
217	0xbd5665ca	-0.052343167
218	0xbcea3105	-0.028587827
219	0x3dcabe4b	0.09899577
220	0x3dd46375	0.103705324
221	0x3e45b7a1	0.1930833
222	0xbe6900e5	-0.22754247
223	0xbdbbebdc	-0.09175846
224	0xbe31d96e	-0.17368099
225	0xbe11ae24	-0.14226586
226	0x3ace25ae	0.0015727782
227	0x3d5b96b4	0.05361052
228	0xbe2c46bb	-0.16823857
229	0xbe2e6a11	-0.17032649
230	0xbd25b90c	-0.040459678
231	0xbcf0063b	-0.029299846
232	0x3da54b96	0.080710575
233	0xbdf1af43	-0.11801007
234	0xbd2d29e5	-0.042276282
235	0xbdea834d	-0.11450825
236	0x3e3a80ff	0.1821327
237	0x3b520369	0.003204549
238	0xbe2763ae	-0.16346619
239	0xbdf0809c	-0.1174328
240	0x3e01f4d8	0.12691057
241	0x3d0b3534	0.033986285
242	0x3d40503b	0.046951514
243	0xbe20a1cf	-0.15686725
244	0x3d78eacd	0.0607708
245	0x3e52a266	0.20569763
246	0x3e55dae8	0.20884287
247	0x3e136c81	0.1439686
248	0xbe1f6604	-0.1556626
249	0x3e28c3f3	0.16480999
250	0x3d441aab	0.047876995
251	0x3e2f48ed	0.17117663
252	0x3ddb9317	0.107214145
253	0x3b11b6d5	0.002223422
254	0x3e178d90	0.14800096
255	0x3d7786a7	0.06043115

cnn.0.bias f4 [32]
0	0x3e0cddde	0.1375651
1	0xbb8684f0	-0.004105203
2	0xbd14bdbe	-0.036313765
3	0xbdf8ca38	-0.12147945
4	0x3d00fc2f	0.0314905
5	0xbc5b21db	-0.013374771
6	0xbe3df77f	-0.18551444
7	0x3da75ef3	0.08172407
8	0x3c0afce1	0.008483143
9	0x3dc0f6b0	0.09422052
10	0x3e0326f1	0.12807824
11	0xbd642489	-0.055698905
12	0xbdcc7402	-0.09983064
13	0xbd2e25aa	-0.042516388
14	0xbd7f3e23	-0.062315118
15	0xbd618996	-0.055062853
16	0x3e3a598d	0.18198223
17	0x3cc2e196	0.023789208
18	0xbd64df36	-0.055876933
19	0xba5807a8	-0.0008240887
20	0xbe1f1c30	-0.15538096
21	0x3cf390bb	0.029732099
22	0xbc7b3aa5	-0.015333806
23	0x3e0f204f	0.13977169
24	0x3d85122d	0.064976074
25	0x3d7ace9d	0.061232198
26	0xbe1f2eda	-0.15545216
27	0x3bc5e084	0.0060387272
28	0x3d87005a	0.06591864
29	0x3e14e8af	0.14541887
30	0xbe052568	-0.1300255
31	0x3d5525d9	0.052038047

cnn.2.weight f4 [32, 32, 5, 5]
0	0xbc8488a2	-0.016178433
1	0xbd0dc29e	-0.03460943
2	0x3c80d34e	0.015725758
3	0xbc83ab55	-0.016072908
4	0x3b2cd403	0.0026371486
5	0x39cb4bb0	0.0003877557
6	0x3cb266bd	0.021777505
7	0x3c29cf3c	0.01036435
8	0x3cba46f5	0.022738913
9	0xbc667819	-0.014066719
10	0xbcee2bfb	-0.029073706
11	0x3c2e46d5	0.010637005
12	0xbcd9367c	-0.026515238
13	0x3c6e66a1	0.014550836
14	0xbbaffc1e	-0.005370631
15	0x3cf7f7bf	0.030269502
16	0x3c51ac3e	0.012797413
17	0x3c5dd7ef	0.013540252
18	0x3cdede9a	0.027205754
19	0x3cdd532c	0.027017199
20	0xbd16191c	-0.03664504
21	0x3bd14e13	0.006387481
22	0x3ce3396f	0.027737347
23	0xbca4a3b7	-0.020097597
24	0x3b3de818	0.002897745
25	0x3c278d22	0.01022652
26	0xbb0f6e68	-0.0021885876
27	0xbce5fe1f	-0.028075276
28	0xbc8d273d	-0.017230624
29	0xbcff7980	-0.031185865
30	0xbcad4489	-0.021150844
31	0xbd00ece9	-0.031475935
32	0x3c285cb0	0.010276005
33	0xbcdc87a4	-0.026920147
34	0xbd27e11a	-0.040986158
35	0x3d02778b	0.031852286
36	0xbbad2078	-0.0052834116
37	0xbc167220	-0.009182483
38	0xbc917a3c	-0.017758481
39	0xbd2e0f92	-0.042495318
40	0xbd01465d	-0.031561244
41	0xbc82072b	-0.015872559
42	0x3c317b15	0.010832568
43	0x3b053249	0.0020324162
44	0x3c80ea2a	0.015736658
45	0x3c329193	0.010898965
46	0xbc8c9df9	-0.017165171
47	0xbcf5278b	-0.029926082
48	0xbb1ca1de	-0.0023900191
49	0x3cc7b141	0.024376513
50	0xbc654369	-0.013993123
51	0x3cf8366e	0.030299392
52	0xbbba7bae	-0.0056910133
53	0xbb520782	-0.0032047932
54	0x3c94d14c	0.018166207
55	0x3c9f685a	0.019458938
56	0xbd18891f	-0.037240144
57	0xbc8f096e	-0.017460551
58	0x3cb9a1f2	0.02266023
59	0xbcbcc739	-0.023044216
60	0xbd17f3e7	-0.037097838
61	0x3c57973b	0.013158615
62	0xbcd18810	-0.025577575
63	0xbcdd791b	-0.027035287
64	0x3c8717b2	0.016490791
65	0xbbe6cd17	-0.0070434916
66	0xbcafcc6c	-0.02145978
67	0x3c2eb49c	0.010663178
68	0xbb193c4f	-0.0023381894
69	0x3cf3a55c	0.029741935
70	0x3cb05172	0.021523211
71	0xbc937155	-0.017998377
72	0x3a2da8a4	0.00066245557
73	0x3c9387fd	0.01800918
74	0x3b7cf0f7	0.0038595775
75	0xbb992faa	-0.0046748715
76	0x3d07bb05	0.03313734
77	0x3d00fafe	0.031489365
78	0xbbd71f27	-0.006564993
79	0x3c605f0e	0.013694538
80	0x3cb3f695	0.021968165
81	0x3ca9c4da	0.020723749
82	0xbcf2747d	-0.029596562
83	0xbcf682aa	-0.030091602
84	0x3c8dbc39	0.017301666
85	0x3cbd7708	0.023128048
86	0xbd1b5394	-0.037921503
87	0xbb0fa2c9	-0.0021917096
88	0x3cb0547d	0.021524662
89	0x3c64e1de	0.013969867
90	0xbc51362b	-0.012769262
91	0xbc4ad639	-0.012380176
92	0xbc8a0559	-0.016848253
93	0xbc62b4e2	-0.013837071
94	0xbb40a857	-0.0029397213
95	0x3ccd29f4	0.025044419
96	0x3b32a6b2	0.0027260003
97	0x3cb2236c	0.021745406
98	0x3cef6ac2	0.02922571
99	0xbcf19ab1	-0.029492708
100	0x3ce7b83a	0.028286088
101	0xbb0965be	-0.0020965184
102	0x3c37d792	0.01122083
103	0xbcd27a53	-0.025693094
104	0xbd162722	-0.036658414
105	0x3c9cdbac	0.019147716
106	0xbd0a2307	-0.03372481
107	0xbd151843	-0.03640009
108	0xbc83595e	-0.016033825
109	0xbcfb2e4c	-0.030661725
110	0xbc9f36fa	-0.019435395
111	0xbbc90069	-0.006134082
112	0xbc7cec29	-0.015437164
113	0xbd069dc5	-0.032865304
114	0x3be2c956	0.006920974
115	0x3cbbaa69	0.022908406
116	0x3c11aaab	0.008890788
117	0x3b93cae9	0.0045102728
118	0xbbf7edb9	-0.0075661805
119	0x3cc11050	0.023567349
120	0xbc8c332b	-0.017114243
121	0x3a721d84	0.00092359656
122	0xbbf2543e	-0.0073952964
123	0x3c27ddc1	0.010245741
124	0x3b028c26	0.001991996
125	0xbc6d4d2e	-0.014483733
126	0xbd2b8027	-0.041870262
127	0x3c5379b2	0.012907432
128	0xbc33e56f	-0.010979994
129	0x3a06d428	0.0005143308
130	0x3b3d2b93	0.0028865084
131	0xbc70d53c	-0.014699277
132	0x3c129f28	0.008949079
133	0xbd28dfd2	-0.041229077
134	0x3c5e8493	0.013581413
135	0xbb785d04	-0.0037897239
136	0xbd1f8b63	-0.03895129
137	0x3d017cf9	0.031613324
138	0x3bf4c3de	0.0074696383
139	0x3c2019ad	0.009771747
140	0xbd0db45e	-0.03459584
141	0xbd245080	-0.040115833
142	0xbc8fa976	-0.01753686
143	0xbb8b9d52	-0.0042606974
144	0xbd246a3e	-0.040140383
145	0x3c126de5	0.008937334
146	0x3cc15506	0.023600113
147	0x3cbd4c99	0.023107814
148	0x3c2532a9	0.010082879
149	0x3cd55008	0.026039138
150	0x3b2cfd91	0.0026396255
151	0x3cb2331a	0.021752883
152	0xbcb09b5b	-0.021558454
153	0xbc3e6f26	-0.01162318
154	0xbc881f79	-0.01661657
155	0x3c01d767	0.007924891
156	0x3baa1d94	0.0051915143
157	0x38f5fa8d	0.00011729179
158	0xbc9c2b6d	-0.019063676
159	0x3c4948cf	0.012285425
160	0x3bf25e56	0.0073964996
161	0x3d027acb	0.031855386
162	0xbd16b175	-0.03679033
163	0x3ae0f382	0.0017162415
164	0x3ccaba4b	0.024747035
165	0x3bd5b0b4	0.006521309
166	0xbb327e1e	-0.0027235816
167	0x3cccdb26	0.025006842
168	0xb9835ff6	-0.00025057764
169	0xbd0195b2	-0.0316369
170	0x3cb5639b	0.022142222
171	0xbb92a33e	-0.0044750264
172	0xbd201357	-0.039080944
173	0x3c3dc794	0.011583228
174	0xbb80e212	-0.0039331997
175	0xba5fea8c	-0.0008541725
176	0x3cb2e7ae	0.02183899
177	0xbc062c49	-0.008189269
178	0xbb995ae7	-0.004680026
179	0x3c2c26f0	0.01050733
180	0xbcd6f7f6	-0.026241284
181	0xbccdfabf	-0.02514398
182	0xbcae5165	-0.021279046
183	0x3a5337f5	0.00080573495
184	0xbcd1db14	-0.02561716
185	0x3ce346f5	0.027743796
186	0x3cd26c97	0.025686545
187	0x3c789c42	0.0151739735
188	0xbc14c7e8	-0.0090808645
189	0xbc19232d	-0.0093467655
190	0x3ca9b6c6	0.020717036
191	0xbc8ca4ff	-0.01716852
192	0x3c883739	0.016627895
193	0x3cffc265	0.031220624
194	0xbc968f6a	-0.018378932
195	0x3ba9c7d1	0.0051812907
196	0x3bc9b464	0.0061555374
197	0xbcd50c19	-0.026006745
198	0xbc75e070	-0.015007123
199	0x3babda06	0.0052444963
200	0x3beac28d	0.0071643055
201	0x3c9f059e	0.019411858
202	0xbb7e2a3e	-0.0038782503
203	0x3ce86704	0.028369434
204	0xbcd549de	-0.0260362
205	0xbaf462de	-0.0018645187
206	0x3c8823ac	0.016618572
207	0xbc95f92b	-0.01830729
208	0x3c920f6b	0.017829617
209	0x3c608bf8	0.013705246
210	0x3c8d3b4f	0.017240195
211	0xbc6e487a	-0.014543647
212	0x39936036	0.00028109708
213	0xbccd0421	-0.025026383
214	0xbc393820	-0.011304885
215	0x3bc31bb1	0.005954229
216	0xb9441774	-0.00018700754
217	0x3c4d41a9	0.012527862
218	0xbd120227	-0.035646584
219	0xbc812bc6	-0.015767943
220	0x3c8eed22	0.017447058
221	0xbd0b2f19	-0.033980463
222	0x3c78ec6c	0.015193086
223	0xbced1384	-0.02893997
224	0xbbcbbd92	-0.006217667
225	0x3c652f00	0.013988256
226	0xbb61b659	-0.0034440963
227	0xbd172088	-0.03689626
228	0x3cd0dbd8	0.025495455
229	0xbd061086	-0.0327306
230	0xbd0d0261	-0.034426097
231	0x3cb7fbdb	0.022458961
232	0xbd29a3cb	-0.04141597
233	0xbcffe1d6	-0.031235617
234	0xbc88a402	-0.016679768
235	0xbcf313ec	-0.029672585
236	0xbd1a66c0	-0.037695646
237	0x3ccd43d4	0.025056757
238	0x3ce093ef	0.02741429
239	0xbcee1680	-0.029063463
240	0xbc5fd028	-0.013660468
241	0xbcb5c974	-0.022190787
242	0xbcada7bc	-0.021198146
243	0xbc179a68	-0.009253122
244	0x3ad099ca	0.0015914973
245	0xbca1a8fb	-0.019733896
246	0x3bdc3519	0.006720197
247	0x3cb89541	0.022532107
248	0x3b86c939	0.004113343
249	0x3c10647e	0.008813022
250	0xbc5623c7	-0.013070053
251	0xbba67c28	-0.0050807185
252	0x3c9decd1	0.019277962
253	0xbd01ada1	-0.031659726
254	0x3cbf9c70	0.023390025
255	0xbc810c64	-0.015752979

cnn.2.bias f4 [32]
0	0xbc869c31	-0.0164319
1	0x3d4be765	0.049781222
2	0xbc82692a	-0.015919287
3	0x3c3b1f9a	0.011421109
4	0x3c935367	0.017984105
5	0x3d2b9352	0.041888542
6	0x3c2d2bb3	0.010569501
7	0xbcb582db	-0.022157123
8	0x3cb25594	0.021769322
9	0x3a82a323	0.0009966831
10	0x3ceab203	0.028649336
11	0x3d22fbd7	0.039790954
12	0xbbd23d0e	-0.0064159697
13	0xbc7e8ca7	-0.015536464
14	0x3c7bd579	0.01537072
15	0xbc3ff33a	-0.011715705
16	0x3c3a605d	0.011375514
17	0x3cec227e	0.02882504
18	0xbbb8fe60	-0.0056455582
19	0xb900f40e	-0.00012297949
20	0x3c53b941	0.012922586
21	0x3adaad78	0.0016683778
22	0xbcb9b870	-0.022670954
23	0xbca28cec	-0.019842587
24	0x3d1f2ac3	0.03885914
25	0x3ce228a9	0.027607279
26	0xba7a193e	-0.00095405045
27	0x3d37b37a	0.044848897
28	0x3d06db83	0.032924186
29	0xbd493733	-0.049124908
30	0x3d44c5f8	0.04804036
31	0x3c8a1ea8	0.016860321

cnn.6.weight f4 [64, 32, 3, 3]
0	0x3d45eb02	0.048319824
1	0x3d1824e2	0.03714455
2	0xbc2cfefa	-0.010558838
3	0xbd0b0c77	-0.033947434
4	0x3c7cf4b3	0.0154392
5	0xbd66405b	-0.056213718
6	0xbc822b03	-0.01588965
7	0xbd1cd770	-0.038291395
8	0xbac30f7c	-0.0014881934
9	0xbd5cc092	-0.053894587
10	0xbb42c1b8	-0.0029717516
11	0xbdf9dc15	-0.122001804
12	0xbde5d71d	-0.1122267
13	0xbe0fecd0	-0.1405518
14	0xbe227fa5	-0.15869005
15	0xbe0f7d0f	-0.1401255
16	0xbe0dfb69	-0.13865437
17	0xbdd0eede	-0.1020181
18	0x3d50632d	0.05087583
19	0xbca8b2c9	-0.020593064
20	0xbd0520f5	-0.032502133
21	0xbd9c1382	-0.07620908
22	0xbe14e53f	-0.14540575
23	0xbdcfb83a	-0.1014256
24	0xbe33745b	-0.17524855
25	0xbd69bbdb	-0.05706392
26	0xbdcc2310	-0.09967625
27	0xbdc721ca	-0.097232416
28	0xbd8c2705	-0.0684338
29	0xbca80a07	-0.020512594
30	0xbd969af3	-0.07353773
31	0xb9e4098c	-0.00043494662
32	0x3ac0740c	0.0014683022
33	0xbcdce10b	-0.026962778
34	0x3c857085	0.016289005
35	0xbc384b5b	-0.011248435
36	0x3dd0508f	0.10171615
37	0x3d764a35	0.060129363
38	0x3cbc6b1c	0.023000292
39	0x3d938802	0.07203676
40	0x3c1e0c5d	0.009646502
41	0xbd2974b7	-0.041371074
42	0x3ddbae23	0.10726573
43	0xbb765fad	-0.0037593648
44	0xbddb8bbc	-0.107200116
45	0x3d373b75	0.044734437
46	0x3d7a6633	0.06113262
47	0xbda97019	-0.08273334
48	0x3bd460b6	0.0064812554
49	0xbd21248d	-0.0393415
50	0xbd6b118b	-0.057389777
51	0x3c83c7e7	0.016086532
52	0xbd81e879	-0.06343169
53	0xbd217318	-0.039416403
54	0xbd770a9f	-0.060312863
55	0x3d0e5687	0.034750488
56	0xb9d312c0	-0.00040259026
57	0xbbaeb510	-0.005331643
58	0x3d9ddfbd	0.0770869
59	0x3b455def	0.0030115803
60	0x3ba75a60	0.005107209
61	0xbd2fe493	-0.042942595
62	0x3c2fdf21	0.01073435
63	0xbc22ec55	-0.009944041
64	0xbd8857b8	-0.06657356
65	0xbba2d26f	-0.0049689333
66	0x3bb5054b	0.0055243126
67	0xbd1f7eb7	-0.038939204
68	0xbce3bed3	-0.027800953
69	0xbcb161de	-0.021653112
70	0xbd273667	-0.040823366
71	0x3d39f81b	0.045402627
72	0x3d9de63d	0.0770993
73	0x3d95eb5b	0.07320281
74	0xbc7bf901	-0.015379191
75	0x3c8dd06f	0.017311303
76	0x3c6ec141	0.0145724425
77	0x3afe1ef7	0.001938789
78	0x3d09007d	0.03344773
79	0xbca95864	-0.02067203
80	0x3c6f4ce7	0.014605737
81	0xbc7ade8a	-0.0153118465
82	0xba2defcd	-0.00066351594
83	0x3d965a66	0.07341461
84	0x3d8f0594	0.06983486
85	0xbbad3c51	-0.0052867313
86	0x3d815173	0.06314363
87	0xbc0d7f2b	-0.008636276
88	0x3d3e2552	0.04642231
89	0x3d1ac431	0.03778476
90	0xbd756fb6	-0.05992099
91	0xbde1038e	-0.10987006
92	0x3bf73aaa	0.007544835
93	0x3c11f76a	0.008909086
94	0xbc75072f	-0.014955326
95	0xbdddfcb2	-0.108392134
96	0xbc181fda	-0.009284938
97	0xbd4b5e4f	-0.049650487
98	0xbd8a64a4	-0.06757477
99	0xbcc77eb4	-0.024352409
100	0x3b2da220	0.002649434
101	0xbcf71a9c	-0.030164056
102	0xbca8ee90	-0.020621568
103	0xbcfb518e	-0.030678537
104	0xbda593ec	-0.080848545
105	0xbdaac70a	-0.08338745
106	0xbd147d79	-0.036252473
107	0xbd571f8c	-0.05252032
108	0xbdefe585	-0.11713699
109	0xbe02485f	-0.1272292
110	0xbe1dc810	-0.15408349
111	0xbe423857	-0.18966804
112	0xbe1403a8	-0.1445452
113	0xbd1e0552	-0.038579293
114	0xbd88ff90	-0.0668937
115	0xbdfbc290	-0.12292969
116	0xbd96a0bb	-0.07354876
117	0x3d608bc8	0.054820806
118	0xbd2f2bb1	-0.042766277
119	0xbd93d8bc	-0.07219073
120	0xbd2cca9a	-0.042185403
121	0x3cb6219d	0.022232825
122	0xbd0d754b	-0.034535687
123	0x3d45bd64	0.04827632
124	0x3d95fd43	0.073236965
125	0x3d6ee1ab	0.058320682
126	0xbd657fea	-0.05603019
127	0xbc83ad7e	-0.016073938
128	0xbd36cbe3	-0.044628035
129	0xbe1b005c	-0.15136856
130	0xbd9b0b51	-0.07570518
131	0xbdaf3e66	-0.085568234
132	0xbd42ec19	-0.04758844
133	0xbdc5c177	-0.09656041
134	0xbdba83f9	-0.09107203
135	0xbd8429e7	-0.06453305
136	0xbd02a92e	-0.031899624
137	0xbd2bbc68	-0.041927725
138	0x3d05d719	0.032675836
139	0x3d2c15c6	0.042012952
140	0x3d74c3d7	0.05975708
141	0xbc70abf5	-0.014689435
142	0x3d29bad0	0.041437924
143	0x3bcddab9	0.0062821773
144	0x3d75223c	0.0598471
145	0x3c7c6145	0.01540405
146	0xbd2e2088	-0.042511493
147	0x3d4c0ce3	0.049816977
148	0xbc8a1774	-0.016856886
149	0xbd1e3e23	-0.038633477
150	0x3d3a82ea	0.045535006
151	0xbca1fc37	-0.019773586
152	0xbd3da4ff	-0.04629993
153	0xbca33b64	-0.01992578
154	0x3d91bc4d	0.07115994
155	0xbd9ea919	-0.077470966
156	0x3bfc2caf	0.0076957564
157	0xbcc965cf	-0.024584679
158	0x3c7e6df4	0.015529145
159	0xbcad2c6c	-0.021139346
160	0x3d7c05ff	0.061529156
161	0x3c56159f	0.013066678
162	0xbd77d878	-0.060509175
163	0xbdba8862	-0.09108044
164	0xbdbf1d50	-0.09331763
165	0xbe1dff0c	-0.15429324
166	0xbe226432	-0.15858534
167	0xbd5a114d	-0.053239156
168	0xbdef6b47	-0.116903834
169	0xbe118a07	-0.1421281
170	0xbddae467	-0.106880955
171	0x3d8ecc6b	0.069725834
172	0x3d653347	0.055957105
173	0x3d1cd0bb	0.038285
174	0xbcbb6230	-0.022873968
175	0xb73dc780	-1.1311728e-05
176	0xbb871718	-0.004122626
177	0x3b38ef39	0.002821876
178	0x3d8a7e75	0.06762401
179	0xbd868a98	-0.065694034
180	0xbd095ab6	-0.033533774
181	0x3d338359	0.043826435
182	0xbc109a8d	-0.00882591
183	0x3d358b49	0.044322286
184	0x3dbaf6c9	0.09129102
185	0x3d8e2a6c	0.06941685
186	0x3d469f75	0.048491914
187	0x3dbfecf2	0.093713656
188	0x3d0d89b0	0.034555137
189	0x3dba843e	0.091072544
190	0xbb92692c	-0.004468104
191	0xbc8aa4f9	-0.016924368
192	0x3d694865	0.056953806
193	0x3d000a88	0.031260043
194	0xbd85b81f	-0.06529259
195	0x3cb7e1be	0.02244651
196	0xbd3229b6	-0.04349681
197	0xbdf5cf1a	-0.12002392
198	0x3d6af126	0.057358883
199	0xbd361aa9	-0.04445902
200	0xbcd2b6e3	-0.025721973
201	0x3cae78eb	0.021297893
202	0xbd018bd2	-0.031627484
203	0x3c9954f0	0.01871726
204	0x3c8e2679	0.01735233
205	0x3c2fc9fb	0.010729308
206	0x3d6d944c	0.058002755
207	0x3c0cc6ac	0.008592289
208	0xbcec4bd0	-0.028844744
209	0xbc30813f	-0.010773002
210	0xbd5fe0a4	-0.054657593
211	0xbd4d1a00	-0.050073624
212	0xbad70732	-0.0016405343
213	0xbd1fcd9b	-0.03901444
214	0x3c500397	0.012696168
215	0xbd662c0e	-0.056194358
216	0x3d4e4f93	0.050368857
217	0xba29c710	-0.0006476501
218	0x3d72a58a	0.0592399
219	0x3d590390	0.052981913
220	0xbcf50a86	-0.029912245
221	0xbd9e71aa	-0.077365234
222	0x3cf319bf	0.029675363
223	0x3cb9a4a4	0.022661515
224	0xbddb7a30	-0.10716665
225	0x3c348211	0.011017338
226	0x3dc46a17	0.095905475
227	0x3d0b8b6e	0.034068517
228	0x3d7bb6f3	0.06145377
229	0xbc864162	-0.016388599
230	0xbd5c94ac	-0.053852722
231	0x3e01a11d	0.12659116
232	0x3d09327f	0.033495422
233	0xbdc65450	-0.0968405
234	0xbc9a54ef	-0.018839328
235	0xbd3163b5	-0.04330798
236	0x3bbff56d	0.0058581145
237	0xbd2b41c3	-0.041810762
238	0x3d6d98ce	0.058007054
239	0x3c56360b	0.013074408
240	0x3cfcb011	0.030845674
241	0x3b70736b	0.0036689888
242	0x3dbbec1d	0.091758944
243	0x3be6f651	0.007048406
244	0xbc6e7042	-0.014553132
245	0xbd206c07	-0.039165523
246	0x3c68b69e	0.014203696
247	0x3d9aff3b	0.075682126
248	0xbdcbaca8	-0.09945041
249	0x3dd212b3	0.10257473
250	0xbcb1f9b1	-0.021725507
251	0xbd62f97d	-0.05541371
252	0xbd1dc03a	-0.0385134
253	0x3ce9b816	0.028530162
254	0xbc66e054	-0.01409157
255	0xbbf3738a	-0.007429545

cnn.6.bias f4 [64]
0	0x3d25c922	0.04047502
1	0x3babee94	0.0052469466
2	0x3d872b4d	0.06600056
3	0x3dcb6804	0.09931949
4	0x3d267795	0.040641386
5	0x3bda01f0	0.006653063
6	0x3d121021	0.035659913
7	0x3d8119c3	0.06303742
8	0xbcb3c8d5	-0.02194635
9	0x3d86ca6e	0.06581579
10	0x3cdf2288	0.027238145
11	0x3d4baf63	0.04972781
12	0x3da02232	0.07819022
13	0x3d166dca	0.036725797
14	0xbc013f1e	-0.0078885835
15	0x3c26b4c1	0.010174931
16	0xbc2b9946	-0.010473555
17	0x3caf8179	0.021424042
18	0xbc9d6750	-0.019214302
19	0x3ccb0a00	0.024785042
20	0xbd0ff7fe	-0.035148613
21	0x3cfcb6c8	0.030848876
22	0x3c356c98	0.011073254
23	0x3d10de0f	0.03536802
24	0x3d75d272	0.06001515
25	0xbd01839c	-0.031619653
26	0xbcc5f1a0	-0.024163067
27	0x3d731f38	0.059355944
28	0x3d9d45c9	0.07679326
29	0x3d9fcd40	0.0780282
30	0x3d1464c8	0.036228925
31	0xbcfb9629	-0.03071125
32	0x3d6bf64e	0.05760794
33	0x3c9cb30e	0.019128349
34	0xbc68fd52	-0.0142205525
35	0xbd4c388d	-0.04985862
36	0xbba0b3b1	-0.0049042334
37	0x3d4ad941	0.049523596
38	0x3b2234b5	0.0024750654
39	0x3d671810	0.056419432
40	0x3bb50489	0.0055242223
41	0x3c69c429	0.01426796
42	0x3d883d86	0.0665236
43	0x3c6578d7	0.014005861
44	0xbce01be0	-0.027357042
45	0x3d5f2085	0.054474372
46	0xbd69b49a	-0.057057
47	0x3d9f5881	0.07780553
48	0x3c94580c	0.01810839
49	0x3d60a860	0.054848075
50	0xbb64deae	-0.0034922766
51	0x3d939ba9	0.07207424
52	0x3bde2a14	0.0067799184
53	0x3d2cf413	0.042224955
54	0x3d5e095f	0.054208156
55	0x3d485bbf	0.04891562
56	0x3dbf4a9e	0.09340404
57	0x3d418082	0.047241695
58	0xbc54b9b6	-0.01298373
59	0x3d0107db	0.031501632
60	0x3d05fc58	0.032711357
61	0x3d900466	0.07032089
62	0x3d498088	0.049194843
63	0xb960d7fd	-0.00021442767

cnn.8.weight f4 [64, 64, 3, 3]
0	0x3b44ce2f	0.0030030122
1	0x3d739ef6	0.05947777
2	0x3b8c725b	0.004286093
3	0x3da4682b	0.08027681
4	0xbc1547b3	-0.009111333
5	0x39193131	0.00014609542
6	0x3d7d5a48	0.061853677
7	0xbc129e91	-0.008948938
8	0x3c1067ad	0.008813781
9	0xbc7f01fb	-0.015564437
10	0xbdfb039e	-0.12256549
11	0xbdb44143	-0.0880151
12	0x3c745f59	0.014915311
13	0xbc7e0499	-0.015504026
14	0xbdaff997	-0.08592527
15	0x3c9f6727	0.019458367
16	0xbd8de51c	-0.06928465
17	0xbcd3f7f3	-0.025875067
18	0x3c0b9968	0.008520462
19	0x3d3af4a8	0.04564348
20	0x3b1a8dab	0.0023582976
21	0xbcc438ea	-0.02395292
22	0x3b4e4af8	0.003147779
23	0x3bfe689f	0.0077639367
24	0x3bb675e9	0.005568255
25	0xbcba0bcd	-0.022710705
26	0xbcf3ca19	-0.029759454
27	0xbb2b2a60	-0.0026117787
28	0x3d1d22ed	0.038363386
29	0x3d13acaa	0.036053337
30	0xbbd59b9e	-0.006518795
31	0x3a2a2cf6	0.0006491685
32	0xbb3ca688	-0.0028785784
33	0xbc7d5345	-0.015461748
34	0xbd4859c2	-0.048913725
35	0xbda5004a	-0.08056696
36	0x3c992c62	0.018697921
37	0xbb2bc0ad	-0.0026207373
38	0x3d076aed	0.033060957
39	0x3ca490f9	0.02008866
40	0xbd12409e	-0.035706155
41	0xbc126938	-0.008936219
42	0xbd9e46f4	-0.07728377
43	0x3a2ec0b5	0.0006666289
44	0xbc94739c	-0.018121533
45	0x3c1cd7c2	0.009572925
46	0x3c8d68d4	0.0172619
47	0xbcab5e04	-0.020918854
48	0xbb61d64b	-0.0034460004
49	0xbc4aa2b4	-0.012367893
50	0xbc9d262e	-0.019183245
51	0xbd9816b3	-0.074262045
52	0xbc87dced	-0.016584838
53	0xbd401e9f	-0.046904203
54	0xbc810a3c	-0.01575195
55	0x3d174570	0.036931455
56	0x3c8db1a1	0.017296614
57	0x3d791615	0.060812075
58	0x3ca606f0	0.02026698
59	0xbc93d7d3	-0.018047249
60	0x3dfc4a30	0.12318838
61	0x3d7dcbb2	0.061961837
62	0xbcf5d353	-0.030007994
63	0xbcacb5de	-0.021082815
64	0xbb8a5d5a	-0.004222554
65	0x3b137de8	0.0022505466
66	0x3b521883	0.0032058067
67	0xbd6fda8e	-0.05855804
68	0xbd3a3ce5	-0.04546823
69	0x3d304720	0.04303658
70	0x3d004fdd	0.031326164
71	0x3d173bc1	0.03692222
72	0xbce7388b	-0.028225204
73	0xbd4f1db1	-0.050565425
74	0x3c92dda6	0.017927956
75	0x3c69c90f	0.0142691275
76	0x3c4f2e37	0.012645296
77	0x3cf487a5	0.029849837
78	0xbd586855	-0.052833874
79	0x3cb2e15a	0.021835972
80	0xbcfaa35a	-0.03059547
81	0x3d110874	0.035408452
82	0xbd2c1ce4	-0.04201974
83	0x3c756f5c	0.014980163
84	0xbb9f41ec	-0.0048601534
85	0x3d51ccb1	0.0512206
86	0xbca76331	-0.02043304
87	0x3ce96f1b	0.028495362
88	0xbc9957c5	-0.01871861
89	0xbc6ff15e	-0.014644949
90	0xbccef919	-0.025265263
91	0xbd80701c	-0.06271383
92	0xbdb2d855	-0.08732668
93	0xbb71efaf	-0.0036916544
94	0x3c07287f	0.008249401
95	0x3cd6f4d6	0.026239794
96	0xbc361390	-0.0111130625
97	0x3d7e4272	0.062075086
98	0xbbff7f52	-0.00779716
99	0xbd84f658	-0.06492299
100	0xbd53d9dd	-0.051721442
101	0x3d085ddd	0.03329264
102	0xbb98c63d	-0.0046623037
103	0x3d5f8195	0.05456694
104	0xbc17d5a2	-0.009267243
105	0xbc37620d	-0.011192811
106	0x3d310d68	0.043225676
107	0x3d440fdf	0.0478667
108	0x3d3807bf	0.044929262
109	0x3d3a353e	0.045460932
110	0xbbab0e2c	-0.0052201953
111	0x3c400415	0.011719723
112	0x3cbd7b51	0.02313009
113	0x3d9312b0	0.07181299
114	0xbcf495e1	-0.029856624
115	0xbd0f4cc5	-0.034985323
116	0xbd111fdb	-0.03543077
117	0x3bd597f2	0.0065183574
118	0x3ce396d3	0.02778188
119	0x3d0fd09d	0.03511106
120	0x3cdfa22d	0.027299011
121	0x3c5a6955	0.013330777
122	0xbd4458ed	-0.04793637
123	0x3d94f218	0.07272738
124	0x3cf8e327	0.030381752
125	0xbcc4ac19	-0.024007844
126	0xbc2bf9c7	-0.010496563
127	0xbd29f190	-0.041490138
128	0xbdc303ab	-0.09522184
129	0x3d554ce9	0.0520753
130	0x3c840d6a	0.016119678
131	0xbd55ccfd	-0.052197445
132	0xbc4bf18d	-0.012447727
133	0xbcfb4b1e	-0.030675467
134	0xbda7ddb1	-0.08196581
135	0xbd0c8eae	-0.034315757
136	0xbd97b78f	-0.07408058
137	0xbd5f59bb	-0.054528933
138	0xbd32b097	-0.04362544
139	0xbca7d804	-0.020488746
140	0xbcb95ccd	-0.022627259
141	0xbd12ea18	-0.03586778
142	0x3d313674	0.04326482
143	0xbc4320bc	-0.01190966
144	0xbd2d6828	-0.04233566
145	0x38acc371	8.238003e-05
146	0xbcb96521	-0.02263123
147	0xbabb01e5	-0.0014267532
148	0x3cc3e990	0.023915082
149	0xbc1acebd	-0.009448704
150	0x3d937ad6	0.072011635
151	0x3d941b8a	0.07231815
152	0xbc0656aa	-0.008199373
153	0x3c9bc3f5	0.019014338
154	0xbc5f17a0	-0.0136164725
155	0xbdfe2c78	-0.124108255
156	0x3d1bce73	0.038038682
157	0xbd296cbb	-0.04136346
158	0xbcad1dd2	-0.021132383
159	0x3cc831a9	0.024437742
160	0x3cd98d74	0.026556708
161	0x3c05da44	0.008169714
162	0xbc68a219	-0.014198803
163	0xbd826be4	-0.06368235
164	0xbdd95df5	-0.10613624
165	0xbcc8bdd9	-0.024504589
166	0xbbfbd508	-0.0076853074
167	0xbc07b712	-0.008283393
168	0x3c201fdd	0.009773222
169	0x3beb6111	0.007183202
170	0xbcb41e37	-0.021987064
171	0xbc89e123	-0.016830986
172	0xbd097ac8	-0.03356436
173	0xbceccd23	-0.02890641
174	0x3c9cbde4	0.019133516
175	0x3cb081dd	0.021546299
176	0xbda477ab	-0.08030637
177	0x3d41db06	0.047328018
178	0x3cad2bd0	0.021139055
179	0xbc3e1059	-0.011600577
180	0x3bed2e49	0.0072381836
181	0x3bf17a8e	0.007369346
182	0xbdb9fa6a	-0.09080966
183	0x3ce06fe6	0.027397107
184	0x3d77a069	0.060455713
185	0x3be71e61	0.007053182
186	0x3ce1f4a1	0.027582468
187	0x3d363a15	0.044488985
188	0x3c4e1d7d	0.012580273
189	0xbdba7d0b	-0.09105881
190	0xbd1fc852	-0.0390094
191	0xbd88cc1c	-0.06679556
192	0xbd6f7a20	-0.058466077
193	0xbd6037e8	-0.054740816
194	0xbd832a3e	-0.064045414
195	0xbde161da	-0.11004992
196	0xbcf7b895	-0.030239383
197	0xbc678683	-0.014131191
198	0xbdade4e4	-0.08490923
199	0xbc535030	-0.012897536
200	0x3d142935	0.03617211
201	0xbd88f3bb	-0.06687113
202	0xbd13ced6	-0.036085926
203	0xbc918a04	-0.017766006
204	0xbccd07a3	-0.025028056
205	0xbce66301	-0.02812338
206	0x3d174886	0.036934398
207	0x3ce96a92	0.0284932
208	0x3d7f7efe	0.06237697
209	0x3d968086	0.07348733
210	0x3c7d8049	0.01547248
211	0x3d0e1a6c	0.034693167
212	0x3bfffe17	0.0078122723
213	0xbc7948c6	-0.015215104
214	0x3d966feb	0.073455654
215	0x3d9eab17	0.077474765
216	0xbc7447e0	-0.014909714
217	0xbc6046b9	-0.013688737
218	0xbd0c5e88	-0.03426984
219	0xbcbd9c47	-0.023145808
220	0x3b297b8e	0.0025860998
221	0xbca030ae	-0.019554462
222	0xbd87a775	-0.06623737
223	0xbd377c6d	-0.044796396
224	0xbce10f13	-0.027473008
225	0xbc913cf8	-0.017729267
226	0x3d1513b0	0.03639573
227	0x3c438d60	0.011935562
228	0xbd1ee434	-0.03879185
229	0xbb6b22eb	-0.0035878967
230	0x3a0996ec	0.00052486244
231	0x3cf94313	0.030427491
232	0x3c297c2b	0.010344545
233	0x3c1ed9d4	0.009695489
234	0xbd269133	-0.040665817
235	0xbd2a60c2	-0.04159618
236	0xbdbc5a11	-0.09196866
237	0x3d04fd30	0.03246802
238	0x3ce8ce72	0.028418753
239	0xbda3fadc	-0.08006832
240	0x3c922af9	0.017842757
241	0xbbb49968	-0.0055114515
242	0xbcc54f58	-0.024085686
243	0xbc445cb6	-0.011984995
244	0xbd64fd6b	-0.05590574
245	0xbd1312d3	-0.035906624
246	0x3d22382b	0.039604347
247	0xbc95999e	-0.018261727
248	0xbd544af0	-0.05182928
249	0x3c5374e1	0.012906284
250	0xbbfdc5a8	-0.0077445097
251	0xbd156305	-0.036471386
252	0xbd77938f	-0.060443457
253	0xbd437cca	-0.04772643
254	0xbcfaafa8	-0.030601338
255	0xbd8524f7	-0.06501191

cnn.8.bias f4 [64]
0	0x3cd4ac55	0.02596108
1	0x3a3fe9b8	0.00073208986
2	0xbc87c80e	-0.016574886
3	0x3d2c2e3a	0.042036273
4	0xbd3e2f97	-0.046432104
5	0x3d098a7e	0.033579342
6	0xbb9a6cf8	-0.004712697
7	0x3bb0ded6	0.005397658
8	0x3c34223a	0.010994488
9	0xbd15034e	-0.036380105
10	0x3cec61c3	0.02885521
11	0x3c495f6a	0.012290815
12	0xbd408f20	-0.047011495
13	0x3c7c5b2e	0.015402598
14	0xba4224b8	-0.0007405984
15	0xba54275a	-0.0008093022
16	0xbd220ff9	-0.039566014
17	0xbcbf4380	-0.023347616
18	0xbd0ce835	-0.034401137
19	0xbd2ead20	-0.042645574
20	0xbd18388a	-0.037163295
21	0xbc6df066	-0.0145226475
22	0xbd06d6e8	-0.032919794
23	0xbc3768ef	-0.011194452
24	0x3d880d0d	0.06643114
25	0x3d5b288d	0.05350547
26	0x3bf21e7a	0.007388887
27	0x3d15186b	0.03640024
28	0xbd2c69ab	-0.04209296
29	0xbb262dc3	-0.0025356866
30	0x3daa561a	0.08317204
31	0x3b3d7c84	0.0028913328
32	0x3d16dac5	0.03682973
33	0x3d116760	0.035498977
34	0x3d981423	0.07425716
35	0xbd549140	-0.051896334
36	0x3a0e6321	0.00054316415
37	0xbc8d6c0b	-0.017263433
38	0xbc440c93	-0.011965889
39	0x3cc926f5	0.024554709
40	0x3d1edeb5	0.03878661
41	0xbd6caee2	-0.05778397
42	0xbb9b70c0	-0.0047436655
43	0xbb8a7f38	-0.0042265914
44	0x3d3179f2	0.043329187
45	0xbb821896	-0.003970216
46	0x3d67e8cd	0.0566185
47	0xbd331f19	-0.04373083
48	0xbc8b1c62	-0.016981307
49	0xbd5189fa	-0.051156975
50	0xbd4ede31	-0.050504867
51	0x3cafcfe0	0.021461427
52	0xbc3d5bfd	-0.011557576
53	0x3cd37ba8	0.0258158
54	0x3d11427c	0.035463795
55	0x3c930de0	0.017950952
56	0xbc454e6b	-0.012042622
57	0xbd0ce45e	-0.034397475
58	0xbb807855	-0.0039205947
59	0x3cb442f4	0.022004582
60	0x3c46ed93	0.012141603
61	0x3c1e7691	0.009671823
62	0x3c307c6e	0.010771854
63	0xbbd6e494	-0.0065580104

classifier.0.weight f4 [256, 576]
0	0xbc35a4ed	-0.011086685
1	0xbce70d9c	-0.028204732
2	0x3d8ad32a	0.067785576
3	0xbd0de80c	-0.034645125
4	0xbcc75439	-0.024332153
5	0x3cf78218	0.0302134
6	0xbd390dde	-0.04517924
7	0xbae65b02	-0.001757473
8	0xbd84faf1	-0.06493176
9	0x3d83f274	0.06442729
10	0x3dbec9f7	0.093158655
11	0x3d824c1c	0.06362173
12	0xbd37a883	-0.04483844
13	0xbc84594e	-0.016155865
14	0xbcddfd66	-0.027098369
15	0xbd6f68de	-0.05844962
16	0xbcdad584	-0.02671314
17	0xbd055b36	-0.03255769
18	0x3d4d738b	0.05015902
19	0x3cb2cac2	0.021825198
20	0x3da736ca	0.08164747
21	0x3d6118c5	0.054955263
22	0x3cb8c7a0	0.022556126
23	0x3d8f9d42	0.070124164
24	0x3db08948	0.08619934
25	0x3ddd7c75	0.10814754
26	0x3d9674ca	0.073464945
27	0xbd89efea	-0.06735213
28	0xbd9c1b4a	-0.076223925
29	0x3ce72d3c	0.028219812
30	0x3cce860c	0.025210403
31	0xbd963983	-0.07335188
32	0xbd7a7354	-0.06114514
33	0x3c6c2c2f	0.014414831
34	0xbc8967dc	-0.016773157
35	0xbda9f3db	-0.08298465
36	0x3d13f59b	0.0361229
37	0x3dc795f9	0.09745402
38	0x3d5ff76c	0.05467932
39	0xbd2e545f	-0.04256093
40	0xbd93b00b	-0.07211312
41	0xbc690dd1	-0.0142244855
42	0xbd97feca	-0.07421644
43	0x3baa072f	0.0051888446
44	0x3d2fd193	0.042924475
45	0x3decf11f	0.11569428
46	0x3dc8fdf9	0.098140664
47	0x3d5136b6	0.051077567
48	0x3da6e3c3	0.08148911
49	0x3c075114	0.008259077
50	0x3d9d3293	0.07675662
51	0x3c3659cf	0.0111298105
52	0x3c98d7b7	0.018657548
53	0x3d4c1a3a	0.0498297
54	0xbd8517c9	-0.06498677
55	0xbd75de1a	-0.060026266
56	0xbd649f29	-0.05581585
57	0xbd37744e	-0.04478865
58	0xbc89efeb	-0.016838035
59	0xbd3ef615	-0.0466214
60	0xbd077103	-0.03306676
61	0xbd04678e	-0.03232532
62	0x3cca71c0	0.024712443
63	0x3d9a4fdb	0.075347625
64	0x3dc300d2	0.09521641
65	0x3d800455	0.06250826
66	0xbca8a73a	-0.020587552
67	0xbca7693c	-0.020435922
68	0x3d0c0697	0.034185972
69	0xbb9f3d2f	-0.0048595886
70	0xbbbed2f0	-0.0058234856
71	0x3a9e07ac	0.001205673
72	0x3bdfcdf0	0.0068299696
73	0x3ce979b3	0.028500414
74	0x3d4f70be	0.05064463
75	0x3c614dd2	0.013751464
76	0x3c5956b1	0.013265298
77	0x3d8dc5cf	0.069224946
78	0xbd66414a	-0.05621461
79	0xbc0330a5	-0.008007203
80	0x3c6176d6	0.013761243
81	0xbc967666	-0.018367004
82	0x3b594c76	0.0033157147
83	0xbb947c88	-0.004531447
84	0xbd8de749	-0.0692888
85	0xbcefb270	-0.02925989
86	0xbd82d485	-0.06388191
87	0xbcc28555	-0.023745218
88	0x3c8f5435	0.017496208
89	0xbd3230f2	-0.04350371
90	0x3d3fef1a	0.046858884
91	0xbcb3090c	-0.0218549
92	0x3d4fb7e0	0.050712466
93	0xbd265b7b	-0.040614586
94	0xbcc49ae0	-0.023999631
95	0x3daa7e27	0.08324843
96	0x3b0f02cc	0.0021821735
97	0xbbcee68a	-0.0063141035
98	0x3da2dc66	0.07952194
99	0x3b8b2736	0.0042466177
100	0xbd2c1cf8	-0.042019814
101	0x3d27365a	0.040823318
102	0xbd1cb08e	-0.038254313
103	0xbcfddcc5	-0.03098906
104	0x3cfe9a0b	0.031079313
105	0x3d80f405	0.06296543
106	0x3daca16b	0.084292255
107	0x3e2ca8cd	0.16861267
108	0xbca2168b	-0.01978614
109	0x3ca9231a	0.02064662
110	0x3c8a1fa8	0.016860798
111	0x3cf2c13e	0.02963316
112	0xbd404388	-0.046939403
113	0xbc84d807	-0.016216291
114	0xbc6b4c59	-0.014361464
115	0xbc8c1139	-0.017098056
116	0xbd58933a	-0.05287478
117	0x3db48353	0.088141106
118	0x3d408759	0.047004078
119	0x3db4879f	0.0881493
120	0x3d0ea124	0.034821644
121	0x3c7f6a21	0.015589268
122	0xbda2e98e	-0.07954703
123	0x3ce099a1	0.027417006
124	0xbc4d541f	-0.012532263
125	0xbd9e0b5c	-0.077170104
126	0x3c29b483	0.010357979
127	0xb948b229	-0.00019139856
128	0x3d004b03	0.031321537
129	0xbc1ef2c4	-0.0097014345
130	0x3cfd4dd3	0.030920899
131	0xbc0b1251	-0.008488254
132	0xbd958306	-0.07300381
133	0xbc3a085c	-0.011354532
134	0x3ca2787b	0.01983284
135	0xbc0aa619	-0.008462452
136	0x3d4ac4ef	0.049504217
137	0x3c92d7c0	0.017925143
138	0xbcc7f85a	-0.024410415
139	0x3cb15e04	0.021651275
140	0x3cec904a	0.028877396
141	0xbd201182	-0.039079197
142	0x3bdedd37	0.006801273
143	0x3a688a01	0.0008870662
144	0x3b3350db	0.0027361426
145	0xbbe7d2c1	-0.0070746844
146	0x3ca51a76	0.02015422
147	0x3c770d4d	0.015078855
148	0x3cb4e4ea	0.022081811
149	0xbd72f93e	-0.059319727
150	0x3bd33519	0.0064455387
151	0xbdc34ecc	-0.09536514
152	0xbe0fa0bb	-0.14026158
153	0xbbd4f7ce	-0.006499267
154	0xbd1894ff	-0.03725147
155	0x3dbe1ba0	0.09282613
156	0x3c8cf798	0.017207906
157	0x3d2c2f3e	0.04203724
158	0x3dac145a	0.08402319
159	0x3ba87358	0.005140703
160	0xbac0918e	-0.0014691816
161	0x3ca3dd53	0.020002997
162	0xbdd3993f	-0.10331964
163	0xbd90ed1a	-0.070764735
164	0xbd0507b0	-0.032478034
165	0xbd6d54ad	-0.05794208
166	0x3ced5784	0.028972395
167	0xbb817037	-0.0039501446
168	0x3d0b05e3	0.03394116
169	0x3d63bc6e	0.055599622
170	0x3d421dcb	0.047391694
171	0xbd1df609	-0.038564716
172	0xbc85cf82	-0.016334299
173	0xbd622a84	-0.055216327
174	0xbcdab4f2	-0.02669761
175	0xbb93a7fc	-0.0045061093
176	0xbd293447	-0.04130962
177	0x3bb8ed0a	0.0056434916
178	0x3d37375c	0.04473053
179	0x3cdc760b	0.026911756
180	0x3cc346ec	0.02383753
181	0xbd218437	-0.03943273
182	0xbd4c6dc9	-0.049909387
183	0xbce7ee4f	-0.028311877
184	0xbc049114	-0.00809123
185	0xbd1f3901	-0.038872723
186	0xbd44db5d	-0.048060764
187	0x3caf43c0	0.02139461
188	0x3ceec77a	0.029147852
189	0x3d589810	0.052879393
190	0x3c0ca143	0.00858337
191	0x3d4d445e	0.05011403
192	0x3c2952d7	0.010334692
193	0x3d2d3aef	0.04229253
194	0x3dbb9eea	0.0916117
195	0x3d9c0193	0.07617488
196	0x3d00ee24	0.03147711
197	0x3da1ea77	0.07906049
198	0x3d194dcb	0.037427705
199	0x3cc4ab9a	0.024007607
200	0x3c3b847c	0.011445161
201	0x3c5b307c	0.013378259
202	0x3c26ecb3	0.010188269
203	0x3d0b17cd	0.033958245
204	0x391e4d76	0.0001509691
205	0xbd4c97e9	-0.04994956
206	0xbd0eff28	-0.034911305
207	0xbc975f30	-0.018478006
208	0xbced44e5	-0.028963516
209	0x3d567abf	0.052363154
210	0xbcd7f8dc	-0.026363783
211	0x3bc46e5b	0.0059946007
212	0x3b6f482a	0.003651152
213	0xbca3858f	-0.019961147
214	0x3cff58ed	0.031170333
215	0x3c98f384	0.018670805
216	0x3da080c8	0.07837063
217	0x3d89622e	0.067081794
218	0x3c9cd9f3	0.019146895
219	0x3dacc2fd	0.084356286
220	0xbcb3a545	-0.021929393
221	0x3c725399	0.014790439
222	0x3d812a8b	0.063069426
223	0xbba1f89d	-0.004942967
224	0xbbc58456	-0.0060277386
225	0x3b386954	0.0028138952
226	0xbd8baf77	-0.06820577
227	0xbab518e2	-0.001381662
228	0xbbccaa4c	-0.006245887
229	0xbda78bc5	-0.08180956
230	0xbd5485b6	-0.05188533
231	0x3cb91b5a	0.02259605
232	0xbd1f7199	-0.038926695
233	0xbb1abfd3	-0.0023612871
234	0x3ceb227e	0.02870297
235	0xbd078fed	-0.033096243
236	0xba432424	-0.0007444045
237	0xbb95e2b2	-0.0045741433
238	0xbb1e62de	-0.0024167816
239	0x3d3735dc	0.0447291
240	0x3d6d1941	0.057885412
241	0x3d938fa2	0.0720513
242	0x3e1a752c	0.1508376
243	0x3c26e2c5	0.010185902
244	0xbd453b00	-0.04815197
245	0xbd61bcdb	-0.055111747
246	0x3c4c2192	0.012459176
247	0xbc804902	-0.015659813
248	0xbc3b8c6c	-0.011447053
249	0x3c078ebb	0.008273776
250	0xbcb2168b	-0.021739265
251	0xbcfa3f05	-0.030547628
252	0xbc41a639	-0.011819416
253	0xbca6ad6c	-0.020346366
254	0xbc9d87c8	-0.019229785
255	0x3a712cc9	0.0009200094

classifier.0.bias f4 [256]
0	0x3cad7163	0.021172231
1	0x3d8e59a4	0.06950691
2	0xba0a6d1b	-0.000528054
3	0x3c898e50	0.016791493
4	0xbc2e1bbd	-0.0106267305
5	0x3c0acd70	0.008471832
6	0x3c69634b	0.014244865
7	0xbcb24d3b	-0.021765342
8	0xbcdcea85	-0.026967296
9	0xbd8c4ccc	-0.06850585
10	0x3c9347b1	0.017978521
11	0xbd04f1f6	-0.032457314
12	0x3d882e18	0.06649417
13	0xbc04ad63	-0.008097979
14	0x3d386f7a	0.045028187
15	0x3bdf6ec9	0.0068186265
16	0x3c0c9fa5	0.008582984
17	0x3cdfe7ee	0.027332272
18	0xbd7795b8	-0.060445517
19	0xbc9134c6	-0.01772536
20	0x3cf5bbeb	0.029996833
21	0xbcf1d76d	-0.029521668
22	0xbb310633	-0.0027011752
23	0x3d50e9b1	0.051004115
24	0x3d398ac2	0.045298345
25	0xbcad2142	-0.021134023
26	0x3cf7baf7	0.030240519
27	0xbc305846	-0.0107632335
28	0x3d2b84f6	0.04187485
29	0xbca85553	-0.020548498
30	0xbcb3e4d1	-0.021959694
31	0x3c8a4e0a	0.016882915
32	0x3d8b5cc3	0.06804802
33	0x3bba670b	0.005688553
34	0x3b40fa9b	0.0029446247
35	0x3d12d805	0.035850544
36	0x3ce141e2	0.027497236
37	0xbd760be2	-0.060069926
38	0xbd20ea2c	-0.039285824
39	0xbb7b9e71	-0.0038394
40	0xbcfadbc5	-0.030622372
41	0xbcad9ef5	-0.02119396
42	0xbb282186	-0.0025654747
43	0x3a0a0e70	0.00052664336
44	0xbb24e622	-0.0025161584
45	0xba16409a	-0.0005731672
46	0xbc0bee7b	-0.008540745
47	0x3c41a1dd	0.011818376
48	0x3bd66775	0.0065430948
49	0x3ce4458f	0.0278652
50	0xbcddf610	-0.02709487
51	0x3cd6d76c	0.026225768
52	0xbc843fc0	-0.01614368
53	0xbbbf6e29	-0.0058419895
54	0xbbdcf001	-0.006742478
55	0x3cb2f84b	0.021846911
56	0x3c0a4838	0.00844007
57	0xbc46482d	-0.012102169
58	0x396519b9	0.00021848724
59	0xbc82b8b1	-0.015957208
60	0xbce32f4c	-0.027732514
61	0x3cc3dbbb	0.023908487
62	0x3d29c975	0.04145189
63	0xbd0acb2c	-0.033885166
64	0xbd96db09	-0.073659964
65	0x3d1213cc	0.03566341
66	0x3d2d002c	0.042236492
67	0xbd252b60	-0.04032457
68	0xbbb61ab1	-0.005557381
69	0xbd497b36	-0.04918977
70	0x3bccf42a	0.0062546926
71	0xbc4ef335	-0.012631227
72	0xbc54a3bb	-0.0129784895
73	0x3d0fd322	0.03511346
74	0x3b6af4ae	0.0035851407
75	0xbc230a41	-0.009951175
76	0x3d3ab47f	0.04558229
77	0x3bddd384	0.0067695994
78	0x3c33d9b7	0.0109772
79	0xbc2bbe33	-0.010482359
80	0xbc492556	-0.012276968
81	0x3d319b6e	0.04336112
82	0x3c22997f	0.009924292
83	0xbcb3df16	-0.021956962
84	0x3cdf22f7	0.027238352
85	0x3cafafea	0.021446187
86	0xbd09bcdf	-0.033627387
87	0x3c4577fb	0.012052531
88	0xbd2abd64	-0.041684523
89	0xbc81de06	-0.01585294
90	0xbcbf122b	-0.023324093
91	0xbcc62379	-0.024186837
92	0xbd3c8d47	-0.04603317
93	0x3cd03d8a	0.02541997
94	0xbc84ce30	-0.0162116
95	0x3c60c7a3	0.013719472
96	0xbba13d43	-0.004920633
97	0xbccbe6f8	-0.024890408
98	0xbca7f88f	-0.020504264
99	0x3d3a1419	0.045429323
100	0x3d6593f9	0.05604932
101	0xbc81fc1e	-0.01586729
102	0x3c8355e9	0.016032176
103	0xbcddfc26	-0.027097773
104	0xbcbd9b68	-0.023145393
105	0x3d433395	0.047656614
106	0x3b24f488	0.0025170166
107	0x3c1b232f	0.009468838
108	0xbc65ac18	-0.014018081
109	0xbada59d7	-0.0016658854
110	0x3cd9325f	0.026513277
111	0xbcab4f3b	-0.020911803
112	0xbb421170	-0.0029612444
113	0x3cd8e162	0.026474658
114	0x3ca5fcc8	0.020262137
115	0x3ccf07b7	0.025272233
116	0xbc622e2f	-0.013804956
117	0x3c897e38	0.016783819
118	0x3dae91fb	0.08523937
119	0xbcf58085	-0.02996851
120	0x3cd32b6d	0.025777543
121	0x3cba0aa1	0.022710146
122	0xbd37f73c	-0.044913515
123	0xbd085b40	-0.033290148
124	0xbc90913d	-0.01764738
125	0xbd355361	-0.04426897
126	0xbd029b2e	-0.031886272
127	0x3d404384	0.046939388
128	0xbcd38835	-0.025821785
129	0xbceabec4	-0.028655417
130	0xbc54edec	-0.012996178
131	0x3ca9f792	0.020747934
132	0x3d24fd3e	0.040280573
133	0xbb0beabd	-0.0021349632
134	0x3d19f5f6	0.037588082
135	0xbd42528e	-0.04744201
136	0xbb51099f	-0.0031896604
137	0x3d64407a	0.055725552
138	0xbd14df66	-0.03634586
139	0xbd047a00	-0.03234291
140	0x3d33d732	0.043906398
141	0xbc0a09f1	-0.008425222
142	0x3ccf7740	0.025325418
143	0xbc991545	-0.0186869
144	0x3bb2c5fd	0.005455731
145	0x3bc3a13f	0.0059701498
146	0xbc9fd3c0	-0.01951015
147	0x3d55017e	0.052003376
148	0xbc7efccb	-0.0155632
149	0xbbda40cf	-0.006660558
150	0xba73841a	-0.0009289399
151	0xbb890cb7	-0.004182424
152	0xbc5a2964	-0.013315532
153	0x3cd65386	0.026162874
154	0x3c3c2e02	0.0114855785
155	0xbc64f86b	-0.013975243
156	0x3d727b83	0.05919982
157	0x3bd66c48	0.00654367
158	0xbb3b2f7f	-0.0028562245
159	0x3d7ffd3a	0.062497355
160	0x3d3ee349	0.046603475
161	0x39b2393c	0.0003399345
162	0x3c968391	0.018373283
163	0xbdb48b6d	-0.08815656
164	0xbcb85a29	-0.02250393
165	0xbd2f06ee	-0.042731218
166	0x3b89d1cc	0.004205918
167	0x3c34498f	0.011003866
168	0xbd79f675	-0.061026055
169	0xbda5e738	-0.08100742
170	0x3d0d1464	0.034443274
171	0x3b867af2	0.0041040117
172	0x3be4933e	0.0069755604
173	0x3ce5419d	0.027985388
174	0x3d322d3e	0.043500178
175	0xb9f7bfeb	-0.000472545
176	0x3c128eaa	0.008945147
177	0xbd288669	-0.04114381
178	0x3c6eb85b	0.014570321
179	0xbc2721ec	-0.010200959
180	0x3d21a544	0.03946425
181	0xbcff7472	-0.031183455
182	0xbce4f444	-0.027948506
183	0x3d61502c	0.0550081
184	0xbc91d9d2	-0.01780406
185	0xbd19a68f	-0.03751236
186	0x3cf5e0a4	0.030014344
187	0x3c8ee95b	0.017445257
188	0x3d29ed11	0.04148585
189	0xbca4a696	-0.020098966
190	0xbd088868	-0.033333212
191	0x3c03381c	0.008008983
192	0x3c73967e	0.014867423
193	0xbcdbe2f6	-0.026841622
194	0x3ce53dab	0.027983507
195	0xbc42a20b	-0.011879454
196	0xbd4e7d74	-0.05041261
197	0xbd729c6b	-0.059231203
198	0xbca856ac	-0.02054914
199	0x3ba4456e	0.0050131595
200	0xbd53f606	-0.051748298
201	0xbd1a62ba	-0.03769181
202	0xbb892ca9	-0.004186232
203	0x3dd223df	0.10260748
204	0x3d0505ab	0.03247611
205	0x3c565d26	0.013083732
206	0x3d657cfb	0.056027394
207	0x3d0bb768	0.034110457
208	0x3d696174	0.056977704
209	0x3d26450e	0.0405932
210	0x3c6a36d8	0.014295302
211	0xbd992c79	-0.074791856
212	0xbd3e18e6	-0.046410464
213	0x3d4aa8df	0.049477454
214	0x3b12e46f	0.002241399
215	0x3c09944f	0.008397176
216	0xbc62048f	-0.013795032
217	0xbb5ce15c	-0.003370366
218	0xbd6aa75d	-0.057288516
219	0x3d2d7c6d	0.04235499
220	0x3be95549	0.0071207625
221	0xbcce34ac	-0.0251716
222	0xbd6573c8	-0.05601862
223	0x3cd12314	0.025529422
224	0xbb0cf6af	-0.002150934
225	0xbd072498	-0.032993883
226	0x3bc7e0b9	0.006099787
227	0xbcd023de	-0.025407728
228	0xbce9e0dc	-0.028549604
229	0xbd34a478	-0.044102162
230	0x3d0e539d	0.03474771
231	0x3cef9137	0.029244049
232	0x3d033dc6	0.032041334
233	0x3c8ebae2	0.017423097
234	0xbcaf51a7	-0.02140124
235	0xbbd004f0	-0.006348245
236	0xbd0ff92a	-0.03514973
237	0x3d09a7ab	0.033607166
238	0x3c0998f2	0.008398281
239	0x3bea44d3	0.007149318
240	0xbd3629b5	-0.04447337
241	0xbca9b245	-0.020714888
242	0x395b2353	0.00020898627
243	0xbc7b0c72	-0.015322791
244	0x3d5bc844	0.053657785
245	0x3aff9a4d	0.0019500941
246	0x3d1edc66	0.038784407
247	0x3c49986b	0.012304406
248	0x3972f8ec	0.00023171649
249	0x3c9ab33b	0.018884292
250	0x3d1efe17	0.038816538
251	0xbd26e3ba	-0.04074452
252	0x3d337d51	0.043820683
253	0x3cdcde3b	0.026961436
254	0x3cc4e4fa	0.024034966
255	0xb9e19878	-0.00043028942
