model_weights/model_epoch_7.pth (torch, 34447 bytes, 10 tensors)

conv_block_1.0.weight f4 [10, 1, 3, 3]
000000 e6 b9 07 bf 30 50 bd 3d cd 2f 5b be 65 56 6f be
       -0.53018034 0.0924381 -0.21404953 -0.233728
000010 2c 2a ff bd 2d cc c1 3e 22 5c 2e bd a2 c0 d7 bd
       -0.124592155 0.37851086 -0.042568333 -0.10534789
000020 c7 f5 a0 bd 62 49 8a 3e 63 b2 6e bf 5a 5e 91 bf
       -0.07859378 0.27009112 -0.93240947 -1.1356919
000030 42 27 29 bd 52 c6 e2 be e2 7a f1 be 6e 7f 23 3f
       -0.041297205 -0.4429193 -0.47164065 0.6386632
000040 ce b9 b2 3e 00 4f 61 3f fb 8f 02 bd 78 68 f0 be
       0.34907383 0.8801117 -0.03187559 -0.46954703
000050 76 73 91 be e9 ba be be 68 65 82 bd f9 70 13 3f
       -0.28408402 -0.37251976 -0.06366998 0.5759426
000060 0a a2 87 be fb 20 cf 3e 0d 33 ba 3e 30 ed 0b 3e
       -0.26490813 0.4045485 0.36367074 0.13664699
000070 81 47 cd 3e 6a a2 72 be cb 72 e2 3c 81 bf 5b be
       0.40093616 -0.23694769 0.027642628 -0.21459772
000080 4b 86 a4 be d5 63 f1 3e 7c b6 8c 3e 11 9f 0e bf
       -0.32133707 0.47146478 0.27482975 -0.55711466
000090 8c 99 ad 3e 72 c2 29 3f cf 26 f9 be c6 8a 28 bf
       0.3390621 0.66312325 -0.4866242 -0.6583675
0000a0 5b 17 6e 3e ab 9c 38 be f0 97 e2 3c 12 e4 4b 3e
       0.23251097 -0.18028514 0.02766034 0.1991122
0000b0 89 ee f7 3e a0 a1 1f 3e 1a 5f 26 be 01 1c 27 3f
       0.48424175 0.15588999 -0.16247216 0.65277106
0000c0 56 55 6e 3e 6c 02 6b be be df e3 be 0b 8f aa be
       0.2327474 -0.22950143 -0.4450664 -0.33312258
0000d0 1e 29 e2 3e f7 ea cd 3e 16 01 8b be be 19 9b be
       0.44171995 0.40218326 -0.27149266 -0.30293077
0000e0 00 b8 9d ba ef 14 a2 be 87 01 9b be 86 19 d9 bd
       -0.0012032986 -0.31656596 -0.30274603 -0.10600571
0000f0 b2 8d 93 be 41 fd 82 3e 28 5e 6f be bb a1 2c bf
       -0.28819042 0.25583842 -0.23375762 -0.6743428
000100 03 89 37 bb c2 ca e3 3d d9 52 ae 3e 0c 0d 1b 3f
       -0.002800525 0.11122657 0.34047583 0.6056678
000110 3f 84 24 3f e5 58 14 be d7 72 72 be d3 d1 c6 3b
       0.6426429 -0.14487036 -0.2367662 0.0060674935
000120 d4 88 2f 3d 73 3f 95 be ab 51 dc bc c4 43 23 3e
       0.0428551 -0.2914997 -0.026894411 0.1594382
000130 84 bf 8d 3d 43 7d 53 bd a5 8c 22 bb dd 38 55 3c
       0.06921294 -0.05163313 -0.002480307 0.013014046
000140 f1 fa 5a be 24 61 4b be 6f c9 8b bd bb 5d a5 be
       -0.21384789 -0.19861275 -0.0682553 -0.32298073
000150 6e 57 8c be 35 79 8a 3e 0f f7 74 be 59 23 b5 3d
       -0.27410454 0.270456 -0.2392237 0.08844633
000160 93 45 bb bc 64 87 fc bd
       -0.022860324 -0.12330511

conv_block_1.0.bias f4 [10]
000000 91 c5 f5 bd 1b 34 a4 3e 95 de 37 3c 3e fb 99 bd
       -0.120005734 0.32071003 0.011222501 -0.07518624
000010 be b2 f9 be b3 57 a1 be 42 19 86 be 83 fd ea bd
       -0.48769182 -0.31512222 -0.26191145 -0.11474135
000020 4d 2f 12 be bc 09 13 be
       -0.14275856 -0.14359182

conv_block_1.2.weight f4 [10, 10, 3, 3]
000000 6b f8 fa bd e0 87 5b 3d 67 8f 22 bd 88 60 44 bc
       -0.12254413 0.053596377 -0.03968754 -0.0119859055
000010 f7 e4 1e 3d 5e 23 83 3c c2 a4 38 3e 07 01 86 3d
       0.038792577 0.016008075 0.180316 0.06543165
000020 aa 58 40 3d 85 33 83 3e 5b 84 20 be fe e6 93 be
       0.046959557 0.25625244 -0.1567549 -0.2888717
000030 ec 35 99 3e 93 9f 2a be 18 3d 00 bf 06 15 3a be
       0.29923952 -0.16662435 -0.5009322 -0.18172082
000040 9b c3 db be 3b 99 bf be 8b 63 19 3e 82 a2 55 3d
       -0.42922673 -0.37421593 0.14979379 0.052156933
000050 cf 93 36 3d 75 ef 1b 3e 98 71 8e 3e 83 7a ab bd
       0.044574555 0.15228064 0.2782104 -0.08372977
000060 0d 18 be 3e a5 be 40 3d 76 78 70 3d de 23 b6 be
       0.37127724 0.047056813 0.05870863 -0.3557424
000070 95 c1 a1 3d fb e7 fd 3d 53 60 6a bd fe 7d aa bd
       0.07898251 0.123977624 -0.05722077 -0.08324812
000080 a7 8c 0c 3d 58 ca 06 be 43 2a 34 3e 9a 1d 8b 3d
       0.034313824 -0.13163126 0.17594247 0.067927554
000090 33 72 0c bd 17 da 28 be 27 31 91 3e d7 29 e7 bd
       -0.034288596 -0.16489445 0.28357813 -0.11287277
0000a0 99 95 10 3e 61 2a a1 bc fb 54 94 bd 4f 13 52 bd
       0.14119567 -0.019673528 -0.07242771 -0.051287945
0000b0 8d 38 bc 3c 25 d9 02 3e 69 f7 ac 3d b0 66 61 3c
       0.022976184 0.12778147 0.08445627 0.013757393
0000c0 fd 1f 16 bd 61 aa e8 3d 67 9c 1f 3e 49 d0 3c 3d
       -0.0366516 0.11360622 0.15587007 0.046097074
0000d0 38 1c 8d bd 75 84 ec 3d b3 a9 8f 3d 22 74 2d 3d
       -0.06890148 0.11548702 0.070147894 0.04234708
0000e0 fd 39 84 bd 1f 24 92 3d dc a5 8c bd 9b 90 75 bd
       -0.06456373 0.07135796 -0.06867573 -0.05995236
0000f0 53 86 c8 3d 22 54 12 bd 78 e3 ea bc e5 1e cb be
       0.09791245 -0.035724767 -0.028672919 -0.39672008
000100 71 43 a8 3d ca f1 af 3d db 86 d1 3d 61 33 18 3e
       0.082159884 0.085910395 0.102308 0.1486335
000110 75 3f 95 bd 7d 15 3c 3e 0f 92 5e 3e 2e 7c 16 3e
       -0.07287494 0.18367572 0.21735404 0.14695808
000120 e6 d2 9e bd f5 1c b3 bd ac f0 7b bd ef 92 76 3d
       -0.077550694 -0.087457575 -0.06150882 0.06019872
000130 0a ff c6 3d b7 f1 00 3d b9 a4 8a 3d 8c 1d 2b 3d
       0.097166136 0.031480517 0.067696996 0.041776225
000140 16 34 ae bb fb 18 29 3d 48 ae 91 3d 7a ad f4 bc
       -0.0053162677 0.04128359 0.0711332 -0.029867876
000150 d0 23 6d bd cc fb 23 bd bb 2d 73 bd 7b 40 9c bd
       -0.05789548 -0.040035054 -0.059369784 -0.07629486
000160 aa a4 c0 bd c9 69 80 3c 25 c9 bd bc a1 2d 40 3d
       -0.09406407 0.015675442 -0.023167202 0.046918515
000170 af ca 8d bd cc 94 16 3d f9 93 67 3d ce e8 24 3d
       -0.069234245 0.036762998 0.056537602 0.040261082
000180 62 9a fa bd c7 dc 7e bd 2e 9a 56 bb 50 5b 9a be
       -0.122364774 -0.06222227 -0.0032745707 -0.3014779
000190 e5 e3 14 bf d7 38 81 be 13 00 b7 be 90 ec 25 bd
       -0.5816024 -0.25238678 -0.35742244 -0.040508807
0001a0 e5 e2 f2 3d 06 80 c3 bc 65 fb e1 3d 91 d8 45 3e
       0.11859683 -0.023864757 0.11034278 0.19320895
0001b0 ba c6 51 3d 90 db 7d bd 12 20 06 3e ca 94 c0 bd
       0.05121491 -0.06197697 0.13098171 -0.09403379
0001c0 0e 7c 3c be 4e 8f 87 bd b2 c4 6c be e1 d3 96 be
       -0.18406698 -0.0661913 -0.23121908 -0.29458526
0001d0 7b 71 99 be 70 97 13 3e 12 da 83 3a 40 5f 20 39
       -0.2996939 0.14413238 0.0010059497 0.00015294272
0001e0 a8 f3 04 3e 28 15 25 3e 7a b1 14 be 7a 34 1b be
       0.12983572 0.16121352 -0.14520827 -0.15156737
0001f0 72 01 00 3e 02 59 80 bc 77 11 52 bd 1b c8 48 3e
       0.12500551 -0.015667442 -0.051286187 0.19607584
000200 cf 07 26 bd 8f ae 4a bd 91 1a 31 be b8 5c 52 be
       -0.04053479 -0.04948288 -0.1729529 -0.20543182
000210 9e dd 05 3e 09 0b 1d 3e 2e 70 17 3e 4e a0 1e 3e
       0.13072821 0.15336241 0.14788887 0.15490839
000220 f9 38 2b 3e b8 55 11 3e 5d ae fa 3d 55 fa 00 be
       0.16720952 0.14192855 0.122402884 -0.12595494
000230 b8 80 16 3e 77 2d ed 3d 30 88 d1 3d 7c 7a 99 3d
       0.1469754 0.11580937 0.10231054 0.07494065
000240 8c cb dd 3c f2 22 56 3d 8f 45 a7 3d e9 e0 90 3d
       0.027074598 0.05227942 0.08167564 0.07074148
000250 41 6c b9 bd 30 c1 da bb 40 3b 55 bd 0c 6b 09 bd
       -0.09053851 -0.006675862 -0.05205846 -0.033549353
000260 b2 76 05 bd e0 af 58 3e 4d bc b7 3e 06 1e a2 3e
       -0.0325839 0.21160841 0.3588585 0.3166353
000270 65 f4 bc bd 00 f0 53 bd 12 c7 a2 3e 07 e4 62 be
       -0.09226302 -0.051742554 0.31792504 -0.22157298
000280 1e e4 c7 be f8 95 e4 be 4f c1 5a 38 93 7e 90 bd
       -0.39041227 -0.44645667 5.2155283e-05 -0.07055392
000290 1d d4 ce bd c5 12 91 3d 9f ec 71 3d 21 ee 1a 3c
       -0.10099051 0.07083658 0.05906355 0.009456188
0002a0 61 fd a0 bc 04 e0 ea bc a3 bf 98 3c d3 5e d1 3d
       -0.01965207 -0.028671272 0.018646067 0.102231644
0002b0 2c 9c 97 3d d2 c6 99 bd 53 6c 6f bd ad d6 72 3d
       0.07402834 -0.07508625 -0.058452915 0.059286762
0002c0 da 51 e0 bc 84 23 01 bd 96 21 bd 3c 47 9e 66 bd
       -0.02738278 -0.03152801 0.023087304 -0.05630329
0002d0 c2 5c f8 3b 6e 00 2f 3d 88 74 be 3d b9 24 74 3d
       0.007579417 0.04272502 0.0929957 0.059605334
0002e0 d0 d4 0f be 9c 34 82 be 9e b1 44 be 2e 37 ab 3d
       -0.14046025 -0.25430763 -0.1920838 0.08360134
0002f0 f5 12 b8 3d 7a 7d 55 3e 22 69 a3 be d8 4d ee 3d
       0.08987991 0.20848647 -0.31916147 0.11635941
000300 90 91 da be 6f 4a 08 bf 3c 05 9d be da f7 b8 be
       -0.4268918 -0.53238577 -0.30668056 -0.36126596
000310 26 4b 73 be 2c d7 25 be f2 9c e0 3d b3 6f e9 3d
       -0.23759136 -0.16195363 0.10967435 0.11398258
000320 1b b5 c1 bc f8 c4 b0 be 6a 4f 6f be 1a bd 5d bb
       -0.023645928 -0.34525275 -0.23370138 -0.0033834637
000330 03 9d 1c be 8f ed 25 be a0 74 73 bc 17 ce 81 bd
       -0.1529427 -0.16203903 -0.014859349 -0.06338137
000340 e3 ff 86 bd 50 5a 96 bd 31 b9 2f bd 85 01 13 be
       -0.06591775 -0.073414445 -0.04290122 -0.14356048
000350 69 86 f6 bd ad 88 76 bd 05 c0 39 be 14 cc 8b 3d
       -0.120373555 -0.060188938 -0.18139656 0.06826034
000360 64 14 93 3e f3 52 4e bc 1d 10 79 3d d9 18 0c 3d
       0.28726494 -0.012593019 0.060806382 0.034203384
000370 0a 00 26 3d 1f 80 c6 3d cb fd 99 3d d7 68 2e 3d
       0.04052738 0.09692406 0.0751911 0.04258045
000380 63 65 51 3e e4 9f 4a be ef 63 55 3e a4 db 66 3e
       0.20448832 -0.19787556 0.20838903 0.22544724
000390 e9 01 cc bc a0 d8 d3 bb c1 7c 7e 3d ca ee 87 bc
       -0.024903255 -0.0064650327 0.062130693 -0.016593356
0003a0 c1 12 01 3e 06 b7 db bb 58 fb 23 3c bd be a1 3d
       0.1260481 -0.0067051677 0.0100086555 0.078977086
0003b0 1d c7 7d bd 40 05 62 3b 51 33 93 3d 2f a7 be 3d
       -0.061957467 0.0034487993 0.07187522 0.093092315
0003c0 97 12 b4 3d b8 65 75 bc 14 77 94 3c b8 bf be 3d
       0.08792608 -0.014977865 0.018123187 0.09313911
0003d0 ab dc 1d 3e 53 9e 37 3e 98 e2 98 3d 8d 09 60 3d
       0.1541621 0.1793149 0.07465094 0.05469661
0003e0 1d f9 44 3e 37 35 96 be 9a 76 9c bc f4 21 95 3e
       0.19235654 -0.29337475 -0.019099522 0.29127467
0003f0 d5 bb 1b 3d 01 95 f0 3c 1f 43 7b bd 5b d4 4d bd
       0.038020927 0.029367926 -0.06134331 -0.050251346

conv_block_1.2.bias f4 [10]
000000 45 44 60 3e 9d 23 c1 3d 11 11 97 3e d0 3d 58 bd
       0.21901043 0.09430621 0.29505208 -0.052793324
000010 52 36 e3 bd f4 0b 15 bd be 1c 07 3e 49 07 58 be
       -0.11094345 -0.036388353 0.13194558 -0.21096529
000020 3b 6f 5e 3d 8c 48 7f bd
       0.054305296 -0.062325045

conv_block_2.0.weight f4 [10, 10, 3, 3]
000000 9b 1f a3 be 76 0e 79 be b7 cb e7 3e 78 61 30 be
       -0.3186005 -0.24321923 0.4527261 -0.17224681
000010 19 01 5f be d4 5a 25 3c 53 51 b8 3e 66 26 07 be
       -0.21777762 0.010092456 0.35999545 -0.13198242
000020 66 2c 86 be 92 34 fd bd 8f cc 9d bd 5a 9c 77 3b
       -0.26205748 -0.123635426 -0.07705032 0.0037782402
000030 98 80 0a be 98 b5 c4 bd 72 9a 85 3e ac 75 ba 3d
       -0.13525617 -0.09604949 0.26094395 0.091044754
000040 af ed 0f be 81 4d 9e bd ac 8a f7 bd c7 c4 b7 bd
       -0.14055513 -0.077296264 -0.120869964 -0.08973079
000050 da bc bc 3e e4 d3 87 be 0e 19 8e be 98 f3 ba 3e
       0.36862832 -0.26528847 -0.2775349 0.36513972
000060 62 66 19 3e 48 b0 a4 3c 7a b7 f8 bc c7 2c 12 bd
       0.14980462 0.020103589 -0.030360926 -0.035687234
000070 fe 38 ab bd a7 0d 02 bd 7b cc 80 3e 73 55 af bc
       -0.0836048 -0.0317513 0.25156006 -0.02140305
000080 65 ed 0b be c6 01 15 bd 82 95 d4 bd 60 9e c5 3d
       -0.13664778 -0.036378644 -0.10380079 0.09649348
000090 a3 71 0e bd f6 1b 41 3c de d6 09 3c 13 73 67 3d
       -0.03477634 0.011786452 0.008413045 0.056506228
0000a0 bb 23 cc 3d f8 41 6a 3d d5 14 af 3d 12 17 1f 3d
       0.099677525 0.05719182 0.08548895 0.03884036
0000b0 0b 85 04 3d a5 21 da bd 2e 2d 93 3c 09 7f bb bd
       0.032353442 -0.106509484 0.01796588 -0.091550894
0000c0 80 0f 10 be be fc b2 3c b2 00 52 bd 9b f1 db bc
       -0.14068413 0.021849032 -0.051270194 -0.026848605
0000d0 58 c2 6b bd 9e 62 ac bd fa 28 1a bd ac 67 13 39
       -0.057558388 -0.08417247 -0.037636735 0.00014057633
0000e0 bc 63 4f 3e 21 9b 6a bd fb 2e af 3d 11 b5 96 3e
       0.2025289 -0.05727685 0.08553883 0.29435018
0000f0 2f 44 20 3b 28 82 53 ba 9b ea a3 bd 9e ad 1f 3d
       0.0024454703 -0.0008068406 -0.08003732 0.038983934
000100 9d 42 39 be 61 c3 71 bd 2d 8a 0f 3e fd 34 13 3e
       -0.18091817 -0.05902422 0.14017554 0.14375682
000110 97 ba e7 3d 6a 0c 0d be 49 d3 84 3d b1 61 26 3e
       0.11314886 -0.13774267 0.06485612 0.16248204
000120 99 0a 9a bd 53 2c 70 be 7a c8 d5 bd 72 d5 cf bd
       -0.075215526 -0.23454408 -0.104386285 -0.10148133
000130 6d ee f3 bc 95 0c f3 bd 2a a0 71 3e 30 89 be 3d
       -0.029776776 -0.11867634 0.23596254 0.0930351
000140 01 aa c5 bc 64 ec 42 bd 5d 72 92 bd 6f 76 d5 3d
       -0.024128916 -0.04758872 -0.07150719 0.1042298
000150 a7 62 8b 3c 98 ee 9a 3d f9 05 db bb 61 15 4d 3d
       0.017014815 0.075650394 -0.0066840616 0.050069217
000160 61 44 aa bd 8d 86 ab 3d da 74 8c be 76 ca e9 bd
       -0.083138235 0.08375273 -0.274329 -0.114155695
000170 b6 f6 93 bd d5 9d f7 be 1a a2 fa be 19 84 8e 3c
       -0.07224791 -0.48362604 -0.489518 0.017396973
000180 ca 89 26 3d e0 6e 12 3e 7e 17 95 3e 91 69 01 3d
       0.04065875 0.14300108 0.29119486 0.031594817
000190 24 33 8e 3e 2c ce b0 3e 28 fe 3a be b2 00 41 be
       0.27773392 0.34532297 -0.18261015 -0.18847921
0001a0 20 6a fc bd 78 10 45 be be b1 47 3d 2d 6b a2 bc
       -0.12324929 -0.19244564 0.048753493 -0.019826496
0001b0 ab 6b 2f be 2a 5f 91 3e 4d e7 f9 3e 4e ad 87 be
       -0.17130916 0.28392917 0.4880928 -0.26499408
0001c0 ad 69 ce be b6 da a5 bd 2e 93 80 be d2 40 ae 3d
       -0.40315 -0.080983564 -0.2511229 0.08508457
0001d0 e4 d7 a8 3e 99 00 9c bd 38 28 01 3e 65 f6 83 3e
       0.3297721 -0.076173015 0.12612998 0.25773922
0001e0 43 e2 3c 3e 0c d0 10 3e a1 2d fb bc 27 5a 0c 3e
       0.18445687 0.14141864 -0.030661406 0.13706265
0001f0 c3 fb 0a 3e fa 65 33 be a6 6c 5f bc a9 01 37 3d
       0.13572602 -0.1751937 -0.013636744 0.044679318
000200 4d e9 0c bd bb ee e4 bc b8 0c d1 bd e8 c6 ae bd
       -0.03440218 -0.027945867 -0.10207504 -0.08534032
000210 f6 b0 d0 3d d0 15 9a 3b b6 19 33 3d cc 0d 8b bc
       0.101900026 0.0047023073 0.04372569 -0.016974352
000220 80 81 20 be 28 65 a4 3d 02 f7 11 3e 4a 97 b3 3d
       -0.156744 0.080271065 0.14254382 0.087690905
000230 60 86 64 3d c0 59 74 3d 61 33 c1 bc ac e6 d0 bc
       0.055792212 0.059655905 -0.02358407 -0.025500618
000240 b9 99 42 3d 26 86 79 3e 67 25 89 3e 6c bf f9 bd
       0.047509883 0.2436758 0.26786348 -0.12194714
000250 eb b4 9a be 45 b7 72 3c d0 75 e1 bd 64 a8 af 3b
       -0.30216154 0.014814203 -0.11008799 0.00536065
000260 55 bf 24 3e 22 83 13 3e 75 b1 ad 3d 0b 33 cc bd
       0.16088612 0.14405492 0.08481113 -0.09970673
000270 69 c1 ff 3d 7b 18 64 3d d8 b7 a8 bd 94 ca f8 3d
       0.12488062 0.05568741 -0.082381904 0.12148014
000280 a6 28 f6 bd 44 07 ef bc 3d 90 60 be d1 4e 1d be
       -0.12019472 -0.02917827 -0.21930023 -0.15362097
000290 c5 cd 15 3d ff 96 e7 bd 18 6d 09 be 7b 23 55 be
       0.03657319 -0.11308097 -0.13420522 -0.20814316
0002a0 d9 8b 04 be ec 92 82 bb 2f 99 90 3d bf 95 cd 3d
       -0.12943973 -0.0039847996 0.070604675 0.100383274
0002b0 72 ae 2c 3d 1c 67 ca bd d5 3e 57 bc 72 bb 87 bd
       0.04215855 -0.09882948 -0.013137539 -0.06627549
0002c0 96 e7 c7 3d 7d 5a 5f 3d b2 95 8d bc 86 63 f2 ba
       0.097609684 0.054529656 -0.017283294 -0.0018492795
0002d0 9a 8a a0 be be 0a 30 bd a1 c1 39 bd 2e c3 ba bc
       -0.31355745 -0.042978995 -0.045350675 -0.022798147
0002e0 7e bd 8f 3e f0 14 5f 3d 6e 7a 68 be 1f 6b dd 3c
       0.2807426 0.054463327 -0.22702953 0.027028618
0002f0 bd 60 27 3f 31 98 8c 3e d0 8e e4 bb d7 0c 50 be
       0.65381986 0.27459863 -0.0069750324 -0.20317398
000300 fc d4 97 3e be 18 27 3d dc cb ae bd f4 37 0c 3e
       0.29654682 0.04079508 -0.08534977 0.1369322
000310 e2 4b 94 be 97 85 4f bd 8e 72 0e be 2c f3 9a 3e
       -0.28964144 -0.05066451 -0.13910887 0.3026365
000320 0e 3f b4 3e db 52 64 bd 44 37 4c 3d 02 d2 f6 3e
       0.35204357 -0.05574308 0.049857393 0.48207098
000330 aa 1e ad 3d 2c c3 95 be 45 b9 59 be 67 d9 8b 3e
       0.08453114 -0.29250467 -0.21262081 0.27314302
000340 01 78 88 be f6 fe ce be b8 cc 73 3e 9a 72 62 3e
       -0.26654056 -0.40428895 0.23808563 0.2211403
000350 c7 06 de be af fd e2 3e f3 60 bb 3e e3 40 7b be
       -0.43364546 0.4433417 0.36597404 -0.24536471
000360 5f 1a 63 bc f4 38 54 bd 02 17 1b bd b9 7b b1 bc
       -0.013861268 -0.051812127 -0.03786374 -0.02166544
000370 fb 41 b2 3d 36 43 c7 bd 1d 7a 0b 3d 0f e4 92 3b
       0.08703991 -0.09729616 0.034052003 0.004482753
000380 cb a3 0b bd 6e 9e e7 3c e0 78 aa bd b5 91 22 be
       -0.034091752 0.028273787 -0.08323836 -0.15875895
000390 db 1d a5 3d 68 9b 64 bd b0 d7 9c 3d e8 9b 6d 3a
       0.08062335 -0.05581227 0.076583266 0.00090640644
0003a0 82 f8 06 be ce 8b 61 3e f5 5a 8b 3d a2 15 14 3e
       -0.13180736 0.22025988 0.06804458 0.14461377
0003b0 6e 2f c5 3b 12 3c e2 bd d0 df c6 3c 5e bc 89 3e
       0.006017617 -0.11046614 0.024276644 0.26901525
0003c0 25 49 e8 3d fb d5 eb ba a1 2b 03 be bd 77 d2 3d
       0.11342076 -0.0017992848 -0.12809612 0.102767445
0003d0 f4 28 c0 3d 21 07 5b bd f1 e3 b6 bc 2c 00 1c 3d
       0.09382811 -0.053473596 -0.022325488 0.0380861
0003e0 67 8a a2 be f9 c9 f2 bd 4d 58 01 be eb 3f 87 be
       -0.31746218 -0.118549295 -0.1263134 -0.26415953
0003f0 28 c2 b0 3d db d0 be 3c 1c c6 86 3e 18 74 9a 3c
       0.08630782 0.02329295 0.2632302 0.018854186

conv_block_2.0.bias f4 [10]
000000 d1 be 05 be 6f 11 69 be cd eb 51 be 92 b2 8e be
       -0.13061072 -0.22760557 -0.20500107 -0.27870613
000010 1a d5 d8 3e 16 1e fa 3d 5e 87 a0 3e 89 34 87 3e
       0.42350084 0.1221277 0.31353277 0.2640727
000020 4d a3 9a 3e e5 eb ae bb
       0.30202714 -0.0053381794

conv_block_2.2.weight f4 [10, 10, 3, 3]
000000 d4 5d 5c bd 85 8a fe bd 17 ba f3 3d 74 b5 49 be
       -0.05380042 -0.12428764 0.11900728 -0.19698125
000010 76 e1 86 3c 94 47 d4 bd 42 ef 4b bd fe f8 a4 bd
       0.01646493 -0.10365215 -0.04978872 -0.08055304
000020 f6 42 87 bd 01 f1 41 3e b1 e6 96 3d 4a 46 81 be
       -0.06604569 0.18939592 0.0736822 -0.2524894
000030 83 4d f0 bd 73 70 6f be 8f e2 f8 bd e4 9d a4 bc
       -0.11733534 -0.2338274 -0.121525876 -0.02009482
000040 fd 6b a2 be 62 c7 a8 bd f5 8f 74 bd ff 68 3e 3d
       -0.31723014 -0.08241154 -0.0597076 0.04648685
000050 30 8c 9f be 79 6c 8a 3c 9d 0d b8 be 7c 3f f4 bd
       -0.31161642 0.016897427 -0.35947886 -0.11926171
000060 c8 4d 07 be b9 7b 07 bf 41 da 90 be 85 08 e5 be
       -0.13213265 -0.5292316 -0.28291515 -0.44733062
000070 7b 20 fa bd 06 95 06 3d 3a a0 e9 be 8c ae 9b be
       -0.122132264 0.032856964 -0.45630056 -0.30406606
000080 56 a5 e5 3d 9d fc 9b 3e 04 00 cb 3e 70 73 6f bd
       0.11213176 0.30466166 0.3964845 -0.0584597
000090 12 d0 04 be 5e 1e 84 bd d1 0b 40 bd 20 19 82 be
       -0.12969998 -0.064511046 -0.04688627 -0.25409794
0000a0 41 ce 82 be 61 c2 97 be 11 2f d1 be 9e 4d 6f be
       -0.25547984 -0.29640487 -0.4085622 -0.23369452
0000b0 90 a5 7d 3d e5 bc f1 bc 0e 01 b1 3e 02 44 34 bf
       0.06192547 -0.029509017 0.34571117 -0.7041627
0000c0 52 ff 09 3f 0f 8a b6 be f7 e9 37 be 3e 09 55 3e
       0.5390521 -0.35652205 -0.17960344 0.20804307
0000d0 46 15 bf be b6 bf d7 be 8b d6 a4 be d0 89 29 be
       -0.37320918 -0.4213845 -0.32194933 -0.16556478
0000e0 b0 86 a5 3e 9e cc 00 bf a4 45 6a 3d b2 63 33 3e
       0.3232932 -0.5031222 0.05719532 0.175185
0000f0 4e 5f e6 be 9f 35 96 be e0 ac 49 bd 68 42 d5 3d
       -0.44994587 -0.29337785 -0.049237132 0.104130566
000100 f5 f3 0f be 65 9b 86 bd d4 74 83 3d 82 ad 6f be
       -0.14057906 -0.06572608 0.064187676 -0.23406032
000110 24 b1 ba bd 0a d3 31 bd 0a 93 77 be a6 33 d7 bc
       -0.09115818 -0.043414153 -0.24177185 -0.026269745
000120 f5 80 91 be cd e6 7f be ee 22 2c 3d 3d 63 58 be
       -0.284187 -0.24990387 0.0420255 -0.21131606
000130 a2 1e 08 be 9a 28 06 3f f1 64 d8 be ab b3 1a bd
       -0.13292935 0.52405703 -0.42264512 -0.037769
000140 aa be 31 3e 7a 56 b5 bd 82 ff a3 3c 70 77 9e 3d
       0.17357889 -0.08854385 0.020019297 0.07737625
000150 06 9d b3 3e 9e 10 87 3e 48 3f d6 bd e4 61 6c 3c
       0.35080737 0.26379865 -0.10461289 0.014427636
000160 39 60 06 3e 3e dc d3 be 3c 3b b8 3e c2 66 23 3e
       0.13122644 -0.4137897 0.35982692 0.15957168
000170 6a ca f7 bd 4e 68 27 be df 90 a4 3d 9f b0 04 bd
       -0.12099154 -0.16348383 0.080354445 -0.032395
000180 12 83 20 be b3 b8 cd bc 84 c3 b0 bd 60 74 07 be
       -0.15675 -0.025112486 -0.08631042 -0.13227987
000190 de 8e a5 bd 36 5e a1 bc 4c 02 6d 3e 1b c6 84 3e
       -0.080838904 -0.019698244 0.23145407 0.25932392
0001a0 13 e0 14 3e 2b 4b 1c be 17 46 ca 3b 91 64 4c 3e
       0.14538603 -0.1526305 0.006172906 0.19960238
0001b0 58 b4 3a 3e d1 21 96 3e f6 78 8f 3b 08 1c 79 be
       0.18232858 0.29322675 0.0043784333 -0.243271
0001c0 d3 11 99 3c ea 12 c9 3e ee e7 56 be e3 82 75 be
       0.018685257 0.39272243 -0.20986912 -0.2397571
0001d0 55 7d d4 be f9 af ce bd fc 3e 72 be b4 39 2c be
       -0.4150187 -0.10092158 -0.23656839 -0.16818887
0001e0 eb c6 9d be 5c be ed be 6f 88 60 3d e4 cf 73 3e
       -0.30815825 -0.46434295 0.054817613 0.23809773
0001f0 55 ce 65 3d 17 d3 62 3e d2 23 2a 3e a5 e5 67 3e
       0.056104977 0.22150837 0.16615227 0.22646196
000200 b4 5d cf be 27 30 10 be 7e 65 c5 bd 5d ab 9e bc
       -0.40501177 -0.14080869 -0.09638499 -0.019368822
000210 8d e8 50 be 94 3b bf be 83 90 3d be 69 44 3b bf
       -0.20401211 -0.37350142 -0.18512158 -0.7315126
000220 71 91 00 bf 0b 60 1c bd 16 2c 75 bd dc 10 f0 be
       -0.50221926 -0.03817753 -0.059856497 -0.46887863
000230 ae 7f 06 bf 26 70 5c 3e 19 47 0a 3e fb 5e b0 3d
       -0.52538574 0.21527156 0.13503684 0.08611866
000240 42 95 c8 3e a9 42 49 3e f1 c5 86 be ac 2f ad be
       0.39176375 0.19654335 -0.26322892 -0.33825433
000250 00 c1 85 bd c2 c9 cd bc c3 7a f8 be 6b 83 cb be
       -0.065309525 -0.02512062 -0.4853116 -0.397487
000260 d6 87 ef bd 78 84 e5 3d c7 91 2a 3f a2 05 f7 bd
       -0.116958305 0.11206907 0.6662869 -0.12061621
000270 b2 a3 4a be 81 e3 63 3d c1 70 46 3e 09 63 a6 be
       -0.19789007 0.055636887 0.1937895 -0.32497433
000280 00 73 cd be 29 06 a6 be cf 69 c9 be d8 06 bc be
       -0.401268 -0.32426575 -0.39338538 -0.3672397
000290 83 19 04 bf c8 0a 05 be 51 27 4d be 06 2a 44 3e
       -0.5160143 -0.12992394 -0.2003453 0.19156656
0002a0 11 aa 9a be 86 a7 d0 bd 78 75 f9 3d 6c 69 a2 be
       -0.30207875 -0.101882026 0.121806085 -0.31721056
0002b0 84 66 99 be 62 b7 0c bf f7 c5 a4 be d2 bf 3f 3e
       -0.29961026 -0.5496732 -0.32182285 0.18725517
0002c0 79 74 c1 bd 1c df 21 3e 11 c2 ac 3e cf b2 b9 3d
       -0.094460435 0.15807766 0.3374181 0.09067308
0002d0 6e 79 d6 3e fb ae 12 3f ad 08 23 3e f2 cc ca 3d
       0.41889518 0.5729825 0.15921278 0.099023715
0002e0 ed 79 32 3e 3d ce b9 be eb f2 19 be 32 15 c3 bd
       0.17429323 -0.3629016 -0.15034072 -0.09525527
0002f0 ee ec 92 bd 9d ce 2b 3e 6f 2e b6 bd cf 79 da 3d
       -0.07174097 0.16778035 -0.08895575 0.106677644
000300 e6 1c 6c bc 94 b2 91 3e 68 06 2e 3c 61 aa 3d be
       -0.014411187 0.28456557 0.010621645 -0.18522026
000310 93 e3 1f be 56 55 e6 bd 70 c3 fa bd 39 f7 25 3e
       -0.15614156 -0.11246745 -0.12244308 0.16207589
000320 0e dd 8b be 0f 2c 20 be 43 07 3d be e1 95 17 be
       -0.2731709 -0.15641807 -0.18459801 -0.14803268
000330 f1 7e e8 bd 32 f3 6a bd c9 ae 7f be d8 f0 91 be
       -0.11352337 -0.057360835 -0.24969019 -0.28504062
000340 6f 0f ed 3d ed bc 1c be e7 05 1b be 79 31 ab be
       0.11575209 -0.15306444 -0.1513897 -0.33436182
000350 45 34 b8 3d 23 49 a4 3c 29 46 ac 3e d7 3f 3d 3e
       0.089943446 0.020054406 0.33647278 0.18481384
000360 b8 d8 9c 3e e5 5a d0 3e 36 b2 8d 3e de 2a f4 3d
       0.30634093 0.40694347 0.27675027 0.11922239
000370 06 09 8b 3e a7 4a 5f be 86 b9 24 be 2a c4 ef bd
       0.27155322 -0.21805821 -0.16086397 -0.11707337
000380 88 2d 80 be 35 60 f3 be bf 40 19 bf 11 23 07 bf
       -0.25034738 -0.47534338 -0.5986442 -0.5278788
000390 52 6b 5a 3f 04 7a 2f 3c 4a ec cd be 48 1a 05 3e
       0.8532001 0.010710243 -0.40219337 0.12998307
0003a0 f7 d1 92 3e 97 04 0a 3e 1b 33 3f be a8 06 dc bd
       0.28675815 0.13478313 -0.18671839 -0.10743457
0003b0 f6 9e ad 3e 90 aa 7b 3d 1e 46 39 be 02 3a 65 be
       0.3391034 0.061441958 -0.18093154 -0.2238541
0003c0 42 59 7d be 15 82 34 be 8e 2b c1 be 03 d6 16 3d
       -0.2474108 -0.17627747 -0.37728542 0.03682519
0003d0 5e 42 ec 3e e5 30 60 3e 8e a1 94 be 7d 10 18 be
       0.46144384 0.21893652 -0.29029506 -0.1485004
0003e0 b3 9c 5e 3d 00 1b ee bc da f0 9f be 97 c0 60 be
       0.05434866 -0.029065609 -0.31238443 -0.21948467
0003f0 8b 7f a2 be a9 2a 9f bd ec f9 2b 3f 09 26 1b ba
       -0.31737933 -0.07771809 0.67178226 -0.00059184484

conv_block_2.2.bias f4 [10]
000000 f4 1d 6f 3e 98 96 13 3e b8 a3 0e be b5 65 1d 3e
       0.2335127 0.14412916 -0.13929641 0.1537083
000010 df cc 42 3e ae 88 88 bd 03 51 89 3e b0 03 3c 3d
       0.19023465 -0.066666946 0.2681962 0.045901954
000020 fe f5 79 3e 62 5d cc bc
       0.24410245 -0.024946872

classifier.1.weight f4 [10, 490]
000000 7f 3f b8 bc 0a 47 8c bd 88 ef e0 bd f6 d3 99 bd
       -0.022491215 -0.06849487 -0.10983187 -0.075111315
000010 90 35 43 be e9 d7 6c bd 6c e0 81 bc 5e b7 01 bc
       -0.19063401 -0.057823095 -0.015854083 -0.007917253
000020 43 f8 2f be 92 2d 2c bd 6c 61 17 be 15 14 86 be
       -0.17184548 -0.042035647 -0.14783257 -0.26187196
000030 b4 83 03 be 37 36 7e bc 59 11 61 bc ef d7 fa 3d
       -0.1284321 -0.0155158555 -0.013737046 0.12248217
000040 eb 65 ec bd 88 7c ea bd fe e3 f3 be 71 ee a1 bd
       -0.11542877 -0.11449534 -0.47634882 -0.07906807
000050 42 69 90 3d 63 dc 9c bc 67 2b 07 3d 9f fc 9c 3e
       0.07051326 -0.019148057 0.033000376 0.30661485
000060 fc 4e 9c be 6c 65 81 bd 0c d3 25 bc 17 ab 0e 3d
       -0.3052901 -0.06318173 -0.010121118 0.034831133
000070 45 09 7a 3c e6 0b 8e 3e 5b 05 69 3b 29 ed fb bc
       0.015260999 0.27743453 0.003555617 -0.030752735
000080 a4 65 8a 3e 8d 73 e3 3d 3e 68 46 bc af 17 e2 bc
       0.2703067 0.11106024 -0.012109814 -0.027599184
000090 56 74 12 bc 78 3e d3 be 3c ba 2e bd 44 f2 5f 3d
       -0.008938869 -0.41258597 -0.042658076 0.054674402
0000a0 7d 69 3b bd 3d 3b a5 3c 72 ad 96 bc d0 e0 89 bd
       -0.0457549 0.020169849 -0.018393252 -0.06732333
0000b0 69 b3 18 be d1 f2 26 be c0 5f 03 be d1 c1 ad bc
       -0.1491219 -0.16303565 -0.12829494 -0.021210583
0000c0 2f 35 d2 bc a5 ca 05 bd d1 62 43 3a d3 98 99 bd
       -0.025660126 -0.03266396 0.00074533845 -0.07499852
0000d0 49 d3 4f 3d 84 09 d3 3b 6e cf 43 3d 9a d8 26 3a
       0.050738607 0.0064403433 0.047805242 0.00063646736
0000e0 db b1 08 bd bd 29 d3 3c d1 8b 27 3d 1f be 5b bd
       -0.03337274 0.025776738 0.040904824 -0.05364811
0000f0 19 fa 36 3d e0 a5 f4 3c eb b7 86 3d 55 5e df bc
       0.044672105 0.029864252 0.06578048 -0.02726666
000100 96 ef 1f be 50 f5 27 be 4d 5f 06 be 9f 14 a2 be
       -0.15618739 -0.16402173 -0.13122292 -0.31656358
000110 dc 1c 66 3e 53 0c df bc e7 e6 a9 bd 02 db 9f be
       0.22471946 -0.027227556 -0.08295994 -0.31221777
000120 01 72 96 be da f7 5d 3e 2b 0b b0 3e ec f4 a1 3e
       -0.29383853 0.21676579 0.3438352 0.31632173
000130 3c 52 bb bd e3 20 16 3d bb 18 a0 be c4 78 bd be
       -0.09146544 0.036652457 -0.31268868 -0.370062
000140 da 01 94 3e 1b a7 10 3e a3 bc 8f 3e 65 bb 20 bd
       0.28907663 0.14126246 0.28073606 -0.039241213
000150 b7 57 4b 3c 4f 3a be bd e6 c5 ce 3d 44 f0 ff bc
       0.01241105 -0.09288465 0.1009634 -0.031242497
000160 9a 8a 65 3d d0 18 a4 3c 78 2f 2e bd ec a2 6a 3e
       0.056040384 0.020031363 -0.04252574 0.22913712
000170 0c b1 41 3e 73 c7 99 3e 95 e6 9b be 8b ab 77 be
       0.18915194 0.3003498 -0.30449358 -0.24186532
000180 d4 ef be bd b7 73 2f bd 41 b7 9e bc e6 7f 14 bd
       -0.09323087 -0.042834964 -0.019374492 -0.036254786
000190 7e 95 4d 3d 63 c5 e1 3d 79 5f 2f 3e a5 13 f2 3d
       0.050191395 0.11023977 0.17126264 0.11820153
0001a0 03 b8 f5 bb 03 1e d7 bc 83 b4 6f 3e be 5e 70 bc
       -0.0074987425 -0.026259428 0.23408704 -0.014671026
0001b0 c0 39 7e 3e 90 91 b7 bc 45 ca d8 3d 16 cb 51 3d
       0.24826717 -0.022408277 0.10585455 0.05121907
0001c0 c6 3e 8c 3d 84 99 44 be 08 ea 28 be d5 db 52 be
       0.068479106 -0.19199187 -0.16495526 -0.20591672
0001d0 48 14 12 3e ee f3 7a bd 62 c4 05 3b a1 b9 5b be
       0.14265549 -0.061267786 0.0020411243 -0.2145753
0001e0 ac 81 fe be 23 17 d4 be 04 b2 9c bd e7 bb 6a bc
       -0.49708307 -0.41423902 -0.07651141 -0.014327026
0001f0 f4 aa 8f bd c5 6e 12 be d3 6d 90 be f3 49 3a bf
       -0.070150286 -0.14300068 -0.2820879 -0.7276909
000200 a6 1c 8f be 29 a1 b2 3e 73 bb cf 3e 65 ea 7d 3b
       -0.27951545 0.3488858 0.405727 0.0038744446
000210 99 14 e2 3c 98 02 96 bd f8 48 b8 bd 9b f5 e8 3d
       0.027597712 -0.073247135 -0.08998293 0.113749705
000220 9b 17 0c 3e c0 0e 6a 3e 05 b3 c9 3d 0e e8 97 3c
       0.1368088 0.22857189 0.098485984 0.01854327
000230 42 a7 18 3e 05 b0 f1 3d 54 32 1c 3e 90 e4 3e be
       0.14907554 0.11801151 0.15253574 -0.18641877
000240 19 7b 9a be 18 0d 30 bd 6b c4 21 bd 89 2d 37 bd
       -0.3017204 -0.042981237 -0.03949396 -0.04472116
000250 b3 34 f6 bd b2 76 fb bb 93 54 cd bd 82 40 04 bd
       -0.1202177 -0.0076740617 -0.10025897 -0.032288082
000260 79 3a 40 bd 73 6f 30 bd 20 75 46 3b 01 24 0c bd
       -0.046930764 -0.043075036 0.0030282214 -0.034214024
000270 24 14 fb bc d5 19 73 3d 5e d1 f4 3d 2d fd a0 3e
       -0.030649252 0.059350807 0.11953996 0.31443158
000280 20 7a 71 3d c8 c3 a4 bb 61 64 4e bc 96 d9 df 3d
       0.058954358 -0.0050282218 -0.012597174 0.10930173
000290 8a 59 8e 3c 41 ba 1c 3e 8e e1 60 3e 86 cd fb 3b
       0.01737668 0.15305425 0.21961042 0.0076844124
0002a0 8f 3f d0 3c 0b f8 48 3d 60 07 aa 3d 4a f5 13 3b
       0.025420932 0.049064677 0.08302188 0.0022576624
0002b0 b3 dc d0 be 35 48 5f bd ee ab 21 3d a4 1e cd 3b
       -0.4079338 -0.05451222 0.039470606 0.006259756
0002c0 d4 63 50 3d f8 df b7 3e 10 d1 90 3c df 39 dc be
       0.050876454 0.35913062 0.017677814 -0.43012902
0002d0 52 a5 61 be 12 13 20 bd cd 25 84 bc ea 92 12 3e
       -0.22035721 -0.039080687 -0.016131306 0.14313856
0002e0 7e 07 63 3d cd 51 34 be 92 6d 94 be cd 1e 59 be
       0.055427067 -0.1760933 -0.28989846 -0.21203156
0002f0 54 ce 80 bd 52 34 13 3d f8 ae 4f 3d f8 3a d3 3d
       -0.06289354 0.03593857 0.050703973 0.10313982
000300 e9 e9 7e bc f4 d5 82 bc fa 5a 7d bd ce af 1e bd
       -0.015558698 -0.015971161 -0.06185434 -0.03874188
000310 35 44 72 bb cb a9 93 3d f5 15 d8 bb c5 2e 87 3b
       -0.0036966924 0.0721012 -0.0065944144 0.0041254484
000320 a2 b1 c4 3c c3 cf ca 3c 2d e0 c1 bc 28 cb 11 bc
       0.024010483 0.024757272 -0.023666466 -0.008898534
000330 75 67 50 bd bf a5 d1 bd 55 1d 7a 3d 8c 78 b6 bd
       -0.050879914 -0.10236692 0.06106313 -0.08909711
000340 39 04 83 be b0 37 b4 bc c1 26 26 bb 18 63 6e be
       -0.2558916 -0.02199921 -0.002535269 -0.23279989
000350 2d 6f 8f bd 81 97 40 3d d0 2f 27 bd 5a 0b 9d be
       -0.07003627 0.047019485 -0.040817082 -0.30672723
000360 c2 4f db 3d 98 4d c9 bc c6 93 9b be eb 60 b2 3d
       0.10708572 -0.024573132 -0.3038618 0.08709892
000370 21 88 0b be 9b 7f ed bd cf da 25 be e7 53 22 3b
       -0.13626148 -0.115966044 -0.1619675 0.0024769248
000380 54 38 57 3c 0e ac 46 3e 28 8c 5b 3e 03 06 55 3e
       0.013135988 0.19401571 0.21440184 0.20803075
000390 dd 22 de 3b 6b e4 93 3d 55 f7 95 3d 66 51 56 3d
       0.0067790584 0.07221302 0.073225655 0.05232372
0003a0 74 1d 60 3d 9f 2e 88 3e 1c 78 71 3e fc 45 61 be
       0.05471559 0.2659807 0.23580974 -0.21999353
0003b0 01 99 d0 bd 24 4e c1 bd ea 8e 1c bd e8 f3 00 3e
       -0.10185433 -0.09438732 -0.03822223 0.12593043
0003c0 f6 22 b5 bc 61 62 4c 3d 41 0c 29 be 89 62 19 be
       -0.022111397 0.04989851 -0.1650858 -0.14978994
0003d0 c4 b9 f6 3c 78 0f 3f bd 89 ec 8f bc 64 83 fd 3a
       0.030117877 -0.04664561 -0.017568843 0.0019341526
0003e0 61 07 b9 3d cb 56 10 bb 7c cf dd 3c e4 e9 10 bd
       0.090346105 -0.002202439 0.027076475 -0.035379305
0003f0 9f 89 09 bd a3 3c 3d 3e e7 35 11 3d 13 93 dd 3c
       -0.03357851 0.18480162 0.035451796 0.02704767

classifier.1.bias f4 [10]
000000 ac 57 c1 bc c4 89 49 3f 96 6c ee 3c b3 cf 2f be
       -0.023601376 0.7872584 0.029104512 -0.17169075
000010 15 61 f0 bd 25 c3 75 bd 56 22 f7 bd 37 30 37 3e
       -0.11737267 -0.060000557 -0.12067096 0.17889486
000020 cf a6 b0 be 6e 34 62 bd
       -0.34502265 -0.055225782
