model_weights/model_epoch_4.pth (torch, 34447 bytes, 10 tensors)

conv_block_1.0.weight f4 [10, 1, 3, 3]
0	0x3d6fb524	0.05852236
1	0xbe8b2cd3	-0.27182636
2	0xbeac3ba7	-0.3363926
3	0xbe47b64a	-0.19503132
4	0x3eace72f	0.3377013
5	0x3e1abc74	0.15110952
6	0x3e2d6b41	0.16935445
7	0x3f0687bb	0.5255086
8	0x3dfadbbb	0.122489415
9	0xbd27739e	-0.040881746
10	0x3de94ccc	0.11391601
11	0xbeb68d83	-0.3565484
12	0x3d1c646a	0.0381817
13	0x3ebb8dc4	0.36631596
14	0xbdd1d928	-0.102464974
15	0xbef10c90	-0.47079897
16	0xbe54f9dd	-0.2079844
17	0x3e72203e	0.23645112
18	0x3f1165a0	0.5679569
19	0xbed2aae4	-0.41146004
20	0xbe8ae79d	-0.27129832
21	0x3e9a4178	0.30128074
22	0xbefdade7	-0.4954674
23	0xbe859251	-0.26088193
24	0x3f1122ae	0.5669354
25	0xbe1863d8	-0.14881837
26	0x3ecc6249	0.39918736
27	0xbe3daac0	-0.18522167
28	0xbe6444bb	-0.22291844
29	0x3e3a77db	0.18209784
30	0xbe927b34	-0.28609622
31	0x3d92e91d	0.07173369
32	0x3f014804	0.5050051
33	0xbe77c37e	-0.24195668
34	0xbe3206c1	-0.17385389
35	0x3e9428ef	0.2893748
36	0x3ee02316	0.43776768
37	0x3e6c1fa7	0.2305895
38	0x3f17085c	0.5899713
39	0x3e35eee1	0.17766906
40	0xbe8afd3e	-0.27146333
41	0xbde40eab	-0.1113561
42	0xbef1440d	-0.4712223
43	0xbf64e4be	-0.8941153
44	0xbedd4c82	-0.43222433
45	0xbe272dae	-0.16326019
46	0x3e24b2a2	0.16083768
47	0x3e567947	0.20944701
48	0xbe2a78cc	-0.16647643
49	0x3e6d76d3	0.23189859
50	0x3e8591cb	0.26087794
51	0x3ca542ea	0.020173509
52	0x3ec6f903	0.38861856
53	0x3e7d6a00	0.24747467
54	0x3eccde57	0.40013382
55	0x3e5f816b	0.21826713
56	0xbf1eecc6	-0.6208004
57	0x3d3edbab	0.04659621
58	0xbe106665	-0.1410156
59	0x3af40099	0.0018615901
60	0xbe7faebb	-0.24968998
61	0xbc79f415	-0.015255948
62	0xbe28d8ac	-0.16488904
63	0xbeaedbf6	-0.34152192
64	0x3cb80cde	0.022467073
65	0x3ea23df6	0.31687897
66	0xbf176f93	-0.59154624
67	0xbec7ad13	-0.38999233
68	0xbeaf0ee8	-0.3419106
69	0xbca0c60a	-0.019625682
70	0xbeb6338b	-0.355862
71	0xbf17d258	-0.59305334
72	0xbe8f7177	-0.28016254
73	0xbe15c02c	-0.14624089
74	0xbd96b989	-0.07359607
75	0x3e09560d	0.13411732
76	0x3ee67168	0.45008397
77	0xbe78d490	-0.24299836
78	0xbea47deb	-0.32127318
79	0xbe0a9c28	-0.13536131
80	0xb95ef0a7	-0.0002126122
81	0x3d8ae574	0.06782046
82	0xbf13d49d	-0.577463
83	0xbeedc16b	-0.4643663
84	0x3ea987ad	0.33111325
85	0x3ed3e339	0.41384295
86	0xbe7e3f5f	-0.24828862
87	0xbe9ceef0	-0.30651045
88	0x3eb18949	0.34675053
89	0x3d58ecd7	0.052960243

conv_block_1.0.bias f4 [10]
0	0xbe61a625	-0.22036035
1	0xbe8045dd	-0.250533
2	0x3e231536	0.1592606
3	0xbdd20711	-0.10255254
4	0x3c045f5e	0.008079378
5	0xbf33c960	-0.7022915
6	0xbd25930c	-0.040423438
7	0x3ee5e2dd	0.44899645
8	0x3da28838	0.07936138
9	0xbe811f84	-0.25219357

conv_block_1.2.weight f4 [10, 10, 3, 3]
0	0xbd2e8a97	-0.04261264
1	0x3e0eabb5	0.13932689
2	0x3c3728a0	0.011179119
3	0x3cd8072e	0.026370611
4	0xbc820a04	-0.015873916
5	0xbe842eed	-0.25817052
6	0xbd7a440b	-0.061100047
7	0x3dae8f8d	0.08523474
8	0x3da1479f	0.07874989
9	0x3d8c944e	0.068642244
10	0xbcaa20ce	-0.020767596
11	0x3d0d6923	0.034524094
12	0x3ca49405	0.020090112
13	0xbdaa4e44	-0.08315709
14	0x3ce3e154	0.027817406
15	0xbbd07a44	-0.0063622314
16	0xbcd2d8a2	-0.025738064
17	0xbe1c90b6	-0.15289578
18	0x39f2dfea	0.00046324666
19	0xbdf4564f	-0.119305246
20	0xbd63facb	-0.055659097
21	0xbe5e5886	-0.21713457
22	0xbd8d3b61	-0.06896091
23	0xbc9d3c5d	-0.019193823
24	0xbe4bba64	-0.19895321
25	0xbcf21511	-0.02955106
26	0x3d99154a	0.07474764
27	0x3d2c0fbd	0.042007197
28	0x3dc4d0a6	0.09610109
29	0xbe075a72	-0.13218096
30	0x3e2a0ed1	0.16607215
31	0xbd03cd74	-0.032178357
32	0xbe7283ff	-0.23683165
33	0x3e627d32	0.2211807
34	0xbe234703	-0.15945058
35	0xbe96b50f	-0.29435012
36	0xbd9e733b	-0.07736822
37	0xbe052631	-0.1300285
38	0xbd0b2777	-0.033973183
39	0xbe72a5f5	-0.2369612
40	0xbe274695	-0.16335519
41	0x3e2081ce	0.15674517
42	0xbe9dbdf5	-0.30808988
43	0xbdd7388a	-0.10508831
44	0xbe12d6b9	-0.14339723
45	0x3e201aea	0.15635267
46	0x3dc94853	0.09828248
47	0x3de0cc3f	0.10976457
48	0x3e12580e	0.14291403
49	0xbd4caba0	-0.04996836
50	0x3d9bdfa6	0.07611017
51	0x3e2916d2	0.16512612
52	0x3c97b2f9	0.018517958
53	0x3dbb6885	0.09150795
54	0x3d323aad	0.04351299
55	0x3e166702	0.14687732
56	0x3dc8ead4	0.09810415
57	0x3d55fee6	0.052245043
58	0x3dbe3754	0.09287897
59	0x3ddfe60a	0.10932548
60	0xbd7c8d5a	-0.06165824
61	0xbd6fa2c4	-0.058504835
62	0x3e03314d	0.12811776
63	0xbe23d2ca	-0.15998378
64	0xbe59477e	-0.21218678
65	0xbded716d	-0.115939
66	0xbe106124	-0.14099556
67	0xbe3a7a03	-0.18210606
68	0xbd8b8695	-0.06812779
69	0xbe15a48d	-0.14613552
70	0xbe316667	-0.1732422
71	0xbd7b9de1	-0.061429862
72	0xbd92ff6b	-0.07177623
73	0xbdf8d641	-0.12150241
74	0xbb6675e4	-0.0035165483
75	0xbdd33e12	-0.10314573
76	0x3d9ff4f1	0.07810391
77	0x3d8ce45a	0.06879492
78	0xbb8a355a	-0.004217786
79	0xbabb771b	-0.0014302464
80	0x3d44b4ef	0.048024114
81	0xbdebae36	-0.115078375
82	0x3d2f2776	0.042762242
83	0xbd3b12a3	-0.04567207
84	0xbe17563c	-0.1477899
85	0x3d119e69	0.035551462
86	0xbd4579b6	-0.048211776
87	0xbdb2bc2f	-0.087272994
88	0xbd5583ca	-0.052127637
89	0xbcf61df2	-0.030043576
90	0x3d9ba31d	0.07599471
91	0x3d0913ad	0.03346603
92	0xbe295d0e	-0.16539404
93	0xbdd792af	-0.105260246
94	0xbe4b9542	-0.19881156
95	0x3d972fb8	0.073821485
96	0xbcc611d2	-0.02417842
97	0x3e51a9ba	0.20474902
98	0x3e84d45f	0.25943276
99	0x3d648cea	0.05579845
100	0x3c94440a	0.01809885
101	0x3ccca43b	0.024980655
102	0x3b194cd2	0.0023391736
103	0xbd03b9e3	-0.032159697
104	0xbd62a09b	-0.055328947
105	0xbdb56684	-0.08857444
106	0xbd3ff95c	-0.046868667
107	0x3cdf3ad6	0.027249735
108	0xbd208274	-0.03918691
109	0xbd423725	-0.04741587
110	0xbdd40c22	-0.10353877
111	0x3d50f830	0.05101794
112	0x3d028ee4	0.031874552
113	0x3d04be7e	0.03240823
114	0x3d5eac01	0.054363254
115	0x3dc8ac5d	0.09798501
116	0xbd3b0838	-0.045662135
117	0x3e0eb5bb	0.13936512
118	0x3d2f4972	0.042794652
119	0x3c36e8ac	0.011163872
120	0xbd2e706e	-0.04258769
121	0xbd9ca45a	-0.07648535
122	0xbd0e58ec	-0.03475277
123	0xbd9812c3	-0.074254535
124	0xbd5217de	-0.051292293
125	0x3e13b079	0.14422788
126	0x3d16435a	0.036685325
127	0xbb8b0bbb	-0.0042433417
128	0x3bd44935	0.0064784535
129	0x3e747484	0.23872572
130	0x3dbdf1f3	0.09274664
131	0xbe0f48e8	-0.13992655
132	0x3d3cf115	0.04612835
133	0xbd067890	-0.03282982
134	0xbe2b85e3	-0.16750292
135	0xbbdac7d5	-0.006676654
136	0xbdf59c29	-0.11992676
137	0x3d5a3058	0.05326876
138	0x3da17f3b	0.078855954
139	0xbde5dd43	-0.11223843
140	0x3da36b6b	0.07979473
141	0xbdf6b2c3	-0.12045815
142	0xbc5994e1	-0.013280124
143	0x3e3ca510	0.18422341
144	0xbd755bea	-0.05990211
145	0x3b960743	0.0045785024
146	0x3de654f1	0.1124667
147	0x3cea55e2	0.028605405
148	0x3d9241bd	0.07141445
149	0xbd252a5d	-0.040323604
150	0x3e139caf	0.14415239
151	0xbdd94a39	-0.1060986
152	0xbc9de6f6	-0.01927517
153	0xbe105248	-0.14093888
154	0xbd03fef1	-0.032225553
155	0x3d3b8f46	0.045790933
156	0xbda28625	-0.07935742
157	0xbc8e764d	-0.017390395
158	0xbd75f0b1	-0.060043994
159	0xbe3cb0dd	-0.18426843
160	0xbdeec50d	-0.11658678
161	0xbdfe0d3c	-0.12404868
162	0xbcf93ea9	-0.030425387
163	0xbdf873ab	-0.12131437
164	0xbd3be3be	-0.04587149
165	0x3cd2724e	0.02568927
166	0x3dacd6fc	0.084394425
167	0xbd616b0b	-0.055033725
168	0x3c558681	0.0130325565
169	0xbc86af92	-0.01644114
170	0xbe07e156	-0.13269553
171	0x3d5a2334	0.05325623
172	0x3b717373	0.0036842495
173	0x3dd25666	0.102703854
174	0x3de3dece	0.11126481
175	0xbd2b7c70	-0.04186672
176	0x3d0310fb	0.031998616
177	0xbd2dd9bb	-0.042443972
178	0x3c53263f	0.012887537
179	0xbe08f8f5	-0.1337622
180	0x3dc108c1	0.09425498
181	0xbb315176	-0.002705661
182	0xbe9a3d9f	-0.30125138
183	0xbe22897f	-0.15872763
184	0xbe528a49	-0.20560564
185	0xbe96b0b2	-0.29431683
186	0xbe9961ac	-0.2995733
187	0xbe876404	-0.26443493
188	0xbdcbb9aa	-0.09947522
189	0x3dcb77e2	0.09934975
190	0xbdc74cac	-0.09731421
191	0xbe023587	-0.12715732
192	0x3d11ab26	0.03556361
193	0x3d761519	0.060078714
194	0xbd975284	-0.073887855
195	0x3d2c1aff	0.042017933
196	0xbccd9b0b	-0.025098344
197	0x3c9334a4	0.017969437
198	0xbd8fdb42	-0.07024242
199	0x3cec8fa6	0.02887709
200	0x3e0edb28	0.13950789
201	0xbc3cb4f7	-0.011517755
202	0x3c901d32	0.017592046
203	0x3e1771eb	0.1478955
204	0x3d96cf6f	0.073637836
205	0x3deb7906	0.11497693
206	0x3cb62e1c	0.022238784
207	0x3df7ba4d	0.12096081
208	0xbe4129c6	-0.18863592
209	0xbe4bce69	-0.19902958
210	0xbcc40690	-0.02392891
211	0xbe73d911	-0.23813273
212	0xbe4ddbd9	-0.20103396
213	0xbe9e38b7	-0.30902645
214	0xbdc50043	-0.096191905
215	0x3dabd846	0.0839086
216	0x3dd375ab	0.10325178
217	0x3d41e65f	0.04733884
218	0x3e53db28	0.2068907
219	0x3e019de1	0.12657882
220	0x3e48737e	0.19575307
221	0xbdfd2331	-0.12360228
222	0x3e63fe63	0.2226501
223	0xbde808b8	-0.11329788
224	0xbe2516c0	-0.1612196
225	0x3da4d977	0.080492906
226	0xbc3da99d	-0.0115760835
227	0xbdb29989	-0.08720691
228	0xbd1f58d1	-0.03890306
229	0xbc3bc5f5	-0.011460771
230	0xbe208e95	-0.1567939
231	0xbde4b746	-0.11167769
232	0xbdb7a47d	-0.089669205
233	0xbe073b4d	-0.13206215
234	0x3dea6597	0.11445158
235	0x3e39ccf2	0.18144587
236	0x3e0daeea	0.13836256
237	0x3e03b48f	0.12861846
238	0x3a95eaca	0.001143777
239	0x3e06e4ce	0.1317322
240	0x3e633d97	0.22191463
241	0x3d99fa04	0.0751839
242	0xbdd5ea62	-0.104450956
243	0xbe2d6933	-0.16934662
244	0xbd5fe8ed	-0.054665495
245	0xbe232f8a	-0.15936103
246	0x3d0c4a16	0.03425034
247	0x3cb853d8	0.022500917
248	0xbdb62ef1	-0.08895672
249	0xbb5ddc05	-0.0033853066
250	0x3d1596d9	0.036520813
251	0x3e062f41	0.13103963
252	0xbd6e0e09	-0.058118854
253	0xbdeae312	-0.114690915
254	0xbd4da7f0	-0.050208986
255	0x3d723886	0.059135936

conv_block_1.2.bias f4 [10]
0	0x3e92fd2f	0.2870879
1	0xbdffd399	-0.12491531
2	0xbe081920	-0.13290834
3	0x3c8b1b48	0.016980782
4	0x3e5176eb	0.2045552
5	0x3f1b52d2	0.6067325
6	0xbdba86df	-0.09107756
7	0x3dbc345d	0.09189675
8	0xbc425be9	-0.011862733
9	0x3d1c13c8	0.038104802

conv_block_2.0.weight f4 [10, 10, 3, 3]
0	0x3d889c19	0.06670398
1	0x3d542072	0.051788755
2	0xbc3a4762	-0.011369558
3	0x3d070073	0.032959413
4	0xbd99a248	-0.07501656
5	0x3df3f004	0.11911014
6	0x3cecb581	0.028895142
7	0xbe189475	-0.14900382
8	0x3d7afb4f	0.061274823
9	0x3e0009f9	0.12503804
10	0xbd40b5e9	-0.047048483
11	0x3be2be95	0.006919692
12	0xbc975da5	-0.01847727
13	0x3e302ac8	0.1720382
14	0x3dc7dc13	0.09758773
15	0xba39e070	-0.0007090634
16	0xbd476367	-0.04867878
17	0x3d85196b	0.06498989
18	0xbcd831a3	-0.026390856
19	0xbd37b925	-0.044854302
20	0x3e3014ee	0.17195484
21	0x3e435098	0.19073713
22	0x3decdabb	0.11565157
23	0x3d5534a2	0.052052148
24	0x3dee6bb0	0.116416335
25	0xbddf921f	-0.10916542
26	0x3c93aa35	0.018025497
27	0x3eb57aac	0.35445154
28	0x3c673b76	0.014113298
29	0xbe02983c	-0.12753385
30	0xbe2193e2	-0.15779069
31	0xbe35a1b6	-0.17737469
32	0xbe0ef429	-0.13960327
33	0xbd655f0b	-0.055998843
34	0xbdc60aca	-0.096700266
35	0xbd815590	-0.06315148
36	0x3e221ce5	0.15831335
37	0x3d2d6e78	0.04234168
38	0xbdfee31b	-0.12445661
39	0xbd9d66d7	-0.07685631
40	0xbdb32ad8	-0.08748406
41	0xbe2ebd4d	-0.170644
42	0xbe6d8e8b	-0.23198907
43	0xbe8d7c60	-0.27633953
44	0xbd786266	-0.060640715
45	0x3e8a0a1f	0.26960847
46	0x3ea7290b	0.326485
47	0xbc6c0b2f	-0.014406963
48	0x3dbb63ca	0.09149893
49	0xbddb7b9d	-0.10716937
50	0x3dfcf87c	0.12352082
51	0xbe851547	-0.25992796
52	0x3da5c806	0.08094792
53	0x3e745e93	0.23864202
54	0x3e3027cd	0.17202683
55	0x3e991a03	0.29902658
56	0x3e182589	0.14858069
57	0x3e0cd013	0.13751249
58	0x3d0768be	0.033058874
59	0xbe5216df	-0.20516537
60	0x3d2739d7	0.040826645
61	0x3a7e2dcd	0.0009696156
62	0x3db333be	0.087501034
63	0x3dc24c1e	0.094871745
64	0x3d56cb35	0.052439887
65	0xbc9bde4f	-0.019026903
66	0xbc8923af	-0.016740648
67	0x3dac2bea	0.084068134
68	0x3dfb4ba2	0.12270285
69	0xbe2646df	-0.16237973
70	0xbdba55dd	-0.09098408
71	0xbe13c31e	-0.144299
72	0x3d82cdd2	0.06386913
73	0xbc6175d8	-0.013761006
74	0x3d425ab4	0.047449782
75	0x3d7cf934	0.061761096
76	0xbd957201	-0.07297135
77	0xbd3cbdf5	-0.046079595
78	0xbcdee423	-0.027208393
79	0xbd70fc13	-0.058834147
80	0xbc909ef0	-0.017653912
81	0xbdc0fe18	-0.094234645
82	0xbd6460e7	-0.055756476
83	0x3e276bd1	0.16349722
84	0x3e1506e3	0.14553408
85	0x3e376459	0.17909373
86	0xbe36145b	-0.17781202
87	0x3dab2b8f	0.083579175
88	0xbd92ed89	-0.071742125
89	0xbe60736b	-0.21919028
90	0x3e56fba9	0.20994438
91	0xbcb7389a	-0.022365857
92	0xbda06849	-0.07832391
93	0x3ecf7168	0.4051621
94	0x3e0e1150	0.13873792
95	0x3c9ca553	0.019121801
96	0x3d1d512d	0.038407493
97	0xbe563490	-0.20918489
98	0x3d3602ad	0.044436146
99	0x3e7cb98e	0.24680158
100	0x3da91567	0.08256035
101	0xbd4ae783	-0.049537193
102	0xbe5dd633	-0.21663742
103	0x3d923612	0.07139219
104	0xbbaf9ecd	-0.0053595067
105	0xbd3533c6	-0.044238828
106	0x3dd12023	0.10211208
107	0x3cbe8f36	0.023261648
108	0xbe4fb979	-0.20285596
109	0x3db08edf	0.086210005
110	0x3e30239c	0.17201084
111	0x3cf413f8	0.029794678
112	0x3bba154c	0.0056788083
113	0x3e5e2be3	0.21696429
114	0xbd27ba8e	-0.040949397
115	0xbd8295fe	-0.06376265
116	0xbcbfa958	-0.02339618
117	0x3b9edb18	0.0048478954
118	0xbd96a5a9	-0.07355816
119	0x3dc831f9	0.097751565
120	0xbd609a50	-0.054834664
121	0xbd46f3d8	-0.04857239
122	0x3d67e5ab	0.056615513
123	0xbd31badf	-0.043391105
124	0x3c819a1a	0.015820552
125	0xbd062fa4	-0.032760277
126	0x3ea6cc1f	0.32577607
127	0x3d783655	0.06059869
128	0xbd8b9f0b	-0.068174444
129	0x3d0196b8	0.031637877
130	0x3dfe2b90	0.12410653
131	0xbe39f258	-0.18158853
132	0x3e0f666b	0.14003913
133	0xbe180b92	-0.14848164
134	0xbdd6a583	-0.104807876
135	0x3e9ea3c8	0.3098433
136	0x3e7312a7	0.23737584
137	0x3e6a5b5d	0.22886415
138	0x3f45db12	0.772874
139	0x3e83a639	0.25712755
140	0xbee62630	-0.4495101
141	0xbeea05e6	-0.45707625
142	0xbed0beba	-0.40770513
143	0xbeba7ff4	-0.36425745
144	0xbd7882b3	-0.06067152
145	0x3cb4488c	0.02200725
146	0x3eabe990	0.33576632
147	0x3d56102a	0.05226151
148	0x3d2950ea	0.04133693
149	0x3d5ce45d	0.05392872
150	0x3e0a0cab	0.13481395
151	0xbd979909	-0.07402236
152	0xbea03ab0	-0.31294775
153	0xbc93b52b	-0.018030724
154	0x3e05f921	0.13083316
155	0xbe0b679b	-0.13613741
156	0xbeb09081	-0.34485248
157	0xbe9698c4	-0.29413426
158	0xbe092bc6	-0.13395604
159	0xbe4dd095	-0.20099099
160	0x3edf43b9	0.43606356
161	0xbce4f6cf	-0.027949719
162	0xbd57f59b	-0.052724462
163	0xbe17f542	-0.14839652
164	0x3d052c77	0.032513108
165	0xbdb8fef8	-0.090330064
166	0xbe29a418	-0.16566503
167	0x3d3b2a90	0.045694888
168	0x3e454287	0.1926366
169	0x3df2427d	0.11829088
170	0x3d5600e5	0.052246947
171	0xbebc6f69	-0.3680375
172	0xbea21a75	-0.3166081
173	0x3def122c	0.11673388
174	0xbf121e84	-0.57077813
175	0xbcf07f19	-0.02935748
176	0x3ebdcec0	0.370718
177	0x3e5777df	0.21041821
178	0x3e4b0097	0.19824444
179	0xbe231272	-0.15925005
180	0x3e37dff0	0.17956519
181	0x3e417e00	0.18895721
182	0x3db0bf90	0.08630288
183	0x3eac96f4	0.33708918
184	0xbe1fef91	-0.15618731
185	0xbdf479fa	-0.11937328
186	0x3e9f57a8	0.31121564
187	0xbdc22f48	-0.094816744
188	0xbd88a9cc	-0.06673011
189	0xbe0ed13b	-0.13947003
190	0xbd8519b5	-0.06499044
191	0x3d980cf7	0.07424348
192	0xbdcc3ce1	-0.09972549
193	0xbd0e3763	-0.03472079
194	0x3e19d2ec	0.15021867
195	0x3d94c1bf	0.07263517
196	0xbc24bcc5	-0.010054772
197	0x3c5f0c5b	0.013613786
198	0xbdace0fe	-0.08441351
199	0x3d510bce	0.05103665
200	0x3eafb545	0.34317985
201	0xbde5b572	-0.112162486
202	0x3d7f0607	0.062261607
203	0x3d5a9c1b	0.05337153
204	0xbdd278af	-0.10276925
205	0x3de4aacc	0.111653894
206	0xbe8616c3	-0.2618924
207	0x3dfd8af3	0.12380018
208	0x3d1f2b0d	0.038859416
209	0xbeb8c524	-0.36087906
210	0xbe185721	-0.14876987
211	0xbd20d54a	-0.03926591
212	0xbe81b828	-0.25335813
213	0xbe18a504	-0.14906698
214	0xbeab5a3a	-0.33467275
215	0x3dd06329	0.10175163
216	0x3dda5845	0.10661367
217	0x3eac39e4	0.33637917
218	0xbec3d0a8	-0.3824513
219	0x3da28046	0.079346225
220	0xbe5391b8	-0.20661056
221	0xbebea8cf	-0.37238166
222	0x3f18a5e6	0.5962814
223	0xbe3494b2	-0.17634848
224	0x3d6f06ce	0.0583561
225	0x3e701be7	0.23448144
226	0x3ddcd06a	0.10781939
227	0x3c60d10f	0.013721718
228	0xbdf6261d	-0.12018988
229	0xbee6268d	-0.44951287
230	0xbebeff15	-0.37303987
231	0x3d145d7c	0.036221966
232	0xbed25b09	-0.4108508
233	0x3ecbeaa3	0.3982745
234	0xbdec9d6d	-0.11553464
235	0x3d34af02	0.044112213
236	0x3e0373c1	0.12837125
237	0xbe97d2ab	-0.29652914
238	0xbe8f51c3	-0.27992067
239	0xbe9c6702	-0.3054734
240	0xbe9b4faa	-0.30334216
241	0xbe7aa689	-0.2447759
242	0x3bcfc542	0.0063406536
243	0xbdac2ea6	-0.08407335
244	0xbe3fb932	-0.1872299
245	0xbe11fa3d	-0.14255615
246	0xbd56ba18	-0.052423567
247	0xbda50413	-0.08057418
248	0x3e6eb29a	0.23310319
249	0xbdbcdb6e	-0.092215404
250	0x3e046f9d	0.12933202
251	0x3eae867b	0.34086975
252	0x3d8146b7	0.06312316
253	0xbdbd5022	-0.092438
254	0x3d00fe2f	0.03149241
255	0xbc10904d	-0.0088234665

conv_block_2.0.bias f4 [10]
0	0xbdba0904	-0.09083751
1	0xbb97ab5d	-0.0046285824
2	0x3ea45197	0.32093498
3	0x3db6c945	0.08925108
4	0x3ddf9ff1	0.10919178
5	0x3e4862c2	0.19568923
6	0x3e7b27a6	0.24526843
7	0xbdcef79f	-0.10105824
8	0x3d6430a0	0.055710435
9	0x3dccbb08	0.09996611

conv_block_2.2.weight f4 [10, 10, 3, 3]
0	0xbe2ac482	-0.16676524
1	0xbd7f4427	-0.062320855
2	0xbd9580d6	-0.07299964
3	0xbdea364d	-0.11436138
4	0xbbd4787a	-0.0064840885
5	0xbcacee4e	-0.021109726
6	0x3d470a1e	0.048593633
7	0xbd53881f	-0.051643487
8	0x3c46530c	0.012104761
9	0xbe1ce1c1	-0.15320493
10	0xbe6ba69e	-0.23012778
11	0xbe724021	-0.23657276
12	0xbe8a13b3	-0.26968154
13	0xbdf45f6f	-0.11932265
14	0x3e33fcb6	0.1757687
15	0xbe8812d1	-0.26576856
16	0x3e6bf31a	0.23041955
17	0x3ea97bc9	0.33102253
18	0x3eb5731a	0.35439378
19	0xbc23765f	-0.009976952
20	0xbe34aef1	-0.1764486
21	0xbe0b4798	-0.1360153
22	0xbdd6b304	-0.10483363
23	0xbdde0c06	-0.10842137
24	0xbea67d0d	-0.3251728
25	0xbdcf2073	-0.10113611
26	0x3e5e5910	0.21713662
27	0x3d31c545	0.04340102
28	0x3ea998bd	0.33124343
29	0x3d285963	0.04110087
30	0x3ed4f599	0.41593626
31	0x3d30f093	0.04319818
32	0xbed461c0	-0.41480827
33	0x3eec272e	0.46123642
34	0xbe850a6a	-0.25984508
35	0xbecde3a8	-0.4021275
36	0xbed95bef	-0.42452952
37	0xbe995954	-0.29950964
38	0xbf09c68a	-0.5381857
39	0xbe546ad1	-0.20743872
40	0x3cc50925	0.024052212
41	0xbe57f308	-0.21088803
42	0x3e51b202	0.20478061
43	0xbedca483	-0.43094262
44	0xbebe5719	-0.37175825
45	0xbd6fa655	-0.058508236
46	0xbe11dfd1	-0.14245535
47	0x3d6bbea3	0.057554852
48	0xbbf47479	-0.0074601737
49	0x3d64a9ac	0.055825874
50	0x3e62265e	0.22084948
51	0xbdcde358	-0.10053128
52	0xbd6d4e4f	-0.05793601
53	0x3e8764be	0.26444048
54	0x3ce4bd3d	0.027922267
55	0x3cce54a8	0.025186852
56	0xbe9f475d	-0.31109133
57	0x3d098aff	0.033579823
58	0x3d8aa60a	0.06769951
59	0xbe0d6ecb	-0.13811795
60	0xbda3629a	-0.07977791
61	0xbecf0f30	-0.40441275
62	0xbef33211	-0.47499135
63	0xbca907c0	-0.020633578
64	0xbd163e19	-0.036680315
65	0xbd973df5	-0.07384864
66	0x3c88eca5	0.016714403
67	0xbbd44209	-0.0064775986
68	0xbd604c6c	-0.05476038
69	0x3c3ee88e	0.011652125
70	0xbdb6094b	-0.08888491
71	0xbd51bd55	-0.05120595
72	0x3d822dba	0.06356378
73	0x3b7af30a	0.0038291835
74	0xbd6850df	-0.05671775
75	0x3d35c733	0.044379424
76	0xbd62cf33	-0.05537338
77	0xbe084d4d	-0.13310738
78	0x3e12739b	0.14301912
79	0x3d72f63a	0.05931685
80	0xbe11c02f	-0.14233468
81	0xbc6c9a52	-0.01444109
82	0xbe4a9b52	-0.19785812
83	0xbe6c281f	-0.2306218
84	0xbe90ebe9	-0.28304985
85	0xbe946ac8	-0.28987718
86	0x3e7d5d80	0.24742699
87	0xbe26acb6	-0.16276821
88	0x3e0219ec	0.12705201
89	0x3cd75115	0.02628378
90	0xbe32fcf5	-0.17479308
91	0xbe000adc	-0.12504143
92	0xbde58321	-0.112066515
93	0xbe17956e	-0.14803097
94	0x3ddf7811	0.10911573
95	0x3e4649f5	0.1936415
96	0xbe54056b	-0.20705192
97	0x3ea725b6	0.3264596
98	0x3e1da39c	0.15394443
99	0x3dfce380	0.1234808
100	0x3bb19adb	0.0054200715
101	0xbcfd99c1	-0.030957105
102	0x3e008c85	0.12553604
103	0x3db1d84c	0.086838335
104	0x3cb9b06d	0.022667134
105	0xbd042c21	-0.032268647
106	0xbed7b36a	-0.4212907
107	0xbd7164f4	-0.058934167
108	0xbf6f7429	-0.9353662
109	0xbf429fc4	-0.76025033
110	0xbf294c0e	-0.66131675
111	0x3e8fae96	0.28062886
112	0x3c890618	0.016726539
113	0xbe083448	-0.13301194
114	0x3e8e1a59	0.27754477
115	0x3dc79717	0.09745615
116	0x3df3e1b8	0.11908287
117	0xbe9522ee	-0.29128212
118	0xbb2a983c	-0.002603068
119	0x3df6fabb	0.12059542
120	0xbe5d4183	-0.21607022
121	0xbf246dda	-0.6423012
122	0xbf10253b	-0.5630681
123	0x3d2020bb	0.039093714
124	0x3de57668	0.11204225
125	0x3e5afea1	0.21386196
126	0x3c80db7d	0.01572966
127	0x3cb08707	0.021548761
128	0x3ee8609f	0.45386216
129	0x3d268913	0.040658068
130	0x3a2ba7e5	0.00065481506
131	0xbda1c158	-0.078982055
132	0xbe6fb6f4	-0.23409635
133	0xbec6dca7	-0.3884022
134	0xbe5174df	-0.20454739
135	0x3ea7a5fe	0.3274383
136	0xbbda5fd9	-0.006664258
137	0x3e0b17fa	0.13583365
138	0xbd984258	-0.07434529
139	0xbdd102ba	-0.10205598
140	0x3a6f6614	0.0009132337
141	0x3d252272	0.040316053
142	0x3d83a5a9	0.064280815
143	0x3c71f305	0.014767413
144	0x3e8dfba1	0.2773104
145	0xbe11f9d3	-0.14255457
146	0xbedf0949	-0.43561772
147	0x3db26c37	0.087120466
148	0xbcf13d28	-0.029448107
149	0x3e5043fa	0.20338431
150	0xbda6d041	-0.0814519
151	0x3e521e53	0.2051938
152	0xbd1aa94e	-0.037759118
153	0xbc5a6b1d	-0.013331202
154	0x3b40112c	0.002930711
155	0xbdaf58f0	-0.08561885
156	0x3d29d20b	0.04146008
157	0xbceddce4	-0.029035993
158	0x3d609f84	0.054839626
159	0x3da6d009	0.08145148
160	0xbdb52df9	-0.08846659
161	0xbd992c30	-0.07479131
162	0x3dbcaa27	0.092121415
163	0x3cf6e04b	0.030136248
164	0x3bb56b27	0.005536455
165	0xbd6789b9	-0.056527827
166	0xbd6535d3	-0.055959534
167	0xbd3345a3	-0.043767583
168	0xbcd65712	-0.026164565
169	0x3c826a97	0.015919967
170	0x3cd3ac20	0.025838912
171	0x3f0eb82c	0.55749774
172	0x3d6e5f84	0.05819656
173	0xbd2e579b	-0.042564016
174	0xbd832702	-0.064039245
175	0x3e49c549	0.19704165
176	0xbdb51852	-0.08842529
177	0xbedb2011	-0.42797902
178	0xbeb9283f	-0.36163518
179	0xbef6c044	-0.48193562
180	0x3e2f21cd	0.17102738
181	0xbd8c7f0e	-0.06860171
182	0x3cd0aa25	0.025471756
183	0xbd9ee9a0	-0.07759404
184	0xbe991749	-0.29900578
185	0xbd0d6188	-0.03451684
186	0xbcc0930b	-0.023507616
187	0xbe6ecfda	-0.23321477
188	0xbe184b51	-0.14872481
189	0xbe197c0c	-0.14988726
190	0xbebd71d8	-0.37000918
191	0x3d3ac7e0	0.045600772
192	0xbe79d1d7	-0.24396454
193	0xbf30e533	-0.6909973
194	0xbe56bab9	-0.20969667
195	0xbe16e9e4	-0.1473766
196	0xbf22c055	-0.63574725
197	0xbf087f2d	-0.53319055
198	0x3eb981ca	0.36231834
199	0xbf1108cd	-0.56654054
200	0xbea4c22b	-0.32179388
201	0x3dff8278	0.12476057
202	0xbe82a3dd	-0.25515643
203	0xbe411adb	-0.18857901
204	0x3ce16b44	0.027516969
205	0xbe7e3074	-0.24823171
206	0xbe6b40c4	-0.22973925
207	0xbedf6b49	-0.4363654
208	0x3e8d366f	0.27580592
209	0x3d4e8208	0.050416976
210	0xbed7832a	-0.42092258
211	0x3c593841	0.013258041
212	0xbebc6286	-0.36793917
213	0xbe03699a	-0.12833253
214	0xbe05c216	-0.13062319
215	0xbe7c5524	-0.24641854
216	0xbe140c03	-0.14457707
217	0x3e747724	0.23873574
218	0xbe30352e	-0.17207786
219	0xbeaf168f	-0.34196898
220	0x3e009ee1	0.12560607
221	0x3de2b0a9	0.110688515
222	0xbe8a9c2e	-0.2707228
223	0x3e42d73e	0.19027421
224	0x3e999a8a	0.30000716
225	0xbde7691e	-0.112993464
226	0xbe6302a8	-0.22168982
227	0xbce7d52b	-0.028299889
228	0x3d9e642e	0.077339515
229	0xbe369929	-0.17831863
230	0xbdf8c379	-0.121466585
231	0x3e2fd3d6	0.17170653
232	0xbccd33c9	-0.025049107
233	0xbdeaad2a	-0.1145881
234	0x3e3985fa	0.18117514
235	0x3dce8ae9	0.10085089
236	0xbd0ceb56	-0.03440412
237	0xbe942383	-0.28933343
238	0x3e8b8d51	0.27256253
239	0x3e94191b	0.28925404
240	0xbe3f7d84	-0.18700224
241	0x3e951fd5	0.29125848
242	0x3d995ce4	0.074884206
243	0xbddd7ea9	-0.10815174
244	0xbd9f8d9e	-0.07790683
245	0x3b996c2e	0.0046820855
246	0x3d4a7be4	0.049434558
247	0xbc5eb20b	-0.013592253
248	0x3b11ba3c	0.0022236248
249	0x3d77156b	0.06032316
250	0x3dc3dc58	0.095635116
251	0xbce132b7	-0.027490003
252	0x3c5e3886	0.013563281
253	0x3c9f3dd2	0.019438658
254	0x3c3fda67	0.011709786
255	0xbdb31eb3	-0.0874609

conv_block_2.2.bias f4 [10]
0	0x3cc1e159	0.023667024
1	0x3e55dafe	0.2088432
2	0x3e46cd1b	0.19414179
3	0x3e33ae83	0.1754704
4	0x3e19d2d3	0.1502183
5	0xbd9d0277	-0.07666486
6	0xbe2c1485	-0.16804703
7	0xbcaf4f8c	-0.021400236
8	0x3e655339	0.22395028
9	0xbe6947fa	-0.22781363

classifier.1.weight f4 [10, 490]
0	0xbd37acc5	-0.0448425
1	0xbdbc1801	-0.09184266
2	0xbe0536f8	-0.1300925
3	0x3d09c18b	0.033631843
4	0xbe60a786	-0.21938905
5	0xbdcf0d7e	-0.10109995
6	0xbb1ba1c9	-0.0023747555
7	0xbd3460ba	-0.04403756
8	0xbc910c6c	-0.017706119
9	0xbe622a6a	-0.22086492
10	0xbdb5cd13	-0.088770054
11	0xbdace24c	-0.084416
12	0xbe6064e1	-0.21913482
13	0xbd55a2f5	-0.05215736
14	0xbbe7ec11	-0.007077702
15	0x3e7a059d	0.24416204
16	0x3e1a2f96	0.15057215
17	0x3ea31515	0.31852022
18	0xbe95c918	-0.29254985
19	0xbde1b15d	-0.110201575
20	0x3d8a2c30	0.06746709
21	0xbc1ff788	-0.009763606
22	0x3e10ae78	0.14129055
23	0x3eb77daf	0.35838076
24	0xbdc79fff	-0.09747314
25	0x3e419078	0.18902767
26	0x3e9e1546	0.30875605
27	0xbc394300	-0.011307478
28	0xbd712f0c	-0.058882758
29	0x3d254548	0.040349275
30	0x3a2783ea	0.0006390201
31	0x3e8051ca	0.250624
32	0x3e5d19b0	0.2159183
33	0xbd24d021	-0.04023755
34	0x3c12004f	0.008911206
35	0xbc92bfbc	-0.017913692
36	0xbdba805a	-0.09106512
37	0xbe08808f	-0.13330291
38	0x3976dacf	0.00023541901
39	0x3cdb36a3	0.026759451
40	0xbce3a3f8	-0.027788147
41	0x3c79d495	0.015248437
42	0x3c8660ef	0.016403643
43	0x3bc01e81	0.0058630113
44	0xbd1aa413	-0.03775413
45	0xbb82197e	-0.003970324
46	0xbca6493d	-0.020298595
47	0x3c7b7bfd	0.015349385
48	0xbc307105	-0.010769133
49	0x3cddd2e2	0.027078096
50	0x3d71397b	0.05889271
51	0x3bdb6eae	0.0066965437
52	0x3df3db0f	0.119070165
53	0x3d8da2dc	0.069158286
54	0x3c7bde8e	0.015372885
55	0x3cd3fddf	0.025877891
56	0x3be2d818	0.006922733
57	0xbe02c4fe	-0.12770459
58	0xbe8d94ac	-0.2765249
59	0xbcdc7d19	-0.02691512
60	0xbde526bb	-0.11189028
61	0xbd8f3a20	-0.06993508
62	0x3d09d03d	0.033645857
63	0xbdf2206b	-0.118225895
64	0xbe32ca96	-0.17460093
65	0xbd66c276	-0.056337796
66	0x3dc61a2c	0.09672961
67	0x3d8c672f	0.06855618
68	0xbd1c494e	-0.038155846
69	0xbd706e8a	-0.05869917
70	0xbd05350a	-0.032521285
71	0xbec9d93f	-0.39423558
72	0xbebe5b82	-0.3717919
73	0xbe64f9bf	-0.22360896
74	0xbd9bf60c	-0.07615289
75	0xb9331713	-0.00017079366
76	0xbdfd4fac	-0.12368712
77	0x3da917fd	0.082565285
78	0x3debe516	0.11518304
79	0xbdffe523	-0.12494876
80	0xbe7b5267	-0.24543153
81	0xbddbdc07	-0.10735326
82	0xbd16c0f0	-0.036805093
83	0x3d889e6f	0.06670844
84	0x3d3f9eca	0.046782292
85	0x3e35640d	0.17713948
86	0x3e2e989f	0.17050408
87	0x3e85f3ed	0.26162663
88	0x3c1898e0	0.009313792
89	0xbe7e38bb	-0.24826328
90	0xbd85bc91	-0.06530107
91	0x3ca540dc	0.020172529
92	0x3ba75c06	0.0051074056
93	0x3e961052	0.29309326
94	0x3e6b9fb1	0.23010136
95	0xbd70137d	-0.058612335
96	0xbe8981f9	-0.26856974
97	0xbd28a990	-0.041177332
98	0xbd1f6040	-0.03891015
99	0xbdfbe7cf	-0.12300073
100	0xbcbce300	-0.02305746
101	0x3cb1f073	0.0217211
102	0xbc353189	-0.011059173
103	0x3a2f370d	0.00066839234
104	0x3d048bdd	0.032359947
105	0xbdc08b9e	-0.0940163
106	0xbdf32abf	-0.118733875
107	0xbe5b77ca	-0.21432415
108	0xbcdcbd00	-0.026945591
109	0x3c97561f	0.018473683
110	0xbc298783	-0.01034725
111	0xbd65909d	-0.056046117
112	0x3c968c15	0.018377343
113	0x3e307cfa	0.17235175
114	0xbdd23fe3	-0.10266092
115	0xbdb622c2	-0.08893348
116	0x3e4535cc	0.19258803
117	0x3eaf43ab	0.34231314
118	0xbd951953	-0.07280221
119	0x3e88b355	0.2669932
120	0x3e7ae9fe	0.24503323
121	0x3d32b27c	0.043627247
122	0xbe282b7b	-0.16422836
123	0x3e7f03f1	0.24903847
124	0x3e9dff62	0.30858904
125	0xbe10baab	-0.14133708
126	0x3e039a63	0.12851863
127	0x3d3227eb	0.0434951
128	0x3e92481a	0.28570634
129	0xbe03bc5b	-0.1286482
130	0x3d1324be	0.035923712
131	0x3d913ec7	0.07092052
132	0xbd7d3ae0	-0.061823726
133	0x3bf217aa	0.007388075
134	0x3e406e4c	0.18792075
135	0x3e4ee148	0.20203125
136	0xbe8339a0	-0.25629902
137	0xbea58276	-0.32326096
138	0xbd4a0376	-0.049319707
139	0xbcc160f9	-0.02360581
140	0xbb6345fb	-0.0034679163
141	0xbd8352e0	-0.064122915
142	0xbd4fd772	-0.050742574
143	0xbdf0831f	-0.11743759
144	0xbd903baa	-0.0704263
145	0xbd5164a5	-0.051121373
146	0xbd3edc36	-0.04659673
147	0x3c7701c5	0.0150761055
148	0xbda6d178	-0.08145422
149	0xbe411778	-0.18856609
150	0xbc9ad6e4	-0.018901296
151	0x3de3ce4d	0.11123333
152	0x3e1033e6	0.14082298
153	0xbde474ea	-0.11155112
154	0xbd46688a	-0.04843954
155	0xbc018442	-0.007905068
156	0x3d0cd8bd	0.034386385
157	0x3e7eed0a	0.2489511
158	0x3eb58510	0.3545308
159	0x3e502454	0.20326358
160	0x3e423333	0.18964843
161	0x3d124ad4	0.035715893
162	0x3cb485ff	0.02203655
163	0xbd71d65f	-0.05904233
164	0xbdf72162	-0.12066914
165	0x3def550b	0.116861425
166	0x3daa1078	0.083039224
167	0x3e133dac	0.14378995
168	0xbd199dbe	-0.03750395
169	0xbe5bbd41	-0.21458913
170	0xbe5a8946	-0.21341428
171	0xbe370c21	-0.1787572
172	0xbeb859b5	-0.3600594
173	0xbe9d6a36	-0.30745095
174	0x3aa6c357	0.0012723011
175	0x3cc281e3	0.023743575
176	0xbea6eec1	-0.3260403
177	0xbe61cfd0	-0.2205193
178	0x3e49a73a	0.19692698
179	0x3d9729df	0.07381033
180	0xbe8e72c9	-0.2782195
181	0xbea2737e	-0.3172874
182	0x3ca7bda5	0.020476172
183	0xbd58a989	-0.052896056
184	0x3cef9d80	0.029249907
185	0x3ea43d11	0.3207784
186	0xbdc0b740	-0.09409952
187	0xbe338b62	-0.17533639
188	0xbda4ad7f	-0.08040904
189	0xbc1fe334	-0.009758759
190	0xbc88e714	-0.01671175
191	0xbcccbf4e	-0.024993565
192	0xba9412ee	-0.0011297145
193	0x3d42280b	0.04740147
194	0xbb708d67	-0.0036705376
195	0x3c021d08	0.007941492
196	0x3c889be3	0.016675895
197	0x3c38b9a6	0.011274731
198	0xbd00f376	-0.031482182
199	0xbd2ca427	-0.042148735
200	0xbe043971	-0.12912537
201	0xbd737ade	-0.059443347
202	0xbc000fae	-0.007816238
203	0x3cd5ff18	0.026122615
204	0xbdfbb22a	-0.122898415
205	0xbd7514b4	-0.059834197
206	0xbde7a664	-0.11311033
207	0xbebd412f	-0.36963794
208	0xbdcb01f6	-0.099124834
209	0xbbfa7b45	-0.0076440894
210	0xbc084b1a	-0.008318687
211	0x3de123b5	0.10993139
212	0x3e215429	0.15754761
213	0xbc0ad04c	-0.008472513
214	0xbe7b154c	-0.24519843
215	0x3e5ccb3b	0.21561901
216	0x3d99bdcc	0.07506904
217	0xbd260b4e	-0.040538125
218	0x3e12559b	0.14290468
219	0x3ea6f7cd	0.32610932
220	0xbe6558a9	-0.22397102
221	0x3e9188a4	0.2842456
222	0x3ebafc95	0.3652083
223	0x3daa4d71	0.08315552
224	0x3c62671f	0.013818531
225	0x3c628d05	0.013827567
226	0x3bdf7035	0.006818796
227	0xbe63cd39	-0.22246255
228	0xbd8daf2d	-0.06918178
229	0x3e8d5efc	0.2761153
230	0xbcfc54c2	-0.030802134
231	0x3cfe8580	0.031069517
232	0x3ddf2866	0.10896377
233	0xbe779a21	-0.2417989
234	0xbf0c1a48	-0.547276
235	0xbefc0e14	-0.4922949
236	0xbe8c0d6b	-0.27353987
237	0xbd82393f	-0.06358575
238	0x3cf2c496	0.029634755
239	0xbd028b66	-0.031871222
240	0x3cf5ab1a	0.029988814
241	0xbe028208	-0.12744915
242	0xbe92b998	-0.28657222
243	0xbd8e3e0a	-0.06945427
244	0xbc996c3a	-0.018728364
245	0x3c172d88	0.009227164
246	0xbd3024ef	-0.043003973
247	0x3b58eb8a	0.0033099377
248	0xbcaa48cb	-0.020786664
249	0x3ae8a641	0.0017749743
250	0xbca7b549	-0.020472186
251	0x3b9c89da	0.0047771754
252	0x3ca8ee1e	0.020621356
253	0xbcfb977c	-0.030711882
254	0x3cdd0245	0.026978621
255	0x3dd283de	0.10279058

classifier.1.bias f4 [10]
0	0xbd4bd427	-0.04976287
1	0x3eee87f6	0.46588105
2	0x3ca89904	0.020580776
3	0x3cf6a6d8	0.030108854
4	0xbd82ae25	-0.06380872
5	0xbd91f5d6	-0.071269676
6	0x3d35823a	0.044313647
7	0x3dac7a1b	0.08421727
8	0xbe62058b	-0.22072427
9	0xbdc57d08	-0.096429884
