model_weights/model_epoch_5.pth (torch, 34439 bytes, 10 tensors)

conv_block_1.0.weight f4 [10, 1, 3, 3]
0	0xbf09da51	-0.5384875
1	0x3e069aea	0.13145033
2	0xbe4ce1d3	-0.2000802
3	0xbe0b1811	-0.135834
4	0x3ecd0b82	0.40047842
5	0x3f1a63cf	0.60308546
6	0xbebcf923	-0.36908826
7	0xbd3ccac0	-0.046091795
8	0x3ed34000	0.41259766
9	0xbd4be4d0	-0.04977876
10	0xbd970788	-0.07374483
11	0xbe52fd2c	-0.2060439
12	0xbe0777d1	-0.132293
13	0xbc6a1b04	-0.014288668
14	0xbe947d2a	-0.29001743
15	0x3e1ed07d	0.1550922
16	0xbdd44b45	-0.10365919
17	0x3d9831be	0.074313626
18	0xbea07df6	-0.313461
19	0xbebbe83f	-0.36700627
20	0x3aaf3195	0.0013366217
21	0x3d56822e	0.052370243
22	0x3e831cb2	0.2560783
23	0x3ed13e1c	0.40867698
24	0x3e283667	0.16427003
25	0xbe227507	-0.15864955
26	0xbed5f514	-0.41788542
27	0x3e577f48	0.21044648
28	0x3e25d124	0.16193062
29	0x3e654d27	0.22392713
30	0x3f104833	0.5636017
31	0xbcabbbfb	-0.02096366
32	0xbe9474d5	-0.28995386
33	0x3ebc61da	0.36793405
34	0xbf093d1b	-0.53608865
35	0xbe958cf7	-0.2920911
36	0xbda9fdb6	-0.08300345
37	0x3e19990c	0.14999789
38	0xbe9ab0e9	-0.30213097
39	0x3e3e4974	0.18582708
40	0x3eae1733	0.34002075
41	0x3e0826e4	0.13296086
42	0x3ded9ea8	0.11602527
43	0x3dac595a	0.0841548
44	0xbe2aedf7	-0.16692339
45	0xbf3c996d	-0.7367161
46	0x3e495447	0.19661056
47	0x3e327658	0.17427957
48	0x3e116668	0.14199221
49	0x3ef20ad6	0.47273892
50	0xbe01a504	-0.12660605
51	0x3dd7c49f	0.10535549
52	0x3d15cb6f	0.036570963
53	0x3e9399a0	0.28828144
54	0x3f08f729	0.53502136
55	0x3e4e0629	0.20119537
56	0xbe94cb1d	-0.29061213
57	0xbe1c8b97	-0.15287624
58	0xbf0070ea	-0.50172293
59	0xbf205307	-0.6262669
60	0xbefbca01	-0.49177554
61	0xbf15a600	-0.5845642
62	0x3ea231d9	0.31678656
63	0x3eda3f84	0.42626584
64	0x3d504e1d	0.050855745
65	0xbf337b83	-0.7011034
66	0x3ef31341	0.47475627
67	0xbee7370a	-0.4515918
68	0xbf0d53eb	-0.55206174
69	0x3ddf827d	0.109135605
70	0x3ebd807c	0.37012088
71	0x3ee4d90a	0.44696838
72	0xbe82c800	-0.25543213
73	0xbe4e2c2a	-0.20134035
74	0xbdca0362	-0.098639265
75	0x3ea41288	0.32045388
76	0x3d9ee3e3	0.0775831
77	0xbe788c0c	-0.24272174
78	0xbea91094	-0.3302046
79	0xbe8c22b1	-0.27370217
80	0x3e7b9645	0.24569042
81	0xbf4c6db6	-0.79854906
82	0xbf94ac5e	-1.1615102
83	0xbefebfe1	-0.49755767
84	0xbd986ddd	-0.0744283
85	0xbef9e360	-0.48806286
86	0x3ea38832	0.31939846
87	0x3f412f52	0.7546283
88	0x3f292301	0.66069037
89	0x3ebe6144	0.37183583

conv_block_1.0.bias f4 [10]
0	0xbd63857f	-0.055547234
1	0xbe09f411	-0.1347201
2	0xbb5a1362	-0.0033275713
3	0x3d1a9024	0.03773512
4	0xbe3195bd	-0.17342277
5	0xbdff8cd5	-0.124780335
6	0x3eb3cdb0	0.35117865
7	0xbda180f7	-0.07885926
8	0x3db29a46	0.087208316
9	0x3ec89b5e	0.39181036

conv_block_1.2.weight f4 [10, 10, 3, 3]
0	0xbce9571d	-0.028483922
1	0xbdf13040	-0.11776781
2	0xbd587ebf	-0.05285525
3	0xbd83a631	-0.06428183
4	0x3d9e3342	0.077246204
5	0xbc26729e	-0.010159163
6	0xbd9c5fe8	-0.0763548
7	0x3c9b6bf0	0.018972367
8	0xbceab6f8	-0.0286517
9	0xbd3b04e9	-0.04565898
10	0x3da6f1e6	0.08151607
11	0xbd7f8314	-0.062380865
12	0x3ca0f07f	0.019645927
13	0x3da9ece7	0.08297139
14	0xbdb32e94	-0.087491184
15	0x3dc7127f	0.09720325
16	0xbd9a34d3	-0.07529607
17	0x3d60e136	0.054902278
18	0x3be983ab	0.0071262917
19	0xbd0be19a	-0.034150697
20	0x3db1c0c2	0.08679344
21	0x3da61efe	0.0811138
22	0x3ceb7387	0.028741611
23	0xbcb07a48	-0.021542683
24	0xbb7d7d17	-0.0038679296
25	0x3dc1835f	0.09448885
26	0xbdaf0b4b	-0.08547076
27	0xbd9957bb	-0.074874364
28	0xbd9c9eb9	-0.076474614
29	0xbda67d2e	-0.08129345
30	0x3ce22148	0.02760376
31	0xbc01abd5	-0.007914503
32	0x3ca2e448	0.019884244
33	0xbd3b4ee5	-0.045729537
34	0xbc2e1cff	-0.01062703
35	0xbc79011f	-0.015198021
36	0xbcfc0cc2	-0.030767802
37	0x3c779228	0.01511053
38	0xbcdaef71	-0.026725503
39	0xbdd89e57	-0.10577076
40	0x3d767d4c	0.060178086
41	0xbdcb7b8a	-0.099356726
42	0xbd95070e	-0.07276736
43	0xbdb962dd	-0.0905206
44	0x3c486f48	0.012233563
45	0x3d9dcfae	0.077056274
46	0xbc8529ce	-0.016255286
47	0xbd086875	-0.033302743
48	0xbd1dc577	-0.038518395
49	0x3d0c410a	0.034241714
50	0xbc543d2a	-0.012954036
51	0xbd44f614	-0.04808624
52	0xbc86c6c3	-0.016452199
53	0xbc93a7c3	-0.018024331
54	0xbdb084ff	-0.08619117
55	0xbd6a508c	-0.05720572
56	0x3d2bd592	0.041951723
57	0xbdc53111	-0.09628499
58	0xbc9e1a91	-0.019299777
59	0xbd0599e8	-0.03261748
60	0xbdcec71b	-0.1009657
61	0x3d514ba2	0.05109752
62	0xbd912a6e	-0.07088171
63	0xbd835fdd	-0.06414769
64	0x3d911d13	0.070856236
65	0x3da2f93f	0.07957696
66	0xbda445c6	-0.08021121
67	0x3d30a19f	0.043122884
68	0xbd9c04d0	-0.076181054
69	0xbd0f3b3f	-0.03496861
70	0xbd951b3f	-0.072805874
71	0xbc9d3d47	-0.019194258
72	0x3d3300a6	0.04370179
73	0xbd744baf	-0.05964249
74	0x3ca8b0fa	0.020592202
75	0xbca15a24	-0.019696303
76	0xbd768c0f	-0.060192164
77	0x3dd43a71	0.10362709
78	0xbb4300b5	-0.002975506
79	0xbd93ae67	-0.07210999
80	0xbd91829a	-0.071049884
81	0xbd104bd6	-0.035228573
82	0x3d3b30aa	0.045700707
83	0x3d160a1d	0.03663074
84	0x3d3ae853	0.045631718
85	0xbd902a7e	-0.07039355
86	0xbdd22a1e	-0.102619395
87	0x3cf1ae59	0.02950208
88	0x3d970699	0.07374305
89	0xbdc5822b	-0.09643968
90	0xbe39b53b	-0.1813554
91	0x3d1f6bc4	0.038921133
92	0x3edf41d2	0.43604904
93	0xbea1f98b	-0.316357
94	0xbe15ebb6	-0.14640698
95	0x3e9bb999	0.30415037
96	0xbebb877d	-0.36626807
97	0xbe911fa3	-0.2834445
98	0x3ee282dc	0.44240463
99	0xbdb8ca25	-0.09022931
100	0x3c8ea248	0.017411366
101	0x3d1bf637	0.038076606
102	0x3d863d06	0.06554608
103	0x3cef8ca6	0.029241871
104	0xbd12c652	-0.035833664
105	0x3d297f6d	0.04138129
106	0x3dad5d76	0.08465092
107	0xbda827f1	-0.08210743
108	0xbdbada4a	-0.091236666
109	0x3d825c84	0.06365302
110	0xbdc39762	-0.09550358
111	0x3dea290f	0.114336126
112	0xbd5681ea	-0.05236999
113	0x3d935a79	0.07194991
114	0x3d617022	0.05503858
115	0xbda3c600	-0.0799675
116	0xbda32f54	-0.079680115
117	0xbe3b107e	-0.1826801
118	0xbe2a7ead	-0.16649885
119	0xbc5d1889	-0.013494619
120	0xbdac094e	-0.08400212
121	0xbe10aa50	-0.14127469
122	0xbcb88a90	-0.02252701
123	0x3d835bbf	0.064139836
124	0xbe0e6044	-0.1390391
125	0x3d019b82	0.031642444
126	0xbe148cce	-0.14506838
127	0xbe61ea71	-0.22062089
128	0xbcd2915d	-0.02570408
129	0xbdaf6c99	-0.08565635
130	0xbdee87d5	-0.11647002
131	0xbdcdfd59	-0.10058088
132	0xbd81a55c	-0.06330368
133	0xbd251ae0	-0.040308833
134	0xbe23e01b	-0.16003458
135	0xbe5c29ca	-0.21500316
136	0xbe063d03	-0.13109212
137	0x3ea3241d	0.3186349
138	0xbde7e11c	-0.11322233
139	0xbe2affc1	-0.16699125
140	0x3e55a122	0.20862249
141	0xbe0bf2f9	-0.13666905
142	0xbe0e8a17	-0.13919865
143	0x3d9b0ee3	0.07571199
144	0xbd1a27d5	-0.037635643
145	0xbe249dc5	-0.1607581
146	0xbe55e2e5	-0.20887335
147	0xbd94c6d4	-0.07264486
148	0xbe2ec760	-0.17068243
149	0xbe82aec9	-0.25523975
150	0xbdb17f61	-0.08666874
151	0xbe2256cb	-0.15853421
152	0xbde7547f	-0.11295413
153	0xbc4bc074	-0.012436021
154	0xbe15c468	-0.14625704
155	0xbe7f98a4	-0.24960572
156	0x3dccdea5	0.100034036
157	0xbd9b90f6	-0.075960085
158	0xbe260cc0	-0.16215801
159	0x3df155d9	0.11783952
160	0xbd89b9ae	-0.06724869
161	0xbdcb6d21	-0.09932924
162	0xbd23544e	-0.03987532
163	0xbdfd08b6	-0.12355177
164	0xbdecab4a	-0.11556108
165	0x3cd2cf76	0.02573369
166	0x3ce1b5c6	0.027552497
167	0xbbceb0f4	-0.0063077156
168	0x3bfc2116	0.007694374
169	0xbdb2e628	-0.08735305
170	0xbd42c3c7	-0.04754999
171	0x3ca0ef38	0.019645318
172	0xbd1d7032	-0.038437076
173	0xbe724879	-0.23660459
174	0x3d00814c	0.031373307
175	0xbde8cc18	-0.11367053
176	0xbe174dcf	-0.14775775
177	0x3d9dddaf	0.077082984
178	0x3d924ccd	0.07143555
179	0xbe223d46	-0.15843686
180	0x3c891c6b	0.016737184
181	0xbe0edd25	-0.13951547
182	0xbef1e701	-0.47246554
183	0x3e3aea5a	0.1825346
184	0xbc5a65d5	-0.013329943
185	0xbeb296aa	-0.34880573
186	0xbdb7bfce	-0.08972131
187	0x3e26970c	0.16268557
188	0xbe20c7d6	-0.15701231
189	0x3920ff33	0.00015353858
190	0xbdd4038d	-0.1035224
191	0x3c91bf9b	0.01779156
192	0xbc0c34ad	-0.008557481
193	0xbd86a2e0	-0.06574035
194	0xbc010137	-0.007873825
195	0x3d0c070b	0.034186404
196	0x3d946022	0.072448984
197	0xbda94f14	-0.08267036
198	0xbc95887b	-0.018253556
199	0x3d3d11f0	0.046159685
200	0xbdc100ce	-0.094239816
201	0x3e6ae23d	0.22937866
202	0xbcaad14d	-0.020851756
203	0xbcd179f0	-0.02557084
204	0xbd53360e	-0.051565222
205	0xbdc82c2f	-0.09774052
206	0x3c149539	0.009068781
207	0xbd438b8e	-0.04774051
208	0xbe2dc9f8	-0.16971576
209	0x3e8970d4	0.26843894
210	0xbe27115e	-0.16315219
211	0x3b0ee7c4	0.0021805624
212	0x3caefe94	0.021361627
213	0x3e701e5f	0.23449086
214	0x3e9a8b4a	0.30184394
215	0x3dc3fc99	0.095696636
216	0xbd0958be	-0.033531897
217	0x3c1af40a	0.0094575975
218	0xbe728961	-0.23685218
219	0x3e224d80	0.15849876
220	0x3d63a9aa	0.055581726
221	0x3ce13f53	0.027496016
222	0x3e15e0a7	0.1463648
223	0x3db47a83	0.0881243
224	0x3d78b58e	0.06072002
225	0xbe2fa702	-0.17153552
226	0xbd1fe2e1	-0.039034728
227	0xbe572550	-0.21010327
228	0x3d374a41	0.04474855
229	0x3e5c94bc	0.21541113
230	0xbe9dc94b	-0.30817637
231	0x3e455bee	0.1927335
232	0x3e36b20b	0.17841356
233	0xbeb660b4	-0.35620654
234	0x3d4ee912	0.050515242
235	0xbd82642a	-0.06366761
236	0x3d7c02ef	0.061526235
237	0xbe46540b	-0.19367997
238	0xbe3d3cfa	-0.18480292
239	0x3e602c3f	0.21891879
240	0xbee2c82a	-0.44293338
241	0xbeb63d54	-0.35593665
242	0xbe62afd9	-0.22137393
243	0xbd0ffaf2	-0.03515143
244	0x3d3d3a39	0.046198104
245	0x3dc80e03	0.097682975
246	0xbe17f889	-0.14840902
247	0xbe63b785	-0.22237976
248	0x3ec5385e	0.38519567
249	0x3d96181c	0.07328817
250	0x3da44e9b	0.08022805
251	0x3eaae30a	0.33376342
252	0x3dbfde28	0.09368545
253	0xbd2a5c5e	-0.041591994
254	0x3c847166	0.016167354
255	0x3dd6afdc	0.10482761

conv_block_1.2.bias f4 [10]
0	0xbdaa35e7	-0.08311062
1	0xbc9ac4d5	-0.018892685
2	0x3f2d6660	0.67734337
3	0x3d9ad00b	0.07559212
4	0x3e9bb19b	0.3040894
5	0xbdd17f29	-0.10229332
6	0x3ef897c1	0.4855328
7	0x3e44c10e	0.1921427
8	0xbdb81f5c	-0.08990356
9	0x3ed467b3	0.41485366

conv_block_2.0.weight f4 [10, 10, 3, 3]
0	0x3d39df95	0.04537924
1	0xbdaade32	-0.08343162
2	0x3d86e8f0	0.06587398
3	0x3d1610d7	0.036637153
4	0x3d12a10b	0.035798114
5	0x3cff0d3b	0.031134238
6	0xbdd2257e	-0.10261057
7	0x3d4d0e41	0.05006242
8	0xbd80db79	-0.06291861
9	0x3c01bb41	0.00791818
10	0xb9b28fd7	-0.00034057975
11	0xbd391d8d	-0.045194197
12	0x3d8af3b9	0.06784768
13	0xbd400aa7	-0.04688516
14	0xbd84966c	-0.06474003
15	0xbce52bc3	-0.027974969
16	0xbc452e5d	-0.01203498
17	0x3d959275	0.07303325
18	0x3dd258aa	0.102708176
19	0x3d1249b4	0.03571482
20	0x3d44190e	0.047875457
21	0x3d4dd2b4	0.05024977
22	0xbd87a24b	-0.06622752
23	0x3d06fc4c	0.032955453
24	0xbdd4772f	-0.10374295
25	0xbde8fa5b	-0.113758765
26	0x3aeee95b	0.0018227504
27	0xbd4a65e6	-0.049413584
28	0xbd743fcb	-0.05963115
29	0x3d3d10d4	0.046158627
30	0x3e0d6c54	0.13810855
31	0xbd85243a	-0.0650105
32	0x3dfee821	0.12446619
33	0x3dec455d	0.115366675
34	0x3dc6058a	0.09669025
35	0x3d4a391f	0.04937088
36	0x3d818a39	0.06325192
37	0x3d961861	0.07328869
38	0xbdb462a1	-0.088078745
39	0xbd0aed9c	-0.03391801
40	0xbcbcd0c1	-0.02304876
41	0xbdaf02f9	-0.08545489
42	0x3d65e97e	0.05613088
43	0xbd1bbccb	-0.038021844
44	0xbc49153d	-0.01227313
45	0xbd2e3ddf	-0.042539474
46	0xbc9df561	-0.019282045
47	0x3d573d29	0.05254856
48	0xbcb1d4c8	-0.021707907
49	0x3db6618f	0.089053266
50	0x3ccd3e2e	0.025054064
51	0x3da081d1	0.078372605
52	0xbda49ce8	-0.0803774
53	0x3a8fe96d	0.00109796
54	0x3c6de006	0.014518743
55	0xbd87e0a0	-0.06634641
56	0x3d759ce5	0.05996408
57	0xbc5c98b9	-0.013464146
58	0xbc9a7180	-0.01885295
59	0xbd48ddcf	-0.04903966
60	0xbc8262fd	-0.015916342
61	0x3c313343	0.010815444
62	0xbe069f84	-0.13146788
63	0xbc171fe3	-0.009223911
64	0x3da589b9	0.08082909
65	0xbdb06e25	-0.086147584
66	0xbdf8d234	-0.12149468
67	0x3dd96425	0.10614804
68	0xbdaf59d6	-0.08562057
69	0xbc80f113	-0.015739953
70	0x3cb117be	0.021617766
71	0x3dc21e82	0.09478475
72	0x3de8cc3f	0.11367082
73	0xbd1b31b2	-0.03788919
74	0xbcd146ec	-0.025546513
75	0x3d8fa7ff	0.070144646
76	0xbcf54f15	-0.029944936
77	0xbd4a4ec2	-0.049391516
78	0x3d509922	0.05092729
79	0x3b2a16c3	0.0025953508
80	0xbda60b73	-0.081076525
81	0x3cc5455e	0.024080928
82	0xbdbe10d8	-0.092805564
83	0xbdc9d29b	-0.09854623
84	0xbe372232	-0.17884138
85	0x3d025c47	0.031826284
86	0xbd2af080	-0.041733265
87	0xbd3ebb05	-0.046565074
88	0x3d5602cb	0.052248757
89	0xbd2c1868	-0.042015463
90	0x3d16cb2f	0.036814865
91	0x3db7f3bf	0.08982038
92	0x3b23d426	0.0024998276
93	0x3cb42127	0.021988465
94	0x3daf8975	0.0857114
95	0x3dab02cd	0.083501436
96	0x3d36859a	0.044561006
97	0x3d096f73	0.033553552
98	0x3d07f3ae	0.033191375
99	0xbd17f2c5	-0.037096757
100	0x3e320aff	0.17387007
101	0x3cfc0834	0.03076563
102	0xbd9dfdcc	-0.077144235
103	0x3dac6170	0.08417022
104	0x3d9a230b	0.07526215
105	0x3d804f0a	0.062650755
106	0x3c8f5629	0.017497139
107	0x3d1191dc	0.035539493
108	0xbe1ef643	-0.15523629
109	0x3e962e81	0.29332355
110	0x3db6b443	0.08921101
111	0x3b43ca84	0.0029875347
112	0xbb8ed9ed	-0.004359475
113	0xbde981a4	-0.1140168
114	0x3eaead9a	0.34116822
115	0x3e2ab262	0.1666961
116	0xbdc84246	-0.09778266
117	0xbd5b827b	-0.053591233
118	0xbc4bed01	-0.012446643
119	0x3e5c68f1	0.21524407
120	0x3df38084	0.11889747
121	0xbcaf040f	-0.02136424
122	0x3df0000e	0.117187604
123	0xbd556b6a	-0.05210439
124	0xbc83d9f2	-0.016095135
125	0x3d5b88a0	0.053597093
126	0xbd6d760a	-0.0579739
127	0x3d8dcd28	0.06923896
128	0x3d365693	0.044516157
129	0x3d86da47	0.06584602
130	0x3c97614a	0.018479008
131	0xbdaf7b54	-0.08568445
132	0xbe8acd35	-0.27109686
133	0xbe69ee22	-0.22844747
134	0xbea58f1b	-0.32335743
135	0xbc94e46a	-0.018175323
136	0x3c6c4c56	0.014422497
137	0xbd679e12	-0.056547232
138	0xbdccaa5e	-0.099934325
139	0x3da53d47	0.08068328
140	0x3d6338e2	0.05547417
141	0x3ce81bb2	0.028333519
142	0xbd3b6740	-0.045752764
143	0x3d96cdf2	0.073635
144	0x3e53ffcf	0.20703052
145	0x3e27bbf4	0.16380292
146	0x3c8d89be	0.017277595
147	0x3e849593	0.25895366
148	0xbdb80a62	-0.08986355
149	0xbe947c90	-0.29001284
150	0xbd4fe622	-0.05075658
151	0xbeaa9414	-0.333161
152	0xbe4c1328	-0.19929183
153	0xbd06fd21	-0.032956246
154	0x3cc5763c	0.02410423
155	0xbde1ac45	-0.11019186
156	0x3e53dec3	0.20690446
157	0xbd7620e0	-0.060089946
158	0xbda1b0e8	-0.0789507
159	0x3e87b576	0.2650563
160	0xbe56b06c	-0.20965737
161	0xbd07642d	-0.03305452
162	0xbd247589	-0.040151153
163	0x3e4785ec	0.19484681
164	0x3e6ceea9	0.23137917
165	0xbe5d0c2a	-0.21586671
166	0x3b819796	0.003954838
167	0xbd97f542	-0.07419826
168	0x3b0da9c2	0.0021616076
169	0x3d023eb2	0.031798072
170	0xbd45f172	-0.048325963
171	0xbeca9285	-0.3956491
172	0xbe811d0d	-0.25217476
173	0xbe83fa14	-0.25776732
174	0x3dfd54c9	0.12369687
175	0x3d4d313f	0.050095793
176	0xbe8caaef	-0.27474162
177	0x3e23a9f6	0.15982804
178	0xbe1aa5c8	-0.15102303
179	0xbd727a66	-0.05919876
180	0x3d0bda28	0.034143597
181	0x3ce06c8f	0.027395515
182	0x3d0f00e4	0.03491296
183	0xbd9c9669	-0.07645876
184	0xbd3ec164	-0.04657115
185	0x3cae02ff	0.021241663
186	0xbc1cfe3f	-0.009582101
187	0xbdd75f23	-0.10516193
188	0x3d794722	0.060858853
189	0x3d8ab41e	0.06772636
190	0xbd88384d	-0.066513635
191	0xbd4cdd79	-0.0500159
192	0xbd146604	-0.036230102
193	0xbe0facc4	-0.14030749
194	0xbd2af228	-0.041734844
195	0xbd49a00a	-0.04922489
196	0xbc9fa62e	-0.01948842
197	0xbcdd748f	-0.027033119
198	0xbddda9f2	-0.1082343
199	0x3e47e461	0.19520713
200	0x3e22de55	0.15905125
201	0xbe23026b	-0.15918891
202	0xbe23e4c6	-0.16005239
203	0xbc1f5450	-0.0097246915
204	0xbe6865dd	-0.22695108
205	0xbe7a8e0d	-0.2446825
206	0xbd193c2d	-0.037410904
207	0xbd9062a1	-0.07050062
208	0xbec09464	-0.37613213
209	0xbea7df87	-0.32787725
210	0x3c8b2ee7	0.016990138
211	0x3c33d2e8	0.010975577
212	0x3e0bc05d	0.136476
213	0xbdaa0fe0	-0.08303809
214	0x3ea32b15	0.31868806
215	0x3e11e49e	0.14247367
216	0x3e44486b	0.1916825
217	0xbe84c995	-0.25935045
218	0x3e1eb155	0.15497334
219	0x3d2fe46a	0.042942442
220	0x3e501702	0.20321277
221	0x3ee14e46	0.4400503
222	0xbe2f0524	-0.17091805
223	0xbdd52ebd	-0.10409305
224	0xbd96d412	-0.07364668
225	0x3d9df2e4	0.07712343
226	0x3c4915e4	0.012273286
227	0x3c231a09	0.009954938
228	0xbceb27eb	-0.028705558
229	0x3db3bfa1	0.08776785
230	0x3d2eafa1	0.04264796
231	0x3d3a595b	0.045495372
232	0xbd86ad95	-0.06576077
233	0xbc19afba	-0.009380275
234	0x3e1f9c4c	0.15586966
235	0x3e9aff88	0.3027308
236	0x3f111e6f	0.5668706
237	0xbdd9a416	-0.10627
238	0x3e8c19e0	0.2736349
239	0x3e9bf312	0.30458885
240	0xbec73438	-0.38907027
241	0xbedc61e0	-0.43043423
242	0xbec22b94	-0.37923872
243	0xbd1328b9	-0.035927508
244	0x3eae1355	0.33999124
245	0x3ea7ee80	0.3279915
246	0xbdde3ef5	-0.10851852
247	0x3db1594d	0.08659611
248	0xbe55659d	-0.20839544
249	0xbe9422ea	-0.28932887
250	0xbea0f4ec	-0.3143686
251	0xbdac2414	-0.08405319
252	0xbe9c9a70	-0.30586576
253	0xbed2721d	-0.41102687
254	0xbdd183e2	-0.10230233
255	0xbdfcdb40	-0.12346506

conv_block_2.0.bias f4 [10]
0	0xbbadb0b8	-0.0053006075
1	0xbbd57632	-0.006514334
2	0xbd55dbfe	-0.052211754
3	0x3e1175c3	0.14205079
4	0xbd211eac	-0.03933589
5	0x3c3f1d66	0.011664724
6	0xbd98ada6	-0.07454996
7	0xbd5273d8	-0.05138001
8	0x3e7cb80a	0.2467958
9	0x3dbad72a	0.091230705

conv_block_2.2.weight f4 [10, 10, 3, 3]
0	0xbdbe2a32	-0.09285392
1	0xbd17fae3	-0.0371045
2	0x3c1a66b1	0.009423898
3	0x3dae983f	0.085251324
4	0x3ce0204e	0.027359154
5	0x3d890f72	0.06692399
6	0xbc3c6430	-0.011498496
7	0x3d9f75b0	0.07786119
8	0xbddc65cd	-0.107616045
9	0x3ea4141a	0.32046586
10	0xbdb11991	-0.086474545
11	0xbde5469b	-0.111951075
12	0x3d22f0e6	0.03978052
13	0xbd96853e	-0.07349633
14	0xbd508b13	-0.05091388
15	0x3dba7242	0.09103824
16	0x3ccf3935	0.025295833
17	0xbd9a00df	-0.075196974
18	0x3e31c4f7	0.17360292
19	0xbe7a301f	-0.24432419
20	0xbed4eb95	-0.41585985
21	0x3ea35549	0.31901005
22	0xbf01bfb8	-0.50683165
23	0xbeb9d58d	-0.3629574
24	0xbdd1514e	-0.10220586
25	0xbf0ed715	-0.5579694
26	0xbe9f7993	-0.3114744
27	0xbd851714	-0.064985424
28	0xbe1d6936	-0.15372166
29	0x3e3233fe	0.17402646
30	0xbe1eb97e	-0.15500447
31	0xbe0076ae	-0.12545273
32	0x3e3c449a	0.18385544
33	0x3d108361	0.035281543
34	0x3debfebc	0.11523196
35	0x3e954b88	0.29159188
36	0x3e48acc2	0.19597152
37	0xbe885c16	-0.26632756
38	0xbe283d5e	-0.1642966
39	0x3d3d8f79	0.046279404
40	0xbe934f26	-0.28771323
41	0xbdbb727c	-0.091526955
42	0xbd88df61	-0.06683231
43	0x3dbce699	0.092236705
44	0x3e9c4074	0.30517924
45	0x3d303b63	0.043025386
46	0xbe99959f	-0.29996964
47	0xbf27c012	-0.6552745
48	0x3e55db24	0.20884377
49	0xbe9edc5d	-0.310275
50	0xbeac1b75	-0.33614698
51	0xbe1f7b80	-0.15574455
52	0xbf25db56	-0.64787805
53	0x3d0834fd	0.03325366
54	0xbdddadc0	-0.10824156
55	0xbcadfc51	-0.021238478
56	0xbe3d2409	-0.18470778
57	0x3e19729d	0.14985128
58	0x3c621b8b	0.013800512
59	0xbdda7e6b	-0.106686436
60	0x3e5f1827	0.21786557
61	0x3cb16288	0.021653429
62	0x3d615900	0.055016518
63	0x3e44c936	0.19217381
64	0x3de26b25	0.110555924
65	0xbdaed45e	-0.085365996
66	0xbc31c6fe	-0.010850666
67	0xbe8a673e	-0.27031893
68	0xbe1aa2d9	-0.15101184
69	0x3cc4f0e2	0.024040643
70	0xbeaf76cc	-0.34270322
71	0xbdebbda8	-0.115107834
72	0xbd7c2bcd	-0.06156521
73	0xbe013e9b	-0.12621538
74	0x3e7b6d0d	0.24553318
75	0xbd8a57c1	-0.06755019
76	0xbe2bad59	-0.16765346
77	0x3ec9d891	0.3942304
78	0x3da0c958	0.07850903
79	0x3dcd9d11	0.10039724
80	0x3e8982be	0.2685756
81	0xbb9c90d3	-0.0047780066
82	0x3e4f237f	0.20228384
83	0xbf012db1	-0.50460345
84	0x3ee0f17a	0.43934232
85	0x3de95131	0.11392439
86	0xbf134e98	-0.575418
87	0x3ebd68d1	0.3699403
88	0xbe7dd4ad	-0.2478816
89	0xbeb68927	-0.35651514
90	0x3d3386dc	0.043829784
91	0xbdf4e2c3	-0.11957314
92	0xbda2b903	-0.079454444
93	0x3d34f0dd	0.044175018
94	0x3bb0515d	0.005380793
95	0xbd8bc606	-0.06824879
96	0x3d4b8d5f	0.04969537
97	0xbd81e76d	-0.06342969
98	0xbd2389c9	-0.039926324
99	0xbdecbf9a	-0.115599826
100	0xbe955694	-0.29167616
101	0xbeadeb48	-0.33968568
102	0xbe1f8a83	-0.15580182
103	0xbe57ba94	-0.21067268
104	0xbe6858ba	-0.22690096
105	0x3d042fcd	0.03227215
106	0xbb02bad5	-0.0019947786
107	0x3d60f2cf	0.05491906
108	0x3f0b4043	0.5439493
109	0xbdf488b7	-0.11940139
110	0x3e473683	0.19454388
111	0x3ea7930c	0.32729375
112	0x3ea4d47f	0.32193372
113	0xbe14a22f	-0.14514993
114	0xbe8767d3	-0.264464
115	0xbe93485b	-0.2876614
116	0xbf276631	-0.65390307
117	0xbd644174	-0.055726483
118	0x3c108a09	0.008821973
119	0x3d3a0c2e	0.04542177
120	0xbdfbc0c2	-0.12292625
121	0xbe828220	-0.25489902
122	0x3dde02a0	0.108403444
123	0x3d820b96	0.06349866
124	0xbda51e90	-0.0806247
125	0x3dd790fb	0.105257
126	0x3db7dc2d	0.08977542
127	0xbe6553ab	-0.22395198
128	0xbbc9016e	-0.0061342036
129	0xbe7a3e13	-0.24437742
130	0xbe7a15ca	-0.24422374
131	0x3d92faef	0.07176768
132	0xbeb3a8b6	-0.35089654
133	0x3d2dced2	0.042433567
134	0xbe02732d	-0.12739249
135	0xbf17ea78	-0.59342146
136	0x3dc7d002	0.09756471
137	0x3ea75901	0.32685092
138	0xbf15ed78	-0.58565474
139	0xbf208195	-0.62697726
140	0xbf146fc6	-0.5798305
141	0x3e326e95	0.17424996
142	0x3d28b53a	0.041188456
143	0x3d19ec42	0.03757883
144	0xbe06b53a	-0.1315507
145	0xbe4b2659	-0.19838847
146	0xbea6865f	-0.32524392
147	0xbdee0719	-0.116224475
148	0xbe0acbe8	-0.13554347
149	0xbe4f63c4	-0.20252901
150	0x3d0fbec2	0.03509403
151	0x3caa5347	0.020791663
152	0xbdd83da0	-0.10558629
153	0xbe0df174	-0.13861638
154	0xbccff64e	-0.025386002
155	0xbe429054	-0.1900037
156	0xbf18213f	-0.5942573
157	0xbe209ed5	-0.1568559
158	0xbea34514	-0.3188864
159	0x3c2aff9c	0.010436919
160	0x3e6198db	0.22030966
161	0x3ed4d9f8	0.41572547
162	0x3e16325c	0.14667648
163	0x3d449a47	0.047998693
164	0xbd667538	-0.056264132
165	0xbe8b871d	-0.2725152
166	0xbe5f161d	-0.2178578
167	0xbef03830	-0.46917868
168	0x3f0442d7	0.5166449
169	0x3e81b545	0.2533361
170	0x3d85a852	0.06526245
171	0x3dd2fcfc	0.10302159
172	0x3dc7b0ea	0.097505406
173	0x3ea1d107	0.31604788
174	0xbe4e553c	-0.20149702
175	0x3c78bc25	0.015181576
176	0xbd97f49d	-0.07419703
177	0xbe94665e	-0.2898435
178	0xbec5f192	-0.38660866
179	0xbf0223f4	-0.5083611
180	0x3d8070bf	0.062715046
181	0x3cb1dca3	0.021711653
182	0x3dc3d641	0.0956235
183	0x3d84a9e9	0.0647772
184	0x3d3a56d7	0.045492973
185	0x3d7bc68d	0.06146865
186	0xbdac680d	-0.084182836
187	0x3d16a5fa	0.03677938
188	0xbdb05df4	-0.0861167
189	0x3e46a95f	0.19400547
190	0xbdf39ed7	-0.11895531
191	0x3c1cd43d	0.009572086
192	0x3c1ecde9	0.0096926475
193	0xbe3f4278	-0.186777
194	0x3d71f257	0.059069004
195	0xbdcce252	-0.10004105
196	0xbe22eb68	-0.15910113
197	0x3c034876	0.0080128815
198	0xbebff64f	-0.37492606
199	0xbd6c43e6	-0.05768194
200	0x3cb2569e	0.021769818
201	0xbe7eda1c	-0.2488789
202	0xbd582643	-0.052770864
203	0xbdb061b6	-0.08612387
204	0x3e802439	0.25027636
205	0xbd352add	-0.04423033
206	0x3da93cae	0.08263527
207	0x3d6815f5	0.056661565
208	0x3e65f567	0.22456895
209	0xbd135d16	-0.035977446
210	0xbd2dc0a6	-0.042420052
211	0xbc97a43d	-0.018510932
212	0xbd9a2eab	-0.075284325
213	0xbd94dcfd	-0.07268713
214	0xbe0c4401	-0.13697816
215	0xbdba05d2	-0.090831414
216	0xbe2cf20a	-0.16889206
217	0x3e9bf4d4	0.30460227
218	0x3c183d3b	0.009291942
219	0xbe549c74	-0.20762807
220	0xbb033dc8	-0.0020025838
221	0xbe94fe5a	-0.29100305
222	0xbe19b476	-0.15010247
223	0xbe1f136c	-0.15534753
224	0xbe90189c	-0.28143775
225	0xbdc2f553	-0.09519448
226	0xbf094b50	-0.5363054
227	0x3d3f4e3b	0.046705466
228	0xbeea39a9	-0.45747116
229	0xbe0da99f	-0.13834237
230	0x3dc4b955	0.09605662
231	0x3ef3bf12	0.47606713
232	0x3f18289a	0.59436953
233	0x3d1c7772	0.03819985
234	0x3e266333	0.16248779
235	0x3e50864e	0.20363733
236	0x3dadedcb	0.08492621
237	0xbc5edb0a	-0.013602028
238	0xbd8bd81f	-0.06828331
239	0x3d4cd765	0.050010104
240	0x3d1ed48c	0.03877692
241	0x3da5a0bd	0.08087299
242	0x3d9235a8	0.0713914
243	0xbc541eca	-0.012946794
244	0xbc0ae108	-0.008476503
245	0x3ebd0dbf	0.3692455
246	0x3da55221	0.080723055
247	0xbe9abbff	-0.30221555
248	0x3e666f68	0.22503436
249	0xbe9ac9b7	-0.3023202
250	0xbdd3a1c3	-0.10333588
251	0x3db4f6a1	0.08836103
252	0xbddac5bf	-0.10682248
253	0xbdc19f67	-0.09454232
254	0xbda761f7	-0.08172982
255	0xbee62a5d	-0.44954196

conv_block_2.2.bias f4 [10]
0	0xbda64b3b	-0.08119818
1	0xbd95f224	-0.07321575
2	0x3d828077	0.06372159
3	0x3ca8ebf5	0.020620326
4	0x3d3f112f	0.046647247
5	0xbeb408ff	-0.35163113
6	0xbd36f898	-0.04467067
7	0xbca08a28	-0.019597128
8	0xbe21e6ce	-0.15810701
9	0xbda5f640	-0.08103609

classifier.1.weight f4 [10, 490]
0	0xbdc11441	-0.09427691
1	0xbde749e0	-0.112933874
2	0x3cf170e9	0.029472785
3	0xbd7337ab	-0.05937926
4	0xbd28cb18	-0.04120931
5	0xbd018883	-0.03162433
6	0x3be5b5e1	0.007010207
7	0xbd0f8c90	-0.03504616
8	0xbd175fad	-0.036956478
9	0x3d7cb622	0.061697133
10	0xbe52a7c6	-0.20571813
11	0xbea0a23b	-0.31373772
12	0xbefad564	-0.4899093
13	0xbe852f69	-0.26012734
14	0x3e89360b	0.26799044
15	0x3da0818d	0.0783721
16	0xbd8c2baa	-0.06844266
17	0xbdce9681	-0.100873
18	0xbe1d3fcb	-0.15356366
19	0xbed433bf	-0.4144573
20	0xbe18e997	-0.14932857
21	0x3e52097d	0.20511432
22	0x3e3ab81d	0.18234296
23	0xbd5ecb66	-0.054393195
24	0x3e63a88d	0.22232266
25	0x3dd66d8f	0.104701154
26	0x3e55ff5b	0.20898192
27	0x3d6d0962	0.057870276
28	0x3e1c7b36	0.15281376
29	0x3d149dd1	0.036283318
30	0xbe540fd4	-0.20709163
31	0x3e3d9516	0.18513903
32	0x3eacf36d	0.3377947
33	0x3e9c72ca	0.30556327
34	0x3e87d022	0.2652598
35	0x3dc1af78	0.09457296
36	0xbccba058	-0.024856731
37	0xbe8f3505	-0.27970138
38	0xbe4fdeb9	-0.20299806
39	0x3ac57a0b	0.0015066279
40	0xbc3d5b5e	-0.011557428
41	0xbd1a0c1a	-0.037609197
42	0xbcd57308	-0.026055828
43	0xbba8c5a6	-0.0051505147
44	0xbca53d6e	-0.020170894
45	0xbe8694c6	-0.2628538
46	0xbe8cd162	-0.27503496
47	0xbdf72528	-0.12067634
48	0xbdc31fd0	-0.09527552
49	0xbc5da4ea	-0.013528088
50	0xbd5024b3	-0.05081625
51	0xbcd12b10	-0.02553323
52	0x3c9eb95a	0.019375492
53	0x3dc79a2b	0.09746202
54	0x3d0fe988	0.035134822
55	0xbb145701	-0.0022634866
56	0x3c5c210c	0.013435613
57	0x3d3613ee	0.0444526
58	0xbd852a72	-0.065022364
59	0xb96b6dfc	-0.00022452319
60	0xbc6ca1ff	-0.01444292
61	0xbd50aee4	-0.05094804
62	0xbcd77c19	-0.026304292
63	0x3bc9c233	0.0061571836
64	0xbe275146	-0.16339597
65	0xbe68c933	-0.22733001
66	0xbe5fd9b5	-0.21860392
67	0xbe476de4	-0.19475514
68	0xbd1ea853	-0.038734745
69	0xbd1e11f3	-0.038591336
70	0xbdd41fc0	-0.10357618
71	0xbf07fb46	-0.5311779
72	0xbf3cfec3	-0.73826236
73	0xbe560076	-0.20898613
74	0x3def142c	0.11673769
75	0x3d50f096	0.05101069
76	0xbdd398b8	-0.10331863
77	0xbce0657a	-0.027392138
78	0xbea838c5	-0.32855812
79	0xbefa7c07	-0.4892275
80	0xbec2ba81	-0.38032916
81	0xbdcd2cff	-0.10018348
82	0xbcf3f290	-0.029778749
83	0x3c0ed0b3	0.00871675
84	0x3b6e1d9b	0.0036333564
85	0x3d7a07e7	0.061042693
86	0xbd02001f	-0.031738397
87	0x3dee21cd	0.11627541
88	0x3e2ad13c	0.16681379
89	0xbdd2ec8d	-0.10299025
90	0xbcffbe33	-0.031218624
91	0x3d1367eb	0.035987776
92	0x3dd07fec	0.10180649
93	0x3e801c79	0.25021723
94	0x3eb98f10	0.3624196
95	0xbbe45df4	-0.006969208
96	0xbdc23adc	-0.09483883
97	0x3c1efff5	0.00970458
98	0x3d0f1660	0.034933448
99	0x3cdd0e87	0.026984466
100	0xbe06da25	-0.13169153
101	0xbbe1d9ed	-0.006892434
102	0xbd2da1ea	-0.04239074
103	0x3dbb5a61	0.09148098
104	0x3c5672af	0.013088866
105	0xbc1f0c85	-0.009707575
106	0xbd810293	-0.06299319
107	0x3b226867	0.0024781467
108	0x3d9aa046	0.07550101
109	0x3e14fff4	0.14550763
110	0xbdf7a791	-0.12092508
111	0x3a6fb0da	0.00091434794
112	0x3cbc7c6c	0.023008548
113	0xbc9013ab	-0.017587503
114	0x3cf9a008	0.030471817
115	0xbde4c672	-0.11170663
116	0xbeba854c	-0.36429822
117	0xbe9b43b2	-0.30325085
118	0xbdf3d89e	-0.11906551
119	0x3c1f01cf	0.009705021
120	0xbcb82c90	-0.022482187
121	0xbdb4979a	-0.08817978
122	0xbedb474e	-0.4282784
123	0xbe141822	-0.14462331
124	0xbd9f3bcf	-0.077750795
125	0xbe355c35	-0.17710955
126	0xbd06b30b	-0.032885592
127	0xbd4ea512	-0.050450392
128	0xbd3c0d63	-0.045911204
129	0x3e29a37b	0.16566269
130	0x3e81e3f1	0.25369218
131	0x3c21d3bd	0.0098771425
132	0xbdab1f37	-0.08355563
133	0xbbacc51f	-0.005272522
134	0xbc8d3b63	-0.017240232
135	0xbde60380	-0.11231136
136	0x3e64f3cb	0.22358625
137	0x3e723d94	0.23656303
138	0x3c8c1506	0.017099869
139	0xbd3cf562	-0.046132453
140	0x3cc932b7	0.024560316
141	0x3cae3fbb	0.021270623
142	0xbc0f50d5	-0.008747299
143	0x39f26ecb	0.00046240384
144	0x3d07ece6	0.03318491
145	0xbcb0cea4	-0.021582909
146	0xbaa6df7f	-0.0012731402
147	0xbc203d05	-0.009780173
148	0xbd90f89b	-0.07078668
149	0xbdaddaaf	-0.08488976
150	0xbce7c9ad	-0.028294409
151	0xbd39be6b	-0.045347612
152	0xbcf585c7	-0.029971017
153	0x3d1e73e4	0.03868474
154	0xbd79a502	-0.06094838
155	0xbde91cb0	-0.11382425
156	0xbe459e56	-0.19298682
157	0xbd44efbe	-0.0480802
158	0xbd81d90b	-0.06340226
159	0xbcb0fc65	-0.021604726
160	0xbc44869f	-0.011994987
161	0xbdba4b77	-0.09096425
162	0xbd7c9469	-0.061664972
163	0xbe279515	-0.16365464
164	0xbe84bb2e	-0.25924057
165	0x3e063bfb	0.13108818
166	0x3e54703d	0.2074594
167	0x3c88c9ff	0.016697882
168	0xbd33fa22	-0.043939717
169	0x3d02fa44	0.031976953
170	0x3e90e3a0	0.28298664
171	0xbe852ad4	-0.26009238
172	0x3e7cbbf2	0.2468107
173	0x3ed478c3	0.41498384
174	0x3d3ced30	0.046124637
175	0xbc614b40	-0.013750851
176	0x3ddff4f0	0.1093539
177	0x3d0467c0	0.032325506
178	0xbeaa6151	-0.33277372
179	0x3dbab03a	0.09115644
180	0x3e629535	0.2212723
181	0xbc5cb960	-0.013471931
182	0x3d563583	0.052297127
183	0x3e1e3a8b	0.1545202
184	0x3e919b9b	0.2843903
185	0xbde03cb9	-0.10949082
186	0xbe941534	-0.28922427
187	0xbe04b086	-0.12957963
188	0xbc544bc3	-0.012957516
189	0x3cb43c09	0.022001283
190	0xbc963dfe	-0.018340107
191	0x3c76d179	0.015064591
192	0xbde33478	-0.11093992
193	0xbe3ba558	-0.18324792
194	0xbd566a10	-0.052347243
195	0xbd50e7b1	-0.05100221
196	0xbbadd608	-0.0053050555
197	0xbc959bc0	-0.018262744
198	0x3d14d325	0.036334176
199	0x3d057992	0.03258664
200	0x3d8f78f0	0.07005489
201	0x3d80e329	0.06293327
202	0x3d8bbc26	0.06822996
203	0x3cf1c90c	0.029514812
204	0xbdbd7b20	-0.09252
205	0xbd7b64db	-0.06137548
206	0x3d255bc6	0.040370725
207	0x3e48600f	0.19567893
208	0x3d6ece1c	0.05830203
209	0x3c4de0d1	0.012565807
210	0xbd903de7	-0.07043057
211	0xbe2c798b	-0.1684324
212	0xbe20d787	-0.15707217
213	0xbd1aed2f	-0.037823852
214	0x3d1fcfab	0.039016407
215	0x3d3fd8f8	0.046837777
216	0x39238508	0.0001559445
217	0xbe2cc635	-0.16872485
218	0xbeac403f	-0.33642766
219	0xbedc76a2	-0.4305926
220	0x3de3e999	0.111285396
221	0x3e1b76d9	0.15182056
222	0xbd989526	-0.07450323
223	0xbdd33239	-0.103123136
224	0x3bdeb31d	0.0067962543
225	0xbdd8ad2a	-0.105799034
226	0xbda9a109	-0.08282668
227	0x3e473b21	0.1945615
228	0x3e1f61a2	0.15564588
229	0xbce5d6ff	-0.02805662
230	0x3d26c30b	0.04071335
231	0x3c912add	0.017720634
232	0x3ad49829	0.0016219664
233	0x3dec74dc	0.11545727
234	0xbc11101c	-0.008853938
235	0xbe0876d8	-0.13326585
236	0xbbb7f4f9	-0.00561392
237	0xbd2bf751	-0.041983906
238	0x3cc1b96e	0.02364799
239	0x3da7f516	0.08201043
240	0x3ddb8eac	0.10720572
241	0xbd5d1801	-0.05397797
242	0xbe942402	-0.28933722
243	0xbd31900e	-0.043350272
244	0x3c5f6856	0.0136357155
245	0xbcc02a35	-0.023457626
246	0xbdc4507b	-0.09585663
247	0xbaa86650	-0.0012847874
248	0x3d7a8249	0.061159406
249	0xbc4e672b	-0.012597839
250	0xbbfb42f7	-0.007667895
251	0xbd1a978e	-0.03774219
252	0xbd731b07	-0.059351947
253	0x3ccaeff3	0.02477262
254	0x3c5e9b0e	0.013586773
255	0xbe17d3a5	-0.1482683

classifier.1.bias f4 [10]
0	0xbd106089	-0.035248313
1	0x3eae59f4	0.34053004
2	0x3e1e524e	0.15461084
3	0xbe6b687c	-0.22989076
4	0xbdc2b9cd	-0.09508095
5	0x3d072b7e	0.03300046
6	0xbdce6377	-0.10077565
7	0x3e1a17fb	0.1504821
8	0xbd84f437	-0.06491893
9	0xbe301c29	-0.17198242
