model_weights/model_epoch_5.pth (torch, 34447 bytes, 10 tensors)

conv_block_1.0.weight f4 [10, 1, 3, 3]
0	0xbf087443	-0.533024
1	0x3e0ea766	0.13931045
2	0xbdf0726c	-0.11740574
3	0xbe67fcb5	-0.22654994
4	0xbd844c76	-0.06459896
5	0x3ede0259	0.43361166
6	0x3d128bc1	0.03577781
7	0xbd145d04	-0.03622152
8	0xbc370fd3	-0.011173206
9	0x3e9a5114	0.30139983
10	0xbf4b774a	-0.79478896
11	0xbf8e0ac3	-1.1097034
12	0x3d4a0fd3	0.049331497
13	0xbebba9c6	-0.36652964
14	0xbf011001	-0.50415045
15	0x3f28c5e7	0.65926975
16	0x3e91a27e	0.28444284
17	0x3f5e6fe5	0.8688949
18	0xbc87a69e	-0.016558941
19	0xbeb75397	-0.3580596
20	0xbe33e817	-0.17569004
21	0xbe5e34f9	-0.21699895
22	0xbbe6f4a5	-0.007048207
23	0x3f0761cc	0.528836
24	0xbe454840	-0.19265842
25	0x3ed83cb2	0.42233807
26	0x3e9bccf8	0.30429816
27	0x3e6d3173	0.23163395
28	0x3eb064b8	0.34451842
29	0xbe31fc67	-0.1738144
30	0x3e00a9a1	0.12564708
31	0xbe579717	-0.2105373
32	0xbe8f4ea7	-0.27989694
33	0x3ed1c71e	0.40972227
34	0x3eb6340f	0.35586593
35	0xbeda15fa	-0.42594892
36	0x3edc577d	0.43035498
37	0x3f02c41c	0.5108049
38	0xbef26ab6	-0.4734704
39	0xbefa173a	-0.48845845
40	0x3e957964	0.29194176
41	0xbe262a83	-0.16227154
42	0x3dc7702f	0.09738194
43	0x3dcf6101	0.10125924
44	0x3efa5a1a	0.48896867
45	0x3e0a3fb0	0.13500857
46	0xbde007c8	-0.10938984
47	0x3f172109	0.5903478
48	0x3e06178e	0.13094923
49	0xbe59c8d3	-0.21268015
50	0xbeda2246	-0.42604274
51	0xbe9b7152	-0.30359894
52	0x3ec2b5a7	0.38029215
53	0x3eb8b5ab	0.36076102
54	0xbe8b0116	-0.27149266
55	0xbe9b19be	-0.30293077
56	0xba9db800	-0.0012032986
57	0xbea214ef	-0.31656596
58	0xbe9b0187	-0.30274603
59	0xbdd91986	-0.10600571
60	0xbe938db2	-0.28819042
61	0x3e82fd41	0.25583842
62	0xbe6f5e28	-0.23375762
63	0xbec2f30d	-0.38076058
64	0x3d821b59	0.063528724
65	0x3b848ca8	0.004045088
66	0x3eb49611	0.35270742
67	0x3f00c6a4	0.503031
68	0x3f142b9d	0.5787905
69	0xbe7eb090	-0.24872041
70	0xbeaa8d17	-0.33310768
71	0xbd6d9cbd	-0.058010805
72	0x3d34ffa9	0.04418913
73	0xbe937b4b	-0.28805003
74	0xbcb0a10b	-0.021561166
75	0x3e1b61e8	0.15174067
76	0x3d8fd096	0.070222065
77	0xbd265837	-0.040611472
78	0x3bc6f1e2	0.006071315
79	0x3c0363b6	0.008019378
80	0xbe5abc18	-0.21360815
81	0xbe4b50b2	-0.19855002
82	0xbd8ac08b	-0.06775006
83	0xbea55d2b	-0.32297644
84	0xbe8c0e45	-0.27354637
85	0x3e8a99a1	0.27070335
86	0xbe7531e7	-0.23944817
87	0x3dbbb35a	0.09165068
88	0xbcafa2c9	-0.021439927
89	0xbdfb98e2	-0.122850195

conv_block_1.0.bias f4 [10]
0	0xbc213cf3	-0.009841192
1	0x3dfe29e6	0.12410335
2	0xbd9340a9	-0.07190067
3	0xbd4884bd	-0.048954714
4	0xbed99390	-0.42495394
5	0xbe63909c	-0.22223133
6	0xbe861942	-0.26191145
7	0xba7d6e49	-0.0009667618
8	0xbe188165	-0.1489311
9	0xbe10c922	-0.14139226

conv_block_1.2.weight f4 [10, 10, 3, 3]
0	0xbe286cc7	-0.16447745
1	0x3da468b0	0.0802778
2	0xbb66bc41	-0.0035207423
3	0x3b6fa72e	0.0036568153
4	0x3d8e9db2	0.06963672
5	0x3d183a98	0.037165254
6	0x3e54121d	0.20710035
7	0x3db32c19	0.08748645
8	0x3d920036	0.071289465
9	0x3e122cbe	0.1427488
10	0xbe3711fe	-0.17877957
11	0xbeb5b984	-0.354931
12	0x3e4528ad	0.19253798
13	0xbe2a2db8	-0.16619003
14	0xbec27bd6	-0.37985104
15	0xbe48885f	-0.19583271
16	0xbeef8dba	-0.46787816
17	0xbe9425ef	-0.2893519
18	0x3ce57177	0.028008206
19	0x3d663459	0.056202266
20	0xbbdb4385	-0.0066913986
21	0x3e601288	0.21882069
22	0x3e96d285	0.2945749
23	0xbd126b3f	-0.03574681
24	0x3ed287bd	0.41119185
25	0x3dd0bdcf	0.10192453
26	0x3d5059f7	0.050867047
27	0xbea36fb4	-0.3192116
28	0x3e1f4c9b	0.15556566
29	0x3e3bbc85	0.18333633
30	0x3d028868	0.03186837
31	0xbbc86c59	-0.0061164317
32	0x3ce82fd5	0.02834312
33	0xbd7d25dc	-0.061803684
34	0x3e5fbf27	0.21850263
35	0x3e0e46f9	0.13894261
36	0x3cc8a7e2	0.024494115
37	0xbde038be	-0.10948323
38	0x3e9cc81f	0.3062143
39	0xbdfb02af	-0.12256371
40	0x3d87fe2b	0.066402756
41	0xbd125332	-0.035723872
42	0xbdc2595c	-0.094897
43	0xb8320731	-4.2445205e-05
44	0x3bd1eb7d	0.006406246
45	0x3e2f3b53	0.17112474
46	0xbd95b7e0	-0.07310462
47	0x3c5fd02a	0.01366047
48	0xbdc42282	-0.09576894
49	0x3d5d1bc8	0.053981572
50	0x3debb1ac	0.115084976
51	0x3d7ecbe8	0.06220618
52	0xbd10ba06	-0.035333656
53	0xbd01fa83	-0.031733047
54	0x3d8fa9b3	0.070147894
55	0x3d2d7422	0.04234708
56	0xbd8439fd	-0.06456373
57	0x3d92241f	0.07135796
58	0xbd8ca5dc	-0.06867573
59	0xbd75909b	-0.05995236
60	0x3dc88653	0.09791245
61	0xbd125422	-0.035724767
62	0xbceae378	-0.028672919
63	0xbea6bcaa	-0.32565814
64	0x3e2c1a19	0.1680683
65	0x3e6fd59e	0.23421332
66	0x3d1f5775	0.038901765
67	0x3da4ba5b	0.08043357
68	0xbda840a9	-0.08215458
69	0x3e7af5ae	0.24507782
70	0x3d916ab2	0.07100429
71	0x3c3128ea	0.010812977
72	0xbd9ac147	-0.07556396
73	0xbdb3f6df	-0.08787321
74	0xbd612be3	-0.054973494
75	0x3d7afad8	0.06127438
76	0x3dcc718d	0.099825956
77	0x3cfefc56	0.031126183
78	0x3d8d47b8	0.06898445
79	0x3d30bf7c	0.043151364
80	0xbbf0f22f	-0.0073530893
81	0x3d2915c0	0.041280508
82	0x3d91fc3f	0.0712819
83	0xbcfd8005	-0.030944834
84	0xbd6cefd2	-0.057845898
85	0xbd24da4b	-0.040247243
86	0xbd73b373	-0.059497308
87	0xbd9c3a7a	-0.07628341
88	0xbdbee511	-0.09321035
89	0x3c7ce01c	0.015434291
90	0x3c30fa1c	0.010801818
91	0x3da121d5	0.07867781
92	0xbd96e6e0	-0.07368255
93	0x3b8a63dd	0.0042233304
94	0x3d97aa16	0.07405488
95	0xbb2d729f	-0.0026466025
96	0xbde447c0	-0.11146498
97	0xbd4f6f16	-0.05064305
98	0x3c0e7fee	0.008697493
99	0xbea1027c	-0.31447208
100	0xbeeb741d	-0.45987025
101	0xbda4365a	-0.08018179
102	0xbe99ee0c	-0.30064428
103	0xbdb91c6e	-0.09038626
104	0x3e047842	0.129365
105	0xbe01a85b	-0.12661879
106	0x3d1bbdc3	0.038022768
107	0x3e1d84e6	0.15382728
108	0x3d710e7e	0.05885171
109	0xbbad2e4d	-0.0052850605
110	0x3e0c7304	0.1371575
111	0xbd61e278	-0.055147618
112	0xbe342ab6	-0.17594418
113	0xbdb2f3ea	-0.08737929
114	0xbdf36530	-0.11884534
115	0xbe89efe9	-0.2694085
116	0xbea6cdb9	-0.3257883
117	0x3e0c7bd8	0.13719118
118	0x3de776bf	0.11301946
119	0x3dc60811	0.09669507
120	0x3e425432	0.1897743
121	0x3e624ae6	0.22098884
122	0xbda899a4	-0.082324296
123	0xbd39424d	-0.045229245
124	0x3deaf31b	0.1147215
125	0xbc7a5b88	-0.015280612
126	0xbd9f9c3f	-0.077934735
127	0x3e2deb6f	0.16984342
128	0x3cf3b433	0.029749012
129	0xbd1a4894	-0.037666872
130	0xbe00c36e	-0.1257455
131	0xbd9e132f	-0.07718503
132	0x3c2fbe52	0.010726528
133	0x3e12a0ee	0.14319202
134	0x3e121d09	0.14268889
135	0x3e4f208f	0.20227264
136	0x3ddfcec1	0.10928107
137	0x3dfffe46	0.12499671
138	0x3da0cd70	0.07851684
139	0xbe17f051	-0.14837767
140	0x3d86fbd7	0.065910034
141	0x3ccf55c4	0.02530945
142	0x3d3e0264	0.046389
143	0x3d998531	0.07496107
144	0x3cddcb8c	0.027074598
145	0x3d5622f2	0.05227942
146	0x3da7458f	0.08167564
147	0x3d90e0e9	0.07074148
148	0xbdb96c41	-0.09053851
149	0xbbdac130	-0.006675862
150	0xbd553b40	-0.05205846
151	0xbd096b0c	-0.033549353
152	0xbd0576b2	-0.0325839
153	0x3e914c68	0.28378606
154	0x3ea7cb35	0.32772222
155	0x3e9934fe	0.29923242
156	0xbd544066	-0.051819228
157	0xbc914f36	-0.017737966
158	0x3e925a86	0.2858469
159	0xbe1162ab	-0.14197795
160	0xbeac0504	-0.33597577
161	0xbead77ae	-0.3388037
162	0x3a71ff92	0.00092315034
163	0xbd83687c	-0.06416413
164	0xbdcb708b	-0.09933575
165	0x3d92d5f5	0.07169715
166	0x3d7ad887	0.061241653
167	0x3c6fc7a6	0.014635002
168	0xbc9cad22	-0.019125525
169	0xbcd5fcdc	-0.02612155
170	0x3ca47d5d	0.02007931
171	0x3dd13a41	0.10216189
172	0x3d984037	0.07434123
173	0xbd99c4c3	-0.075082324
174	0xbd6f3375	-0.058398683
175	0x3d727f9f	0.05920374
176	0xbce029d0	-0.027363688
177	0xbd01ffdb	-0.031738143
178	0x3cbe0af7	0.023198588
179	0xbd66aa05	-0.056314487
180	0xbc9a88d1	-0.018864067
181	0x3dbd9bdd	0.09258244
182	0x3dd47865	0.10374526
183	0xbbc0bf7b	-0.0058822013
184	0xbe0af2c0	-0.13569164
185	0xbe6cecbb	-0.2313718
186	0xbe572c64	-0.21013027
187	0x3d0e981a	0.034813024
188	0x3d7008ca	0.058602132
189	0x3e52fd22	0.20604375
190	0xbea237f9	-0.3168333
191	0x3e23a7f4	0.15982038
192	0xbe889418	-0.26675487
193	0xbeb05214	-0.3443762
194	0xbd5932fc	-0.053027138
195	0xbeb4d20d	-0.35316506
196	0xbe05eb1f	-0.13077973
197	0xbe289408	-0.1646272
198	0x3e1487df	0.14504956
199	0x3e361b8d	0.17783947
200	0xbc8b7afc	-0.017026417
201	0xbe7edd4e	-0.24889109
202	0xbdcdf62c	-0.10056719
203	0x3d9bc638	0.076061666
204	0xbe34ea9d	-0.17667623
205	0xbd8f8278	-0.07007307
206	0xbda8960f	-0.082317464
207	0xbddbd3e2	-0.10733773
208	0xbdef4439	-0.11682934
209	0x3ce62b0f	0.028096704
210	0xbdde6268	-0.10858613
211	0xbe0a8e3c	-0.1353082
212	0xbd43e1a1	-0.0478226
213	0xbde9ba51	-0.1141249
214	0xbdf0c5f6	-0.11756508
215	0x3d307623	0.043081414
216	0x3e55cb86	0.2087842
217	0xbb1e1da8	-0.0024126563
218	0x3de1efce	0.11032067
219	0x3d037c58	0.032101005
220	0x3e132c32	0.14372328
221	0x3d8bc377	0.06824391
222	0x3db9d5dd	0.09073994
223	0x3d3162fd	0.043307293
224	0x3dffbc58	0.124870956
225	0xbdcf3e49	-0.10119302
226	0x3e6b0c49	0.22953905
227	0x3e65d883	0.22445874
228	0xbd1c0ba6	-0.038097046
229	0xbd125d73	-0.03573365
230	0xbcc01eef	-0.02345225
231	0x3d262c89	0.040569816
232	0x3b7208c4	0.0036931494
233	0xbc141f75	-0.009040703
234	0x3c23fb58	0.0100086555
235	0x3da1bebd	0.078977086
236	0xbd7dc71d	-0.061957467
237	0x3b620540	0.0034487993
238	0x3d933351	0.07187522
239	0x3dbea72f	0.093092315
240	0x3db41297	0.08792608
241	0xbc7565b8	-0.014977865
242	0x3c947714	0.018123187
243	0x3e0e4d5a	0.13896695
244	0x3e16e09a	0.14734116
245	0x3dcd79a1	0.100329645
246	0x3a54c480	0.0008116439
247	0x3d5213f7	0.05128857
248	0x3e93c191	0.28858617
249	0xbe31b7e7	-0.1735531
250	0xbd3fac71	-0.046795312
251	0x3ea9bf08	0.33153558
252	0x3d1ec1f9	0.038759205
253	0x3d063999	0.032769773
254	0xbd38e39a	-0.045138933
255	0xbd4f920f	-0.0506764

conv_block_1.2.bias f4 [10]
0	0x3c0d4696	0.008622786
1	0x3da62eac	0.08114371
2	0x3e9a2d36	0.30112618
3	0xbd1652e1	-0.036700133
4	0xbdf06555	-0.117380776
5	0xbc63c1d8	-0.013901196
6	0x3d8e1601	0.06937791
7	0xbde3d070	-0.11123741
8	0xbd7bac18	-0.06144342
9	0xbdc69fa3	-0.09698417

conv_block_2.0.weight f4 [10, 10, 3, 3]
0	0xbea10575	-0.31449476
1	0xbe61368b	-0.21993463
2	0x3eef18e7	0.46698686
3	0xbe5bb1c5	-0.21454532
4	0xbe6b85be	-0.23000237
5	0x3ca131de	0.019677099
6	0x3e49226d	0.19642039
7	0xbe375a22	-0.17905477
8	0xbe5f9131	-0.2183273
9	0xbde1c876	-0.11024563
10	0xbcf0f46b	-0.029413423
11	0x3d36502d	0.044510055
12	0xbe07048a	-0.13185325
13	0xbdae1e8a	-0.085019186
14	0x3e5cb662	0.21553949
15	0x3c8267b4	0.01591859
16	0xbe2337e1	-0.15939285
17	0xbde477e0	-0.11155677
18	0xbdef7c61	-0.11693645
19	0xbcf44726	-0.029819082
20	0x3ec53403	0.38516244
21	0xbe85d727	-0.2614071
22	0xbe646fca	-0.22308269
23	0x3eb4fa87	0.35347387
24	0x3cd838af	0.026394216
25	0xbc7a1e49	-0.01526601
26	0x3cccd7d4	0.025005259
27	0xbda530fc	-0.08065984
28	0xbd84a80c	-0.06477365
29	0x3cbde3fe	0.023180004
30	0x3e15636c	0.14588708
31	0x3c6c21f9	0.014412397
32	0xbdba0343	-0.090826534
33	0xbd6d49de	-0.057931773
34	0xbdbf949e	-0.09354518
35	0x3d4b8e49	0.04969624
36	0xbd0e1d6a	-0.03469602
37	0x3c41f5e9	0.011838415
38	0x3c098cd1	0.00839539
39	0x3d688c86	0.05677464
40	0x3dcbdce0	0.09954238
41	0x3d69b324	0.057055607
42	0x3daf136b	0.085486256
43	0x3d1f92f8	0.03895852
44	0x3d055280	0.03254938
45	0xbdc8b49f	-0.09800076
46	0x3b330112	0.002731387
47	0xbd96d641	-0.073650844
48	0xbe03bdd4	-0.12865382
49	0x3cf8dd7d	0.030379051
50	0xbd02268a	-0.031775035
51	0xbd25a95c	-0.040444717
52	0xbcf0be8e	-0.029387739
53	0xbda92acd	-0.08260117
54	0xbc988186	-0.01861645
55	0x3c9952b8	0.018716201
56	0x3e486e6e	0.19573376
57	0xbd61f3ef	-0.055164274
58	0x3da68f5a	0.08132811
59	0x3e815278	0.2525823
60	0x3b89785f	0.0041952576
61	0x3d185a2e	0.037195377
62	0xbd289480	-0.041157246
63	0x3caad44d	0.020853186
64	0xbe378c65	-0.1792465
65	0xbd57b31a	-0.05266104
66	0x3da626d5	0.08112875
67	0x3d9fdc54	0.07805696
68	0x3daf752c	0.08567271
69	0xbdba4d85	-0.09096817
70	0x3d9a1f27	0.07525473
71	0x3e051f5e	0.13000247
72	0xbdafad8d	-0.08578024
73	0xbe545408	-0.2073518
74	0xbbc5ecc5	-0.006040188
75	0xbd87b7a7	-0.06626826
76	0xbcf66c99	-0.03008108
77	0xbdf6b1d3	-0.12045636
78	0x3e2acd76	0.1667994
79	0x3d06ff51	0.032958332
80	0xbca89c01	-0.020582201
81	0xbd432ee9	-0.04765216
82	0xbd92ed46	-0.071741626
83	0x3dd227cd	0.10261498
84	0x3c633151	0.013866738
85	0x3d98a16f	0.07452666
86	0xbbd2d92b	-0.00643458
87	0x3d46ec1d	0.04856502
88	0xbdaa456c	-0.083140224
89	0x3dac7796	0.08421247
90	0xbe8497e5	-0.25897136
91	0xbda2fd56	-0.07958476
92	0xbd3cc41d	-0.046085466
93	0xbedc934d	-0.43081132
94	0xbec650a5	-0.38733402
95	0xbd5a0fcd	-0.053237725
96	0x3d14cddb	0.03632913
97	0x3e2fab39	0.1715516
98	0x3e80c4c3	0.25150117
99	0x3ccb90c7	0.024849309
100	0x3e721856	0.23642096
101	0x3e960186	0.29298037
102	0xbe2ef4fa	-0.17085639
103	0xbe476a9d	-0.19474263
104	0xbe0cd745	-0.13753994
105	0xbe10d67f	-0.14144324
106	0x3d879d83	0.0662184
107	0x3c114b15	0.008867999
108	0xbe2532e5	-0.16132696
109	0x3e9ce73e	0.30645174
110	0x3ee64f03	0.44982156
111	0xbe270e7e	-0.16314122
112	0xbe884a56	-0.26619214
113	0xbd5e6172	-0.05429215
114	0xbe27c1f2	-0.16382578
115	0x3e2e53ca	0.1702415
116	0x3e8b59d2	0.27216965
117	0xbca1a63f	-0.019732593
118	0x3e112a38	0.14176261
119	0x3e2b8e24	0.16753441
120	0x3ddffff6	0.109374925
121	0x3d8e8b49	0.0696016
122	0xbdb87b6a	-0.09007914
123	0x3e0b1377	0.13581644
124	0x3e1628d2	0.14664009
125	0xbe2833c5	-0.16425999
126	0xbc64ce42	-0.013965191
127	0x3d35f632	0.044424243
128	0xbd0d5cc2	-0.03451229
129	0xbce4433c	-0.027864091
130	0xbdd1ace4	-0.102380544
131	0xbdaf2d05	-0.08553509
132	0x3dd0a692	0.10188021
133	0x3b982797	0.0046433914
134	0x3d332c62	0.0437435
135	0xbceaeaf2	-0.028676484
136	0xbe0797b0	-0.13241458
137	0x3db4685d	0.08808968
138	0x3dc3a558	0.09553021
139	0x3db61c09	0.08892066
140	0x3dad25f7	0.08454507
141	0x3ce23563	0.027613347
142	0xbc01fc8b	-0.007933746
143	0x3d9fe90b	0.07808121
144	0x3c6e70f4	0.014553297
145	0x3e5ac68b	0.213648
146	0x3e567a69	0.20945133
147	0xbd8b2285	-0.067936935
148	0xbe4ac3be	-0.19801232
149	0xbcf4354b	-0.029810568
150	0xbd22a033	-0.03970356
151	0x3d5e9b72	0.054347463
152	0x3deb3198	0.11484069
153	0x3dfeec36	0.124473974
154	0x3d9ddea0	0.07708478
155	0xbd5d5f5b	-0.054046016
156	0x3da0a4f5	0.07843963
157	0x3c467c2e	0.012114568
158	0xbda4e1d9	-0.080508895
159	0x3dc969b0	0.098346114
160	0xbd99f564	-0.07517508
161	0x3c483352	0.012219267
162	0xbe270618	-0.16310918
163	0xbd9fc3ad	-0.07800994
164	0x3c277b47	0.010222263
165	0xbc65ef94	-0.014034171
166	0xbdc28cab	-0.094994865
167	0xbe238864	-0.15969998
168	0xbd63302f	-0.055465873
169	0x3c8d8d52	0.0172793
170	0x3d652098	0.055939287
171	0x3dcf64ea	0.1012667
172	0x3d320510	0.04346186
173	0xbdc4fc63	-0.096184514
174	0xbc16acad	-0.009196443
175	0xbd810167	-0.062990956
176	0x3dce50f9	0.10074038
177	0x3d655bef	0.055995878
178	0xbc834a0b	-0.016026517
179	0xbb38798d	-0.0028148622
180	0xbe7fde25	-0.24987085
181	0x3b9afe1e	0.00473
182	0xbd34b515	-0.044118006
183	0xbd34e9fe	-0.044168465
184	0x3dab4e8e	0.083645925
185	0x3d31c8f8	0.04340455
186	0xbe8eaa88	-0.2786448
187	0xbd6e0c1f	-0.05811703
188	0x3f18f8e0	0.59754753
189	0x3dcfed71	0.1015271
190	0xbdbe3065	-0.09286574
191	0xbde79d30	-0.11309278
192	0x3e6050ea	0.21905866
193	0x3d1408d4	0.03614123
194	0xbca82dbf	-0.020529626
195	0x3db6bee7	0.089231305
196	0xbea93360	-0.3304701
197	0xbdd3ca43	-0.10341313
198	0xbe451d8b	-0.19249551
199	0x3e4db132	0.20087126
200	0x3ea48314	0.32131255
201	0xbd814ba5	-0.06313256
202	0x3d4ff899	0.05077419
203	0x3ecca427	0.39968988
204	0x3e12d359	0.14338435
205	0xbeaa1445	-0.3321859
206	0xbe8930d5	-0.26795068
207	0x3e34aec7	0.17644797
208	0xbea7519c	-0.3267945
209	0xbed9761e	-0.4247293
210	0x3e2b072d	0.16701956
211	0x3de30079	0.110840745
212	0xbee46550	-0.44608545
213	0x3e972371	0.29519227
214	0x3e86f942	0.26362044
215	0xbe8fb872	-0.28070408
216	0xbc653535	-0.013989736
217	0xbd569709	-0.052390132
218	0xbd1ce0e6	-0.038300417
219	0xbcaeab5c	-0.021321945
220	0x3db16c32	0.08663215
221	0xbdc7fd42	-0.09765102
222	0x3d0b6324	0.034030095
223	0x3b882730	0.004155062
224	0xbd0ef81e	-0.03490459
225	0x3b179d68	0.0023134593
226	0xbd580ab0	-0.052744567
227	0xbe26bb8b	-0.1628248
228	0x3d80c6da	0.06287928
229	0xbd26f501	-0.040760998
230	0x3d826157	0.06366222
231	0x3b9adbab	0.0047258935
232	0xbe021cb5	-0.12706263
233	0x3e3a2018	0.18176305
234	0x3d815fe7	0.0631712
235	0x3de94e66	0.113919064
236	0x3d41a025	0.047271866
237	0xbe19b3d7	-0.1501001
238	0x3d302c57	0.043011036
239	0x3e54455a	0.2072958
240	0x3d5bd32c	0.053668186
241	0xbccc9d6b	-0.024977406
242	0xbde6d27a	-0.11270614
243	0x3e002f94	0.1251815
244	0xbcbf95ee	-0.023386922
245	0xbdd81130	-0.10550153
246	0x3d1a55a5	0.037679333
247	0x3d564bc0	0.052318335
248	0xbe9c297d	-0.30500403
249	0xbdf27fdc	-0.118407935
250	0xbdd0894e	-0.10182439
251	0xbe92e32a	-0.28688937
252	0xbce8cce0	-0.028418005
253	0xbcaedb57	-0.021344824
254	0x3e86abdb	0.2630299
255	0x3a9223d0	0.0011149589

conv_block_2.0.bias f4 [10]
0	0xbd998c0b	-0.07497414
1	0xbe4512d2	-0.1924546
2	0xbe6d82d2	-0.23194435
3	0xbeb19b7c	-0.34688938
4	0x3ebe0a84	0.37117398
5	0x3d57dd73	0.052701425
6	0x3e93865c	0.28813446
7	0x3e8c59fc	0.27412403
8	0x3ea24f0b	0.3170093
9	0xbd913a7e	-0.070912346

conv_block_2.2.weight f4 [10, 10, 3, 3]
0	0x39e669f7	0.00043947969
1	0xbd40d4ab	-0.047077816
2	0x3d328116	0.043580137
3	0xbe47324c	-0.1945278
4	0xbc32b34f	-0.010907008
5	0xbdc8fdef	-0.09814059
6	0xbb768295	-0.0037614454
7	0xbd0e2f8d	-0.034713317
8	0xbd5bab7a	-0.05363033
9	0x3d28b32b	0.041186493
10	0x3d165677	0.036703553
11	0xbe3f8da6	-0.18706378
12	0xbdd6b0f5	-0.104829706
13	0xbe25bf42	-0.1618624
14	0xbdbb352b	-0.09141
15	0xbcf3976e	-0.029735293
16	0xbe92f52f	-0.28702685
17	0xbd53c1d2	-0.051698513
18	0xbc9d01bd	-0.019165868
19	0x3d8ddfcd	0.06927452
20	0xbe8f1270	-0.27943754
21	0x3ccf27bc	0.025287502
22	0xbea18d34	-0.31553042
23	0xbe0eec59	-0.13957347
24	0xbde962fb	-0.11395832
25	0xbef999bb	-0.487501
26	0xbe806844	-0.25079548
27	0xbed1e680	-0.4099617
28	0xbdfcbf77	-0.123412065
29	0x3db75bc5	0.089530505
30	0xbebe7c92	-0.37204415
31	0xbe849835	-0.25897375
32	0x3dcb794e	0.099352464
33	0x3e4144f4	0.1887396
34	0x3e9e7982	0.30952078
35	0x3bae4e66	0.0053194044
36	0xbe12a720	-0.14321566
37	0xbd60f116	-0.054917417
38	0xbd587a99	-0.052851293
39	0xbe67685b	-0.22598402
40	0xbe6c8fc6	-0.2310172
41	0xbe8036d1	-0.25041822
42	0xbeac47fe	-0.33648676
43	0xbe5d55a2	-0.21614698
44	0x3bbfd99f	0.0058548
45	0xbc45a71c	-0.012063768
46	0x3e6e383a	0.23263636
47	0xbf186749	-0.595326
48	0x3ea71b86	0.32638186
49	0xbea3569a	-0.3190201
50	0xbe5617a7	-0.2090746
51	0x3e275eb3	0.16344719
52	0xbeae29ca	-0.34016258
53	0xbec225dd	-0.37919512
54	0xbe75ae34	-0.23992234
55	0xbdd885bc	-0.10572383
56	0x3e83223c	0.25612056
57	0xbedff0c2	-0.4373837
58	0x3da73936	0.08165209
59	0x3e863163	0.26209554
60	0xbecf357f	-0.40470502
61	0xbe88c807	-0.2671511
62	0x3c8bcb8c	0.017064832
63	0x3e0bab57	0.1363958
64	0xbe01f8c5	-0.12692554
65	0xbdd1148a	-0.10208996
66	0x3d57aa80	0.052652836
67	0xbe4e1f9a	-0.20129243
68	0xbe095c4a	-0.13414112
69	0xbdc0fc98	-0.094231784
70	0xbe69a817	-0.22818027
71	0xbd588915	-0.052865107
72	0xbe7fcdb7	-0.24980818
73	0xbe47e089	-0.19519247
74	0x3e2fa25e	0.17151782
75	0xbe4aa3b4	-0.1978901
76	0xbd8332c9	-0.06406171
77	0x3f1d228e	0.6138085
78	0xbeabf9a0	-0.33588886
79	0x3b493082	0.003069908
80	0x3e13b001	0.14422609
81	0xbbde8db3	-0.006791794
82	0x3d92b908	0.07164198
83	0xbdc0043b	-0.09375807
84	0x3ea94aa8	0.3306477
85	0x3e3116fe	0.17293927
86	0xbe6c7f2c	-0.23095387
87	0xbc4d1fb1	-0.012519763
88	0x3d4bdccb	0.04977111
89	0xbe9ce8f0	-0.30646467
90	0x3e84c496	0.25931233
91	0x3dfa885f	0.12233042
92	0xbce6fae8	-0.028195813
93	0xbe1c8f83	-0.1528912
94	0x3dca95fa	0.09891887
95	0x3cb07e2d	0.02154454
96	0xbe064a7b	-0.1311435
97	0xbc199297	-0.009373329
98	0xbd95fa19	-0.07323093
99	0xbd923e4e	-0.0714079
100	0xbd05b5ff	-0.032644268
101	0xbd117e24	-0.035520688
102	0x3e6fe18a	0.2342588
103	0x3e8dbcc4	0.2768308
104	0x3ded5083	0.11587622
105	0xbe522475	-0.2052172
106	0x3ada8bad	0.0016673707
107	0x3e87801f	0.26464936
108	0x3e1097df	0.14120434
109	0x3eb98c7b	0.3623999
110	0xbd3252cd	-0.043535996
111	0xbe695a8a	-0.22788444
112	0xbd60eb71	-0.054912034
113	0x3ed62d2a	0.41831332
114	0xbe4e4dd2	-0.20146874
115	0xbe71fdaa	-0.23631921
116	0xbeb7e9ea	-0.3592065
117	0xbdd0e6bd	-0.1020026
118	0xbe63576c	-0.22201318
119	0xbdda2394	-0.10651317
120	0xbea7adfe	-0.32749933
121	0xbec14c1a	-0.37753373
122	0x3d8afc79	0.067864366
123	0x3e43e38f	0.19129775
124	0x3ce2b6cf	0.02767506
125	0x3e668b3c	0.22514051
126	0x3e332b0b	0.17496888
127	0x3e7510c5	0.23932178
128	0xbe9cbe4a	-0.3061393
129	0xbe503c51	-0.20335509
130	0xbdb03da1	-0.08605505
131	0x3cf7b852	0.030239258
132	0xbe2d74a1	-0.16939022
133	0xbe99471a	-0.2993706
134	0xbdadac42	-0.08480121
135	0xbf32569d	-0.6966341
136	0xbf0aeef3	-0.5427086
137	0xbe005afe	-0.12534711
138	0xbd743e57	-0.059629764
139	0xbeddf27b	-0.4334906
140	0xbedf2aaa	-0.43587238
141	0x3e46273b	0.19350903
142	0x3da4d39a	0.08048172
143	0x3dfc9ce6	0.123346135
144	0x3eea826f	0.45802638
145	0x3e8b7765	0.27239528
146	0xbe7024ee	-0.23451588
147	0xbe83b80d	-0.25726357
148	0xbd53d793	-0.05171926
149	0xbd234867	-0.03986397
150	0xbeedc846	-0.4644186
151	0xbeb240a9	-0.34814957
152	0xbdb88c03	-0.0901108
153	0x3d4c1a9d	0.049830068
154	0x3f0870f6	0.53297365
155	0x3ca101ed	0.019654239
156	0xbe335f49	-0.17516817
157	0x3db6597d	0.08903787
158	0x3e87453a	0.26420003
159	0xbe81186f	-0.25213954
160	0xbe9eca9e	-0.3101396
161	0xbe888eec	-0.2667154
162	0xbeaa09d0	-0.3321061
163	0xbeb5877b	-0.35454926
164	0xbed1e9ce	-0.4099869
165	0xbe33ff08	-0.17577755
166	0xbe28669b	-0.16445391
167	0x3e3638d0	0.1779511
168	0xbe7e67b2	-0.24844244
169	0xbcbb3e9a	-0.022857
170	0x3dfe7c54	0.124260575
171	0xbe92e053	-0.2868677
172	0xbe935991	-0.2877927
173	0xbedb1952	-0.42792755
174	0xbe8e7ddd	-0.278304
175	0x3e018872	0.12649706
176	0xbc8b37ee	-0.016994443
177	0x3d6f3926	0.05840411
178	0x3e4c3019	0.19940223
179	0x3e20c454	0.15699893
180	0x3ec36970	0.3816638
181	0x3f0db0eb	0.5534808
182	0x3e0acf2f	0.13555597
183	0x3e1510ba	0.14557162
184	0x3e2f4241	0.17115118
185	0xbea69e09	-0.32542446
186	0xbde417b7	-0.11137336
187	0xbdbf1a5c	-0.093311995
188	0xbdcb8390	-0.09937203
189	0x3e0bccf3	0.136524
190	0xbc360307	-0.01110912
191	0x3dbb3e4e	0.09142743
192	0xbdb1794e	-0.08665715
193	0x3e510e9f	0.20415734
194	0xbbdee19e	-0.006801798
195	0xbe1f9f36	-0.15588078
196	0xbe0d58e2	-0.13803437
197	0xbe04fc6c	-0.12986916
198	0xbe2ba8fc	-0.16763681
199	0x3d2e1ea4	0.04250969
200	0xbe3cd991	-0.1844237
201	0xbe14d4d2	-0.1453431
202	0xbe12926d	-0.1431367
203	0xbe10ee7e	-0.14153478
204	0xbcaaf164	-0.020867057
205	0xbe15390d	-0.14572544
206	0xbe9b494d	-0.30329362
207	0xbe014bb2	-0.12626532
208	0x3d4e3c7c	0.05035065
209	0xbe2cd5c9	-0.16878428
210	0xbe86d979	-0.26337793
211	0xbec1c9d0	-0.37849283
212	0x3d71af14	0.059004858
213	0x3d006afd	0.031352032
214	0x3e5d636e	0.2161996
215	0x3dfe064b	0.12403544
216	0x3ea2bc16	0.31784123
217	0x3efada87	0.48994848
218	0x3e497de4	0.1967693
219	0x3de8ffa8	0.113768876
220	0x3e645d3f	0.22301196
221	0xbe3255b1	-0.17415501
222	0xbe3d5cd1	-0.18492438
223	0xbdd2fc35	-0.10302011
224	0xbe29a76b	-0.16567771
225	0xbef1baaf	-0.4721274
226	0xbf07eeff	-0.53099054
227	0xbefefc7c	-0.49802005
228	0x3f55ce2f	0.83517736
229	0x3c4bc4a2	0.012437018
230	0xbeeebd92	-0.46629006
231	0x3e1c31a3	0.1525331
232	0x3eb8deb7	0.36107418
233	0x3e0ff16d	0.1405694
234	0xbe7a0caa	-0.24418893
235	0xbdcf0430	-0.101082206
236	0x3e9c3e05	0.30516067
237	0xbc634ce1	-0.01387331
238	0xbe286bc5	-0.16447361
239	0xbe79405a	-0.24340954
240	0xbe87c070	-0.26514006
241	0xbe2fd20b	-0.17169969
242	0xbe970528	-0.2949612
243	0x3e1192bb	0.1421613
244	0x3ecf1a62	0.40449816
245	0x3e74b41f	0.23896836
246	0xbe6aabc3	-0.22917084
247	0xbdb2cd75	-0.08730594
248	0x3dad20c6	0.08453517
249	0x3cb272ad	0.021783197
250	0xbe7ee579	-0.24892224
251	0xbe47805d	-0.1948256
252	0xbea055f0	-0.31315565
253	0xbdc36815	-0.095413364
254	0x3f09b1ee	0.53787124
255	0x3c36f596	0.011166951

conv_block_2.2.bias f4 [10]
0	0x3e20bd69	0.15697254
1	0x3dd34131	0.10315169
2	0xbe08fb9a	-0.13377228
3	0x3e1c2ffc	0.1525268
4	0x3e82253e	0.2541904
5	0xbdcc441b	-0.099739276
6	0x3e74b3f7	0.23896776
7	0x3cd8dce8	0.026472524
8	0x3e29b61c	0.16573375
9	0xbdbcf6d5	-0.09226767

classifier.1.weight f4 [10, 490]
0	0xbcac561a	-0.02103715
1	0xbd7c78b1	-0.061638538
2	0xbdad868d	-0.08472929
3	0xbd9c598c	-0.07634267
4	0xbe49447a	-0.19655028
5	0xbd41b744	-0.047293916
6	0xbc7b7d76	-0.015349736
7	0xbc00144b	-0.007817338
8	0xbe072d8d	-0.1320097
9	0xbd612b55	-0.054972965
10	0xbe1dc89d	-0.15408559
11	0xbe6bc575	-0.23024543
12	0xbdc28bc0	-0.094993114
13	0xbc1abfbd	-0.009445128
14	0xbc5c00e9	-0.013427951
15	0x3d94874d	0.07252369
16	0xbdd96856	-0.106156036
17	0x3ba68f5c	0.0050830077
18	0xbebf52e0	-0.37367916
19	0xbcfbfae6	-0.030759286
20	0x3d92770b	0.07151612
21	0xbcad36ad	-0.021144236
22	0x3d88ebd2	0.06685604
23	0x3e872f93	0.26403484
24	0xbe723a16	-0.2365497
25	0xbd4e4c57	-0.050365772
26	0x3c87cad8	0.016576216
27	0x3d1b41b0	0.03790444
28	0x3c8e8d31	0.01740131
29	0x3eb26717	0.34844276
30	0x3ac85ef6	0.001528709
31	0x3c0cb2e2	0.008587571
32	0x3e8d2d78	0.27573752
33	0x3dd72c33	0.10506477
34	0xbbb2e837	-0.005459811
35	0xbce6221d	-0.028092438
36	0xbbb31a7f	-0.005465805
37	0xbebe1a8d	-0.37129632
38	0xbccac933	-0.024754142
39	0x3d4eacac	0.05045764
40	0xbbd70f87	-0.0065631303
41	0x3ca2bb0f	0.019864587
42	0xbcc76357	-0.024339361
43	0xbd5bf785	-0.05370285
44	0xbe085732	-0.13314512
45	0xbe115c97	-0.14195476
46	0xbde1f1c3	-0.110324405
47	0xbcaee996	-0.021351617
48	0xbcc8c518	-0.024508044
49	0xbd06bf2d	-0.032897163
50	0x3c922a61	0.017842473
51	0xbdb3e1bd	-0.087832905
52	0x3c7d17c0	0.015447557
53	0x3c62751b	0.013821865
54	0x3d4fa52a	0.050694622
55	0x3bb65656	0.0055644913
56	0xbd14ded7	-0.03634533
57	0xbb8c2700	-0.00427711
58	0x3d180873	0.037117433
59	0xbc8b14ec	-0.01697775
60	0x3d6a64f8	0.057225198
61	0x3d13d4ee	0.036091737
62	0x3d89f75e	0.06736635
63	0xbd12b41b	-0.035816293
64	0xbe2b86bb	-0.16750614
65	0xbe4f69a8	-0.20255148
66	0xbdf75efe	-0.12078665
67	0xbe88fe41	-0.2675648
68	0x3e3716e6	0.17879829
69	0xbce7952d	-0.028269375
70	0xbdc41063	-0.09573438
71	0xbe833394	-0.25625288
72	0xbe904173	-0.28174934
73	0x3e616d93	0.22014455
74	0x3e8a5bb2	0.27023083
75	0x3e8fac60	0.280612
76	0xbdaebc08	-0.08531958
77	0xbac6ae3b	-0.0015158126
78	0xbe7719aa	-0.24130884
79	0xbea4c286	-0.3217966
80	0x3e8b0de6	0.2715904
81	0x3e0a723f	0.13520144
82	0x3e85c98f	0.2613034
83	0xbd1f8a2a	-0.038950123
84	0x3d626ab7	0.055277552
85	0xbd950451	-0.07276214
86	0x3d1a7930	0.03771323
87	0xbdbf7db8	-0.09350151
88	0x3d2abc7f	0.04168367
89	0xbae75d96	-0.0017651792
90	0xbd2e014a	-0.042481698
91	0x3e4f0d55	0.2021993
92	0x3e348b39	0.17631234
93	0x3e925dac	0.2858709
94	0xbe94a673	-0.2903324
95	0xbe589f71	-0.21154572
96	0xbdac6ea1	-0.08419538
97	0xbd23023c	-0.039797053
98	0xbc22a578	-0.009927146
99	0x3ca38441	0.019960525
100	0x3c272127	0.010200775
101	0x3cfd3754	0.030910172
102	0x3e1d35ef	0.15352605
103	0x3e1af830	0.15133739
104	0xbb16d189	-0.0023013076
105	0xbcece7a9	-0.028919058
106	0x3e6ab5c5	0.22920902
107	0xba372afb	-0.00069873006
108	0x3e460b34	0.19340211
109	0x3b6d5a4f	0.0036217158
110	0x3d9d7266	0.076878354
111	0x3d208873	0.039192628
112	0x3d47d7aa	0.048789658
113	0xbe2fae24	-0.17156273
114	0xbe34a48b	-0.17640893
115	0xbe3f6c3a	-0.18693629
116	0x3da0b023	0.078460954
117	0xbd0ac392	-0.033877917
118	0xbc36aed9	-0.011150085
119	0xbe3c00a8	-0.18359625
120	0xbefdc5ab	-0.4956487
121	0xbebbe3df	-0.3669729
122	0xbd9d7523	-0.07688358
123	0xbd464a5b	-0.048410755
124	0xbdbeb9fd	-0.09312818
125	0xbe06c042	-0.13159278
126	0xbe7d1a69	-0.24717106
127	0xbf2d0a41	-0.6759377
128	0xbe8357e1	-0.25652984
129	0x3eaa9fb9	0.33324984
130	0x3ea839bf	0.32856557
131	0x3c0d8b16	0.008639118
132	0x3d03658d	0.03207927
133	0xbd8759ff	-0.06608962
134	0xbe048573	-0.12941532
135	0x3dbe945c	0.09305641
136	0x3e15ab42	0.14616111
137	0x3e593717	0.21212421
138	0x3dc43122	0.09579684
139	0x3c946c11	0.018117936
140	0x3e2d290d	0.16910191
141	0x3e0c6b6f	0.13712858
142	0x3e30a181	0.17249109
143	0xbe3c69cf	-0.18399738
144	0xbe7ee214	-0.2489093
145	0xbd11a674	-0.035559133
146	0xbd15208c	-0.036407992
147	0xbd307296	-0.043078028
148	0xbdd0e1bb	-0.10199305
149	0xba29282f	-0.0006452826
150	0xbdaada59	-0.08342428
151	0x3c5d4f6f	0.013507708
152	0xbc1cb63c	-0.009564932
153	0xbd30f040	-0.04319787
154	0x3be4cfac	0.006982764
155	0xbd0a22ae	-0.03372448
156	0xbd53ffa3	-0.051757466
157	0x3d9afdec	0.07567963
158	0x3e250dac	0.16118497
159	0x3ea4ac50	0.32162714
160	0x3ceabb09	0.028653638
161	0xbba6d014	-0.005090723
162	0xbd0f90fe	-0.035050385
163	0x3db6f1b7	0.08932822
164	0x3a37d24f	0.00070122344
165	0x3da87ea7	0.08227282
166	0x3e83a54b	0.25712046
167	0x3b9c774f	0.004774965
168	0x3c08a449	0.00833995
169	0xbd384fee	-0.044998102
170	0x3d0928ac	0.033486053
171	0xbd81cd2f	-0.06337964
172	0xbed0757c	-0.40714633
173	0xbd7e8c77	-0.062145676
174	0x3c4d6047	0.012535161
175	0xbbb4f29b	-0.005522085
176	0x3dab4425	0.08362607
177	0x3e941771	0.28924134
178	0x3d0753e5	0.033038992
179	0xbec2bb16	-0.3803336
180	0xbe5934b5	-0.21211512
181	0xbd073f7c	-0.033019528
182	0xbc6e6fce	-0.0145530235
183	0x3de58b5c	0.11208221
184	0x3db25614	0.08707824
185	0xbe1e1468	-0.15437472
186	0xbe86e7de	-0.26348776
187	0xbe4e55d6	-0.20149931
188	0xbd7054ef	-0.05867475
189	0x3d30bae6	0.04314699
190	0x3d802ff6	0.06259148
191	0x3de23351	0.11044944
192	0xbbc46b0a	-0.0059942054
193	0xbc0c69b0	-0.00857012
194	0xbd6b965d	-0.057516444
195	0xbd17dec3	-0.037077677
196	0xbc8c5843	-0.01713193
197	0x3d3f4c7f	0.04670381
198	0x3b40f1c9	0.002944099
199	0x3c56d317	0.013111851
200	0x3c3eeef6	0.011653652
201	0x3acf898c	0.0015833839
202	0xbc530b6d	-0.012881142
203	0xbc0bd00f	-0.008533492
204	0xbd315b57	-0.0433
205	0xbd8e8064	-0.06958082
206	0x3de4a885	0.11164955
207	0xbdc78516	-0.09742181
208	0xbe78b0b7	-0.24286161
209	0x3c0142e7	0.007889486
210	0xbba216b0	-0.004946552
211	0xbe538f6e	-0.20660183
212	0xbd8324db	-0.06403514
213	0x3df90720	0.12159562
214	0xbd099089	-0.033585105
215	0xbe8431c3	-0.25819215
216	0x3dd70088	0.10498148
217	0xbcfd9e57	-0.030959291
218	0xbe87dca0	-0.2653551
219	0x3cc51697	0.024058623
220	0xbdd77bf3	-0.10521688
221	0xbde172f9	-0.110082574
222	0xbdfe72e1	-0.12424255
223	0x3d25492a	0.040352978
224	0x3cac33de	0.021020826
225	0x3e3a54df	0.18196438
226	0x3e1d7fa7	0.15380727
227	0x3e2ac4d2	0.16676643
228	0x3d12e4ce	0.035862736
229	0x3de4909e	0.11160396
230	0x3d9204e0	0.07129836
231	0x3d1ae54c	0.03781633
232	0x3e0a5ff4	0.13513166
233	0x3e833149	0.2562354
234	0x3e6b4237	0.22974478
235	0xbe38c7e9	-0.1804501
236	0xbd43c2e3	-0.04779328
237	0xbd86f315	-0.06589333
238	0xbd1e1925	-0.0385982
239	0x3db34775	0.08753864
240	0x3b88a821	0.004170433
241	0x3d941d5e	0.07232164
242	0xbe0e8e09	-0.1392137
243	0xbe102113	-0.14075117
244	0x3cf31634	0.029673673
245	0xbd391829	-0.045189057
246	0xbcbec63d	-0.023287887
247	0xbd029164	-0.031876937
248	0xba9fee8a	-0.0012201827
249	0x3c73b7aa	0.014875332
250	0x3c852386	0.01625229
251	0xbd0fb275	-0.0350823
252	0xbcac3c24	-0.021024771
253	0x3e155d1f	0.14586304
254	0xbd2c83cc	-0.04211788
255	0x3d43e992	0.047830172

classifier.1.bias f4 [10]
0	0xbcfc9027	-0.030830456
1	0x3f3a8c2a	0.72870123
2	0x3d21e04d	0.03952055
3	0xbe1e07fe	-0.15432736
4	0xbdd02a42	-0.1016431
5	0xbdc6ebc3	-0.09712937
6	0xbdd716ec	-0.10502419
7	0x3e3262b0	0.17420459
8	0xbe97d3ed	-0.29653874
9	0xbd62515d	-0.055253375
