model_weights/model_epoch_5.pth (torch, 34447 bytes, 10 tensors)

conv_block_1.0.weight f4 [10, 1, 3, 3]
000000 3f a9 1b 3e 80 ed d6 be f2 ce d5 be b6 5a 2e be
       0.15201281 -0.41978073 -0.4175945 -0.17026791
000010 af 4b c9 3e 2a 11 c8 3d 7e 66 76 3e ea e1 2e 3f
       0.39315554 0.09768899 0.24062535 0.6831347
000020 64 45 e6 3d fe a4 18 bc c2 a5 e9 3d 53 75 c8 be
       0.11243704 -0.009316681 0.11408569 -0.3915201
000030 41 3c 7c 3c 00 cc ca 3e 1d 74 b4 bd e9 86 fd be
       0.015395225 0.39608765 -0.08811209 -0.4951699
000040 24 cb 4b be c2 15 94 3e cc ad 0c 3f 17 33 f2 be
       -0.19901711 0.2892285 0.54952693 -0.47304603
000050 d2 1c 99 be 0a 82 00 3e bd 23 27 bf ce 9f 8b be
       -0.299048 0.12549606 -0.6528891 -0.2727036
000060 62 28 14 3f f5 b3 13 be 14 67 d6 3e 12 4f 60 be
       0.5787412 -0.14424117 0.41875517 -0.21905163
000070 d1 03 17 be 3c 77 1e 3e e3 0b b9 be f8 b8 af 3d
       -0.1474755 0.15475172 -0.3614188 0.08580202
000080 dd c7 00 3f 65 71 62 be 55 d1 13 be 87 19 81 3e
       0.5030497 -0.22113569 -0.14435323 0.25214788
000090 2a 67 d9 3e 11 c6 46 3e a2 09 11 3f aa 6d 3b 3e
       0.4246152 0.19411494 0.56655324 0.18303552
0000a0 a3 42 a7 be f2 8f 2d be ce 3d ff be 52 81 83 bf
       -0.32668027 -0.16949442 -0.4985184 -1.027384
0000b0 42 e1 d1 be 67 0f 84 bd 60 0f 0f 3e 8b 35 8d 3e
       -0.4099217 -0.0644825 0.13970709 0.27579913
0000c0 b2 36 45 be 53 62 68 3e f7 eb bb 3e 45 7d 61 3d
       -0.19259146 0.22693758 0.36703464 0.055051107
0000d0 39 3e c7 3e 58 12 98 3e 80 39 ff 3e 25 b8 9c 3e
       0.3891466 0.29701495 0.49848557 0.3060924
0000e0 c1 14 1f bf dd ee 94 3d 11 61 93 bd 7d 0c 67 bc
       -0.6214104 0.07272122 -0.07196248 -0.0141020985
0000f0 c6 5c 86 be 66 03 dd bc ba 90 11 be d3 ff b8 be
       -0.26242656 -0.02697916 -0.14215365 -0.36132678
000100 11 35 83 3c 87 4c b7 3e 60 3a 20 bf 6d ce ed be
       0.016016515 0.35800573 -0.62589073 -0.46446553
000110 a5 e7 c9 be ad 49 81 3a bf f3 b2 be 80 d6 2d bf
       -0.39434543 0.0009863876 -0.3495159 -0.67905426
000120 60 95 99 be 1d 54 2b be 42 38 9a bd f8 a4 1f 3e
       -0.29996777 -0.16731305 -0.075302616 0.15590274
000130 b2 de f4 3e 0b 36 8b be 2c 1e 8b be 51 e6 99 bd
       0.47826153 -0.2718967 -0.27171457 -0.075146325
000140 68 e6 fc bc 21 8e 6a 3d 12 57 1b bf 77 7d d8 be
       -0.030871585 0.05726445 -0.60679734 -0.42283222
000150 c5 a2 d5 3e 9e 75 f9 3e f0 8b 8b be ea e3 94 be
       0.41725746 0.48722547 -0.272552 -0.29080135
000160 0f 55 a5 3e 87 24 06 3d
       0.32291457 0.03274968

conv_block_1.0.bias f4 [10]
000000 90 2f 87 be dd 60 6f be 1d 90 d3 bd e7 93 49 bd
       -0.26403475 -0.23376794 -0.10330222 -0.049213316
000010 61 95 37 3e d6 d8 56 bf 4c ba 80 bd e1 0e 04 3f
       0.17928077 -0.83924615 -0.06285533 0.51585203
000020 de a8 b0 3d 7c 40 99 be
       0.08625959 -0.2993201

conv_block_1.2.weight f4 [10, 10, 3, 3]
000000 1b d2 e9 bd a7 fc 1d 3e eb 2d 59 3d 22 34 94 bd
       -0.114170276 0.1542841 0.053022306 -0.07236506
000010 58 a5 84 bd b2 f7 89 be cf 7f b4 bd 85 29 8a 3d
       -0.06476849 -0.2694679 -0.0881344 0.067462005
000020 c9 39 bf 3d 25 d4 98 3d 86 1d b4 bc cf f3 0e 3d
       0.093371935 0.07462338 -0.021986734 0.034900483
000030 69 3b 97 3c 41 13 a1 bd a7 34 da 3c 1d 7f 4f bc
       0.018460946 -0.078650005 0.026636435 -0.0126645835
000040 3f 4c f6 bc 5f 6a 16 be 28 45 04 bd de af 25 be
       -0.030065654 -0.14689015 -0.032292515 -0.1618037
000050 7c 1c 9a bc 9c 06 81 be 21 a7 bd bd 3e 1a b4 3c
       -0.01881241 -0.25200355 -0.09260393 0.02198517
000060 8d 31 47 be f2 68 38 bd 7d 6a 72 3d 4f 66 10 3d
       -0.19452496 -0.04502196 0.059183586 0.03525382
000070 97 7a dd 3d 86 cf 1a be 45 9e 1b 3e 0d 54 79 bd
       0.10814398 -0.15118226 0.15197094 -0.060871173
000080 ec af 8d be 97 83 41 3e 62 ca 5a be 10 96 a2 be
       -0.2767328 0.18897854 -0.21366265 -0.31755114
000090 15 43 6b bd 79 df 09 be 99 63 01 bd b6 4c 87 be
       -0.05743702 -0.13464154 -0.031589124 -0.26425713
0000a0 ec 68 65 be 93 0e e7 3d c8 33 ae be 35 27 25 be
       -0.22403306 0.11282077 -0.3402388 -0.16128238
0000b0 8c f1 80 be 2d a9 32 3e 42 da 01 3e 92 a1 ec 3d
       -0.25184286 0.17447348 0.12680915 0.115542546
0000c0 66 72 07 3e 21 d7 a9 bb e2 db 67 3d ba 41 19 3e
       0.13227233 -0.005183116 0.05660618 0.14966479
0000d0 c8 ab 81 3d 30 b8 a6 3d 95 16 a6 3c 48 ce 28 3e
       0.06331593 0.081406 0.02027444 0.1648494
0000e0 b9 ec df 3d 63 9e e7 3c f9 5b d1 3d 85 77 a5 3d
       0.10933823 0.028273767 0.102226205 0.08079437
0000f0 40 af 85 bd 2e ec c3 bd 82 3a c8 3d b1 00 23 be
       -0.06527567 -0.09566532 0.097767845 -0.15918233
000100 59 28 50 be f7 ce f0 bd 7b 94 1e be b2 73 3c be
       -0.20327891 -0.117582254 -0.15486328 -0.1840351
000110 92 7e 92 bd 46 50 19 be 34 13 40 be 19 12 99 bd
       -0.071530476 -0.14972028 -0.18757325 -0.07474155
000120 d3 19 8a bd 43 6f 04 be 03 70 22 3c 63 59 d1 bd
       -0.06743207 -0.12933068 0.009914401 -0.10222127
000130 79 36 87 3d 44 f9 90 3d d8 bd 9a bb 47 83 2d 3a
       0.06602187 0.07078794 -0.004722338 0.0006618988
000140 45 79 5c 3d db 6f 16 be 17 77 e5 3c e0 99 12 bd
       0.05382659 -0.14691107 0.028010888 -0.035791278
000150 d0 ea 13 be e9 67 aa 3c 37 f3 43 bd ef cf ce bd
       -0.14445043 0.020801501 -0.04783937 -0.10098254
000160 03 8d 8d bd 2e bb 2d 3c 5e 88 c1 3d 48 ab 15 3d
       -0.069116615 0.010603709 0.09449838 0.0365403
000170 b4 bd 26 be f2 0a 00 be 17 7f 7a be 30 03 31 3d
       -0.16283303 -0.12504175 -0.24462543 0.04321593
000180 b7 ef 9b bc ca d8 66 3e 67 2f 92 3e 5b 86 55 3d
       -0.019035203 0.22543636 0.2855179 0.052130084
000190 22 ae 40 3c ed d0 ea 3c 2c ca 72 3b 2e b6 16 bd
       0.0117602665 0.028664077 0.0037046773 -0.036794834
0001a0 37 aa 68 bd 21 f6 c0 bd e4 b5 42 bd 93 ba c2 3c
       -0.056802955 -0.09421945 -0.047536746 0.023770606
0001b0 51 9a 81 bd c7 69 6f bd 25 41 cd bd 46 57 eb 3c
       -0.06328262 -0.058450487 -0.10022191 0.028728139
0001c0 70 f8 30 3d 65 7a 99 3c 4d 97 61 3d 6e 0c 0a 3e
       0.04320568 0.01873512 0.055075932 0.13481304
0001d0 64 f2 e1 bd 1e d6 45 3e 46 b0 0b 3d c5 a6 09 3d
       -0.110325605 0.1931996 0.034103654 0.03360631
0001e0 da 26 dc bc 4a db bd bd bc fd 19 bc e5 64 ac bd
       -0.026873995 -0.09270342 -0.009398874 -0.084176816
0001f0 ef c0 e0 bc 14 a7 3f 3e 2a d3 77 3c bd 03 0a 3d
       -0.027435748 0.18716079 0.015126029 0.03369497
000200 da 50 32 3c a1 cd 92 3e 5c 28 e8 3d e6 ba 4c be
       0.010883534 0.28672507 0.11335823 -0.19993171
000210 92 31 80 3c 84 9c 88 bd ab 71 33 be 28 3d 1d 3d
       0.015648637 -0.06670478 -0.1752383 0.0383884
000220 89 91 e8 bd 01 f8 3f 3d d3 99 93 3d 57 56 f4 bd
       -0.11355884 0.046867374 0.07207074 -0.119305305
000230 af 99 e1 3d 5c 06 0c be 89 f1 68 bb 5c 89 67 3e
       0.11015641 -0.13674301 -0.0035544357 0.22610992
000240 76 87 af bd fe c5 84 bb 70 d9 0d 3e e3 03 04 3d
       -0.08570759 -0.004051923 0.13852477 0.03223027
000250 36 9f 98 3d ad 04 3d bd 75 21 0b 3e d5 ab 05 be
       0.07452242 -0.046147037 0.13586982 -0.1305383
000260 22 82 01 bd 85 e2 2f be 4a ec 6c bd d1 63 21 bc
       -0.031618245 -0.17176254 -0.05784253 -0.009850458
000270 b7 3f d5 bd f8 44 03 bd 5f e3 c6 bd 47 56 4f be
       -0.10412543 -0.032048196 -0.09711336 -0.20247756
000280 c3 72 03 be e0 cb 1c be 68 09 16 bd 83 4f 05 be
       -0.12836747 -0.15312147 -0.036630064 -0.13018613
000290 86 c6 5a bd 6b 7b b6 3c d7 0a a9 3d 1d 01 72 bd
       -0.053411983 0.022275647 0.08254021 -0.059083093
0002a0 15 38 3c 3c 34 c3 86 bc 26 20 11 be b1 bc 2c 3d
       0.01148798 -0.016450502 -0.1417242 0.042172138
0002b0 da 6f 88 bc 38 81 ea 3d 5a 89 cc 3d 68 1a 57 bd
       -0.016654897 0.11450428 0.09987135 -0.052515417
0002c0 37 e4 bd 3c c6 f3 1f bd bf 65 a8 bb 80 19 07 be
       0.02318011 -0.03905084 -0.005139082 -0.13193321
0002d0 f9 70 03 3e ac 88 87 3c 51 0b a9 be 90 c7 18 be
       0.12836064 0.016544662 -0.33016446 -0.14919877
0002e0 32 b4 51 be 15 75 9f be 46 21 a3 be 86 52 87 be
       -0.20478895 -0.31144014 -0.31861323 -0.26430148
0002f0 2c b4 d3 bd db 6e c7 3d 1f 78 c5 bd 93 7a 04 be
       -0.103370994 0.09737941 -0.09642052 -0.12937383
000300 03 37 00 3d 93 27 67 3d fd ad a3 bd 40 06 25 3d
       0.031302463 0.056434225 -0.0799217 0.040289164
000310 8e f1 ec bc 88 9e 8c 3c 29 81 e0 bd 79 3d 99 3b
       -0.028923776 0.017165437 -0.10962135 0.0046765176
000320 1a 57 1c 3e 29 0e a1 bc 69 15 d6 bc 12 1e 29 3e
       0.15267602 -0.019660072 -0.026133256 0.16515377
000330 ca 2a 84 3d c1 0e da 3d 83 58 ce 3c 7f 18 06 3e
       0.06453474 0.10647345 0.02518869 0.13095282
000340 f5 29 5b be e0 10 5b be aa 0d e6 bb 01 e9 7e be
       -0.21402724 -0.21393156 -0.007020672 -0.24893571
000350 4f c9 6d be 5d 42 9d be cc eb ed bd e3 30 a3 3d
       -0.23221324 -0.30714694 -0.1161724 0.07968309
000360 14 a6 cc 3d 72 4a 01 3d 5a 69 77 3e e9 e1 0d 3e
       0.099926144 0.031565137 0.24161282 0.13855709
000370 80 52 70 3e 3e 1e ac bd 52 43 6f 3e 5c 3d 01 be
       0.23468971 -0.08404206 0.23365524 -0.12621063
000380 f9 5f 2e be f7 bd e1 3d 15 5b 89 bc ca 43 e5 bd
       -0.17028798 0.11022561 -0.016767064 -0.1119457
000390 4f 6c f4 bc de da e9 bc c2 36 31 be 52 bd eb bd
       -0.029836802 -0.028546747 -0.17306045 -0.11510719
0003a0 52 c4 df bd 0b d7 16 be 71 f5 c1 3d af 4d 28 3e
       -0.10926117 -0.1473047 0.09470642 0.16435884
0003b0 68 16 1a 3e 7f 78 c4 3d 0e 4d b3 bc 32 6a 30 3e
       0.1504761 0.09593295 -0.021887328 0.1722801
0003c0 64 61 5c 3e f8 5e dc 3d f3 a3 db bd 10 57 33 be
       0.21521527 0.10760301 -0.1072463 -0.1751368
0003d0 c9 14 8f bd e4 6c 31 be d8 f9 f3 3c b1 21 19 3b
       -0.06986386 -0.17326695 0.02978222 0.002336603
0003e0 2c 27 cb bd 3b 56 1e bb 14 bf 19 3d d2 95 2a 3e
       -0.09919581 -0.0024160284 0.037535742 0.16658714
0003f0 84 e1 88 bd 78 bc ea bd 72 d6 51 bd 64 0b 48 3d
       -0.06683639 -0.11461729 -0.0512299 0.048838988

conv_block_1.2.bias f4 [10]
000000 64 5b c3 3e 37 70 07 be 6b a4 32 be 3d 68 8d 3c
       0.38155663 -0.132264 -0.17445533 0.017261619
000010 d7 91 68 3e f1 5f 21 3f e2 0f 0a be 2d 8f c1 3d
       0.22711883 0.6303702 -0.13482621 0.09451137
000020 58 5f e2 bc 2a 6b 0a bc
       -0.027633354 -0.0084484015

conv_block_2.0.weight f4 [10, 10, 3, 3]
000000 1b c4 17 3d a2 35 bd 3c 38 3d 33 3b 7c 0e 1d 3d
       0.037052255 0.023096863 0.0027349722 0.03834389
000010 40 89 f2 bd 7b 6a f3 3d 14 02 75 3b 49 ab 41 be
       -0.118425846 0.11885544 0.0037385272 -0.18912996
000020 7a 07 62 3d eb e1 bc 3d 35 90 8c bd ac 95 75 3c
       0.05518291 0.09222778 -0.06863443 0.014989298
000030 21 c1 12 bd a6 4b 58 3e 1e 26 04 3e cb 26 91 3b
       -0.035828713 0.21122608 0.12905166 0.0044296733
000040 e7 3d 3d bd 56 89 81 3d a4 2e 44 bd 10 64 e3 bd
       -0.046201613 0.06325023 -0.047896042 -0.1110307
000050 2b e3 08 3e 4d cc 35 3e 9f 77 c6 3d 06 21 9b 3c
       0.13367908 0.17753716 0.09690785 0.018936645
000060 07 38 0b 3e 0a 22 c7 bd c2 e0 1d 3c 86 87 b3 3e
       0.13595591 -0.09723289 0.009636106 0.35064334
000070 05 dd 3a bd 65 95 1b be 58 05 49 be e9 ae 8a be
       -0.045620937 -0.15193708 -0.19630945 -0.2708657
000080 39 e9 3d be 8f 9d 94 bd e1 a8 1a be f5 10 fc bd
       -0.18545999 -0.072566144 -0.15103485 -0.12307922
000090 d9 0b 20 3e b0 d7 f3 bc b4 95 30 be f8 73 db bd
       0.1562952 -0.029765934 -0.17244607 -0.10715479
0000a0 ba 95 35 be 52 58 46 be 97 a9 8d be 9c 33 a0 be
       -0.17732897 -0.19369629 -0.2766845 -0.31289375
0000b0 0a 5f 64 bd f2 65 80 3e 51 ad b1 3e ed 15 de bb
       -0.0557547 0.25077778 0.34702542 -0.006777516
0000c0 c9 5d b9 3d ab b2 10 be 18 e1 ed 3d 63 a2 9a be
       0.09051091 -0.14130656 0.11615199 -0.30202016
0000d0 8a 8c 10 3d 57 18 34 3e 97 1c c0 3d 79 5e a5 3e
       0.03529028 0.1758741 0.09380453 0.3229864
0000e0 7b 8c 40 3e b2 3e 13 3e 09 34 a4 3c 18 1f 40 be
       0.18803589 0.14379385 0.020044344 -0.18761861
0000f0 ae 41 df 3c 70 dd 0a bd 5b 3f 92 3d f6 50 ed 3d
       0.027252998 -0.033902586 0.0714099 0.11587708
000100 c0 d5 e0 3d 9b b6 9c 3c 16 e4 a3 bc ab 79 13 3e
       0.109782696 0.019130042 -0.02000622 0.14401881
000110 17 f9 f2 3d 53 5b 48 be b2 ad ca bd 01 8c 2b be
       0.11863916 -0.19566087 -0.09896411 -0.16752626
000120 bd bd 6d 3d a0 e5 16 bd 93 70 0e 3d ed 56 5f 3d
       0.058042277 -0.03684008 0.034775328 0.05452626
000130 2e d7 f9 bd 83 58 96 bd d5 1c 12 bd 99 37 b7 bd
       -0.121992454 -0.07341101 -0.035672028 -0.08946151
000140 bf 6f e8 bc a3 6f 41 bd 50 45 27 bd 5f f1 1e 3e
       -0.028373597 -0.047225606 -0.040837586 0.15521763
000150 66 dd 15 3e 60 42 5b 3e 86 8c 16 be 96 25 79 3d
       0.14635238 0.21412039 -0.14702043 0.06082686
000160 11 e5 92 bd 28 31 26 be b9 ca 71 3e 4f 13 54 bc
       -0.07172597 -0.16229689 0.23612489 -0.012944057
000170 6d ae b1 bc 83 56 f1 3e 6b 83 2f 3e 82 c8 a4 3c
       -0.021689618 0.47136316 0.17139976 0.02011514
000180 cc 0a 03 3b b8 58 52 be e7 8e d1 3d 73 8f 94 3e
       0.001999545 -0.20541656 0.102323346 0.29015693
000190 f4 fc e2 3d e0 7c aa bd 29 fc 7e be af ed 8c 3d
       0.11083403 -0.08324599 -0.24900879 0.06881272
0001a0 2e b8 8b 3b 50 d8 45 bd 4b 4a 07 3e 10 06 dc 3a
       0.0042638993 -0.048301995 0.13211934 0.0016786475
0001b0 ba fa 50 be 99 2c e1 3d 4c 9b 19 3e 8d db 78 3c
       -0.20408145 0.109948345 0.15000647 0.015189064
0001c0 25 8e 28 bd c4 31 3a 3e ca a6 26 bc 74 c4 b4 bd
       -0.041151185 0.18183047 -0.010171602 -0.08826533
0001d0 b1 69 9a bd 72 17 21 3d 4a 2d f0 bd 67 34 0b 3e
       -0.0753969 0.039329 -0.11727388 0.13594209
0001e0 e3 b1 8a bd 39 67 df bc 4b 96 8c 3d fe 5a 42 bc
       -0.067722104 -0.0272709 0.068646036 -0.011862515
0001f0 72 1a 9d 3d 04 1a 6d bb a9 eb bd 3e 62 6e 03 3e
       0.0767106 -0.0036178837 0.37093857 0.12835076
000200 02 b7 04 3d e6 0d 09 3d 51 f6 ed 3d f6 70 14 be
       0.032401092 0.03346052 0.11619247 -0.14496216
000210 6a f4 0d 3e 5b 0c 0b be de aa 8d bc b5 11 86 3e
       0.13862768 -0.13578932 -0.01729339 0.26185384
000220 d9 52 78 3e fb ab 0e 3e 77 d6 5d 3f ea fd 89 3e
       0.24250354 0.13932793 0.8665537 0.26951534
000230 1f ed ff be ed 2c ff be 14 51 d5 be 57 ff 98 be
       -0.49985597 -0.49838963 -0.4166342 -0.2988231
000240 52 b3 19 be 57 f6 00 bc 1d b1 ce 3e e4 38 bc bd
       -0.15009812 -0.007871232 0.40369502 -0.091905385
000250 1a b3 2e 3d 50 98 96 3d bd 6c 30 3e f7 da 1d bd
       0.042651273 0.0735327 0.1722898 -0.0385389
000260 de 6b bf be 76 c2 c1 3c 92 7a 1a 3e 2b 3f 41 be
       -0.37386984 0.023652297 0.1508582 -0.18871753
000270 13 21 b5 be a2 05 9e be c8 67 08 be 0a eb 75 be
       -0.35376796 -0.30863672 -0.1332084 -0.24015442
000280 ce fa f5 3e 69 53 c6 bc 15 f5 8f 3d ba cb e3 bd
       0.4804291 -0.024209695 0.070291676 -0.11122842
000290 4f 70 4e 3d 12 69 9d bd 74 d3 f9 bd b9 62 bf 3d
       0.050400075 -0.07686056 -0.121985346 0.09345002
0002a0 ba be 73 3e 01 63 3b 3e 50 72 e1 3d 2a 8b cf be
       0.23803225 0.18299486 0.110081315 -0.4053586
0002b0 cf 4e cf be cc 1f b1 3d f2 76 1c bf e1 91 83 bb
       -0.40489814 0.08648643 -0.61118996 -0.004015193
0002c0 0d c6 a9 3e f0 c9 45 3e 4a 01 16 3e 6a 14 6e be
       0.33158913 0.19315314 0.14648929 -0.23249975
0002d0 44 17 51 3e 59 ab 3d 3e d2 9e ca 3d f3 8e b4 3e
       0.20419031 0.18522395 0.09893574 0.35265312
0002e0 d4 52 12 be 9b d0 17 be 83 a2 aa 3e bd 58 e9 bd
       -0.14289409 -0.1482567 0.33327112 -0.113938786
0002f0 65 97 9b bd bd 47 50 be f5 0f 02 be 0d 1c b3 3d
       -0.075972356 -0.20339866 -0.127014 0.08745585
000300 37 da eb bd d2 fd 03 bd 58 e8 2e 3e 81 24 0c 3d
       -0.115162306 -0.032224484 0.1708082 0.0342145
000310 42 1e 77 3b 93 6f a4 3c a8 62 01 be a0 9f 35 3a
       0.0037707244 0.020072734 -0.1263529 0.0006928388
000320 a6 08 b2 3e a4 08 be bd a8 80 26 3d 21 4f a6 3d
       0.34772223 -0.09278992 0.04065004 0.081205614
000330 ab b0 f7 bd 60 60 17 3e e2 86 76 be 87 46 cb 3d
       -0.120942436 0.14782858 -0.24074891 0.099255614
000340 b0 a7 a2 3c b5 e4 e5 be 75 f4 4c be 42 d6 83 bd
       0.01985535 -0.44901052 -0.20015128 -0.06437351
000350 29 c5 a2 be 84 2d 4c be a0 56 c7 be b1 52 9a 3c
       -0.31791046 -0.19939238 -0.38933277 0.018838258
000360 e0 f9 8a 3b d4 d1 b7 3e 2d e8 df be 8e 99 91 3c
       0.004241213 0.35902274 -0.43731824 0.017773416
000370 e7 14 38 be cd f2 ef be e3 31 12 3f 74 46 47 be
       -0.17976724 -0.4686493 0.5710737 -0.1946047
000380 35 85 99 bd 26 54 84 3e 7c e3 b5 3d 04 d3 52 3d
       -0.0749611 0.2584545 0.0888128 0.05147077
000390 8c 15 da bd da e4 f0 be 8b 29 9a be 2c f6 e7 3d
       -0.10648641 -0.470496 -0.3010982 0.113262504
0003a0 1e ba ed be 20 d8 b4 3e ab 70 8f bd 58 14 6d 3d
       -0.4643106 0.3532114 -0.070039116 0.05788073
0003b0 db 49 32 3e c1 d4 ba be 50 cb b6 be 78 cf 9c be
       0.17410986 -0.36490443 -0.3570199 -0.30627036
0003c0 4c 57 9e be c1 51 82 be 78 11 8d bc d7 63 09 be
       -0.30925977 -0.25452998 -0.017220244 -0.13416992
0003d0 b9 95 62 be dd 9d cb bd 47 32 35 bd 9d 4b cc bd
       -0.22127427 -0.099422194 -0.0442374 -0.099753596
0003e0 dd 77 58 3e 2b d4 16 be 80 90 8d 3d 8c e1 a5 3e
       0.21139474 -0.14729373 0.06912327 0.3239864
0003f0 45 00 b4 3d bd fa d2 bd d0 1b d2 bc 39 2e 54 bc
       0.08789114 -0.10301731 -0.025648028 -0.012950473

conv_block_2.0.bias f4 [10]
000000 d1 0f 2b bd b2 89 27 bd 68 15 c6 3e 9d 2f d3 3d
       -0.04176313 -0.0409028 0.38688207 0.10311816
000010 ae 92 be 3d 68 94 6c 3e 28 66 63 3e c2 3d d1 bd
       0.09305321 0.23103487 0.22206938 -0.102168575
000020 14 a4 86 3d 46 ad 11 3c
       0.06574264 0.008891409

conv_block_2.2.weight f4 [10, 10, 3, 3]
000000 b2 85 5b be 9d 58 89 bd 0c 92 91 bd 65 5b 1d be
       -0.2143772 -0.06706355 -0.07107934 -0.15366895
000010 92 be 89 3b e8 1e d3 bc d1 38 92 3d 9e ef 36 bd
       0.004203626 -0.025771573 0.07139743 -0.04466211
000020 48 6e 53 3d a7 79 58 be b2 97 74 be 26 9b 8b be
       0.051618844 -0.21140157 -0.23885992 -0.27266806
000030 de 3c 85 be c3 34 cd bd 79 d6 88 3e 76 5d 9a be
       -0.26023 -0.10019829 0.2672613 -0.3014943
000040 e1 45 6e 3e 3e 6d 89 3e ad f1 aa 3e 69 8e 42 bd
       0.23268844 0.26841158 0.3338751 -0.047499094
000050 5d 06 5e be ed 9c 0d be 7a 78 9e bd 90 c0 03 be
       -0.21682115 -0.13829394 -0.07737823 -0.12866426
000060 4f cb b0 be 8f c5 3a bd 2b 88 83 3e 85 5d 33 3d
       -0.34530112 -0.045598563 0.25689825 0.04379036
000070 8d 58 ad 3e 8c 0b 10 3d b0 a3 d9 3e c8 c0 cf bc
       0.3385662 0.035167262 0.42507696 -0.02536048
000080 7c 5d dc be e8 02 dd 3e bc db 89 be 85 72 d1 be
       -0.43040073 0.4316628 -0.26925457 -0.40907684
000090 10 9d d8 be 29 98 9f be 5a 37 07 bf e3 0d 48 be
       -0.4230733 -0.31170776 -0.52818835 -0.19536547
0000a0 09 f3 25 bd 53 42 8e be 9d 5b 51 3e e9 83 d3 be
       -0.04051498 -0.27784976 0.20445104 -0.41311577
0000b0 fb 43 cd be d3 90 59 bd f8 bf 1b be 61 cf 40 3d
       -0.40090927 -0.05311663 -0.15209949 0.047072772
0000c0 08 a6 04 bd 15 d7 76 3c f1 8f 30 3e 8d f4 fe bd
       -0.032384902 0.015065928 0.1724241 -0.12448988
0000d0 8a d3 a5 bd 73 77 87 3e 95 49 bc 3c 1f 5b 0c bd
       -0.080969885 0.2645832 0.022984305 -0.034266587
0000e0 41 f2 a6 be 55 c6 b7 3c e1 4b e2 3b 3a da 0d be
       -0.326067 0.02243344 0.006906018 -0.13852778
0000f0 20 1f fe bd 58 96 fb be e5 01 f6 be 1f e8 a8 bc
       -0.124082804 -0.4913814 -0.4804832 -0.020618496
000100 1a 39 16 bd da d1 96 bd 35 df 88 3c ba 81 b8 bb
       -0.03667555 -0.07364245 0.016707996 -0.005630699
000110 a9 ed 61 bd fe 80 44 3c 99 e7 b5 bd 81 4a 51 bd
       -0.05515829 0.011993645 -0.08882064 -0.051096443
000120 70 d3 8d 3d b8 2e cb 3c 92 97 31 bd 21 66 7c 3d
       0.06925094 0.02480255 -0.04335744 0.061620835
000130 34 25 22 bd 37 a9 09 be 54 de 31 3e 9c 14 4a 3d
       -0.03958626 -0.13443457 0.17369968 0.04933606
000140 4d 41 23 be 97 82 27 bc 15 fc 63 be 30 6c 96 be
       -0.15942879 -0.010224006 -0.2226413 -0.29379416
000150 17 6f aa be 49 97 a4 be 5c f4 09 3e 98 b5 11 be
       -0.3328788 -0.3214667 0.13472122 -0.14229429
000160 ea 3e 82 3d 51 3b 94 bd 38 52 53 be 7e 88 e5 bd
       0.06359656 -0.07237876 -0.20636833 -0.112076744
000170 70 83 ff bd fc 7c 11 be d7 f5 6c 3d c3 9c 1e 3e
       -0.124762416 -0.14207834 0.05785164 0.15489487
000180 9d ba 5c be 12 e3 9d 3e d5 8d 34 3e 5c 3b 07 3e
       -0.21555562 0.30837303 0.1763223 0.13206238
000190 2d 14 02 bd 62 89 c4 bd da 13 20 3e 26 c4 61 3d
       -0.031757522 -0.09596516 0.15632573 0.055118702
0001a0 5e 0c 3d 3d 1c c4 12 3d fd de d6 be 1f f5 27 bc
       0.046154372 0.035831556 -0.41967002 -0.0102513125
0001b0 0f 13 84 bf 2d 40 53 bf 0d b5 2b bf d9 0f 98 3e
       -1.0318316 -0.825198 -0.67073137 0.2969959
0001c0 2d 24 b9 bc 8d cf 4d be be e8 5d 3e 69 a9 d3 3c
       -0.022600258 -0.20098706 0.21670815 0.025837617
0001d0 96 e5 30 3e ce 08 96 be 1d 2b 80 3c cd 88 dd 3d
       0.1727508 -0.29303592 0.015645558 0.10817108
0001e0 9b cf 6b be f3 33 29 bf 4a 65 13 bf e5 1a ae 3b
       -0.23028414 -0.66094893 -0.5757643 0.0053132647
0001f0 e8 5a 10 3e a3 7e 10 3e 06 4b 2a 3d c4 9c 0e bd
       0.14097178 0.14110808 0.041575454 -0.034817472
000200 f2 68 d8 3e ed 13 28 3c c6 80 e4 bc 75 80 43 be
       0.42267567 0.010258657 -0.027893435 -0.19091971
000210 d5 0d 99 be f1 28 bf be 78 c1 94 be 79 19 bb 3e
       -0.29893366 -0.37335923 -0.29053855 0.36542872
000220 94 ed 54 3d b6 e8 4c 3e a4 77 dc bd 64 27 cf bd
       0.051984385 0.20010647 -0.10765007 -0.10114935
000230 99 96 47 3b fb 05 08 3d a1 3d 1d 3d c0 b2 2e 3d
       0.0030454753 0.03320883 0.038388852 0.042650938
000240 ec 06 c7 3e 9c 94 aa bd b1 2f d5 be 92 cd ae 3d
       0.38872468 -0.08329126 -0.41637948 0.08535303
000250 02 ee cb bc 55 c6 21 3e 4b b2 0c 3d c3 9f a6 3e
       -0.024893764 0.15798314 0.03434972 0.32543764
000260 eb e3 04 3d e9 d7 58 bc 32 6a 43 3b ee ba af bd
       0.032443922 -0.013235071 0.0029817936 -0.08580576
000270 56 62 29 3d dd 4d ed bc 29 84 60 3d d0 03 a8 3d
       0.041353546 -0.028967792 0.054813538 0.08203852
000280 96 b5 b4 bd be 49 99 bd dd 3e f5 3d f0 d7 38 3d
       -0.08823697 -0.07484768 0.11974881 0.04512781
000290 93 bd df 3c b8 e3 67 bd 1e 31 3b bd cc 0c 30 bd
       0.027312076 -0.056613654 -0.04570114 -0.042980954
0002a0 99 a9 8e bc 54 10 72 3c 88 06 0d 3d ce 27 08 3f
       -0.017414855 0.014774401 0.034430057 0.5318574
0002b0 43 1a 3d 3d 84 68 8f bd 14 71 bc bd ed bf 16 3e
       0.046167623 -0.07002357 -0.092012554 0.14721651
0002c0 de dc bd bd 40 a2 03 bf 94 ed c3 be 80 30 08 bf
       -0.09270643 -0.5141945 -0.38267195 -0.53199005
0002d0 24 d9 37 3e a5 6e 37 bd 8a b6 90 3d b5 64 b6 bd
       0.17953926 -0.044783253 0.070660666 -0.08905927
0002e0 00 7c aa be 08 89 23 bd 8c fc 0b bd 34 f1 68 be
       -0.3329773 -0.039925605 -0.034176394 -0.22748262
0002f0 41 6e 05 be ab 19 19 be 33 9a a3 be 9f be bb 3d
       -0.1303034 -0.14951198 -0.31953582 0.091672175
000300 61 b3 a2 be 2a da 3f bf c4 3b 90 be 87 0d 5e be
       -0.3177748 -0.74942267 -0.28170598 -0.21684848
000310 a8 26 29 bf 66 97 02 bf 8d 4d e4 3e 22 2e 02 bf
       -0.6607461 -0.51012266 0.44590417 -0.50851643
000320 d7 6d 92 be cb 98 45 3e f7 e4 81 be 55 e7 37 be
       -0.28599426 0.19296567 -0.2537 -0.1795934
000330 d2 5d ad bc 6d 19 84 be bc 99 80 be bc 69 f0 be
       -0.021162901 -0.25800648 -0.2511729 -0.4695567
000340 46 74 7a 3e 01 b5 70 3d b8 ed cc be 8b 02 94 3d
       0.24458417 0.05876637 -0.40025115 0.072270475
000350 13 2f ac be 0e 6b 24 be c3 b8 fa bd 01 f9 6f be
       -0.33629665 -0.16056463 -0.12242272 -0.23434831
000360 a2 b6 ed bd 75 a8 a1 3d b7 c0 7f be f0 69 ba be
       -0.116071 0.07893459 -0.24975859 -0.3640895
000370 57 0a 75 3d 04 fd 07 3e 74 d3 69 be 98 30 9b 3e
       0.059824314 0.13280112 -0.22834569 0.30310512
000380 94 e6 ab 3e 12 d9 dd bd 5d 8b 85 be 10 27 6d bd
       0.33574355 -0.108324185 -0.26082888 -0.05789858
000390 e7 f8 b8 3d c1 fa 3f be f5 89 29 be a0 69 5b 3e
       0.09031849 -0.18747999 -0.16556533 0.21427011
0003a0 d3 21 13 bb d9 ae 1c be cf 8c 11 3e fd 88 1f 3d
       -0.002245058 -0.15301074 0.1421387 0.038949
0003b0 c1 51 d2 bd 48 a9 73 be d3 2f ac 3e a0 ab 89 3e
       -0.102694996 -0.23795044 0.33630237 0.26888752
0003c0 aa 01 54 be f2 9b 98 3e 08 b9 e3 3c 23 09 dd bd
       -0.2070376 0.29806477 0.02779819 -0.10792758
0003d0 c2 8f 9f bd 35 60 99 3b ca a6 4a 3d 26 0d 5e bc
       -0.077910915 0.004680658 0.04947547 -0.0135529395
0003e0 bb 1f 10 3b bc 31 77 3d 03 eb c3 3d 7b 4c e1 bc
       0.002199157 0.060350165 0.09566309 -0.027502289
0003f0 3e 16 fe 3b 83 7b d9 3b 86 fd 61 bb d8 53 aa bd
       0.0077541163 0.006637038 -0.0034483387 -0.08316773

conv_block_2.2.bias f4 [10]
000000 bf 53 8e 3c 27 6a 58 3e 8f e6 6c 3e 97 fe 6e 3e
       0.017373918 0.21134244 0.23134826 0.23339306
000010 15 0c 4a 3e 84 92 9e bd a7 9c 47 be 75 6f ee bb
       0.19731171 -0.077427894 -0.19493352 -0.0072764703
000020 ec 01 78 3e be ef 91 be
       0.24219483 -0.2850322

classifier.1.weight f4 [10, 490]
000000 78 8c 37 bd 90 97 df bd 86 5f 0d be c9 1a 5e 3d
       -0.044811696 -0.1091758 -0.1380597 0.054224763
000010 62 87 61 be ab e3 16 be ab 7a 97 bb fb 34 34 bd
       -0.220243 -0.14735286 -0.0046227775 -0.04399584
000020 f8 24 10 bc 53 2d 75 be 5f fb c5 bd 28 f5 e3 bd
       -0.008797877 -0.23943071 -0.09667086 -0.11130744
000030 05 07 7b be b8 3a 51 bd b1 6a 01 bc 62 7a 81 3e
       -0.24514396 -0.05108139 -0.007898972 0.25288683
000040 7d 41 31 3e 30 36 91 3e 96 bf b1 be a9 f2 f2 bd
       0.17310138 0.28361654 -0.3471648 -0.1186269
000050 ad a0 7a 3d f0 89 21 bc 73 03 19 3e c3 a1 be 3e
       0.06118839 -0.009859547 0.14942722 0.3723279
000060 75 a4 1b be e2 99 62 3e 04 cd ac 3e 64 08 75 bc
       -0.15199454 0.22129014 0.33750165 -0.014955614
000070 b6 3e 6c bd 6e f0 44 3d 83 d2 be bc 7c 79 9e 3e
       -0.057676993 0.048080854 -0.02329374 0.3095206
000080 a5 f1 72 3e 17 a8 49 bd 09 03 71 3b 01 a9 91 bc
       0.23724993 -0.04923257 0.003677549 -0.017780783
000090 09 31 c7 bd ef 46 1d be 72 43 2b 3d 42 e0 51 3d
       -0.097261496 -0.1535909 0.041812368 0.05123926
0000a0 fe e7 03 bd a0 e2 6b 3c c6 e1 87 3c 43 95 3c 3a
       -0.032203667 0.014397293 0.01658715 0.00071938726
0000b0 71 ff 44 bd d7 27 ab bb f0 f2 95 bc 2f 5b 30 3c
       -0.04809517 -0.005223255 -0.018304318 0.010763927
0000c0 65 77 89 bc 52 39 d7 3c 2f 1f 8b 3d 67 1d 4a bc
       -0.016780565 0.02627245 0.06793057 -0.012336112
0000d0 0a 6c d2 3d 7a 08 77 3d 97 64 9e 3c 46 49 14 3d
       0.10274513 0.06031082 0.019335074 0.03620269
0000e0 cd 43 23 3c d3 7f 05 be 8e 35 8c be 3a d8 6c bc
       0.009964895 -0.13037042 -0.2738461 -0.014455849
0000f0 30 e6 fe bd 0d 2a 12 bd b6 70 4a 3c c5 62 f4 bd
       -0.124462485 -0.035684634 0.012355974 -0.11932901
000100 a4 a9 37 be 7e e9 65 bd 99 2f 97 3d bd 04 50 3d
       -0.17935807 -0.05613088 0.073821254 0.05078577
000110 40 81 c5 39 a3 23 e9 bc 7c ca cf bc 22 81 d2 be
       0.00037671067 -0.028459376 -0.025365107 -0.41114146
000120 b9 86 ca be 40 e0 6a be e4 8f 66 bd 64 35 08 bd
       -0.3955591 -0.22937107 -0.05628957 -0.033254042
000130 96 09 25 be c5 37 9d 3d ec fb e1 3d cd 83 08 be
       -0.16116938 0.07676653 0.110343784 -0.13331528
000140 5f a7 80 be 5a 52 dd bd 35 4e 45 bd 16 8c 4f 3d
       -0.25127694 -0.10806723 -0.048170287 0.050670706
000150 ef d2 da 3c 14 1b 2f 3e 7f 30 2d 3e 54 06 94 3e
       0.02671191 0.17100173 0.16913031 0.28911078
000160 77 1a c4 bb 70 e3 8d be db 6d 98 bd 9d da 7f 3c
       -0.0059846 -0.27712584 -0.07442828 0.015616086
000170 17 30 af 3b 15 2d 9a 3e 3c b9 3c 3e 97 d8 c8 bd
       0.005346309 0.3011252 0.18430036 -0.09806936
000180 e5 dd 94 be ec 87 2a bd 76 dd 2e bd 52 c4 04 be
       -0.29075542 -0.04163353 -0.04269167 -0.12965515
000190 fa f1 9d bc a6 c0 3f 3d bf f4 7b bc 74 4a ba ba
       -0.019280422 0.046814583 -0.015378176 -0.0014212863
0001a0 0e 7a f1 3c 3d 40 e7 bd 02 14 0a be 84 16 5d be
       0.029477146 -0.11291549 -0.13484195 -0.2159062
0001b0 f2 b4 01 3c 9a d3 ef 3b 76 c4 83 bc 58 2b 57 bd
       0.007916676 0.007318926 -0.01608489 -0.05253157
0001c0 2b 3f db 3c e6 db bf 3d 78 98 cb bd 36 cf 5f bd
       0.02676352 0.09368114 -0.099411905 -0.05464097
0001d0 34 ff 43 3e c7 32 b5 3e 03 96 ba bd 9e d9 82 3e
       0.19140321 0.35390303 -0.09110644 0.25556654
0001e0 44 45 37 3e 5c 91 90 3c e5 da a0 bd c7 e6 85 3e
       0.17897516 0.017647438 -0.07854251 0.26152632
0001f0 44 81 a9 3e d0 49 14 be 34 d4 17 3e 83 ce a6 3c
       0.33106434 -0.14481282 0.14827043 0.020362144
000200 f3 fd b8 3e 11 d2 02 be a0 7e 71 3d d0 68 79 3d
       0.36131248 -0.12775446 0.05895865 0.060890973
000210 3e 56 94 bd 84 35 96 3c 40 9f 4b 3e b6 fe 69 3e
       -0.07243012 0.018336065 0.19884968 0.22851071
000220 bd d6 87 be a1 d1 b4 be 03 cd 73 bd 64 33 05 bd
       -0.2653102 -0.35316184 -0.059521686 -0.032519713
000230 30 96 85 bb 04 eb 83 bd 5b a5 42 bd 83 ad f8 bd
       -0.0040767416 -0.0644131 -0.047520977 -0.1214247
000240 b9 8a a1 bd 18 cc 51 bd c3 82 47 bd 73 67 ba 3c
       -0.07887787 -0.05122003 -0.04870869 0.022754407
000250 8a 6d a6 bd a4 fb 2b be 52 0f 16 bd 00 5f d3 3d
       -0.08126362 -0.16795212 -0.036635704 0.10320854
000260 0d ab 11 3e a0 77 e0 bd ce a0 19 bd ae 0d 1e bc
       0.14225407 -0.10960317 -0.03750687 -0.009646816
000270 7a a6 34 3d a5 cb a1 3e 9a e3 a0 3e c2 93 3f 3e
       0.044104077 0.3160068 0.31423646 0.18708709
000280 02 d8 54 3e fb 81 4b 3d d4 5c d1 3c ad 27 73 bd
       0.20785525 0.049684506 0.02555696 -0.05936401
000290 26 63 de bd 95 2a e5 3d 55 f8 b3 3d ef 02 0e 3e
       -0.10858755 0.111897625 0.087876 0.13868307
0002a0 34 ca 41 bd 75 bf 8a be 77 6c 64 be 6d a5 21 be
       -0.047311977 -0.27099195 -0.22307001 -0.15785761
0002b0 d2 f2 c9 be e5 ad 9c be 44 72 fe bc ee a9 be 3c
       -0.3944307 -0.3060142 -0.031060345 0.023274388
0002c0 ce 40 9f be 21 74 50 be 23 1e 6d 3e 27 57 cb 3d
       -0.3110413 -0.203568 0.23156027 0.09928732
0002d0 cd 70 9a be fd 1a ba be 3e 48 9e 3c 8e 53 3e bd
       -0.30164185 -0.36348715 0.019321557 -0.046466403
0002e0 f5 db d4 3c 0e 47 9b 3e 94 76 00 be 3b f7 4e be
       0.02598379 0.30327648 -0.12545234 -0.20211498
0002f0 8f 7c ab bd bb 6d 18 bc 0c d8 29 bc 77 0b 86 bc
       -0.08373367 -0.0093035055 -0.010366451 -0.016362889
000300 52 2f 38 3b fc 51 4e 3d 8a bd 84 3b e4 03 6a 3c
       0.0028104377 0.050371155 0.004050915 0.014283154
000310 96 0f 9d 3c 46 45 3b 3c ec b1 0d bd 5d 71 28 bd
       0.019172471 0.01143009 -0.034593508 -0.041123737
000320 72 1a fd bd 5f 45 87 bd 43 d9 01 bc 30 09 e0 3c
       -0.1235856 -0.06605028 -0.007925334 0.027348131
000330 06 ca 15 be f3 02 78 bd 18 fa 00 be 7c eb d4 be
       -0.14627847 -0.060549688 -0.12595403 -0.4158591
000340 f7 79 ee bd bb be bf bb eb 65 a3 bb 1e fb ec 3d
       -0.11644357 -0.0058515943 -0.004986515 0.11571334
000350 b6 32 28 3e 63 cc 5e bc 9a a6 8e be 05 40 80 3e
       0.16425595 -0.013598534 -0.27861482 0.25048843
000360 a7 bd b2 3d 74 22 2f bd 13 7b 2c 3e ee fe ae 3e
       0.087275796 -0.042757466 0.16843824 0.3417887
000370 9c ad 81 be 21 94 9e 3e c0 e3 94 3e 4a 33 9f 3d
       -0.25327766 0.30972388 0.2908001 0.077734545
000380 a8 5b 25 3c c7 b3 fa 3c 5c 27 48 bd 3f 5a 36 be
       0.010092653 0.030603303 -0.04886566 -0.17807864
000390 26 ef ec bc 7a 53 86 3e 31 d5 54 bc 97 80 ee 3c
       -0.028922629 0.26235563 -0.012990282 0.02911405
0003a0 96 e1 e2 3d 07 05 81 be d6 a6 13 bf ec e7 04 bf
       0.11078183 -0.25199148 -0.57676446 -0.51916385
0003b0 aa 9d 99 be ee 18 8a bd bf 2e f8 3c e7 76 1a bd
       -0.300031 -0.06743036 0.030295728 -0.03771105
0003c0 03 d4 02 3d e8 66 15 be e0 d3 98 be fb d3 98 bd
       0.03194047 -0.14590037 -0.29849148 -0.07462307
0003d0 10 47 99 bc 88 2d 17 3c ef 24 30 bd 8a eb 58 3b
       -0.018710643 0.009227164 -0.043003973 0.0033099377
0003e0 cb 48 aa bc 41 a6 e8 3a 49 b5 a7 bc da 89 9c 3b
       -0.020786664 0.0017749743 -0.020472186 0.0047771754
0003f0 d2 db a8 3c 5d 9a fb bc 45 02 dd 3c 59 82 d2 3d
       0.020612631 -0.030713255 0.026978621 0.10278768

classifier.1.bias f4 [10]
000000 be d9 4d bd 09 49 06 3f 2f 82 8b 3c ef 4d 8c 3b
       -0.050256483 0.5245519 0.01702985 0.0042817513
000010 b9 9d b3 bd 1a a3 7a bd 61 72 65 3d ba a2 c4 3d
       -0.087703176 -0.061190702 0.056017283 0.0960135
000020 c3 70 7c be ee 78 df bd
       -0.2465239 -0.109117374
