model_weights/model_epoch_1.pth (torch, 34447 bytes, 10 tensors)

conv_block_1.0.weight f4 [10, 1, 3, 3]
00000000: 6134 c3bc 97ef 4e3e bdaf 1cbe 2a21 653e
00000010: af7a 943e a342 8dbe 9794 ef3d e4f2 603d
00000020: da9a 3dbe 0d51 babe bb9f bdbe 86f3 b7bd
00000030: 5d19 35be 5fb5 533e e41e 1d3e f995 703e
00000040: fdf4 003d 409b b13e ed25 903d c3f9 2ebf
00000050: b4c6 fcbe 3258 47bd 7a6b 87be a672 e1bd
00000060: 1e3a a83e eff6 b03e 0a8e d83e 414e 08be
00000070: 248e 9fbe 598e 4c3e 8c51 c9be cae3 c43d
00000080: 82fe 2b3e bf00 a03d 7caf 3dbe 7f12 9f3e
00000090: 0b41 b3be 2698 16be 94e8 cbbd f927 ef3d
000000a0: ed72 bf3e 98c0 bb3d 49e2 3f3e 6988 1e3e
000000b0: 15dc a73d 42dc 1d3e 0d65 7cbd b173 093f
000000c0: bf07 843e 9c9f 8abe 2a61 92bd 07d9 a2be
000000d0: 15c6 b9be 2803 00bf 53d0 11be e356 31be
000000e0: 52ce 97be e8a8 13bd 58c2 76be d255 a1be
000000f0: d0e9 db3d 1686 a0be 0a7a 1e3e 7cbc ffbd
00000100: e311 c03e 1818 1cbe 0e29 a43d e221 b83e
00000110: 9182 fd3e 4d96 94be 16c6 253e 2683 c23e
00000120: e3b0 853e a2bc 533d 4ba4 0fbe 419b 2c3e
00000130: 2dad 5bbe 8ce9 a5be 5774 03be 9418 b63e
00000140: 4b50 34bd 1fd9 06be 4ac2 69bd a414 1d3e
00000150: 89dd 66be 3acd 85be eaf3 f3bd 2c42 7dbd
00000160: 85aa 8e3e 2808 783d
-0.023828687 0.20208584 -0.15301414 0.22375932 0.2899985 -0.27589902 0.11698263 0.05491914
-0.18516102 -0.36389962 -0.37035927 -0.08981995 -0.17685457 0.20674656 0.15343815 0.2349471
0.03148364 0.3468876 0.07038484 -0.68349856 -0.49370348 -0.048668094 -0.26449186 -0.110081956
0.3285684 0.34563395 0.42295867 -0.13311101 -0.31163132 0.19976176 -0.39320028 0.0961376
0.16796306 0.07812642 -0.18523973 0.310688 -0.3501056 -0.14706478 -0.0995647 0.11677546
0.3739237 0.09167594 0.18738665 0.15481724 0.08196274 0.15416053 -0.061619807 0.53692156
0.2578716 -0.27074897 -0.07147439 -0.31806204 -0.36283937 -0.50004816 -0.14239626 -0.17318301
-0.29649597 -0.036049753 -0.24097574 -0.31510788 0.107379556 -0.313523 0.15476242 -0.124871224
0.37513646 -0.15243566 0.08015643 0.3596335 0.49513677 -0.2902092 0.16188845 0.37990683
0.26111516 0.051693566 -0.14027517 0.168561 -0.2145278 -0.32404745 -0.12837349 0.35565627
-0.044021886 -0.13168763 -0.057070054 0.15339905 -0.22545446 -0.26133138 -0.11911757 -0.061830685
0.2786447 0.060554653

conv_block_1.0.bias f4 [10]
00000000: 2e5e 703d e679 76be 9b28 9b3e 87d2 34bd
00000010: a086 9c3d 0846 613e e328 9ebe 5816 b03c
00000020: 3f0b 3bbd 0477 83be
0.058683567 -0.24069938 0.30304417 -0.044146087 0.07642865 0.21999371 -0.3089057 0.02149503
-0.045665022 -0.2567674

conv_block_1.2.weight f4 [10, 10, 3, 3]
00000000: 0c78 893d d25f 26bd 825d df3c df11 babd
00000010: 7376 c5bd 0f26 95bd 851b 193c af50 c5bd
00000020: 0854 c4bc f605 4a3d 27a4 1abd 3556 793c
00000030: 359d c1bd 85b1 663d cb63 37be 0f6a 22bd
00000040: c375 23be 9483 033d 0504 0fbe 1607 18be
00000050: 8aa2 9f3c 7dcf 28be 30aa 4ebe e800 00be
00000060: 3608 c5bd e006 70be 7a6b bdbc e51d 833d
00000070: ac3b 41bc c38b 15be 92ca 11bd 5f0b 1b39
00000080: 5cc6 dbbc e14b dcbd 1c48 4d3d 7618 613d
00000090: 353f 0dbd a6aa 5abc 33bb 213e 3893 19bc
000000a0: c485 7dbd 3133 383c c2cf a73c d1cc 0ebd
000000b0: d9cf 183d 0285 59bd 3035 98bd 9ed1 f1bb
000000c0: 4d46 243d 999e df3d a4b8 aabd b5d5 c5bc
000000d0: 4d6d 323d 23ce 49be 40b8 93bc ee5e 5ebd
000000e0: 30cf eabc e783 cf3d 9224 0abd 6265 4e3d
000000f0: fc9c 0abd dddf c3bd 8e0e 93bd a204 303d
00000100: 9127 513e 11e9 fc3d 9000 41bc 70f3 5cbc
00000110: c09e 903e 45e9 30be f0b5 b0bc 587b 423e
00000120: a111 0cbe 6c25 453d 2821 a63b 90bd aa3d
00000130: fd17 9f3d ffcf 783c fcb0 bfbd a5df d7bd
00000140: 860d 2f3c c23f 27bd 856b 3fbd 9baa 733d
00000150: 62ff 193d 40e8 5b3c 4072 61bd 96df 0d3d
00000160: 7e51 c33d ae28 88bd 4690 763d 8092 bbbd
00000170: 3788 d7bd 9279 253e 28c2 48ba c3f4 edbc
00000180: 53d1 cf3d 297f 8cbd ad44 a83b c12c 973d
00000190: b836 2a3d c640 c3bd d38b 3dbd 8f49 afbd
000001a0: 5865 ba3d 23ff 513d e07d b9bd 1cba 9d3d
000001b0: 161a afbd 46f7 67bd 9702 debd 1d8f 493e
000001c0: 9218 293e e713 8b3d 421c 153d 8e16 093d
000001d0: ed05 d93d 7dcb 1bbd aeda 2e3b 2a62 b43d
000001e0: ac2b 1ebe 4cf8 123c a19f 3fbd acb8 68bc
000001f0: 2909 14bd 3cb5 cb3d 1c89 96bd e8f8 3fbd
00000200: 60d3 8ebd 38f0 b03c 3420 3fbd 60eb cc3d
00000210: 1867 333e fdd6 0a3e 0fd6 393d 7424 8ebd
00000220: ed9c 2fbc 4925 d4bd 4567 48be 9e7d ae3c
00000230: 37a4 413c 8615 5f3d 26c5 f8bd 4bb4 77bd
00000240: 5caa 20bd 5120 c83d 1a60 433d 6c65 b63c
00000250: 4e06 5fbd 5cea f03c d0bf 09bd 925b 0d3d
00000260: 6a9d 73bd 43d8 22be 6550 8bbe 78b3 11be
00000270: 4add f43c 128f 11be 532f 87bd 2924 5f3e
00000280: f975 233e 890b 673e f49f 8d3d 7ab8 913d
00000290: 41a2 c2bd 5e79 293d 77b6 b63c 686a 2dbe
000002a0: f2cf 223d b690 c03d ddf0 f2bc 985c 163c
000002b0: 9048 b3bb 7001 323d 9e74 673c 6389 8bbd
000002c0: 8b29 b0bd 6093 283d cb55 32bb 513b 1cbc
000002d0: 115f 30bd a872 f03d 37b8 ffbc 33fc ca3d
000002e0: 3e90 c53c 342b 92bc c752 7a3d 2035 803d
000002f0: 100a 343e 3bcf 5ebe 4f66 09be 51e7 95bd
00000300: 7363 e43b f5e4 16be 7850 eebd c8d5 273e
00000310: ea74 edbd 5c0a 6fbd 7a72 eabd a592 283e
00000320: 25fc 533e 969b 9bbd 696c 52be 6380 bbbc
00000330: 868d 02be efa1 2ebe 8951 73be 5c3f 533d
00000340: fc59 88bd f082 e13d 48b8 5e3e 1543 edbc
00000350: c223 743d e2ad 0f3e b8c5 043d 6a85 473d
00000360: d0bd 29be dc09 8dbc c670 ea3d c2bb c03d
00000370: 0518 973d cd4c 0b3e 1def 8f3e d1ae e03d
00000380: 00ab 86bd 9037 c3be 7f1c 31be e641 4abe
00000390: 2c5a 02be 5d67 86be 24b8 72bd 78dd debd
000003a0: b031 e73d 6439 273e 41d7 913d 56eb 5c3d
000003b0: 7a55 2dbd 989d f9bc 1f50 ccbd 807c 773b
000003c0: ca78 afbd 9dea 57bd cd4f 8c3d 6af1 b03d
000003d0: 3ed4 163e 884c 1a3d 74e8 e83d d9d7 a73e
000003e0: 0f04 ac3d 6e09 603e 210f 463e c123 f53d
000003f0: bb5a 643d cc56 ec3d 5f5d 973d 9652 82bd
0.0671235 -0.040618725 0.027266268 -0.0908544 -0.09641733 -0.0728265 0.00934494 -0.0963453
-0.02396585 0.04932209 -0.037754204 0.015218307 -0.09453813 0.05632164 -0.17909162 -0.039651927
-0.15962891 0.032107905 -0.13966377 -0.14846453 0.019486684 -0.164854 -0.20182109 -0.12500346
-0.09620707 -0.23440123 -0.023122538 0.06402186 -0.011794012 -0.14604096 -0.035593577 0.00014786188
-0.026827984 -0.1075666 0.050117597 0.05495497 -0.034484107 -0.01334635 0.15794067 -0.009373479
-0.061895147 0.011242674 0.020484809 -0.034863297 0.037307594 -0.05310536 -0.0743202 -0.0073797246
0.040106107 0.10918922 -0.08335999 -0.024149755 0.04356127 -0.19707541 -0.018032193 -0.05428975
-0.028663248 0.1013258 -0.033726282 0.050389655 -0.03384112 -0.09564183 -0.071805105 0.04297317
0.2042525 0.123491414 -0.011779919 -0.013485774 0.28246117 -0.17276485 -0.02157113 0.18992364
-0.136786 0.04813139 0.0050698705 0.083369374 0.07768247 0.015186309 -0.09359929 -0.10540704
0.010684377 -0.04083229 -0.046733398 0.059488874 0.037597068 0.013422072 -0.055040598 0.034637056
0.09537028 -0.06648384 0.060196184 -0.09158802 -0.10524028 0.16159657 -0.0007658326 -0.029047376
0.10147347 -0.068601914 0.00513514 0.07381583 0.04155609 -0.09533839 -0.046275925 -0.08558952
0.09101361 0.051268708 -0.09057212 0.07701513 -0.085498974 -0.056632303 -0.10840338 0.196835
0.16513279 0.067909054 0.036403902 0.033468775 0.105968334 -0.03803586 0.0026680636 0.08807786
-0.15446347 0.008970331 -0.046783093 -0.014204185 -0.03614155 0.09946677 -0.0735037 -0.046868235
-0.0697391 0.02159892 -0.04666157 0.10005832 0.17519796 0.13558574 0.045370158 -0.06940547
-0.010718566 -0.10358674 -0.19570644 0.021300133 0.011818937 0.054463886 -0.12146978 -0.060474675
-0.039224967 0.09771789 0.04769907 0.022265159 -0.054449372 0.029408626 -0.033630192 0.034511156
-0.059476294 -0.1590281 -0.27209774 -0.14228618 0.029890675 -0.14214733 -0.06600823 0.21791138
0.15962972 0.22562994 0.06915274 0.07115264 -0.09503604 0.04137551 0.022303803 -0.16935122
0.039749093 0.094026014 -0.029655868 0.0091773495 -0.0054712966 0.043458402 0.014126925 -0.06813314
-0.08601674 0.041156173 -0.002721178 -0.0095356265 -0.043059412 0.11740619 -0.03121577 0.099113844
0.024116632 -0.017842866 0.0611141 0.06260133 0.17581964 -0.2175874 -0.13417934 -0.07319511
0.006969863 -0.14735778 -0.11636442 0.16390145 -0.11594565 -0.05835949 -0.11447616 0.1646219
0.20701654 -0.07598035 -0.20549168 -0.022888368 -0.127493 -0.1705396 -0.23761572 0.051574096
-0.06657788 0.110113025 0.21749985 -0.028962651 0.059604414 0.14031175 0.03241512 0.048711218
-0.16576314 -0.017216615 0.11447291 0.09410812 0.07377628 0.13603516 0.28112116 0.109708436
-0.065755844 -0.38128328 -0.17296027 -0.19751701 -0.1272971 -0.26250735 -0.05925764 -0.108820856
0.11288774 0.16330487 0.071211345 0.05393537 -0.042317845 -0.030470654 -0.099762194 0.0037763417
-0.085679606 -0.05271398 0.06851158 0.08639796 0.14729401 0.037670642 0.11372462 0.32781866
0.083992116 0.21878597 0.19341709 0.1196971 0.05575059 0.11539993 0.07390856 -0.06363408

conv_block_1.2.bias f4 [10]
00000000: a36f e13d 5e8f 273d b09b 8b3e ab29 e9bb
00000010: 2f48 f6bd 89da e33d 8750 c03d 5d96 103e
00000020: 5b23 0c3e ac86 913a
0.11007621 0.04090821 0.27267218 -0.007115563 -0.12025487 0.11125667 0.09390359 0.14119859
0.13685362 0.0011102757

conv_block_2.0.weight f4 [10, 10, 3, 3]
00000000: fd39 31bc e990 a7bd a0ca 86bd 433c 78bc
00000010: 6388 993c 8c3d dfbc 2ecb 273d 8a27 3a3c
00000020: 1ddd 68bd 1995 26bd 2b6e 24bd 4b97 8abc
00000030: e0d2 703d d86a 60bd 35fb a2b9 2ac1 433d
00000040: 8fd9 90bd 4033 61b9 1cbe ab3d 40ec b9bd
00000050: 3a2f 28ba 918a 583d ab00 10bd 8bbc 06be
00000060: 3ab1 15bd 7c02 0d3e fff4 8d3d 9d01 a8bc
00000070: 61c6 56bd 8b7e fe3b 7852 24bc 9a95 503d
00000080: 8e8f d0bd 6d9f b73d 61d9 0c3d 4bb3 a9bd
00000090: 487f b23d e1fd a6bd 3421 c13d 22b8 8e3d
000000a0: 7f8e a93d 3762 f7bc 2fad aabd fd44 f6bc
000000b0: f040 c83d e641 23bd 0ea0 84bd 82d7 0b3c
000000c0: 49b2 dd3d 6c8e 2c3c 162b 0cbd 6003 2fbd
000000d0: 4b4f 5dbc 6e23 0b3e c424 a23d 496b a6bd
000000e0: 82e7 843c 5651 e4bd 06f1 fe39 e866 903d
000000f0: 49d4 9c3d 88e7 5ebd d654 aabd b286 c3bd
00000100: 6aa3 96bd 340d e7bb 06a2 e13c c631 5fbd
00000110: 586e b33d e7c2 adbd e3cb b0bd ae32 8f3d
00000120: cfc7 71bd 6499 56bd 708e 98bd 3f31 bdbd
00000130: fbcf 1f3c e8c0 553a 3ff5 6ebd 1d3d c43d
00000140: 4c1e eebd 5609 babd 533f dabb 16d1 893d
00000150: 555c be3d 2e94 bb3d 8f58 4e3c f1dc 4abd
00000160: b418 523c 9089 93bd a5ba 9dbd 2e86 b0bd
00000170: fafb 1a3e 4bc2 a13c 3530 16bd a2f9 983e
00000180: a822 14be 2fde 0cbe 4955 953d cffd f93d
00000190: 49af 2f3d 656d 2abd 6e99 16be 6ab4 62be
000001a0: 8484 90be 6ddb afbd 2abe 8d3d 27f1 4b3e
000001b0: a2cc 823e 0c9f 1d3e fa11 053f 7914 5e3e
000001c0: 2e69 49be 1992 4ebc 2f75 82be 88e4 4bbf
000001d0: 57ae 3d3d 542f a3bd 0ec4 c8bd da7a 10bd
000001e0: c231 d6bd 7f8f 9e3c 0d63 4c3d 7348 183d
000001f0: 66bb 8b3d 4fc7 cc3d 94f8 9ebc c142 a23c
00000200: 60c6 8a3d e87d 15bd ff79 32bd 3b28 c43d
00000210: 52a7 ccbd 605c 5ebd 4792 833d bb8c f13d
00000220: 3a5f 6d3c 9c2a 60bb da99 30bc 24f9 973c
00000230: 3369 0fbe a961 d93d bc0a 813d 3f0c 12be
00000240: 1d0d d4bd b011 163c 168e b9bd 5c18 4d3e
00000250: ce70 203e 216c a23e 61c0 79bd 4a78 68be
00000260: 244b a6be 487b cfbd ce0f 2c3d c982 6ebc
00000270: 1832 473e a56a 5a3e d4f8 2d3e 6191 af3c
00000280: c4ea 0bbe 9266 e8bd 663c 053d d742 e2bb
00000290: 0571 c73e ad5e 493e e04e 053d cafc 823e
000002a0: f6af 8ebe 1c94 febe 6d5a 22bc 8bab 02be
000002b0: 455e 76bd d6d2 4c3c ed75 c53d de02 993d
000002c0: f688 d53d e88c 20bc 7029 2c3d b639 73bd
000002d0: d10b 59bc 1928 1a3e 4cec 86bd bb70 6fbc
000002e0: e191 573c cf63 71bd 787a d6bb 6ccc f1bd
000002f0: 937e 24be f558 bebc facb 1cbe 75ac 4dbe
00000300: 83df 8e3d 521b cf3c 8dff 2cbe 4cd9 e3bc
00000310: fac5 b6bc c14a 88bb 213f 94bd d07f b13e
00000320: 1614 943e 2eb0 183f a5fc 3b3e f69a a4be
00000330: 253e f63e 4a0f 0ebe f265 21bf 8785 b0bc
00000340: dcaa 133d 3d0c a03d 6713 b53d ec8f 71bd
00000350: e301 ce3d 44c0 c53d 7218 9bbd 93e1 89bd
00000360: c59b 7e3d 0eab 31bd 192b 43bd b924 20bb
00000370: e41d 523d 3c6c b1bd b885 313c b644 cbbd
00000380: cf3a 873c 280d 833d dba8 cbbd 57ce 24bd
00000390: cbf3 df3d 3523 c33d 3462 58bc f0c3 ad3d
000003a0: c1fd 1b3e 3f73 fcbc ce13 3cbe 09e0 1ebc
000003b0: 6d6e bf3d e80b aebe fea1 a4bd dfce 563d
000003c0: bc53 83bd 6b9c 3e3e 99a6 113d f6dd db3c
000003d0: f9a5 d9bd f889 11be 5e07 45be 2416 71bd
000003e0: 3418 b03c 4a35 77bd c692 7bbd d038 16bd
000003f0: 44c2 bcbd 9d17 1b3e cee9 5b3e e0c1 9d3d
-0.010817048 -0.08181936 -0.065816164 -0.015151086 0.018741792 -0.027251028 0.04096525 0.011361966
-0.056851495 -0.040669534 -0.040144127 -0.016917845 0.058794856 -0.054789394 -0.00031086212 0.047791637
-0.07072746 -0.00021476764 0.0838587 -0.09078264 -0.0006415729 0.052866522 -0.035156887 -0.13157861
-0.03654597 0.13770479 0.06931495 -0.020508582 -0.052435283 0.00776655 -0.010029428 0.05092392
-0.10183631 0.08965955 0.034386996 -0.082861505 0.08715683 -0.08153892 0.09430161 0.06968714
0.08279132 -0.0301982 -0.083338134 -0.030062193 0.09778011 -0.039857768 -0.064758405 0.008535268
0.10825021 0.010532003 -0.034220777 -0.042727828 -0.013507674 0.13587734 0.07917169 -0.08125932
0.016223673 -0.11148326 0.00048626232 0.07050878 0.07657678 -0.054420024 -0.083169624 -0.095471755
-0.073553875 -0.0070511345 0.02754308 -0.054490827 0.08761281 -0.0848444 -0.08632638 0.06992088
-0.059028443 -0.05239238 -0.07449043 -0.092379086 0.009754176 0.00081540504 -0.058339354 0.09581969
-0.116268724 -0.09083812 -0.006660381 0.06729333 0.09294955 0.091591224 0.012594356 -0.049527112
0.0128232725 -0.07203972 -0.07701615 -0.08619343 0.15135184 0.019745966 -0.036667068 0.29877955
-0.14466345 -0.13756631 0.072916575 0.12206613 0.042891774 -0.041608233 -0.14706966 -0.22139135
-0.282261 -0.08586774 0.069210365 0.19916211 0.25546747 0.15392703 0.51980555 0.21687497
-0.19669029 -0.012608075 -0.2548003 -0.79645586 0.04630884 -0.079680115 -0.098030195 -0.03527341
-0.10458709 0.019355534 0.04989915 0.037178468 0.06822853 0.099989526 -0.01940564 0.019807221
0.06776118 -0.036497027 -0.043573376 0.09577986 -0.09992851 -0.054287314 0.064243846 0.1179442
0.014488036 -0.0034205085 -0.010778869 0.018551417 -0.14004974 0.1061433 0.063008755 -0.14262484
-0.10354064 0.0091594905 -0.09060304 0.20028824 0.15668032 0.3172312 -0.060974482 -0.22702137
-0.32479203 -0.10130936 0.04200726 -0.014557549 0.19452703 0.21329744 0.16989452 0.021431627
-0.13663775 -0.11347689 0.032528304 -0.0069049406 0.38953415 0.19665022 0.032545924 0.25583488
-0.27868623 -0.49722373 -0.0099092545 -0.12760751 -0.060148496 0.012501439 0.09641633 0.0747125
0.10426514 -0.00979922 0.042031705 -0.05938121 -0.013247446 0.15054359 -0.06588039 -0.014614279
0.013157339 -0.058933076 -0.006545361 -0.118065685 -0.16063909 -0.023235777 -0.15312186 -0.20085318
0.06976225 0.025281582 -0.1689436 -0.027813576 -0.0223112 -0.004159302 -0.072386034 0.34667826
0.28921574 0.5964383 0.18358095 -0.32149476 0.48094288 -0.1387302 -0.6304618 -0.021548046
0.036051616 0.07814834 0.08841591 -0.058975145 0.100589536 0.096558124 -0.07573022 -0.06732478
0.062160272 -0.04337602 -0.047648523 -0.002443595 0.051298037 -0.08663222 0.010835104 -0.09925215
0.016507534 0.06398994 -0.09944316 -0.040235844 0.10935172 0.095281996 -0.013207007 0.08484638
0.15233518 -0.030816672 -0.1836693 -0.009696969 0.09347234 -0.3399346 -0.0803871 0.05244338
-0.064124554 0.18614356 0.03555927 0.026839238 -0.1062736 -0.14212787 -0.19241092 -0.058859006
0.021495916 -0.060353555 -0.06141927 -0.036675274 -0.09216741 0.15145727 0.21475908 0.07702994

conv_block_2.0.bias f4 [10]
00000000: 6cd6 003e b147 333e 3e3a e43d 8f51 dfbd
00000010: b52c 8f3e 4047 b6bc b03b febc 7e7c f53d
00000020: c87e dc3d c9f6 b4ba
0.12581795 0.17507817 0.11143921 -0.10904228 0.27963796 -0.022250772 -0.03103432 0.119866356
0.10766369 -0.0013806458

conv_block_2.2.weight f4 [10, 10, 3, 3]
00000000: 6848 963d 0255 17bd 1d84 67bd e287 c73d
00000010: bd39 9ebd c634 d4bd 2f85 573c 7cba 74bd
00000020: a39e 20bd b03c 8d3d 47ba e63d f75f 5fbe
00000030: db31 89be df0e b1be 1998 c0bd c6ef d8be
00000040: 5b60 1cbe 687a 873e e224 95be 17b0 a6bd
00000050: 9f69 23bd 6b64 d7bd ad52 a5bd a823 b53e
00000060: 4380 52be 8450 033f 1277 453e ed3d 01bd
00000070: 807e d9bd 8f5f 3a3d 2c9c 953d 348c f1bd
00000080: 75b0 963d 099e c4bd 5d34 9a3b a954 b53d
00000090: b2c4 65be 750e b7be 23ef 32be 1475 e8be
000000a0: 4250 14bf 8cc8 8d3d f0e4 ecbe ea11 b13e
000000b0: 1535 b13e 2cb0 623c 548a 29bd 427e 7d3d
000000c0: 701b 0cbc 57af 89bd 3f4c e1bb 7610 873d
000000d0: fd4a 903d c005 4fbd b00c f83c af9a 853d
000000e0: c8b2 efbb 481f 6ebd 194f 043d 911e b43d
000000f0: cdf0 b3bd cc16 b83d ddd8 f6bc 9a1b af3d
00000100: ea4d 15be 3a8e 03be 0b18 53be 8694 60bd
00000110: 7dbc f8bd 1ab3 66bd 3a3a 843b 8655 7abd
00000120: f75d 65bd 97e5 21bc 5693 67bd 4ecd afbd
00000130: 355b 753d 473c 9f3d e288 cabc df74 b23d
00000140: f59b f23b 1d21 cb3d 76ba b0bd bec2 d13d
00000150: a0de cc3d 7ac9 5bbd 1f46 c13d 1fdb fcbc
00000160: 6869 5dbd 6ea2 c23d 31aa 963d 7c26 63bd
00000170: d724 88bd a484 c3bd 4f0b e9bd 8a4b 81bb
00000180: 6463 6a3c 7741 21bb da08 9d3d cefa d8be
00000190: d9aa 49be 444d 113d b5d9 833e 1e95 633e
000001a0: 38ec 453d 8b6e 983d 83d3 92be b4c6 23bf
000001b0: 9d63 b73d 9d5e a13e d6be 9e3e 9704 99be
000001c0: 3387 f8bd 2d9a 2dbd d18b 3a3e d34a 173d
000001d0: cb24 42bc 2b39 f7bd 399d 0a3d c7e6 433d
000001e0: 737f 7e3d e41a 373d 508a 47bd 0ef2 67bd
000001f0: e92e 653d 155c dcbd b464 d3bb 3c4e b03d
00000200: 0d70 843e f1ce e23b 623a 163e 91ad e1bd
00000210: 3bfb f8be 0c0c 0abf 6c1e c9be 498e 03bd
00000220: 11b4 a33c 0149 a73d 2428 773c 8298 72bc
00000230: 2b79 013e 376e b1bd 0cef 9fbb b3a2 e5bc
00000240: 9088 843d 3d3d 7c3d da38 3dbd 76b4 60bd
00000250: 63fe 0ebc 02ae 053e d7c5 fc3d 1571 90bd
00000260: 5be9 9e3c cc1f 953e 9237 14bd 37da 0fbe
00000270: 6f08 7abe 9db7 b7be 2d74 94bd b7af 85bd
00000280: 568d 1cbe daa3 b93c 6edd 14bd dc47 b73b
00000290: ca46 003e b87a 3d3c 2f4f 933d 5c15 f7bc
000002a0: 8049 493e 2640 123e aaa0 eabc 2f16 55bc
000002b0: f577 cdbd dfab bcbd e428 8cbd d3d3 933d
000002c0: 580c aabd 3b37 81bd eb89 9b3b 9572 c8bd
000002d0: 06ff 4fbd 7dfb 0b3c e252 a93d 4f6f 9d3d
000002e0: ff4e bebc 92b9 413d e5b3 93ba 9048 433d
000002f0: 572a 243d 16a9 d13d d20d 6e3e 671b a53e
00000300: f6d0 4dbe 8edd 693e 66e7 603e 8473 3dbe
00000310: 48a3 d7be 6257 0cbf 156f e4be 732f 91bd
00000320: 105b a6bc 3475 b8be 5c3a b3be 13d0 b8be
00000330: d038 b53e e83f f33c 3680 45bd 8a78 523d
00000340: 44ed b0bd 5142 b63c 6b01 d23d 51a1 a0bd
00000350: 93ec 95bd 68dc a2bb 6f4e b53d edf9 08be
00000360: 08bd c9bd 6727 343d bdb7 853e dbf4 35bf
00000370: 1ba0 02bf c396 95be 07f8 843d 9774 50be
00000380: 048e c6bd c9e2 b2bd 80f9 8e3d 99f4 c23d
00000390: 7809 c7bd fa63 c1bd 7364 313c aa30 a7bd
000003a0: 3df8 12bd 910e 0dbd b1b2 f03b 6cfd c63d
000003b0: fab6 4e3d 5982 41bd 2d7c 283d 4354 103d
000003c0: ec3c ebbd ad8d e43c 22a1 893d e75b d2be
000003d0: ecc7 8ebe 14f7 9fbe 07f6 bcbd 672d 83be
000003e0: 77d6 fbbd ead8 cb3d 5ff5 033e d076 c43e
000003f0: c894 c5bc abe5 6c3c 05e9 93bd 9e09 0c3e
0.07338029 -0.036946304 -0.056522477 0.097427145 -0.077258565 -0.10361628 0.013154312 -0.059748158
-0.039213788 0.06896341 0.11265998 -0.21813951 -0.2679585 -0.34581658 -0.0940401 -0.42370433
-0.15271132 0.26460576 -0.29129702 -0.08139055 -0.03989565 -0.105172 -0.0807241 0.35378766
-0.2055674 0.5129473 0.19283703 -0.031553198 -0.10619831 0.045501288 0.07305178 -0.1179432
0.07357875 -0.09600455 0.004705949 0.08854038 -0.22438315 -0.35753217 -0.17474036 -0.45401824
-0.57934964 0.06923017 -0.46268415 0.3458398 0.3461081 0.013835948 -0.041391686 0.061887987
-0.0085514635 -0.067228965 -0.0068755443 0.065949365 0.07045553 -0.050542593 0.030279487 0.06523644
-0.0073150136 -0.0581353 0.032301996 0.087948926 -0.087861635 0.08988723 -0.030132705 0.085501865
-0.14580503 -0.12847224 -0.2061464 -0.054829143 -0.12145326 -0.05632315 0.0040352615 -0.061116718
-0.055997815 -0.009881399 -0.056536995 -0.08584081 0.059901435 0.07775169 -0.024723474 0.08713698
0.0074038454 0.09918425 -0.086293146 0.10242222 0.100034 -0.05365894 0.09437203 -0.030866204
-0.0540556 0.09503637 0.0735668 -0.055456623 -0.06647652 -0.095467836 -0.1137911 -0.0039457725
0.014305923 -0.002460567 0.07667704 -0.4237885 -0.1969408 0.035474077 0.25752035 0.22224852
0.04832098 0.074429594 -0.28676996 -0.6397507 0.089545466 0.31517497 0.3100497 -0.29886314
-0.12135162 -0.04238336 0.18217398 0.036936592 -0.011849592 -0.12071451 0.033841345 0.04782751
0.062133264 0.04470338 -0.04871589 -0.056627326 0.05595294 -0.10759751 -0.0064512137 0.08608672
0.25866738 0.006921642 0.14670709 -0.11019433 -0.48629174 -0.5392463 -0.39281023 -0.032118116
0.019983323 0.08168221 0.015085254 -0.0148068685 0.12643878 -0.086636 -0.0048807915 -0.028031683
0.0647136 0.06158184 -0.046196796 -0.0548596 -0.008727643 0.1305466 0.123424225 -0.07052819
0.019398382 0.29125822 -0.03618581 -0.14048086 -0.2441728 -0.35882273 -0.07248721 -0.065276556
-0.1528829 0.022661138 -0.036343984 0.005593283 0.12527004 0.011564903 0.071928374 -0.030161552
0.19656944 0.14282283 -0.028641064 -0.013005777 -0.100326456 -0.09212469 -0.06843737 0.07218137
-0.08303136 -0.063093625 0.0047466657 -0.0978748 -0.05078032 0.008543846 0.08267762 0.07687246
-0.023231028 0.047296114 -0.0011268823 0.047676623 0.04007944 0.10237329 0.2324746 0.3224747
-0.20099244 0.22838423 0.21963271 -0.18501097 -0.4211676 -0.54820836 -0.44616 -0.07089128
-0.020307094 -0.3602692 -0.35005462 -0.36096248 0.35394907 0.029693559 -0.048217975 0.051384486
-0.08639005 0.022248419 0.10254177 -0.07843269 -0.073205136 -0.004970122 0.08852851 -0.13376589
-0.09850508 0.04398289 0.26116744 -0.71076745 -0.5102555 -0.29216585 0.0649262 -0.20356975
-0.09695056 -0.08734662 0.06981182 0.095193096 -0.09718603 -0.09442897 0.010827172 -0.08163579
-0.03588127 -0.03443772 0.0073455204 0.09716305 0.05046747 -0.04724345 0.04113405 0.03523661
-0.11486229 0.027899588 0.06720187 -0.4108574 -0.27886903 -0.31243193 -0.092266135 -0.25620577
-0.12296765 0.099534824 0.1288657 0.38371897 -0.024118796 0.014459054 -0.07222179 0.13675544

conv_block_2.2.bias f4 [10]
00000000: a0bf f93d e8bd 0c3e c86f 893e 3aaa 283d
00000010: fdf3 333e 021b 88bd 17f5 0d3d e931 e7bd
00000020: 5a56 ecbd c73c 9cbd
0.12194753 0.13744318 0.26843095 0.041177966 0.17573543 -0.06645776 0.034657564 -0.112888165
-0.11539908 -0.0762878

classifier.1.weight f4 [10, 490]
00000000: e0f9 763b 7a6a 3dbd b7aa 3abd d796 84bd
00000010: 0de9 89bd 2243 a2ba 9bfb 04bb 1977 a33a
00000020: 1f20 88b8 3299 aebd d92e ea3c 0f4f c2bd
00000030: c316 34bd 20f1 f7bc 2da5 bc3c a57a 933d
00000040: 8b27 143e e3de cebc 3918 73be 67e2 043d
00000050: ef6f 30bd 894a 553d 0943 e13d 294f e73d
00000060: 89bb 53be 4fa0 0a3e be79 3b3e 3170 7fbd
00000070: ead8 f33b 35fd cbbd 582c 77be d4e3 453d
00000080: 7c8e 83bc 2b78 0e3d 7a57 1fbd 627f f5bc
00000090: ae6c c6bd dc1d 46be 00d7 f5bd e82a 813c
000000a0: 1164 223d 14f2 163d 2f54 0a3c 93ee 683d
000000b0: 9e02 953c 050e ed3c 9983 673d b594 bd3b
000000c0: fd7c c6bc d1aa cfbc f9aa 0aba 8ef0 e73b
000000d0: eb16 643d 4171 ec3c d7c8 19bd 0a9f 23bd
000000e0: c5de d43c 0984 32bd 179c 2cbe 89c5 34be
000000f0: bf81 c9bd 2924 43be e8c8 17bd de22 47bc
00000100: e3a7 20be a6d8 05be 8066 81bd 385f e7bc
00000110: 3e42 24be af9f c1bd 6e2f 81bd 0abc 43be
00000120: d71b c7bd 7427 b9bd d4f1 c9be 33e0 91bd
00000130: 1498 b43b 0876 c73c 2297 e9bd f274 7abe
00000140: 80e3 a1be 6d7f e33d 8954 8f3e 0ffc c33c
00000150: 6e0b 4b3c c1f6 613d c517 a63d 791c 843e
00000160: 71d0 693e 44a6 0c3e b489 fbbc 1273 a33c
00000170: 43bd 4b3d 6a62 743d 3fca 173e 022b b9b9
00000180: 1828 a1bc c4f2 cdbc dfc5 4fba b874 553d
00000190: 54b4 64bd 86b0 003d aa88 893c a9d8 263d
000001a0: 3e0d 923d e52b 21bd fdab fab8 d689 633c
000001b0: c31b 2ebd 282f bd3d b2b4 6dbc a816 22bb
000001c0: 757c 55bb 2f39 40be 2a7e 70be 2472 32bd
000001d0: 2544 8d3d f991 94bd a441 c4bd d107 67bd
000001e0: 4cd7 c9be ef8c b3be a264 533d c3bb 803e
000001f0: c8bb 1abe d865 09be d294 d93c 9aef 82be
00000200: 3b25 e0be 5a61 9abe 8002 6ebc 7709 debb
00000210: 7aaf a03d eb0e 043e 09c5 e93c 45e4 d0bc
00000220: 6bed cd3d a969 683e dd99 543e 9d5f cd3c
00000230: cb3c e43d f3bd e63d f6d3 b73d b576 143d
00000240: f4d5 3b3d 9da4 1c3d 7b6a fdbc dea3 f8bc
00000250: 19cb 56bd 893b f63c 2763 81bc 4dca 0ebc
00000260: 8e5e 12bd 8541 31bd da4d 6a3c 8c68 1cbd
00000270: 4ca0 09bc 7fcb 99bc 7a2b aebd 180c 70bd
00000280: e111 22bd 9e3d 28bd 2c29 1e3d 9a8b 90bd
00000290: 1288 b2bc deb5 a73c 782c 97bd 40d0 43bd
000002a0: 22e1 823d 2655 073b 8d1a 3aba fa78 423e
000002b0: c341 0f3e 38ca 953d 2df6 7dbd 36c4 6e3d
000002c0: b247 a03d 81c2 36bb a324 5e3d bef2 b0bc
000002d0: b68c bf3d 57e6 81bc 5ea6 1e3d fab7 afbb
000002e0: f456 c0bd 07e7 2ebe 445b 82bd f0f2 2abd
000002f0: a9aa 25bd 0f09 37bd 2902 a93c 406a c3bb
00000300: 4ec9 2cbd cd58 0dbe cc2b 88bd fc5c 57bd
00000310: 47a0 e6bc 7a50 a1bd 77fd 0cbd a65a 4fbd
00000320: fbfe 893c 3c0e afba c121 ca3c 077b 62bc
00000330: 044e 97bd 3b49 cbbd 078f 8dbd 049f 31bd
00000340: 2927 723b 32bf 143d 8f96 5fbd b72b 00be
00000350: 395c 55bd a6f6 04be 22b7 403e d532 483e
00000360: f3df 223b 1e29 503d 216e 2c3e 1ed1 be3d
00000370: bdfe 68be 1b95 4e3e 74a4 823e a382 873b
00000380: e854 233e ea4f f53d 8c6e 5a3e 823b ccbd
00000390: 55db ec3c d1d6 0b3d cb5d 273d 6879 7d3d
000003a0: b38a ff3d 3d01 3b3d f755 8ebe dd6f 90be
000003b0: 42cf 9ebd b8f8 303c 991f 42bc 0489 ae3c
000003c0: 4615 cbbd 188a 21be 76a2 77bd 7a34 bc3c
000003d0: 274e 02bc c630 3c3a 4e79 7bbd 7049 c2bd
000003e0: 7e0e d73a f512 bbbc 5e23 3c3d 2c52 063c
000003f0: dcac 46bd fe25 cfbc 4912 95bd 8006 8d3d
0.0037685558 -0.046244122 -0.045572963 -0.06474083 -0.06733904 -0.0012379626 -0.002029157 0.0012471407
-6.4909684e-05 -0.085253134 0.028586792 -0.094877355 -0.04396702 -0.030266345 0.02302798 0.07201127
0.1446821 -0.025252765 -0.23739709 0.032442477 -0.0430755 0.052073035 0.10999114 0.112943955
-0.20677008 0.13537715 0.1830816 -0.062362853 0.0074416297 -0.09960405 -0.2413801 0.048312977
-0.016059153 0.03478257 -0.038901784 -0.029967967 -0.09688698 -0.19347328 -0.120038986 0.01576753
0.039646212 0.036851957 0.0084429225 0.056868147 0.018189725 0.02893735 0.056521986 0.0057855495
-0.024229521 -0.025350006 -0.0005289759 0.007078237 0.05568592 0.028862597 -0.03754505 -0.039946593
0.025985131 -0.04358295 -0.16856419 -0.17653479 -0.098392 -0.19056763 -0.037056834 -0.012154309
-0.15689044 -0.13070926 -0.063183784 -0.028243646 -0.16040894 -0.09454285 -0.063078746 -0.191147
-0.09722107 -0.09040728 -0.39442313 -0.07122841 0.005511293 0.024348274 -0.114057794 -0.24458674
-0.3161888 0.11108289 0.27994183 0.023923902 0.012392862 0.055166963 0.081100024 0.25802973
0.2283342 0.137353 -0.03070531 0.01995233 0.04974104 0.059664167 0.14823245 -0.00035317993
-0.019672439 -0.025140174 -0.00079259084 0.052113265 -0.055836037 0.031418346 0.0167888 0.040733967
0.07131432 -0.0393485 -0.00011952964 0.013887843 -0.042506944 0.0923751 -0.014508413 -0.0024732742
-0.0032575403 -0.18771814 -0.23485628 -0.043565884 0.06897763 -0.072544046 -0.095828325 -0.05640394
-0.3942207 -0.3506846 0.051609643 0.2514325 -0.15110695 -0.13417757 0.02656022 -0.25573426
-0.43778405 -0.30152398 -0.014526963 -0.0067760306 0.078459695 0.12896316 0.028536336 -0.025499472
0.100550495 0.22696556 0.20761819 0.025070006 0.11144408 0.11266699 0.08975975 0.03624602
0.04585834 0.038242925 -0.030934563 -0.030351575 -0.052439783 0.030057685 -0.01579435 -0.008715224
-0.035734706 -0.043275375 0.014300788 -0.03818564 -0.008400034 -0.018773792 -0.08504386 -0.058605283
-0.039567832 -0.041074388 0.038613483 -0.07057877 -0.021793399 0.020472463 -0.073815286 -0.047806025
0.06390597 0.0020650118 -0.0007099293 0.18991461 0.1398993 0.07313961 -0.06200235 0.05829259
0.07826175 -0.002788693 0.05423416 -0.021600123 0.0935301 -0.015856905 0.03873288 -0.005362508
-0.09391585 -0.17080317 -0.06365064 -0.04173559 -0.040445957 -0.044686373 0.020630913 -0.0059635937
-0.042184167 -0.13803406 -0.066489786 -0.05257891 -0.028152598 -0.07876678 -0.03442141 -0.05062356
0.016845217 -0.0013355683 0.024674298 -0.013823277 -0.07387927 -0.09926077 -0.06912046 -0.04336454
0.003694961 0.03631515 -0.054586943 -0.12516676 -0.052089904 -0.12984714 0.1881986 0.19550641
0.0024852722 0.050820462 0.16838886 0.0931723 -0.22753425 0.20174067 0.25516093 0.004135446
0.15950358 0.11978133 0.21331233 -0.09972288 0.02891318 0.03414041 0.040860932 0.06188336
0.12477627 0.045655478 -0.2779996 -0.28210345 -0.07754375 0.010801487 -0.011848354 0.021305569
-0.09916167 -0.15775335 -0.06045767 0.022974242 -0.007953203 0.00071788987 -0.061394982 -0.09486663
0.0016407517 -0.022836188 0.045932166 0.008198302 -0.048504695 -0.02528667 -0.07278878 0.068860054

classifier.1.bias f4 [10]
00000000: 18b5 3bbd b0b9 c23e 4097 203c 0d06 32be
00000010: 3a2b 6d3d 3a7f 63be a412 a23c 60bf 133e
00000020: 28f2 a9bd 96bb 82bc
-0.045827 0.38032293 0.009801686 -0.1738512 0.057902552 -0.22216502 0.01978428 0.14428473
-0.08298141 -0.015958589
