model_weights/model_epoch_6.pth (torch, 34447 bytes, 10 tensors)

conv_block_1.0.weight f4 [10, 1, 3, 3]
-0.53721434 0.09792674 -0.14064844 -0.2341185 -0.10617575 0.42554125 0.0016804709 -0.06027759
-0.060044583 0.18847348 -0.8535452 -1.0933356 -0.07580659 -0.4264202 -0.44219306 0.6827297
0.42082143 1.0048857 -0.041240856 -0.41246203 -0.28161418 -0.2621567 -0.03615948 0.49948755
-0.19177309 0.43198398 0.31517956 0.10003968 0.41782546 -0.14380276 0.048478093 -0.16036926
-0.27038303 0.4373101 0.33829486 -0.5171979 0.3075097 0.53628165 -0.49748185 -0.6802121
0.21134542 -0.2265772 0.04139528 0.16055422 0.4707428 0.187019 -0.11596998 0.6539422
0.22457932 -0.2043254 -0.42378116 -0.26231703 0.40458378 0.35704693 -0.27149266 -0.30293077
-0.0012032986 -0.31656596 -0.30274603 -0.10600571 -0.28819042 0.25583842 -0.23375762 -0.5898535
-0.02833077 0.016886208 0.39718777 0.5193223 0.60832703 -0.11957113 -0.26327324 0.108191326
0.049089562 -0.28851476 -0.023539485 0.16644569 0.07451286 -0.04637288 0.0111291185 0.018651616
-0.21217233 -0.1985904 -0.068162486 -0.32295802 -0.27358714 0.2711353 -0.2391859 0.09006844
-0.022070281 -0.123202786
00000000: e186 09bf d18d c83d 2506 10be c3bc 6fbe
00000010: ac72 d9bd 8be0 d93e 3f43 dc3a a2e5 76bd
00000020: 4ff1 75bd 31ff 403e f081 5abf 6cf2 8bbf
00000030: 7c40 9bbd c053 dabe 2167 e2be 60c7 2e3f
00000040: e875 d73e 18a0 803f 2cec 28bd 392e d3be
00000050: bc2f 90be 6739 86be f71b 14bd d5bc ff3e
00000060: 2a60 44be 012d dd3e 375f a13e 9be1 cc3d
00000070: 38ed d53e 0841 13be f790 463d d737 24be
00000080: a56f 8abe 1ce7 df3e fc34 ad3e 1567 04bf
00000090: e971 9d3e c149 093f f1b5 febe 6122 2ebf
000000a0: ef6a 583e db03 68be 198e 293d 5368 243e
000000b0: 3305 f13e e981 3f3e ab81 edbd c268 273f
000000c0: 1ff8 653e ad3a 51be d8f9 d8be 6b4e 86be
000000d0: 9b25 cf3e dbce b63e 1601 8bbe be19 9bbe
000000e0: 00b8 9dba ef14 a2be 8701 9bbe 8619 d9bd
000000f0: b28d 93be 41fd 823e 285e 6fbe a400 17bf
00000100: ee15 e8bc f254 8a3c 325c cb3e 4ef2 043f
00000110: 52bb 1b3f b5e1 f4bd c0cb 86be 6a93 dd3d
00000120: 2312 493d 35b8 93be e1d5 c0bc bd70 2a3e
00000130: 339a 983d 7df1 3dbd e856 363c 46cb 983c
00000140: b443 59be 485b 4bbe c698 8bbd c15a a5be
00000150: 9d13 8cbe 3fd2 8a3e 26ed 74be cd75 b83d
00000160: bccc b4bc be51 fcbd

conv_block_1.0.bias f4 [10]
-0.031707484 0.30055186 0.053982392 -0.09906931 -0.51916695 -0.2643366 -0.26191145 -0.09896967
-0.13734874 -0.14211443
00000000: b5df 01bd efe1 993e a41c 5d3d dae4 cabd
00000010: 20e8 04bf 2057 87be 4219 86be 9cb0 cabd
00000020: 26a5 0cbe 7286 11be

conv_block_1.2.weight f4 [10, 10, 3, 3]
-0.13181373 0.07929416 -0.026157388 -0.01623946 0.040526584 0.03426999 0.16440098 0.08325466
0.07043031 0.2573593 -0.1401914 -0.33916643 0.18975964 -0.27155957 -0.4605121 -0.170084
-0.43287146 -0.3336606 0.10785613 0.09150106 0.007001558 0.11692684 0.21071082 -0.11698128
0.34157333 0.078080334 0.04439219 -0.33574763 0.12885576 0.093593046 0.014395371 -0.02953076
0.04026457 -0.1292483 0.22392313 0.11188469 2.1493528e-05 -0.14608619 0.34036747 -0.06877225
0.11559079 0.010340231 -0.043420278 -0.06962242 0.054344002 0.18578917 0.0061138333 0.02195554
-0.017351002 0.09459484 0.0875417 0.0816425 -0.016142584 0.019612312 0.070147894 0.04234708
-0.06456373 0.07135796 -0.06867573 -0.05995236 0.09791245 -0.035724767 -0.028672919 -0.3843193
0.15630955 0.18532698 0.033180922 0.15150173 -0.030773956 0.23743545 0.11194081 0.049470343
-0.07548307 -0.08704081 -0.05403448 0.060799986 0.09865768 0.032914124 0.06944633 0.043229315
-0.0059027574 0.04128358 0.070882775 -0.0305824 -0.057869922 -0.040526096 -0.059604485 -0.076282986
-0.09407959 0.0155296 -8.52159e-05 0.056152225 -0.077508256 0.018811934 0.05665039 0.018258147
-0.11847108 -0.052935418 -0.005776306 -0.29835844 -0.5462041 -0.13976634 -0.28734946 -0.120315544
0.17379768 -0.035510767 0.02050161 0.10358689 0.030117063 -0.050672445 0.10693004 -0.074926786
-0.18207446 -0.066761956 -0.1775189 -0.27726474 -0.2942456 0.081980504 0.05218781 0.063743524
0.1764904 0.23607711 -0.13400741 -0.01028177 0.16127262 -0.056436747 -0.08837127 0.13734612
-0.034470208 -0.08329689 -0.17166977 -0.15022725 -0.004574218 0.14787604 0.16796719 0.1673258
0.16169159 0.11111345 0.069896296 -0.16368744 0.0901487 0.07149761 0.040973336 0.017204478
0.027074598 0.05227942 0.08167564 0.07074148 -0.09053851 -0.006675862 -0.05205846 -0.033549353
-0.0325839 0.27370098 0.321385 0.31876573 -0.04276444 -0.066770166 0.29688698 -0.18945247
-0.3909597 -0.35719422 0.0018985331 -0.06669465 -0.09910437 0.07132954 0.060704272 0.012365687
-0.018163005 -0.025622318 0.021199035 0.10219269 0.07399868 -0.07508279 -0.0584522 0.059288338
-0.027386988 -0.031625465 0.02310896 -0.056307286 -0.02067845 0.0607002 0.08297938 0.004388083
-0.15212603 -0.24815899 -0.22782442 0.06423598 0.094219916 0.26314324 -0.28005 0.17724057
-0.38204604 -0.4347126 -0.14095391 -0.32951012 -0.15229432 -0.103212774 0.14346746 0.09089344
-0.060031705 -0.32243633 -0.18575473 0.107737914 -0.23180562 -0.07484273 0.004972249 -0.037186135
-0.07405905 -0.045988783 -0.090179734 -0.10301078 -0.08144614 -0.043467987 -0.05667662 0.036232233
0.2647248 -0.04799667 0.13519563 0.065510266 0.077837504 0.049178544 0.14882664 0.052505042
0.19046998 -0.06641187 0.289086 0.2820887 -0.017919157 -0.06033186 -0.009253542 0.03032872
0.064742744 -0.0027286978 0.0100086555 0.078977086 -0.061957467 0.0034487993 0.07187522 0.093092315
0.08792608 -0.014977865 0.018123187 0.02656012 0.06540596 0.039347634 0.07907863 0.053393323
0.26423675 -0.19679885 -0.049073804 0.3543986 0.03864247 0.034569677 -0.050610963 -0.04993656
00000000: 2efa 06be fa64 a23d 0548 d6bc 9e08 85bc
00000010: 34ff 253d b05e 0c3d bb58 283e 6b81 aa3d
00000020: c43d 903d 99c4 833e 568e 0fbe 39a7 adbe
00000030: 5a50 423e db09 8bbe 3ec8 ebbe 802a 2ebe
00000040: 54a1 ddbe 90d5 aabe ade3 dc3d e864 bb3d
00000050: 536d e53b 5777 ef3d 94c4 573e e293 efbd
00000060: b3e2 ae3e 95e8 9f3d 96d4 353d 1de7 abbe
00000070: c4f2 033e b6ad bf3d 90da 6b3c 7eea f1bc
00000080: 76ec 243d ab59 04be 1b4c 653e cd23 e53d
00000090: 004d b437 9e97 15be a544 ae3e 77d8 8cbd
000000a0: ddba ec3d 126a 293c 76d9 31bd 3396 8ebd
000000b0: d197 5e3d 843f 3e3e 8d56 c83b 1bdc b33c
000000c0: b023 8ebc f1ba c13d 1049 b33d 2f34 a73d
000000d0: 743d 84bc 00aa a03c b3a9 8f3d 2274 2d3d
000000e0: fd39 84bd 1f24 923d dca5 8cbd 9b90 75bd
000000f0: 5386 c83d 2254 12bd 78e3 eabc 80c5 c4be
00000100: 9c0f 203e 5bc6 3d3e b8e8 073d 4523 1b3e
00000110: aa19 fcbc 4722 733e 3941 e53d 6aa1 4a3d
00000120: de96 9abd 7442 b2bd 4253 5dbd 6809 793d
00000130: 0a0d ca3d f6d0 063d e139 8e3d 3911 313d
00000140: eb6b c1bb f918 293d fd2a 913d f187 fabc
00000150: 0309 6dbd b1fe 25bd d523 74bd 413a 9cbd
00000160: cdac c0bd dd6f 7e3c f0b5 b2b8 e0ff 653d
00000170: a6bc 9ebd 7c1b 9a3c 3d0a 683d 1c92 953c
00000180: f7a0 f2bd cfd2 58bd 2b47 bdbb 70c2 98be
00000190: 08d4 0bbf e81e 0fbe 781f 93be ff67 f6bd
000001a0: 05f8 313e bd73 11bd fef2 a73c 5d25 d43d
000001b0: 0fb8 f63c e98d 4fbd 23fe da3d 3773 99bd
000001c0: ba71 3abe 7eba 88bd 84c7 35be a5f5 8dbe
000001d0: 5ca7 96be 65e5 a73d e3c2 553d f78b 823d
000001e0: e6b9 343e 33be 713e 3d39 09be de74 28bc
000001f0: a624 253e 382a 67bd fffb b4bd 76a4 0c3e
00000200: a230 0dbd 8f97 aabd 33ca 2fbe 2cd5 19be
00000210: 52e3 95bb d16c 173e 97ff 2b3e 7457 2b3e
00000220: 7b92 253e 738f e33d ca25 8f3d ae9d 27be
00000230: e29f b83d 576d 923d a8d3 273d 68f0 8c3c
00000240: 8ccb dd3c f222 563d 8f45 a73d e9e0 903d
00000250: 416c b9bd 30c1 dabb 403b 55bd 0c6b 09bd
00000260: b276 05bd 8922 8c3e 938c a43e 4335 a33e
00000270: c429 2fbd ccbe 88bd 9201 983e d4ff 41be
00000280: df2b c8be 29e2 b6be 33d8 f83a 3497 88bd
00000290: 3bf7 cabd 3915 923d 0ba5 783d 7399 4a3c
000002a0: 95ca 94bc e5e5 d1bc 99a9 ad3c 674a d13d
000002b0: 9f8c 973d 01c5 99bd 936b 6fbd 54d8 723d
000002c0: ad5a e0bc b489 01bd 004f bd3c 78a2 66bd
000002d0: da65 a9bc c6a0 783d 18f1 a93d e8c9 8f3b
000002e0: edc6 1bbe 641d 7ebe ce4a 69be 278e 833d
000002f0: 5ff6 c03d b6ba 863e b762 8fbe 8d7e 353e
00000300: 8a9b c3be a692 debe 3956 10be 8db5 a8be
00000310: 0bf3 1bbe 3861 d3bd 22e9 123e 5726 ba3d
00000320: cee3 75bd 6016 a5be 7d36 3ebe b2a5 dc3d
00000330: 745e 6dbe 2547 99bd 3fee a23b 7d50 18bd
00000340: 45ac 97bd bc5e 3cbd 27b0 b8bd 51f7 d2bd
00000350: 3ccd a6bd 7d0b 32bd be25 68bd 4068 143d
00000360: 028a 873e 2898 44bd b970 0a3e 3f2a 863d
00000370: 4569 9f3d 716f 493d 0366 183e 870f 573d
00000380: 900a 433e f202 88bd 1503 943e ee6d 903e
00000390: 32cb 92bc 8a1e 77bd 2b9c 17bc f073 f83c
000003a0: d897 843d f4d3 32bb 58fb 233c bdbe a13d
000003b0: 1dc7 7dbd 4005 623b 5133 933d 2fa7 be3d
000003c0: 9712 b43d b865 75bc 1477 943c 9c94 d93c
000003d0: 8ff3 853d fc2a 213d faf3 a13d f5b2 5a3d
000003e0: 0a4a 873e a385 49be 9d01 49bd bc73 b53e
000003f0: 9147 1e3d ef98 0d3d 714d 4fbd 478a 4cbd

conv_block_1.2.bias f4 [10]
0.0998193 0.097079836 0.16542794 -0.04348035 -0.10631118 -0.0021329012 0.065126374 -0.13638316
0.052482426 -0.0990929
00000000: 106e cc3d cbd1 c63d f165 293e 7418 32bd
00000010: adb9 d9bd 25c8 0bbb fa60 853d 07a8 0bbe
00000020: d0f7 563d 38f1 cabd

conv_block_2.0.weight f4 [10, 10, 3, 3]
-0.323751 -0.2382734 0.43045822 -0.2056048 -0.24049996 -0.025340395 0.2436682 -0.15414909
-0.23681378 -0.12184815 -0.06473678 0.035697684 -0.13914424 -0.11126503 0.18389195 0.052915793
-0.16016601 -0.11395736 -0.13539083 -0.11020601 0.35597068 -0.28371158 -0.25095183 0.32844403
0.07185421 -0.01078003 -0.0013361917 -0.0457398 -0.07800017 -0.0050354213 0.17009749 -0.008932784
-0.118125096 -0.057717703 -0.092034705 0.07802163 -0.03476905 0.011778175 0.008519371 0.056573573
0.09965108 0.057176426 0.08548615 0.03890369 0.03236184 -0.097136 0.014460232 -0.07914657
-0.12929928 0.03420013 -0.027920572 -0.031075608 -0.028624328 -0.073379636 -0.044103842 -0.015330266
0.19413689 -0.055159897 0.06941901 0.24911943 0.00021716439 0.018221397 -0.05440102 0.020560166
-0.19325913 -0.07567695 0.10839073 0.10234621 0.10327885 -0.11596181 0.069192015 0.12460022
-0.07468609 -0.24041499 -0.08570914 -0.064750805 -0.03923683 -0.14128827 0.22695386 0.08880282
-0.008286977 -0.04771678 -0.071938284 0.10277936 0.013604271 0.074506216 -0.0065876236 0.048644412
-0.08310595 0.0843939 -0.24699132 -0.07780918 0.0258345 -0.45984992 -0.40982658 0.038987666
0.01932523 0.1841386 0.3390946 0.035895795 0.24596283 0.31033513 -0.14702632 -0.20289937
-0.118332095 -0.19117342 0.06978416 0.04608286 -0.14257014 0.29136118 0.46616074 -0.21398386
-0.32347313 -0.04209272 -0.22321446 0.19203071 0.34578508 -0.052510303 0.13570014 0.22062553
0.15244357 0.11908841 -0.07170869 0.11853342 0.14306845 -0.16212955 -0.013934446 0.04462605
-0.034430508 -0.027908497 -0.10221213 -0.08556789 0.10179549 0.0046853297 0.04369852 -0.021454206
-0.1348717 0.086735494 0.11562797 0.08452701 0.076466165 0.030750234 -0.015916301 0.032688558
0.017084897 0.23552646 0.25950396 -0.08574451 -0.24350822 0.011581063 -0.072900645 0.06984267
0.14704543 0.10192476 0.06702864 -0.0756666 0.09115845 -0.0034672325 -0.080767475 0.09934254
-0.14856173 -0.042928077 -0.12325616 -0.11058205 0.020045472 -0.0767924 -0.10534029 -0.20806053
-0.0869334 0.00020270701 0.09401117 0.10114577 0.043332603 -0.09609873 -0.00898786 -0.06287855
0.1007384 0.055972677 -0.016251793 -0.00289217 -0.24043292 -0.037979476 -0.08668947 0.03818447
0.15030174 0.06352907 -0.21768181 0.073586494 0.65364367 0.21270648 -0.04121389 -0.15719716
0.2779705 0.05028069 -0.09605322 0.17602664 -0.2743636 0.017498922 -0.19563864 0.18467957
0.24684922 -0.0059433617 0.09596016 0.44942734 0.12115536 -0.2605556 -0.1807205 0.2469798
-0.28359792 -0.39575034 0.20007664 0.14674295 -0.4837237 0.37269676 0.30406797 -0.27083847
-0.014027163 -0.051851034 -0.038060643 -0.021945955 0.086907506 -0.097452484 0.034215633 0.0043537384
-0.03422338 0.022551546 -0.03753208 -0.17429283 0.09436654 -0.02815425 0.0636619 0.029990278
-0.13580588 0.21531005 0.0687224 0.074374765 -0.024299376 -0.0955232 0.050255623 0.23789409
0.14908764 0.02752341 -0.09349986 0.14125353 0.107751645 -0.009522061 -0.008632411 0.04260779
-0.31639045 -0.1013116 -0.10102265 -0.2818132 0.070074275 0.009890519 0.21023682 0.08504465
00000000: b1c2 a5be f1fd 73be 0565 dc3e 118a 52be
00000010: 9f45 76be a996 cfbc 2884 793e 42d9 1dbe
00000020: 507f 72be 868b f9bd b894 84bd bc37 123d
00000030: d47b 0ebe ecde e3bd 2c4e 3c3e 3bbe 583d
00000040: 8f02 24be 7a62 e9bd e5a3 0abe b0b3 e1bd
00000050: ca41 b63e a542 91be c27c 80be d129 a83e
00000060: 4d28 933d b99e 30bc 2723 afba a859 3bbd
00000070: 8ebe 9fbd 2d00 a5bb 092e 2e3e d05a 12bc
00000080: 92eb f1bd 6669 6cbd b17c bcbd cec9 9f3d
00000090: fe69 0ebd 3ff9 403c d594 0b3c b1b9 673d
000000a0: de15 cc3d d431 6a3d 5d13 af3d 7a59 1f3d
000000b0: d98d 043d 3def c6bd 9cea 6c3c 9917 a2bd
000000c0: 0867 04be 6f15 0c3d afb9 e4bc 4692 febc
000000d0: 917d eabc 1048 96bd 3ba6 34bd cc2b 7bbc
000000e0: d2cb 463e 58ef 61bd 8e2b 8e3d 2a19 7f3e
000000f0: 9fb6 6339 0a45 953c 9bd3 5ebd cb6d a83c
00000100: b9e5 45be 84fc 9abd f6fb dd3d e49a d13d
00000110: dd83 d33d 637d edbd 8bb4 8d3d 662e ff3d
00000120: 05f5 98bd 592f 76be 4688 afbd 129c 84bd
00000130: ccb6 20bd dfad 10be 9866 683e 41de b53d
00000140: 1ac6 07bc ac72 43bd 6154 93bd fc7d d23d
00000150: 73e4 5e3c b796 983d fedc d7bb 5d3f 473d
00000160: 7433 aabd b6d6 ac3d 4beb 7cbe 6b5a 9fbd
00000170: e0a2 d33c 7371 ebbe cad4 d1be 88b1 1f3d
00000180: f24f 9e3c d48e 3c3e cf9d ad3e 7807 133d
00000190: aedd 7b3e 3fe4 9e3e 118e 16be dac4 4fbe
000001a0: 1958 f2bd f7c2 43be ffea 8e3d 62c1 3c3d
000001b0: e8fd 11be 4b2d 953e 9fac ee3e 961e 5bbe
000001c0: 459e a5be 6a69 2cbd 5592 64be b3a3 443e
000001d0: be0a b13e 0b15 57bd faf4 0a3e a9eb 613e
000001e0: 2b1a 1c3e a0e4 f33d 01dc 92bd a6c1 f23d
000001f0: 8980 123e 4a05 26be 4d4d 64bc cec9 363d
00000200: 0107 0dbd 5ca0 e4bc 9854 d1bd 383e afbd
00000210: 277a d03d 6587 993b 38fd 323d bbc0 afbc
00000220: cf1b 0abe 61a2 b13d 5bce ec3d 7f1c ad3d
00000230: 4b9a 9c3d eae7 fb3c e762 82bc 70e4 053d
00000240: a0f5 8b3c d92d 713e b4dd 843e d19a afbd
00000250: 385a 79be 80be 3d3c ef4c 95bd ac09 8f3d
00000260: 1493 163e eebd d03d 5046 893d 17f7 9abd
00000270: 48b1 ba3d 823a 63bb 6b69 a5bd 1a74 cb3d
00000280: 9120 18be 5ad5 2fbd ba6d fcbd d878 e2bd
00000290: 6736 a43c 5545 9dbd a6bc d7bd d20d 55be
000002a0: 230a b2bd c08d 5439 ee88 c03d 8325 cf3d
000002b0: 877d 313d 69cf c4bd d141 13bc 78c6 80bd
000002c0: ef4f ce3d 9b43 653d 7b22 85bc 908a 3dbb
000002d0: 0c34 76be 5e90 1bbd 408a b1bd 5267 1c3d
000002e0: b3e8 193e 871b 823d fbe7 5ebe 84b4 963d
000002f0: 3155 273f bacf 593e e5cf 28bd 4bf8 20be
00000300: 2652 8e3e 20f3 4d3d 8db7 c4bd 5440 343e
00000310: 6379 8cbe e659 8f3c 7f55 48be a41c 3d3e
00000320: 0bc6 7c3e 88c0 c2bb c386 c43d 571b e63e
00000330: 4d20 f83d 8b67 85be cb0e 39be 46e8 7c3e
00000340: bf33 91be ca9f cabe e4e0 4c3e c943 163e
00000350: a2aa f7be 1cd2 be3e ccae 9b3e 57ab 8abe
00000360: 30d2 65bc c061 54bd 7ae5 1bbd 01c8 b3bc
00000370: 90fc b13d 2b95 c7bd b125 0c3d cea9 8e3b
00000380: d12d 0cbd 05be b83c 3dbb 19bd d279 32be
00000390: 3f43 c13d bea3 e6bc 2c61 823d 2cae f53c
000003a0: b210 0bbe 3d7a 5c3e 54be 8c3d cc51 983d
000003b0: 7c0f c7bc aba1 c3bd d7d8 4d3d 829a 733e
000003c0: 6eaa 183e c678 e13c db7c bfbd c4a4 103e
000003d0: e5ac dc3d 6b02 1cbc f56e 0dbc 8285 2e3d
000003e0: eefd a1be 757c cfbd f7e4 cebd d249 90be
000003f0: 1a83 8f3d d80b 223c 5248 573e e42b ae3d

conv_block_2.0.bias f4 [10]
-0.12259443 -0.15619367 -0.22562179 -0.4104431 0.45880744 0.07107276 0.30445245 0.26075217
0.4256366 -0.092351116
00000000: ca12 fbbd 3cf1 1fbe 6609 67be 9925 d2be
00000010: cfe8 ea3e 988e 913d 31e1 9b3e 4f81 853e
00000020: 0aed d93e 9522 bdbd

conv_block_2.2.weight f4 [10, 10, 3, 3]
-0.064341486 -0.08540853 0.060458533 -0.21992362 0.016438633 -0.116617635 -0.048261866 -0.04355136
-0.053736683 0.12441958 0.07397743 -0.21499845 -0.095466256 -0.21543281 -0.11570183 -0.0397543
-0.31301063 -0.076870486 -0.010296069 0.09128108 -0.2978575 0.06364567 -0.3311059 -0.112164065
-0.16982849 -0.5086148 -0.28181696 -0.3913065 -0.1158443 0.0014243092 -0.40132418 -0.29416376
0.09438166 0.23246247 0.3095556 0.112612024 -0.15057316 -0.07780452 -0.0744734 -0.2449942
-0.25976452 -0.28617105 -0.4043941 -0.23105818 0.03226961 0.020689324 0.37074798 -0.60653174
0.46823317 -0.36401546 -0.21202572 0.20236652 -0.34538823 -0.38950136 -0.22958437 -0.12730074
0.28474465 -0.48239228 0.019809894 0.14868124 -0.40797287 -0.30511752 0.03649127 0.092159405
-0.124832496 -0.09788667 0.029758401 -0.20581743 -0.08659478 -0.11155649 -0.23901431 -0.032859493
-0.25135323 -0.21367292 0.08845992 -0.2229166 -0.10440861 0.5023162 -0.3875285 -0.050310485
0.17166741 -0.05741505 -0.052224502 0.024965411 0.3023575 0.21288863 -0.104568556 -0.010404101
0.19849114 -0.3757604 0.31260854 0.1189781 -0.084032215 -0.13904071 0.105204545 0.03480167
-0.1538855 -0.012553199 -0.039911486 -0.10364807 -0.06640322 -0.017442564 0.2145162 0.24508825
0.12343195 -0.21811885 -0.0028957133 0.24964027 0.25987017 0.27263185 0.018981835 -0.19727093
0.016702583 0.43942153 -0.21723492 -0.23446658 -0.33234563 -0.10838858 -0.23598443 -0.10400678
-0.3034629 -0.4155216 0.0900336 0.21141355 0.071234904 0.2552765 0.15446883 0.208393
-0.41312897 -0.15695365 -0.08103057 -0.008261146 -0.17125809 -0.32330233 -0.12789981 -0.7070988
-0.5329734 -0.08081702 -0.022082204 -0.4522099 -0.5080259 0.19498953 0.16019094 0.11843637
0.30144846 0.15423287 -0.23032908 -0.32095703 -0.02903528 -0.037480842 -0.47565648 -0.3573635
-0.12225644 0.12033406 0.6140319 -0.0011419936 -0.19481048 0.08445976 0.27486837 -0.32837525
-0.356525 -0.25647908 -0.35954198 -0.34803 -0.45181978 -0.14537984 -0.18223512 0.19547303
-0.28159666 -0.07001107 0.1635903 -0.30645952 -0.2864485 -0.51838624 -0.29045403 0.15452364
-0.10350768 0.16742809 0.21785755 0.12326949 0.3732601 0.55478525 0.13604206 0.1350006
0.15706736 -0.3515656 -0.13819969 -0.06643002 -0.059239924 0.15616469 -0.056739952 0.114509605
-0.06637076 0.22414488 0.042705823 -0.14689866 -0.15462603 -0.13582525 -0.125765 0.08922285
-0.24589147 -0.14075245 -0.15054706 -0.15942588 -0.115544714 -0.11708921 -0.28026018 -0.27183643
0.09959796 -0.13137889 -0.20698361 -0.36336562 0.075106025 0.047417834 0.2856248 0.14652711
0.2986734 0.45250276 0.25385207 0.1182593 0.26175883 -0.21784326 -0.15717137 -0.09138997
-0.18983056 -0.52251834 -0.6124073 -0.5095791 0.78036153 0.020438038 -0.37083963 0.16701564
0.36285892 0.1731661 -0.21616825 -0.12947586 0.41376287 0.0064418763 -0.15689206 -0.23397821
-0.25250775 -0.16131264 -0.3342819 0.099144265 0.41578752 0.21008348 -0.24919614 -0.10809411
0.08686338 0.003105734 -0.28187895 -0.15425794 -0.3272791 -0.06154261 0.714932 0.014152779
00000000: 78c5 83bd abea aebd 5ea3 773d a833 61be
00000010: 50aa 863c 3ad5 eebd 3cae 45bd e962 32bd
00000020: ff1a 5cbd b1cf fe3d 7b81 973d 8e28 5cbe
00000030: d083 c3bd 6b9a 5cbe 15f5 ecbd 68d5 22bd
00000040: ee42 a0be 466e 9dbd d8b0 28bc 93f1 ba3d
00000050: c780 98be a958 823d b686 a9be 46b6 e5bd
00000060: 85e7 2dbe 9434 02bf 504a 90be 5359 c8be
00000070: c73f edbd e3af ba3a 5d7a cdbe a29c 96be
00000080: 2c4b c13d a40a 6e3e 127e 9e3e 22a1 e63d
00000090: da2f 1abe fa57 9fbd 8385 98bd c2df 7abe
000000a0: dbff 84be 0385 92be be0c cfbe 849a 6cbe
000000b0: 232d 043d a87c a93c aed2 bd3e aa45 1bbf
000000c0: 42bc ef3e 3c60 babe 451d 59be 2b39 4f3e
000000d0: bad6 b0be b96c c7be 2a18 6bbe 205b 02be
000000e0: 0dca 913e 1ffc f6be 5c48 a23c e53f 183e
000000f0: d2e1 d0be 5d38 9cbe df77 153d 12be bc3d
00000100: 2ea8 ffbd ce78 c8bd e4c7 f33c cec1 52be
00000110: 9b58 b1bd bb77 e4bd 2bc0 74be ad97 06bd
00000120: 5fb1 80be 13cd 5abe 792a b53d 4044 64be
00000130: 2ed4 d5bd cb97 003f 236a c6be 5e12 4ebd
00000140: 95c9 2f3e 0b2c 6bbd 5ce9 55bd 4384 cc3c
00000150: 9ace 9a3e 7aff 593e 0a28 d6bd f675 2abc
00000160: 4341 4b3e ab63 c0be 3a0e a03e caaa f33d
00000170: 1519 acbd b060 0ebe 7b75 d73d 328c 0e3d
00000180: 2994 1dbe efab 4dbc 3a7a 23bd 7045 d4bd
00000190: 69fe 87bd b5e3 8ebc 22aa 5b3e 6af8 7a3e
000001a0: e4c9 fc3d 8c5a 5fbe 02c6 3dbb b3a1 7f3e
000001b0: b40d 853e 6796 8b3e cb7f 9b3c 6401 4abe
000001c0: dbd3 883c dcfb e03e d572 5ebe 0218 70be
000001d0: 3529 aabe d5fa ddbd e7a5 71be 8201 d5bd
000001e0: 7d5f 9bbe 3fbf d4be 8963 b83d cb7c 583e
000001f0: 9be3 913d 9ab3 823e 142d 1e3e f964 553e
00000200: a485 d3be 75b8 20be 5bf3 a5bd c259 07bc
00000210: 485e 2fbe e287 a5be 2bf8 02be 6d04 35bf
00000220: f270 08bf 6583 a5bd bde5 b4bc 0e88 e7be
00000230: fc0d 02bf 56ab 473e 1809 243e c48e f23d
00000240: 7457 9a3e 39ef 1d3e 63db 6bbe 7b54 a4be
00000250: 65db edbc 8385 19bd 3f89 f3be 59f8 b6be
00000260: 9661 fabd b471 f63d 3231 1d3f f2ae 95ba
00000270: 667c 47be 3df9 ac3d 8cbb 8c3e cd20 a8be
00000280: 728a b6be 3a51 83be e315 b8be fd30 b2be
00000290: ec54 e7be 74de 14be d89b 3abe 152a 483e
000002a0: 702d 90be f761 8fbd 3784 273e 43e8 9cbe
000002b0: 61a9 92be f6b4 04bf 64b6 94be 723b 1e3e
000002c0: d6fb d3bd 4572 2b3e 0d16 5f3e b774 fc3d
000002d0: f31b bf3e 6806 0e3f 9c4e 0b3e 993d 0a3e
000002e0: 44d6 203e 6800 b4be 3884 0dbe 760c 88bd
000002f0: 90a5 72bd a3e9 1f3e 2768 68bd 0384 ea3d
00000300: 65ed 87bd 3c86 653e 4dec 2e3d 9a6c 16be
00000310: 4956 1ebe c615 0bbe 8ac8 00be 78ba b63d
00000320: f9ca 7bbe 6921 10be 0229 1abe 8a40 23be
00000330: b5a2 ecbd 78cc efbd 437e 8fbe 252e 8bbe
00000340: 04fa cb3d 3088 06be 83f3 53be 0f0b babe
00000350: 30d1 993d 3439 423d 6a3d 923e 340b 163e
00000360: b8eb 983e 71ae e73e e6f8 813e ef31 f23d
00000370: 4105 863e 4e12 5fbe 88f1 20be aa2a bbbd
00000380: f162 42be c3c3 05bf bac6 1cbf c773 02bf
00000390: c6c5 473f ac6d a73c b1de bdbe 2606 2b3e
000003a0: a5c8 b93e 7452 313e 365b 5dbe 5295 04be
000003b0: bad8 d33e 6016 d33b 50a8 20be fc97 6fbe
000003c0: b248 81be 242f 25be ff26 abbe 260c cb3d
000003d0: 1ae2 d43e 2020 573e 462d 7fbe 7260 ddbd
000003e0: 6ee5 b13d 9289 4b3b 7052 90be cbf5 1dbe
000003f0: 2091 a7be 1b14 7cbd c905 373f 0fe1 673c

conv_block_2.2.bias f4 [10]
0.21476313 0.16069971 -0.089296 0.16085403 0.17026351 -0.0607239 0.25243777 0.009138428
0.12735343 -0.013665665
00000000: deea 5b3e 778e 243e d2e0 b6bd ebb6 243e
00000010: 8f59 2e3e a0b9 78bd 863f 813e 58b9 153c
00000020: f068 023e f4e5 5fbc

classifier.1.weight f4 [10, 490]
-0.020936439 -0.066911764 -0.09358058 -0.08303519 -0.19026825 -0.04864891 -0.01557321 -0.007930196
-0.14827886 -0.034642726 -0.12695731 -0.25557342 -0.12240836 -0.0130428625 -0.013688025 0.12471963
-0.09809298 -0.006916574 -0.4138732 -0.03255545 0.07395821 -0.020079829 0.053771377 0.31070173
-0.2613964 -0.047851425 0.0039191325 0.03983553 0.016806167 0.29770616 0.035693645 -0.023796657
0.2918364 0.14345844 -0.007894985 -0.027956784 -0.01573786 -0.387522 -0.019652167 0.091752395
-0.020174168 0.019925326 -0.022363951 -0.06616027 -0.14237708 -0.15943687 -0.12568365 -0.021181157
-0.024508629 -0.032598205 0.010937271 -0.092662916 0.021420535 0.0102138575 0.0521267 0.0041230787
-0.034402467 0.012141533 0.03629386 -0.030399084 0.048004966 0.034396235 0.07441593 -0.031296875
-0.1749453 -0.20120046 -0.13451606 -0.2514508 0.20942645 -0.031851258 -0.10220394 -0.3106642
-0.28751984 0.16310212 0.25066638 0.2910277 -0.097193435 -0.010392396 -0.28878248 -0.36490375
0.29138464 0.10099996 0.26402608 -0.042207744 0.013546444 -0.07204965 0.04367142 -0.0793647
0.036657903 -0.0077280486 -0.042511735 0.20344347 0.16293849 0.29868287 -0.3024226 -0.23368415
-0.09005606 -0.042637154 -0.013720371 -0.0049759047 0.026412118 0.030650025 0.14016119 0.14126052
-0.006437594 -0.024294851 0.2417492 -0.0066119996 0.21810558 -0.037199657 0.10480336 0.0551995
0.05534223 -0.18553063 -0.1459792 -0.17912456 0.10520115 -0.039631043 -0.011163062 -0.20478767
-0.51002586 -0.412601 -0.09755662 -0.061581314 -0.105696134 -0.15255104 -0.2604916 -0.7180583
-0.2184005 0.3455013 0.34441134 -0.00019698357 0.027946131 -0.07574333 -0.09706146 0.09147806
0.1554286 0.22424221 0.09818245 0.018908234 0.14895383 0.121464096 0.17112279 -0.19446422
-0.29224774 -0.042094067 -0.04070662 -0.043190934 -0.111059666 0.009539492 -0.09191186 0.008218322
-0.036320504 -0.042425007 0.005138974 -0.03594713 -0.038318325 0.046361398 0.10036539 0.31784958
0.035252087 -0.0048747812 -0.022786107 0.09603652 0.026988894 0.12697971 0.21569113 -0.00049800245
0.011561065 -0.0038127098 0.057529368 -0.04243026 -0.41504666 -0.08042073 0.014859565 -0.0058554825
0.055861473 0.3315132 0.02831429 -0.4157458 -0.22133507 -0.04043938 -0.018256472 0.11507176
0.0624523 -0.18097533 -0.2865952 -0.2056469 -0.060959015 0.03766188 0.049729846 0.10402995
-0.010455236 -0.014236381 -0.058974713 -0.037949592 -0.01052606 0.05917761 0.0044138785 0.018656116
0.0033411162 0.010431287 -0.015055719 -0.008840941 -0.04462501 -0.08511232 0.078590386 -0.091063544
-0.25656036 -0.0077540246 -0.0022236875 -0.21318471 -0.08513175 0.06392207 -0.048271507 -0.29959932
0.110340975 -0.022870317 -0.27696496 0.055783756 -0.13646935 -0.11088596 -0.143257 0.015493507
0.016026475 0.16898513 0.19855039 0.19469336 0.017761389 0.098057434 0.07472365 0.044831596
0.055928443 0.2237069 0.22769281 -0.17996508 -0.07871665 -0.0863913 -0.03802076 0.10896959
-0.020797297 0.061711222 -0.15529814 -0.15789275 0.028538145 -0.046010416 -0.017980289 -0.028186118
0.040423464 0.00065849326 0.014997143 -0.035292774 -0.023937887 0.16696496 -0.017408123 0.036439657
00000000: e582 abbc 0909 89bd 2da7 bfbd 5b0e aabd
00000010: aed5 42be 1444 47bd c726 7fbc a7ed 01bc
00000020: 6ad6 17be 88e5 0dbd 1901 02be 85da 82be
00000030: 3cb1 fabd bbb1 55bc bd43 60bc 016d ff3d
00000040: f9e4 c8bd 6ea4 e2bb 30e7 d3be dd58 05bd
00000050: 6777 973d 747e a4bc 603f 5c3d 4c14 9f3e
00000060: c0d5 85be dbff 43bd 116c 803b 952a 233d
00000070: 16ad 893c f16c 983e 8033 123d 35f1 c2bc
00000080: 956b 953e c5e6 123e f859 01bc a005 e5bc
00000090: afec 80bc 4969 c6be 95fd a0bc aee8 bb3d
000000a0: 4c44 a5bc 703a a33c 9b34 b7bc 097f 87bd
000000b0: 4ccb 11be 6b43 23be 37b3 00be 1b84 adbc
000000c0: 52c6 c8bc b285 05bd 3d32 333c 0ec6 bdbd
000000d0: 1e7a af3c 0658 273c ce82 553d e41a 873b
000000e0: 9ae9 0cbd 48ed 463c dfa8 143d 8007 f9bc
000000f0: dba0 443d 11e3 0c3d 6167 983d 2731 00bd
00000100: dc24 33be 7e07 4ebe 94be 09be 29be 80be
00000110: e373 563e 7776 02bd 4d50 d1bd 610f 9fbe
00000120: cd35 93be 3e04 273e 5857 803e 9501 953e
00000130: 5a0d c7bd de44 2abc 4cdb 93be aad4 babe
00000140: 5e30 953e 11d9 ce3d 6d2e 873e 07e2 2cbd
00000150: e7f1 5d3c c48e 93bd cee0 323d f689 a2bd
00000160: 9926 163d 923b fdbb c920 2ebd 7c53 503e
00000170: 59d9 263e f6ec 983e 23d7 9abe e64a 6fbe
00000180: 506f b8bd 4ca4 2ebd 68cb 60bc ea0c a3bb
00000190: 3a5e d83c c315 fb3c 6a86 0f3e 99a6 103e
000001a0: 74f2 d2bb ff05 c7bc 1a8d 773e 79a9 d8bb
000001b0: 1257 5f3e ab5e 18bd 25a3 d63d df18 623d
000001c0: 89ae 623d befb 3dbe 927b 15be 6e6c 37be
000001d0: b373 d73d 2954 22bd 47e5 36bc dcb3 51be
000001e0: 0e91 02bf 7040 d3be c4cb c7bd b03c 7cbd
000001f0: 3777 d8bd 5736 1cbe 285f 85be abd2 37bf
00000200: 61a4 5fbe 8ce5 b03e af56 b03e 608d 4eb9
00000210: 49ef e43c 521f 9bbd 29c8 c6bd d958 bb3d
00000220: ad28 1f3e c09f 653e e113 c93d 71e5 9a3c
00000230: 5a87 183e 2bc2 f83d d03a 2f3e a121 47be
00000240: 7fa1 95be d46a 2cbd fcbb 26bd fae8 30bd
00000250: 4073 e3bd 884b 1c3c 493c bcbd 24a6 063c
00000260: cfc4 14bd d8c5 2dbd d764 a83b 4c3d 13bd
00000270: adf3 1cbd 73e5 3d3d 5f8c cd3d 2ebd a23e
00000280: 7e64 103d a1bc 9fbb eea9 babc ccae c43d
00000290: d017 dd3c f806 023e 23de 5c3e 618c 02ba
000002a0: 9f6a 3d3c a8de 79bb eaa3 6b3d 5acb 2dbd
000002b0: ff80 d4be a0b3 a4bd 8875 733c 59df bfbb
000002c0: 00cf 643d 19bc a93e 5ff3 e73c a2dc d4be
000002d0: a9a5 62be c3a3 25bd 998e 95bc beaa eb3d
000002e0: fccd 7f3d 9951 39be 9bbc 92be 1a95 52be
000002f0: 29b0 79bd 5843 1a3d 86b1 4b3d a80d d53d
00000300: 704c 2bbc b63f 69bc 788f 71bd 0871 1bbd
00000310: 7f75 2cbc 3964 723d 4ca2 903b b6d4 983c
00000320: a1f6 5a3b fde7 2a3c 43ac 76bc 98d9 10bc
00000330: b7c8 36bd 5e4f aebd fff3 a03d 867f babd
00000340: e15b 83be 7915 febb 49bb 11bb 184d 5abe
00000350: 8e59 aebd 93e9 823d 58b8 45bd 1565 99be
00000360: 73fa e13d 885a bbbc 5ace 8dbe 827d 643d
00000370: 9fbe 0bbe 2e18 e3bd f7b1 12be 7ad8 7d3c
00000380: f449 833c 700a 2d3e cb50 4b3e b25d 473e
00000390: 5580 913c 56d2 c83d b708 993d 56a1 373d
000003a0: 3915 653d 6c13 653e 4e28 693e c448 38be
000003b0: 3236 a1bd eced b0bd a8bb 1bbd 732b df3d
000003c0: 185f aabc e8c4 7c3d 7a06 1fbe a3ae 21be
000003d0: d4c8 e93c 6b75 3cbd 664b 93bc 93e6 e6bc
000003e0: 1393 253d bc9e 2c3a 94b6 753c 288f 10bd
000003f0: 6319 c4bc ddf8 2a3e 7b9b 8ebc c041 153d

classifier.1.bias f4 [10]
-0.024466647 0.755996 0.053167507 -0.13981496 -0.11768698 -0.08501985 -0.111606315 0.16574652
-0.32403314 -0.07060537
00000000: 476e c8bc f488 413f 2cc6 593d a72b 0fbe
00000010: df05 f1bd e31e aebd da91 e4bd 75b9 293e
00000020: ace7 a5be 8c99 90bd
