model_weights/model_epoch_9.pth (torch, 34447 bytes, 10 tensors)

conv_block_1.0.weight f4 [10, 1, 3, 3]
000000 4b 56 a1 3e 4b 1b eb be 3b 43 bd be 2b 88 6c be
       0.3151115 -0.4591926 -0.36965355 -0.23098819
000010 02 cc f2 3e f7 63 e8 3d e7 3c a5 3e 44 07 1b 3f
       0.4742127 0.11347192 0.32273027 0.6055796
000020 b2 d1 07 3e d1 21 17 3d f6 28 cd 3d b9 5e 00 bf
       0.13263586 0.036897484 0.10017578 -0.50144535
000030 4b 40 a6 3c 6e 42 fe 3e e5 22 6d bd d1 97 13 bf
       0.02029433 0.49660057 -0.057894606 -0.5765353
000040 65 5a 63 be 2f a6 9a 3e a7 c2 1c 3f 27 d3 0e bf
       -0.22202452 0.30204913 0.61234516 -0.5579094
000050 0a 11 df be 17 1a 90 3d 1b 1a 4d bf 37 ff 95 be
       -0.43567687 0.07036226 -0.8011796 -0.29296276
000060 77 d7 2a 3f 86 ff fe bd 6f 27 bb 3e 1d 77 8c be
       0.66735023 -0.12451081 0.36553523 -0.27434626
000070 28 26 20 be a8 c5 43 3e 58 af 02 bf 8e b0 2e 3c
       -0.15639555 0.19118369 -0.51048803 0.010662211
000080 c3 37 2c 3f 5f c8 3a be 6d 79 87 be 75 6e e9 3d
       0.67272586 -0.18240498 -0.26459828 0.11398021
000090 b8 42 0e 3f c1 48 57 3e 8f 3e 59 3f 71 83 84 3d
       0.55570555 0.21023847 0.8486108 0.06470383
0000a0 2c c7 4f be 10 15 23 be 60 66 f4 be 46 a5 89 bf
       -0.20290822 -0.15926003 -0.47734356 -1.0753562
0000b0 93 ac 22 bf 08 ee 0b bd 5c 52 9e 3e d2 99 be 3e
       -0.6354458 -0.03416255 0.3092221 0.3722673
0000c0 bb 2c 65 be 49 f9 84 3e a9 78 03 3f 24 fe 00 3d
       -0.22380345 0.2597144 0.5135599 0.031492367
0000d0 4b 7f be 3e 1d 98 87 3e 97 d2 27 3f 2c 77 ae 3e
       0.37206492 0.2648324 0.6555571 0.34075296
0000e0 45 3e 3e bf d7 a2 b1 3d b3 e8 21 be 97 2b 91 be
       -0.74313766 0.08673637 -0.15811424 -0.2835357
0000f0 02 0f ba be ef f4 14 bc b7 64 4d be ba f0 6e be
       -0.36339575 -0.0090916 -0.20057951 -0.23334017
000100 af 09 53 3d 22 32 07 3f 79 57 27 bf 3f 29 2b bf
       0.051522907 0.5281087 -0.6536785 -0.6685981
000110 18 9d f1 be c9 ca 3a 3e b1 00 c2 be 1d f4 4d bf
       -0.47190166 0.18241419 -0.37891153 -0.8045061
000120 a4 ab 76 be de b3 0b be ef 9f 05 be 3a 37 71 3e
       -0.24088913 -0.13642833 -0.13049291 0.23556224
000130 6e bd 13 3f 20 8f c8 be 99 b8 c5 be fa b5 9b bd
       0.5771092 -0.39171696 -0.386174 -0.07603069
000140 06 ee 58 ba 86 ab 36 bc c5 e2 47 bf 65 c3 e5 be
       -0.00082752143 -0.011149293 -0.780804 -0.44875637
000150 58 97 06 3f 60 fe 38 3f ff 9a cd be 32 cd ac be
       0.5257468 0.72263145 -0.40157315 -0.33750302
000160 8b 29 cd 3e c0 14 38 3d
       0.40070757 0.044941664

conv_block_1.0.bias f4 [10]
000000 69 be 9c be 07 9d 4e be fa e0 a8 3d 0a ec de bd
       -0.3061402 -0.20177089 0.08246036 -0.10884865
000010 51 6c 4b 3e 42 73 ab bf e9 29 18 bd 77 28 d6 3e
       0.19865538 -1.3394549 -0.037149344 0.41827747
000020 bb 34 18 3e 14 7b c2 be
       0.14863865 -0.37984526

conv_block_1.2.weight f4 [10, 10, 3, 3]
000000 d0 47 5c be 5a c6 29 3e 1a 0f bb 3d 93 a7 62 3d
       -0.2151177 0.16579571 0.0913374 0.055335592
000010 19 be 1e bd 02 97 94 be 8e b1 ee 3c dd 7a c3 3d
       -0.03875551 -0.2902146 0.029137399 0.09544919
000020 71 53 08 3e 9b 39 33 3d 61 90 9c bc c8 77 11 3d
       0.1331308 0.04375611 -0.019111814 0.035514623
000030 d4 6c 8d bc 7b 99 f9 bd 18 0b 9f 3c f1 0d 21 bc
       -0.017263807 -0.12187477 0.01941447 -0.009829984
000040 74 95 a1 bd 5d 16 1e be e9 fb 26 bd 81 6b 9e be
       -0.07889834 -0.15438218 -0.040767584 -0.30941394
000050 a7 9f 3f bc d5 5d 93 be 42 47 2d be 98 6b 49 bd
       -0.011695779 -0.28782526 -0.16921714 -0.049174875
000060 e4 fd 84 be c4 3d 1c be 16 8e 3c bd 66 d6 9d 3d
       -0.25974953 -0.15257937 -0.04603394 0.07706909
000070 f5 3c 30 3e d6 96 87 be 97 88 53 3e a0 82 ea bd
       0.17210753 -0.26482266 0.20657574 -0.11450696
000080 b5 8b a0 be bc 36 c0 3d e6 fa a0 be 65 76 a7 be
       -0.31356588 0.0938544 -0.3144142 -0.32707515
000090 98 81 8d bd f4 5c 77 be 12 2f 2a be a1 0d 82 be
       -0.06909484 -0.24156553 -0.16619518 -0.25401023
0000a0 88 11 a9 be 7d ae 2f 3e 8a d5 e2 be 49 2b 29 be
       -0.33021188 0.17156406 -0.44303542 -0.16520418
0000b0 ad 50 6e be 78 ff 14 3e 74 2f b5 3d f0 01 f7 3d
       -0.23272963 0.14550579 0.088469416 0.120609164
0000c0 a5 a2 e0 3d 4b 79 cb bc dc 94 40 bd 10 17 3e 3e
       0.10968522 -0.02483811 -0.047016963 0.18563485
0000d0 4b 32 cd 3c 62 46 95 bd 7a a4 28 bd 90 60 0d 3e
       0.025048396 -0.07288815 -0.041172482 0.13806367
0000e0 c6 4b 87 3e 74 71 3e 3b 8d 79 80 3c d4 a3 24 3e
       0.26424998 0.0029059323 0.01568296 0.1607812
0000f0 a0 00 fc bd 2f 26 40 be 66 d7 17 3e ac 1a 8b be
       -0.12304807 -0.18764566 0.14828262 -0.27168787
000100 43 a5 65 be f9 38 fc bd bb f9 38 be f0 cd 34 be
       -0.22426324 -0.12315554 -0.18064015 -0.17656684
000110 64 35 85 bd a1 03 5b be ed b3 2c be 80 cb 82 bd
       -0.06504324 -0.21388103 -0.16865511 -0.06386471
000120 14 50 af bd f0 ed 1f be 79 17 ed 3b 60 a0 f1 bd
       -0.085601956 -0.1561811 0.007235464 -0.11798167
000130 64 85 11 3d 81 de 8e 3d c0 6a dd 3b ce ad ab 3c
       0.0355276 0.06976033 0.0067571104 0.0209569
000140 77 f8 1f 3d 5d 8a 71 be 03 df c3 bd b8 c8 c2 3b
       0.039055314 -0.23587938 -0.095640205 0.0059443377
000150 7d 59 c2 bd 77 43 2f bd 4c 21 62 bd c8 51 cd bd
       -0.09489725 -0.04278895 -0.055207536 -0.10025364
000160 60 12 21 bd 5a 3c bd 3c 30 9e 5e 3e 8f 4d 46 3d
       -0.039324164 0.023100067 0.21740031 0.04841381
000170 89 96 20 be 6b c0 2b be 21 b0 c2 be 6f 5e f1 bd
       -0.15682425 -0.1677262 -0.38025 -0.1178559
000180 da 86 b2 bd 49 3a 56 3e b9 8b dc 3e 7d d7 5e 3d
       -0.08717127 0.20920672 0.4307535 0.054404724
000190 0b bb 22 3c d2 17 2d 3d 9f 53 26 3c 8a 39 1a bc
       0.00993229 0.042259045 0.010151773 -0.009413132
0001a0 07 88 e6 bc c1 6c c2 bd 0f 78 1f bd 92 4b 1e 3c
       -0.028141035 -0.094933994 -0.038932856 0.009661572
0001b0 a8 8c 06 be 45 c8 28 be bf c7 34 be 9b 08 a3 bd
       -0.13139594 -0.16482647 -0.17654322 -0.07960626
0001c0 ed 06 aa 3c 4d c3 34 3c b1 ec f8 3c 4e 96 96 3e
       0.020755256 0.011032891 0.0303863 0.29411548
0001d0 89 37 61 be ae 45 67 3e fa d1 63 3c d6 b5 93 bd
       -0.21993841 0.22585174 0.013905043 -0.07212417
0001e0 90 98 a8 bd 8b 8f 23 be 44 34 c4 bd 51 08 2f be
       -0.08232224 -0.15972726 -0.095802814 -0.17093016
0001f0 37 0f 7b bc cd a8 9f 3e 6d 4f 5d be 6f 22 24 bd
       -0.015323452 0.31183472 -0.2161233 -0.0400719
000200 ca 56 38 3d 7f 4d e3 3e 4c df 4c 3e c9 25 e4 be
       0.045004643 0.44395062 0.20007056 -0.44560078
000210 10 ee dd 3d 77 ff 40 be cc d5 91 be 8c 46 d1 3d
       0.108364224 -0.18847452 -0.28483427 0.10218534
000220 50 75 02 be 53 b1 69 3d 58 3b 16 bd 0e bc 57 be
       -0.12740064 0.057053875 -0.03667769 -0.21067831
000230 1d 7f 23 3e 91 27 6f be 96 59 4c bc 98 19 9a 3e
       0.15966459 -0.23354937 -0.012472531 0.3009765
000240 f1 da e6 bd 16 8c 2d bd b8 a7 ed 3d 70 e3 d0 bc
       -0.112722285 -0.042369924 0.116042554 -0.025499076
000250 72 63 1c 3e 71 f0 60 bd 69 1c 5c 3e 6d 63 19 be
       0.1527231 -0.054916803 0.21495213 -0.14979334
000260 fb 12 60 bd bf bc 93 be 5b 2e 18 be 97 8e b6 bd
       -0.0547056 -0.2885494 -0.14861433 -0.089139156
000270 09 7f 1c be 81 cc c7 bd b7 45 42 be 28 9c 70 be
       -0.15282835 -0.09755803 -0.18971907 -0.23497069
000280 5b 56 3c be a5 4e 85 be b7 9b 71 bd 64 25 17 be
       -0.18392317 -0.26036564 -0.058986392 -0.14760357
000290 af 72 b4 bd f7 b4 0b 3d e6 41 bc 3d c1 13 b1 bd
       -0.08810937 0.03410813 0.09192257 -0.08646346
0002a0 5a fe bb 3c 44 8d e7 bc 0b 22 08 be 61 6b d9 3c
       0.022948433 -0.028265603 -0.13294236 0.02654046
0002b0 8a 6b 0b bd bb 7e 01 3e ea 8d b7 3d 51 9a 8f bd
       -0.034038104 0.12646 0.08962615 -0.070118554
0002c0 8d b9 1a bc 5d 30 7a bd 51 93 1d bd b7 7e 21 be
       -0.009443653 -0.06108128 -0.03847057 -0.15770994
0002d0 2d 44 8a 3e db 8d 26 bc 2a 94 de be 9a 38 55 be
       0.2700514 -0.010165657 -0.43472415 -0.20822373
0002e0 6f d2 8d be a1 79 ac be ea 5b d4 be bb f2 a6 be
       -0.2769961 -0.33686545 -0.41476375 -0.32607064
0002f0 d1 e1 b2 bd af 95 f9 3d 91 c9 af bd 71 30 1e be
       -0.08734477 0.12186753 -0.085833676 -0.15448166
000300 d5 68 23 3d ec 4b 93 3d ec 4a 99 bd 04 ae 4e 3d
       0.039894897 0.07192215 -0.07484993 0.050458923
000310 97 dd 0e bd 0e b6 39 3c fe 17 a0 bd 77 b2 81 3d
       -0.034879293 0.011334909 -0.07817076 0.063328676
000320 e2 56 42 3e b3 53 12 3c 37 dd aa bd c2 60 03 3e
       0.18978456 0.008931088 -0.08342975 0.12829879
000330 e6 bf 81 3d 33 5b 6b 3d a6 0b 82 bc 42 8c 29 3e
       0.0633543 0.05746002 -0.015874695 0.1655741
000340 ba fd 69 be 84 b1 75 be 37 31 88 ba 30 9d 81 be
       -0.22850695 -0.23993498 -0.0010390644 -0.25315237
000350 61 65 9f be fb c1 ae be b9 d0 2e be 0f bb 0e 3c
       -0.31132033 -0.3413237 -0.17071809 0.00871159
000360 19 57 12 3e 8f bd ef bb da 57 bc 3e 99 24 a6 3d
       0.14291038 -0.0073162983 0.36785775 0.08112449
000370 c5 4b 82 3e 19 3c 25 be da 73 d4 3e 34 e9 44 be
       0.25448433 -0.16136207 0.41494638 -0.19229585
000380 e4 99 79 be f3 3e fb 3d 23 3c 00 bd 99 e1 1d be
       -0.24375111 0.12267866 -0.03130735 -0.1541809
000390 03 67 9d bd e7 9b 27 bd 22 ad 59 be 5b 95 23 be
       -0.076856636 -0.040920164 -0.21257451 -0.15974943
0003a0 d6 21 fb bd b3 64 4f be 13 d2 18 3d 3b fb db 3d
       -0.12262313 -0.20253257 0.037309717 0.10741278
0003b0 de 3b 05 3e 72 a1 c5 3d 97 ca 52 bd f4 6e 96 3e
       0.13011119 0.09649934 -0.051462736 0.29381526
0003c0 0c 9e 88 3e e8 ea 05 3e 69 d6 12 be 59 52 f1 bd
       0.2668308 0.13077891 -0.14339603 -0.11783285
0003d0 49 f3 b8 bc 39 ba 12 be d1 84 0b 3c b6 03 7b 3c
       -0.022576945 -0.14328851 0.008515553 0.015320709
0003e0 ab 9b 9d bd ac 52 8a 3b 17 40 d5 3d 30 16 8c 3e
       -0.07695707 0.004221281 0.10412615 0.27360678
0003f0 03 3c 59 bd fa df 8f bd 33 70 04 bd b0 a8 80 3d
       -0.053035747 -0.07025142 -0.032333564 0.062821746

conv_block_1.2.bias f4 [10]
000000 31 a6 03 3f 01 e4 a8 bc 53 b4 7c be 36 a8 a8 3d
       0.5142546 -0.020616533 -0.24678163 0.08235209
000010 c9 ec fa 3d d2 b1 12 3f ad c3 a1 3b 28 fd 78 3e
       0.122521944 0.5730258 0.0049366564 0.24315321
000020 40 ef e3 3d 3c 83 01 bc
       0.11129618 -0.007904824

conv_block_2.0.weight f4 [10, 10, 3, 3]
000000 aa 82 d7 bc c6 e7 2f 3c 90 6a 62 3d 4d 02 97 3d
       -0.026307423 0.010736411 0.055277407 0.07373486
000010 27 15 39 be ba 26 d6 3d 17 9d e6 bc d3 9f 32 be
       -0.18074475 0.10456605 -0.028151078 -0.1744378
000020 e2 12 42 3d 07 4a c0 bc 96 4b e7 bc a1 68 1d 3e
       0.04738129 -0.023472799 -0.028234284 0.15371944
000030 b0 53 50 bd b4 04 de 3e 78 f5 97 3e 6a fd 84 3d
       -0.05086106 0.43362963 0.29679465 0.064936474
000040 cb 66 44 3d b9 b9 13 3e 01 36 58 bd 37 50 95 bd
       0.047949594 0.14426316 -0.052785877 -0.072906904
000050 ba 93 c0 3d 7b bf 8c 3e 3a e1 b6 3d 44 50 d6 bd
       0.094031766 0.27489838 0.08929677 -0.10464528
000060 90 ba ba 3d bd 04 35 be f1 2d 30 bd e2 ca 00 3f
       0.09117615 -0.17677589 -0.043012563 0.50309575
000070 db e9 c0 3c 3c 33 8a be 89 28 93 be 84 93 d9 be
       0.023549011 -0.26992214 -0.28741863 -0.42495358
000080 c7 38 b1 be 1b ef 20 be 38 b1 78 be 3c 24 55 be
       -0.3461363 -0.15716211 -0.24286354 -0.20814604
000090 01 61 4f 3e 50 fa 80 bd 10 b2 98 be a5 9d 34 be
       0.20251848 -0.06297743 -0.2982335 -0.17638262
0000a0 40 98 8a be d4 25 79 be 59 e1 d3 be 6c d1 a8 be
       -0.27069283 -0.24330837 -0.41382864 -0.32972276
0000b0 8a fb 8d bd 81 72 41 3e 2d ae a3 3e 26 30 90 3d
       -0.06932743 0.18891336 0.31968823 0.070404336
0000c0 3b 1e fe 3b 25 cb 9d bd 08 c5 7a 3e 08 12 90 be
       0.0077550686 -0.07704762 0.24489224 -0.28138757
0000d0 f4 5e f4 3d a5 c0 df 3d d6 d9 ed 3d 0a ab db 3e
       0.11932173 0.10925416 0.116138145 0.4290393
0000e0 59 43 22 3e 7f 76 12 3e 00 59 f2 3d 5f 56 14 be
       0.15846004 0.14303015 0.11833382 -0.14486073
0000f0 d1 d2 ae 3d 15 dc 1a 3c 9c f2 8c bc 40 01 46 3e
       0.08536304 0.009451886 -0.017205529 0.19336414
000100 19 73 73 3e 3d 17 db 3d 11 17 e0 3c e5 bf 92 3e
       0.23774375 0.10697792 0.027354749 0.2866203
000110 88 ee 59 3e bc eb 43 be dd 96 d4 bd e3 67 92 be
       0.21282399 -0.19132894 -0.103803374 -0.28594884
000120 dc f2 10 3e 17 60 f5 bb a6 23 12 3d 7f 72 86 3c
       0.14155143 -0.0074882614 0.03567853 0.016412018
000130 a9 12 20 be 4a 4c 67 bd 87 f2 98 bd 6b 99 b3 bd
       -0.15632118 -0.05646924 -0.074681334 -0.087694965
000140 5d 19 42 bd 7b 1e ca 3d 56 22 68 bd 43 48 5c bc
       -0.04738747 0.09869095 -0.05667337 -0.013444963
000150 60 42 84 3e ff f6 8a 3e 5f bd 6f be 34 d5 9b bd
       0.2583189 0.27141568 -0.23412083 -0.07609025
000160 77 48 f1 bd 45 55 ed bd d9 a1 d4 3e 56 16 80 3d
       -0.117814 -0.115885295 0.4152973 0.0625426
000170 2e 3c 96 3c d4 b9 1c 3f f7 5e 6f 3e 69 f9 42 bd
       0.018339243 0.6122105 0.2337607 -0.047601137
000180 0c 32 65 bc 99 84 81 be 00 1d c4 3c 21 24 c0 3e
       -0.013988983 -0.25296476 0.02393961 0.37527564
000190 32 b7 aa 3d 3d be 83 be ed b3 8b be d1 1a 0a 3e
       0.08335723 -0.25731078 -0.2728571 0.13486792
0001a0 68 4f 24 ba 85 9c c3 3d 13 7c c2 3e fc 74 83 3d
       -0.0006267936 0.09551338 0.37985286 0.064187974
0001b0 d4 c8 50 be 33 78 82 3d ac cb 52 3e 3f f5 16 3e
       -0.2038911 0.063705824 0.20585507 0.14741991
0001c0 67 22 19 bc f5 4a 64 3e db 27 81 3d fc 3c d6 bd
       -0.009346581 0.22294219 0.0630643 -0.104608506
0001d0 e3 a8 0e be 8b de 01 be 11 d9 0e be 8b 30 a9 3e
       -0.13931613 -0.1268255 -0.13949992 0.33044848
0001e0 e5 99 dd bd 95 6a 0c 3e 0a 7f 62 3d a0 ac 90 3b
       -0.10820369 0.13712533 0.055296935 0.0044151098
0001f0 62 b9 d8 3d de 2d 11 3d d3 e3 06 3f d2 f0 5d 3d
       0.10582234 0.035444133 0.5269138 0.054184742
000200 b7 27 ac 3d 69 b0 8b bd c5 dc a2 3e ff 36 32 be
       0.084060125 -0.06820757 0.3180906 -0.17403792
000210 05 48 0f 3e bc 72 15 be 4c ee 7b bd e6 d0 9d 3e
       0.13992317 -0.14594549 -0.061506554 0.3082344
000220 86 0e 46 3e 02 10 0d 3e 47 80 5f 3f 85 4d 8f 3e
       0.19341478 0.13775638 0.8730511 0.2798883
000230 bf cd 01 bf 29 d0 1e bf ca ac 82 be 87 25 76 be
       -0.5070457 -0.6203638 -0.25522453 -0.24037753
000240 2e 66 01 be fb 6d e0 3d 0d 6a b5 3e 87 f7 71 bb
       -0.12636635 0.10958477 0.35432473 -0.003692122
000250 9c 7e 1e 3c 21 24 8f bd 1c e4 1c 3e 9d 6a 42 bd
       0.009673741 -0.06989313 0.15321392 -0.047464956
000260 5d 30 a7 be 11 01 17 3e a4 6d 0c 3e e0 74 66 be
       -0.32654086 0.147465 0.137137 -0.22505522
000270 3a 76 07 bf 4c a9 99 be 85 e3 d6 bd e4 ee df be
       -0.52914774 -0.30011976 -0.10492615 -0.43736947
000280 b3 60 ee 3e 1e 7b 6e bd b8 04 23 3e 1f c5 ba bd
       0.4655815 -0.058222882 0.15919769 -0.09119629
000290 ee cb e1 3c b1 26 28 be 47 62 df bd 4e 6e ee 3d
       0.027563062 -0.1642101 -0.10907417 0.11642133
0002a0 50 ba a1 3e e1 51 62 3e 18 b6 a1 3c 9a b2 bd be
       0.31587458 0.22101547 0.01974015 -0.37050325
0002b0 a4 38 1f bf 4a 53 3a bd fa b5 53 bf ac a2 52 3d
       -0.621958 -0.045489587 -0.8269955 0.051424667
0002c0 da 49 c3 3e e2 eb 94 3e a9 87 f4 3d 7a 41 4a be
       0.38142282 0.29086214 0.119399376 -0.1975154
0002d0 1f 4d 75 3e a3 ac 25 3d 98 65 27 3e 84 05 a4 3e
       0.239552 0.040447842 0.16347349 0.32035458
0002e0 f8 b2 ac be a5 77 4a bc 61 6b b3 3e 85 e0 73 be
       -0.33730292 -0.012357627 0.3504286 -0.23816116
0002f0 d7 70 78 bd 1e b3 a4 be 29 d5 56 be 81 3f 8a 3a
       -0.060654487 -0.32167906 -0.20979752 0.001054749
000300 56 33 23 be b2 67 87 3c b1 83 81 3e 3f 76 a1 3d
       -0.15937552 0.016528938 0.25295785 0.07883882
000310 db 45 fe 3c 0f c4 ee 3c ef 80 7c bc b9 11 bb 3d
       0.031039169 0.029146222 -0.0154116 0.0913424
000320 9f 7b cd 3e e5 9a 42 bd 15 9d 53 3d 50 c1 e9 3d
       0.40133378 -0.047511 0.051663477 0.114138246
000330 d9 9e 95 bd 66 a1 11 3e df 77 be be 6f 74 a9 3d
       -0.073056884 0.14221725 -0.3720083 0.08274161
000340 98 31 09 3d e5 e4 dd be bb e2 66 be 54 60 c3 bd
       0.033494562 -0.43338695 -0.22547428 -0.095398575
000350 d3 1d 58 be 69 0d 46 be 87 cc de be 97 22 ce 3d
       -0.21105127 -0.19341053 -0.43515417 0.10065191
000360 6a 9a 7a 3b d6 d2 a8 3e 58 f7 0d bf 8c cd 3b 3d
       0.003823901 0.32973355 -0.5545554 0.04585032
000370 11 86 8c be 5a 1d 11 bf ef 33 44 3f c4 15 a0 be
       -0.27446035 -0.5668541 0.76641744 -0.31266606
000380 6a 34 5b 3d d0 d9 7b 3e 5f 7c a0 3c 8f 1e f8 bc
       0.053516783 0.24594808 0.019590555 -0.030288009
000390 3b ac da bd 15 9f 03 bf c0 6e 68 be 90 81 e6 3d
       -0.106773816 -0.51414615 -0.22698498 0.11255181
0003a0 cf df d4 be b6 46 cf 3e db 73 54 bd 66 2b 2c 3e
       -0.41577002 0.40483636 -0.0518683 0.1681343
0003b0 6b 59 79 3e ee b7 ca be 37 13 7d be a2 84 30 be
       0.24350516 -0.39593452 -0.24714361 -0.17238095
0003c0 df f0 d9 be 64 7d 90 be b0 e2 b5 3d d9 0c ba bd
       -0.42566583 -0.28220665 0.08881128 -0.09084482
0003d0 b4 39 79 be c9 ee 73 be f4 b7 e9 bd 8e 02 b4 bd
       -0.24338418 -0.23821558 -0.114120394 -0.0878955
0003e0 d3 54 24 3e 05 89 33 bd 78 c7 1d bd 31 81 8b 3e
       0.16047983 -0.043831844 -0.038520306 0.27247003
0003f0 ea 57 20 3d 0d 3a fd bd fa 67 43 3b 26 98 af bc
       0.03914634 -0.12364588 0.0029816614 -0.021434855

conv_block_2.0.bias f4 [10]
000000 d4 d9 54 bd c5 3d 3e be 84 22 d6 3e a8 ce 66 3d
       -0.05196555 -0.1857825 0.41823208 0.056349427
000010 05 72 39 be e7 b7 98 3e a2 3d bb 3e 8c 22 dd bd
       -0.18109901 0.29827806 0.3657046 -0.10797605
000020 a9 8b ed 3d ac b5 66 be
       0.11598904 -0.2253024

conv_block_2.2.weight f4 [10, 10, 3, 3]
000000 86 4e cc be 93 7a 83 bc 72 9b d4 bd 81 01 09 be
       -0.3990366 -0.016049659 -0.10381211 -0.1337948
000010 c0 cb 6e bc 1f 78 00 be f8 20 66 3c 63 ca 0e be
       -0.014574945 -0.12545823 0.014045946 -0.13944392
000020 ba 0e a8 3d 70 c1 53 be 52 5b 65 be 93 c8 9e be
       0.08205934 -0.2067926 -0.22398117 -0.310124
000030 e4 fc a4 be cd 0c 84 be 0e 35 21 3e 29 60 cd be
       -0.3222419 -0.25791016 0.15742895 -0.40112427
000040 cc b2 28 3e db b0 9a 3e 92 a6 c6 3e cf 67 2d be
       0.16474456 0.30213055 0.38798958 -0.16934131
000050 4d 29 88 be f3 39 3a be 8c c8 b3 bd ae 9c 7b be
       -0.2659401 -0.18186168 -0.08778486 -0.24571487
000060 6a 3c c4 be 1e 1f 14 be 36 49 d5 3d 0a b8 a6 3b
       -0.38327342 -0.14464995 0.104143545 0.005087857
000070 ce 3c af 3e 17 6b 7c 3d 3b df c6 3e 29 d0 a0 bd
       0.34226078 0.061625566 0.38842186 -0.078522034
000080 1a bc dc be 9d 66 ef 3e 8b 55 8e be 8c 90 fc be
       -0.4311226 0.46757975 -0.2779964 -0.4932903
000090 44 dc 04 bf 7b 46 87 be b4 50 1f bf 59 d5 bc be
       -0.518986 -0.2642096 -0.6223252 -0.3688152
0000a0 66 29 b4 3d 90 6e cf be f7 61 78 3e 0f d7 7c be
       0.087969586 -0.4051404 0.2425612 -0.24691413
0000b0 08 98 88 be 5d 43 5c bd de 3c 43 be 2d ea f1 3c
       -0.2667849 -0.05377518 -0.19066188 0.029530609
0000c0 5e 4b 20 3b 3b bb 82 3d 13 8e 8d 3e 91 e5 24 be
       0.0024458985 0.06383368 0.27647457 -0.16103198
0000d0 18 05 0e be 02 2b 9d 3e 19 83 a2 3d ec 97 e7 3c
       -0.1386913 0.30696875 0.07935161 0.028270684
0000e0 56 00 dd be 53 90 49 3d 12 a0 11 3e e1 f3 3c be
       -0.4316432 0.049209904 0.14221218 -0.18452407
0000f0 ee c8 ec bd f4 fc 28 bf 30 f5 0e bf c6 44 af bc
       -0.11561762 -0.66010976 -0.55842876 -0.021395098
000100 6f 78 1b bd 25 66 9a bd fa ae 7d 3c 92 2e 3a bb
       -0.03795665 -0.07539014 0.015483612 -0.0028409106
000110 ed 31 52 bd 41 09 70 3c 2b a0 a6 bd 02 83 51 bd
       -0.051317144 0.014650644 -0.08136018 -0.05115033
000120 4b 30 01 3d 6b 1e d6 3c 51 0f b8 bc 0e 17 17 3e
       0.031540196 0.026137551 -0.022468241 0.14754888
000130 33 60 a6 3d fe 03 cc bd 0f bb 86 3e 3d 60 31 3d
       0.08123817 -0.09961699 0.2631459 0.04330467
000140 43 c5 6b be b8 69 b9 3d 47 7f 5f be 99 89 99 be
       -0.23024468 0.090533674 -0.21825896 -0.2998779
000150 90 3b c0 be 67 ef d5 be dd 77 0a ba c0 0c 97 be
       -0.37545443 -0.41784212 -0.0005282143 -0.29501915
000160 ff 29 0b 3a 01 a0 aa 3d c3 d2 bc be ca 2a 01 be
       0.0005308687 0.083312996 -0.36879548 -0.12613979
000170 1b c8 05 bd 9d 4d 2b be 8c 14 c6 3b 86 62 a2 3e
       -0.03266154 -0.16728826 0.00604493 0.31715792
000180 47 db d6 be a1 33 c9 3e 83 3f 90 3e 16 23 a6 3e
       -0.4196417 0.39297202 0.28173456 0.32448643
000190 6e 8a b2 bd a3 30 17 be 9d aa 36 3e 3f d8 bd 3c
       -0.087178096 -0.14764647 0.17838521 0.023174403
0001a0 8a 66 08 3d 2e 42 e1 3d 28 b6 0b bf 6d cd e5 3d
       0.033300914 0.10998951 -0.54574823 0.112208225
0001b0 95 51 94 bf 2d 4b 56 bf 15 52 33 bf 1f 3a 8f 3e
       -1.1587397 -0.8370846 -0.7004712 0.2797403
0001c0 77 82 75 bd f1 04 7b be 84 f4 da 3d f9 3f e7 bd
       -0.059938874 -0.24513604 0.10691169 -0.11291499
0001d0 b6 42 9b 3e f7 ac e2 be 1e 39 19 be 29 07 f2 3d
       0.30324334 -0.44272587 -0.14963195 0.11817772
0001e0 3d 8f 72 be 0e 88 3e bf 15 fe 0f bf d6 a9 71 3d
       -0.23687454 -0.7442635 -0.56247073 0.05899986
0001f0 04 81 d9 bc 35 9a cd 3d 08 99 6b 3e 71 b7 15 be
       -0.026550777 0.10039178 0.23007596 -0.14620759
000200 f1 f8 03 3f 66 77 4f be 9f ea 3f bd e0 c3 92 bd
       0.5155173 -0.2026039 -0.04685461 -0.071662664
000210 c4 b5 c0 be 1b cb c1 be c3 95 5e be 36 02 dd 3e
       -0.37638676 -0.3785027 -0.21736817 0.4316575
000220 3c ac 2d 3e 9b a2 2b b9 82 63 5f be cf e1 09 be
       0.16960233 -0.00016368406 -0.21815303 -0.13465045
000230 9c 58 c6 3d 4c 89 80 3c a4 b4 7c bd 66 37 55 3d
       0.0968487 0.015690468 -0.06169571 0.052054785
000240 c4 a0 af 3e 9f 00 f9 3c 12 31 08 bf 29 57 20 3c
       0.34302342 0.030395804 -0.53199875 0.009786406
000250 c0 a4 fa bd 72 ec 6f 3e 66 a7 cc bb e9 29 95 3e
       -0.12238455 0.2343004 -0.0062455414 0.29133537
000260 16 1d 12 3e 5d 69 82 bc 59 7b 74 bb 9a 95 b6 bd
       0.14268908 -0.015919382 -0.0037304966 -0.08915253
000270 5c 33 12 3d d4 64 13 bd 6b b2 5e 3d a6 35 ae 3d
       0.03569351 -0.03598483 0.05436937 0.085063264
000280 83 5c bc bd e9 8c 97 bd 40 02 f0 3d b1 9c 1a 3d
       -0.09197333 -0.07399923 0.11719179 0.03774709
000290 da 10 05 3c 3f 66 83 bd 4d de 85 bd 00 59 77 bd
       0.0081216935 -0.06415986 -0.06536541 -0.06038761
0002a0 03 9f 98 3d c9 29 74 3d e5 fd 5d bc 7c c0 dd 3e
       0.07452204 0.059610162 -0.013549303 0.43310916
0002b0 4c 5b 61 bd 01 52 e0 3d e4 ce 46 bc 86 02 b1 3d
       -0.055018708 0.10953141 -0.0121342875 0.086430594
0002c0 14 fb ca bd 04 65 ff be 96 db d9 be 98 a0 14 bf
       -0.099111706 -0.49881756 -0.42550343 -0.58057547
0002d0 12 f8 9e 3e 1c 7c 5a bd eb a5 42 3d e1 0c 6f be
       0.31048638 -0.053341016 0.047521513 -0.23344757
0002e0 b1 1a d8 be 65 b5 d5 bd 20 13 b3 bd c7 bc 3d be
       -0.42207864 -0.10434989 -0.08743882 -0.18529044
0002f0 97 02 29 be f3 9b 49 be 46 59 88 be 22 62 8f 3d
       -0.16504894 -0.19688396 -0.2663061 0.07001139
000300 fc c6 08 bf 74 0b 50 bf 9c 32 96 be ba 6a 76 be
       -0.53428626 -0.81267476 -0.29335487 -0.2406415
000310 5c 54 2a bf 99 d0 03 bf 5e 29 ef 3e 9c e0 21 bf
       -0.6653497 -0.5149017 0.46711248 -0.6323335
000320 da 75 91 be 90 8d b0 3e 3c 1d 42 be 37 54 6f be
       -0.28410226 0.34483004 -0.18956465 -0.23371969
000330 26 60 98 bc 23 f6 35 be 32 e7 86 be 7a f0 f0 be
       -0.018600535 -0.17769675 -0.26348263 -0.4705847
000340 2b 97 a7 3e 9b 6a 93 3d e4 31 00 bf f0 61 9d 3c
       0.3273252 0.07198068 -0.5007613 0.01921174
000350 84 cc bd be 7f 2a 79 be 24 f3 17 bd da ce 90 be
       -0.37070096 -0.24332617 -0.03709711 -0.28282815
000360 0d 06 4c be 59 d3 95 3c 5b 8e a8 be 99 92 cb be
       -0.19924183 0.018289255 -0.3292111 -0.39760283
000370 75 7a 32 3c f8 6c 5e 3e 0c 2f b4 be 2f 4a d9 3e
       0.010893454 0.21721256 -0.35192144 0.4243941
000380 7b d9 d6 3e ae c5 6d bd fe fa 9c be c1 0a 14 be
       0.419628 -0.05804985 -0.30660242 -0.14457227
000390 83 be da 3d fe 75 5c be a3 2e 77 be f4 2a 92 3e
       0.106808685 -0.21529385 -0.24138884 0.28548396
0003a0 4f 24 27 3d e7 bd 71 be 61 f8 35 3e 5e 7b 8f bd
       0.04080611 -0.23607598 0.1777053 -0.07005952
0003b0 cb 1b e2 bd 45 8c 9e be 5a 21 b2 3e d5 82 82 3e
       -0.11040457 -0.30966392 0.3479107 0.25490442
0003c0 df 72 a4 be b9 f6 42 3e 9f 15 01 bd 7f e9 da bd
       -0.3211889 0.1903943 -0.03151476 -0.10689067
0003d0 6b 71 9d bd c5 cc ae 3b 05 29 55 3d b8 73 27 bc
       -0.076876484 0.005334469 0.052041072 -0.010220461
0003e0 3b 43 ec b8 a0 2d 73 3d 7a c2 c0 3d f9 93 dd bc
       -0.000112658796 0.059369683 0.094120935 -0.027048098
0003f0 49 20 fc ba 26 6b 25 3c 48 e9 08 3d 0b 57 a5 bd
       -0.0019235696 0.010096347 0.0334256 -0.08073243

conv_block_2.2.bias f4 [10]
000000 c6 c9 1e 3e dd 0f 94 3e ef 88 a5 3e 89 ba ef 3e
       0.15506658 0.28918353 0.32331035 0.46822003
000010 24 1f 75 3e 84 88 a1 bd 7e 92 39 be f2 e3 f0 3d
       0.2393766 -0.078873664 -0.18122289 0.11762227
000020 66 7f a6 3e 0d 05 6e be
       0.32519072 -0.23244114

classifier.1.weight f4 [10, 490]
000000 98 68 2f bd ec 8e 02 be 7e bd 3c be 13 da 9b 3d
       -0.042824358 -0.12749833 -0.1843166 0.07609954
000010 5a bd a3 be 8f cc 44 be ae 46 8f bb c5 9b 2d bd
       -0.319804 -0.19218658 -0.0043724393 -0.04238488
000020 72 de 21 3a 57 35 46 be b2 01 b7 bd 3e 91 84 bd
       0.00061748095 -0.19356285 -0.0893587 -0.06473015
000030 14 c8 7e be a8 87 4b bd 0a fb 2f bc 3c 4c 61 3e
       -0.24881011 -0.04968992 -0.010741005 0.22001737
000040 33 be 1c 3e 4e 96 bb 3e e6 3f da be 74 d2 37 be
       0.1530693 0.3663811 -0.42626876 -0.17951375
000050 da dc 4a 3d ef 2e 1c bb 0f 19 2b 3d b8 3a c9 3e
       0.049527027 -0.0023831686 0.041771945 0.3930261
000060 44 98 21 be e5 41 94 3e 0a e1 ab 3e f8 65 5d bc
       -0.15780741 0.28956524 0.3357013 -0.013513081
000070 e2 1a 64 bd 52 9d d5 3d f3 93 4c 3d 53 bb 9d 3e
       -0.0556897 0.10430397 0.049945783 0.3080698
000080 77 18 6b 3e f9 ad a4 bd 01 73 dd 3a fa 7c 8f bc
       0.22958551 -0.08040995 0.0016895236 -0.017515648
000090 81 72 c6 bd 97 11 64 be fe 3b 22 bd 6e 55 a4 3d
       -0.09689809 -0.22272335 -0.039607994 0.08024107
0000a0 5b 5b dd bc db 24 87 3c 35 2d 9a 3c 94 63 8f bb
       -0.0270211 0.016497066 0.018820385 -0.0043758843
0000b0 3a 74 6b bd 1e 38 1f bc 04 10 01 bd 5d ee 22 bb
       -0.05748389 -0.009717969 -0.031509414 -0.0024861314
0000c0 b7 18 eb bc 20 5f be 3c 12 71 98 3d 96 48 3c bc
       -0.028698308 0.023238719 0.074434415 -0.011491915
0000d0 60 b5 ba 3d e8 09 81 3d a7 3d bb 3c 86 f6 16 3d
       0.09116626 0.063007176 0.022856547 0.036856197
0000e0 ec 28 12 3d 91 80 14 be 6e b8 a2 be e4 23 ea bc
       0.035683557 -0.14502169 -0.31781334 -0.028581567
0000f0 e0 83 82 be 37 71 fd bd b8 85 4a 3d e1 74 17 be
       -0.25491238 -0.1237511 0.04944393 -0.1479068
000100 fa 2a 7b be c3 1c 96 3c 7a 01 f8 bc 53 95 2f bd
       -0.24528113 0.018324262 -0.030274142 -0.042867016
000110 2d e9 93 3c 98 0e 59 3d 6e 45 32 bd 05 6b f2 be
       0.018055523 0.052992433 -0.043523245 -0.47347274
000120 09 b9 d4 be 1a 5e c8 be 1d 44 ac bb e2 b3 8b bd
       -0.4154742 -0.39134294 -0.005257143 -0.06821419
000130 c1 dc 61 be 0d a6 88 3d 91 85 39 3e 25 43 8a bd
       -0.22056867 0.06672297 0.18117358 -0.06751088
000140 e1 1d 53 be cc 77 74 bd 02 27 b5 bd e9 66 47 3d
       -0.20616867 -0.05968456 -0.08845331 0.048682127
000150 de 7f 89 3d 57 96 26 3e b2 d0 2b 3e b7 8a ad 3e
       0.06713842 0.16268288 0.1677883 0.33894894
000160 de 6a 02 bc a6 52 b7 be 36 84 a8 bd 41 dc 54 3d
       -0.007960049 -0.35805243 -0.08228342 0.051967863
000170 4a 6b da 3c 19 aa aa 3e 8c 47 7d 3e f6 56 21 be
       0.026662488 0.333329 0.24734324 -0.15755829
000180 e8 9d ab be c0 37 48 bd ca 91 53 bd fb c0 0d be
       -0.3351891 -0.048881292 -0.051652707 -0.13843147
000190 da 6f 41 bc 0a 12 38 3d 38 54 73 bc c9 50 8e bc
       -0.011806453 0.04493908 -0.014851622 -0.017372506
0001a0 2e 4a 1a 3d e1 94 10 be 15 e6 b5 bd 71 91 6b be
       0.0376684 -0.14119293 -0.08881775 -0.230047
0001b0 e3 ec fe bb 8a 27 bc 3c 91 15 94 bc 9c fb fe bc
       -0.007779704 0.022968072 -0.01807669 -0.031125836
0001c0 2e e7 7e 3c 66 ea 1e 3e f9 35 97 bc 54 13 99 bd
       0.015558047 0.15519103 -0.018458353 -0.0747439
0001d0 98 4c 28 3e 30 9f cd 3e ee 1f 81 bd 9b ad 59 3e
       0.16435468 0.40160513 -0.06304918 0.21257631
0001e0 37 e5 6f 3e 4a 4b 83 3d 7b 9e 0e 3d ad 17 72 3e
       0.23427282 0.064108446 0.034819108 0.23641844
0001f0 a7 34 c0 3e a5 41 2c be 91 8b 05 3e dd c6 ed 3d
       0.3754017 -0.16821916 0.13041522 0.11610196
000200 26 a3 a9 3e a1 a8 24 be e9 8f f6 3d 93 fc 68 3d
       0.33132285 -0.16079952 0.120391674 0.0568815
000210 14 bb f0 bd fb 2b 89 3d 65 35 89 3e ca 66 73 3e
       -0.11754432 0.06697842 0.2679855 0.2376968
000220 68 09 92 be 4b f1 cd be b0 86 b0 bd cc 5b 2f bd
       -0.285228 -0.40223154 -0.086194396 -0.042812154
000230 69 9b 8b bb d2 52 8a bd b2 69 67 bd 0c 61 24 be
       -0.0042604697 -0.06754078 -0.056497283 -0.16052645
000240 a3 b4 b7 bd 46 c6 42 bd 3d 17 59 bd 21 bf cf 3c
       -0.089700006 -0.04755237 -0.053000677 0.025359692
000250 9f 24 94 bd 27 41 25 be 49 b5 c6 bd 6b 9e ed 3d
       -0.072335474 -0.16138135 -0.09702546 0.116024815
000260 db 25 4d 3e f7 22 d4 bd 01 b2 11 bd b7 db f0 bc
       0.20033972 -0.103582315 -0.03557015 -0.029401643
000270 58 ab a7 3d 84 8a 87 3e 15 8a de 3e 65 9d a4 3e
       0.08186978 0.26472867 0.43464723 0.32151332
000280 56 51 4e 3e 16 4e 82 3d 60 2a fd 3a a1 83 8e bd
       0.20148215 0.0636255 0.0019314997 -0.069587
000290 13 30 a4 bd 94 7c 9f 3d 95 f3 03 3e 76 74 04 3e
       -0.08016982 0.07787433 0.12885888 0.12935051
0002a0 19 8b 63 bd 7f 7f be be 22 62 90 be f6 e4 3c be
       -0.055552576 -0.37206647 -0.2819987 -0.18446717
0002b0 f2 a8 e7 be de c1 ac be 4e 3a 33 bd 48 6d 55 3c
       -0.45246083 -0.3374166 -0.043756776 0.013026543
0002c0 c8 f9 b0 be aa ca 7e be d6 11 b9 3e 6a 48 dd 3d
       -0.34565568 -0.24881998 0.3614642 0.108048275
0002d0 96 36 c5 be b5 ed f8 be d1 e8 ce 3c 9f cc 22 bd
       -0.38518208 -0.48618856 0.0252575 -0.039745923
0002e0 d6 b4 92 3d 88 e9 b6 3e a0 c7 17 be ff 56 85 be
       0.07163398 0.35725045 -0.14822245 -0.26042935
0002f0 27 3e cd bd b2 f0 83 bc b5 68 d5 3b b4 79 21 3c
       -0.1002162 -0.016105983 0.006512726 0.009855676
000300 83 d0 81 3c 2f 7d 83 3d 90 40 c8 3c f2 28 c7 3c
       0.015846496 0.06420361 0.024444848 0.024311516
000310 60 81 48 3c 24 1d 1d 3c 18 d2 02 bd 15 21 62 bd
       0.012237877 0.009589467 -0.031938642 -0.05520733
000320 97 a1 15 be 82 c3 8f bd 3a 9e 07 bc c7 97 03 3d
       -0.14612423 -0.07019712 -0.00827747 0.032127168
000330 19 e5 3c be 4a de be bd 34 3e b1 bd 56 6b 13 bf
       -0.18446769 -0.09319742 -0.086544424 -0.57585657
000340 a0 66 be bd c3 64 d7 bb 56 ec f4 bb 6d 27 9c 3d
       -0.09296918 -0.006573291 -0.0074744625 0.07624707
000350 54 8a 23 3e 17 96 9b 3c 05 7e 53 be bf dd cb 3e
       0.15970737 0.018992467 -0.20653541 0.39817616
000360 8c d7 f4 3d 11 3c 2a bd 6f c7 04 3e 99 6c c3 3e
       0.11955175 -0.04156119 0.12966703 0.3816879
000370 60 1c 5c be 55 7e d1 3e 95 ed 97 3e 09 93 ac 3d
       -0.21495199 0.40916696 0.29673448 0.08426482
000380 a4 66 0d 3c c2 02 cc bc f2 20 59 bd 34 2c 38 be
       0.008630428 -0.024903659 -0.053009935 -0.17985612
000390 d0 14 fb bd 91 85 b3 3e b4 75 cd bb 07 41 09 3d
       -0.12259829 0.3506284 -0.006270135 0.03350928
0003a0 3c e9 ab 3d ac 34 52 be 6c 11 36 bf ce 93 32 bf
       0.08394095 -0.20527905 -0.71120334 -0.6975678
0003b0 38 d4 ba be df cf b9 bd 3e ee 03 3d 9d 9e 1a bd
       -0.36490035 -0.090728514 0.032209627 -0.03774892
0003c0 c8 21 20 3d 16 87 44 be 16 e9 b1 be 5e d8 a7 bd
       0.039094716 -0.19192156 -0.34748143 -0.08195566
0003d0 0d 77 98 bc 88 2d 17 3c ef 24 30 bd c4 df 58 3b
       -0.018611455 0.009227164 -0.043003973 0.003309236
0003e0 cc 48 aa bc 30 a6 e8 3a 53 b5 a7 bc c7 87 9c 3b
       -0.020786665 0.0017749723 -0.020472204 0.004776928
0003f0 b9 db a8 3c ce 9d fb bc 51 df dc 3c 51 79 d3 3d
       0.020612584 -0.030714896 0.026961954 0.10325874

classifier.1.bias f4 [10]
000000 56 b0 06 bd 26 20 2e 3f 20 ce 30 3d f5 87 3d bd
       -0.03288301 0.68017805 0.043165326 -0.046272237
000010 d3 08 e5 bd 1f 1f f3 bc c1 f6 3e 3d 35 c0 d8 3d
       -0.11183324 -0.029677926 0.04662204 0.105835356
000020 90 75 a3 be 67 6a 45 be
       -0.3192563 -0.1927887
