model_weights/model_epoch_7.pth (torch, 34447 bytes, 10 tensors)

conv_block_1.0.weight f4 [10, 1, 3, 3]
0.19138539 -0.37629038 -0.42343923 -0.27825272 0.4117401 0.10091322 0.2054357 0.6335441
0.20068033 0.005722904 0.08111142 -0.4404032 0.025786806 0.39728752 -0.09356361 -0.5150297
-0.2701975 0.23612176 0.5253424 -0.5546913 -0.40054235 0.11635658 -0.68969357 -0.33628482
0.61599797 -0.23913696 0.26584458 -0.26759022 -0.21270554 0.16856444 -0.45362115 -0.06909565
0.52637124 -0.29468817 -0.25505853 0.08873671 0.415802 0.13329083 0.6891394 0.105675474
-0.23435766 -0.21605003 -0.4350875 -1.1285167 -0.6258617 -0.0835196 0.056169294 0.2612651
-0.2856627 0.18343087 0.40413576 -0.04939018 0.40114996 0.17965753 0.5798862 0.37112796
-0.6819106 0.077131905 -0.064697586 -0.11577925 -0.2966855 -0.015308421 -0.16725126 -0.30894607
0.0059175803 0.34446618 -0.5799917 -0.56058466 -0.4627931 0.13467702 -0.40439388 -0.6957604
-0.29538622 -0.16749421 -0.06981766 0.21282813 0.51765376 -0.29452175 -0.3130192 -0.08455215
-0.012823738 -0.011868808 -0.66013163 -0.4229128 0.360798 0.56776905 -0.35590297 -0.37868318
0.3465089 0.03668566
00000000: 88fa 433e 22a9 c0be 07cd d8be 2477 8ebe
00000010: 99cf d23e 97ab ce3d bc5d 523e f22f 223f
00000020: 257f 4d3e 3387 bb3b bf1d a63d 877c e1be
00000030: da3e d33c 4569 cb3e 479e bfbd fdd8 03bf
00000040: 5457 8abe e7c9 713e d77c 063f 4000 0ebf
00000050: e313 cdbe 5c4c ee3d c28f 30bf 862d acbe
00000060: 0bb2 1d3f 52e0 74be c81c 883e 9601 89be
00000070: 7bcf 59be 289c 2c3e 0841 e8be 0582 8dbd
00000080: 44c0 063f 5ee1 96be 0897 82be 98bb b53d
00000090: 00e4 d43e 647d 083e 716b 303f 626c d83d
000000a0: 74fb 6fbe 383c 5dbe cac3 debe 3c73 90bf
000000b0: 7938 20bf 530c abbd c611 663d 8ac4 853e
000000c0: 6242 92be 4dd5 3b3e e2ea ce3e 5b4d 4abd
000000d0: 8763 cd3e 25f8 373e 6c73 143f 7c04 be3e
000000e0: b191 2ebf 55f7 9d3d 2b80 84bd ac1d edbd
000000f0: 29e7 97be 2cd0 7abc ea43 2bbe 2e2e 9ebe
00000100: 43e8 c13b df5d b03e 567a 14bf 7a82 0fbf
00000110: 38f3 ecbe c6e8 093e b70c cfbe 5b1d 32bf
00000120: dd3c 97be 9a83 2bbe 90fc 8ebd 9eef 593e
00000130: f584 043f 8ecb 96be 0d44 a0be ad29 adbd
00000140: a81a 52bc 6475 42bc 63fe 28bf 0788 d8be
00000150: 84ba b83e 5059 113f ea38 b6be c3e2 c1be
00000160: 9d69 b13e b443 163d

conv_block_1.0.bias f4 [10]
-0.28015485 -0.2741539 0.015687712 -0.08126104 0.11718168 -1.1611949 0.021412428 0.43987808
0.14749384 -0.37159246
00000000: 7570 8fbe e65d 8cbe 8483 803c 306c a6bd
00000010: f3fc ef3d 09a2 94bf 1e69 af3c b337 e13e
00000020: a008 173e 5e41 bebe

conv_block_1.2.weight f4 [10, 10, 3, 3]
-0.119069695 0.20315179 0.16040644 -0.009127426 -0.04937514 -0.29218927 0.053125154 0.09113147
0.07826397 0.06333284 -0.0195516 0.036361888 0.015087811 -0.08727111 0.026891736 -0.01897011
-0.033772968 -0.15311936 -0.033623733 -0.2123764 -0.031278547 -0.29390392 -0.11299495 -0.036313172
-0.22822073 -0.09214551 0.06121011 0.0040910505 0.08626999 -0.2369787 0.15500584 -0.16486321
-0.2890255 0.13663982 -0.3184356 -0.32261476 0.006238651 -0.177114 -0.1369089 -0.23898453
-0.285043 0.08834939 -0.36659637 -0.16731656 -0.25704834 0.15344828 0.0916282 0.08888793
0.10230291 -0.004690088 0.025525257 0.20879215 0.0247648 0.010156561 0.014119931 0.14573137
0.2256398 0.016376441 0.0524218 0.16978464 -0.104507305 -0.1570913 0.14353418 -0.19817668
-0.19981864 -0.09106331 -0.1679365 -0.19662422 -0.063343644 -0.19772257 -0.19850844 -0.07842374
-0.066456646 -0.14998908 0.012504973 -0.10859595 0.037918422 0.07718597 -0.0052662683 0.0032123066
0.05004013 -0.21940804 -0.07285415 0.03341553 -0.13713557 -0.04313358 -0.043203063 -0.12450599
-0.06517653 0.023501491 0.14166324 0.042001303 -0.18140551 -0.11962572 -0.27404425 -0.012961574
0.0012001232 0.27133715 0.3586865 0.05296926 0.0048535145 0.03297757 0.008727093 -0.0338012
-0.052646436 -0.099668324 -0.042995576 0.018248614 -0.10458659 -0.11324608 -0.18715365 -0.0095866565
0.030149253 0.0012434651 0.035146322 0.19010405 -0.1628962 0.20831911 0.06995489 0.00674037
-0.027940348 -0.078120954 -0.082409926 -0.08298765 -0.004673389 0.1724785 -0.036901098 0.0015294161
0.033148684 0.33918208 0.15349661 -0.3076668 0.06664887 -0.12047321 -0.2339832 0.027655724
-0.14889249 0.043230057 0.0006201388 -0.16439787 0.14635986 -0.17884158 0.02302894 0.23474802
-0.083281234 -0.029854452 0.13558652 0.016777065 0.10060328 -0.058409415 0.17198336 -0.11815175
-0.037574034 -0.25458995 -0.14298923 -0.051442463 -0.14523384 -0.07120049 -0.1536804 -0.24530838
-0.18392469 -0.21614943 -0.058970906 -0.1555914 -0.07998927 0.016911495 0.07462174 -0.07128975
0.018161526 -0.025629785 -0.1394012 0.053888302 -0.02213684 0.105039105 0.0801674 -0.0702934
0.008662401 -0.03883298 -0.027823072 -0.13846019 0.16104054 -0.005945193 -0.407154 -0.18011796
-0.24407384 -0.33634654 -0.3861331 -0.30707246 -0.098651476 0.10138278 -0.09160693 -0.12644058
0.031433128 0.07198734 -0.07919522 0.03975845 -0.03096059 0.014361486 -0.07185887 -0.041186936
0.14041461 0.0625232 -0.1037835 0.14049077 0.13821912 0.038219493 -0.003310593 0.13533254
-0.23383267 -0.22995748 -0.0072278595 -0.2592131 -0.26878688 -0.31949955 -0.14598711 0.06913679
0.08555782 -0.013232002 0.29582202 0.11010035 0.24522765 -0.11087867 0.28331268 -0.20024219
-0.26085472 0.108224764 -0.034690335 -0.14948758 -0.053120177 -0.036460478 -0.19646144 -0.1506619
-0.11581097 -0.17168166 0.033028528 0.11846886 0.11009427 0.07160081 -0.05822832 0.22068897
0.21681407 0.112178095 -0.14388558 -0.17856129 -0.04680639 -0.15865919 0.016529422 0.03914734
-0.07790066 0.016045367 0.07190668 0.19938217 -0.08646527 -0.10835656 -0.0435539 0.052235242
00000000: d0da f3bd 0607 503e 9641 243e 338b 15bc
00000010: 963d 4abd d599 95be c399 593d 23a3 ba3d
00000020: dc48 a03d a6b4 813d ad2a a0bc 34f0 143d
00000030: de32 773c 32bb b2bd 0f4c dc3c 3467 9bbc
00000040: 8655 0abd 52cb 1cbe 0ab9 09bd 3379 59be
00000050: ef1d 00bd 937a 96be e569 e7bd 1fbd 14bd
00000060: b2b2 69be c9b6 bcbd 74b7 7a3d 380e 863b
00000070: 52ae b03d 8baa 72be dab9 1e3e e7d1 28be
00000080: 26fb 93be 4feb 0b3e fe09 a3be c32d a5be
00000090: 996d cc3b 5f5d 35be d931 0cbe 5cb8 74be
000000a0: 28f1 91be 86f0 b43d 85b2 bbbe 0855 2bbe
000000b0: d79b 83be 8c21 1d3e 91a7 bb3d e00a b63d
000000c0: 3084 d13d 4faf 99bb 581a d13c 9ccd 553e
000000d0: 8ddf ca3c b467 263c 4857 673c 9b3a 153e
000000e0: 1f0e 673e e327 863c 3eb8 563d 06dc 2d3e
000000f0: ed07 d6bd 8bdc 20be a0fa 123e d4ee 4abe
00000100: 429d 4cbe 677f babd 8cf7 2bbe dc57 49be
00000110: 50ba 81bd c977 4abe cc45 4bbe a09c a0bd
00000120: 6c1a 88bd bd96 19be a9e1 4c3c 8e67 debd
00000130: 5950 1b3d ae13 9e3d a990 acbb 9085 523b
00000140: e1f6 4c3d 80ac 60be 8e34 95bd b9de 083d
00000150: 446d 0cbe d6ac 30bd b2f5 30bd fffc febd
00000160: 467b 85bd 3386 c03c 2b10 113e 8f09 2c3d
00000170: 5ec2 39be 54fe f4bd 874f 8cbe c85c 54bc
00000180: 744d 9d3a b4ec 8a3e c2a5 b73e 4bf6 583d
00000190: 3b0a 9f3b 7d13 073d 15fc 0e3c 2173 0abd
000001a0: caa3 57bd e81e ccbd 211c 30bd 1e7e 953c
000001b0: 7e31 d6bd 90ed e7bd 35a5 3fbe 5a11 1dbc
000001c0: 91fb f63c c4fb a23a 97f5 0f3d a3aa 423e
000001d0: 43ce 26be 9b51 553e 8244 8f3d 52de dc3b
000001e0: 28e3 e4bc e1fd 9fbd 89c6 a8bd 6ef5 a9bd
000001f0: 3a23 99bb 349e 303e 9b25 17bd b076 c83a
00000200: eac6 073d 46a9 ad3e 372e 1d3e 8186 9dbe
00000210: 347f 883d a9ba f6bd 4b99 6fbe 428e e23c
00000220: 4677 18be 0012 313d cf90 223a ea57 28be
00000230: 5cdf 153e 3f22 37be 30a7 bc3c c961 703e
00000240: 5a8f aabd 5391 f4bc 31d7 0a3e 0e70 893c
00000250: 1809 ce3d b63e 6fbd 681c 303e 8bf9 f1bd
00000260: 3be7 19bd 9d59 82be c56b 12be 55b5 52bd
00000270: 2eb8 14be 90d1 91bd 655e 1dbe 1f32 7bbe
00000280: c156 3cbe 4756 5dbe 7a8b 71bd 5a53 1fbe
00000290: 6ad1 a3bd fa89 8a3c 48d3 983d 5c00 92bd
000002a0: 7bc7 943c 8ef5 d1bc 30bf 0ebe fbb9 5c3d
000002b0: 5158 b5bc be1e d73d ce2e a43d fcf5 8fbd
000002c0: beec 0d3c 550f 1fbd 36ed e3bc 82c8 0dbe
000002d0: d0e7 243e e5cf c2bb 7d76 d0be d870 38be
000002e0: 7eee 79be 9d35 acbe 3db3 c5be 9a38 9dbe
000002f0: c909 cabd c6a1 cf3d 6a9c bbbd a479 01be
00000300: 06c0 003d 196e 933d 1a31 a2bd c2d9 223d
00000310: 10a1 fdbc 704c 6b3c be2a 93bd a2b3 28bd
00000320: d9c8 0f3e 2a0c 803d 728c d4bd d0dc 0f3e
00000330: 5089 0d3e 0b8c 1c3d 89f6 58bb 9d94 0a3e
00000340: d571 6fbe f979 6bbe aed7 ecbb 94b7 84be
00000350: 6f9e 89be 7295 a3be a57d 15be 9797 8d3d
00000360: f038 af3d 0acb 58bc fc75 973e 4b7c e13d
00000370: f51c 7b3e 5b14 e3bd 5c0e 913e 4a0c 4dbe
00000380: c08e 85be f2a4 dd3d 7417 0ebd 4613 19be
00000390: 8b94 59bd 9557 15bd 302d 49be 1d47 1abe
000003a0: 4d2e edbd 51cd 2fbe ec48 073d cd9f f23d
000003b0: 1b79 e13d 72a3 923d d280 6ebd 4afc 613e
000003c0: 8204 5e3e a1bd e53d be56 13be c5d8 36be
000003d0: 0fb8 3fbd 8e77 22be b668 873c f658 203d
000003e0: 628a 9fbd 9371 833c cf43 933d d72a 4c3e
000003f0: b414 b1bd 0bea ddbd 9365 32bd 9ff4 553d

conv_block_1.2.bias f4 [10]
0.45648435 -0.14151649 -0.19479272 0.10531149 0.20593284 0.7730107 -0.12506905 0.091844745
0.026065674 -0.0020550098
00000000: 51b8 e93e b3e9 10be be77 47be 8dad d73d
00000010: 0fe0 523e 07e4 453f 1a12 00be 1919 bc3d
00000020: ae87 d53c 58ad 06bb

conv_block_2.0.weight f4 [10, 10, 3, 3]
-0.043104462 -0.022749495 -0.01879173 0.049949296 -0.14234638 0.10549451 -0.0071866997 -0.18764827
0.028290715 0.0484262 -0.053476237 0.08932311 -0.04170516 0.31133503 0.23807673 0.03516797
-0.0127660185 0.11174751 -0.056130964 -0.072920024 0.11225149 0.22552752 0.08929864 -0.046569515
0.08088593 -0.14605159 -0.029274123 0.4612928 0.002462532 -0.13579564 -0.26288602 -0.3424324
-0.24671338 -0.103150815 -0.20987548 -0.15076146 0.14446881 -0.07025114 -0.2852876 -0.1260451
-0.2569989 -0.22215262 -0.35918447 -0.34533843 -0.10140043 0.23243888 0.37341887 0.03246362
0.11531619 -0.08864994 0.1380328 -0.23900822 0.06910319 0.079153955 0.10874676 0.39465982
0.26318532 0.09945984 0.083320074 -0.13677017 0.03413167 -0.020528333 0.025884053 0.21621203
0.2235212 0.07512965 0.025838304 0.20983239 0.14975277 -0.2076106 -0.12800804 -0.19444089
0.075327694 -0.028409528 0.012674019 0.03474791 -0.13974914 -0.09319915 -0.03932117 -0.10236777
-0.05680106 -0.009609549 -0.012099191 0.083798036 0.1695496 0.18614055 -0.25190187 0.010393755
-0.11395356 -0.13129792 0.3984525 -0.025056759 -0.09351328 0.5831492 0.16407761 -0.03991052
0.0075222193 -0.22427043 0.042873744 0.35586524 0.0874724 -0.14947473 -0.28610817 0.13107453
0.0053361803 -0.031345755 0.27842176 0.02783859 -0.2084011 0.116653584 0.1746212 0.1208586
-0.006476785 0.17689332 0.04907844 -0.071982525 -0.1276199 -0.066815056 -0.1264514 0.31942815
-0.041210454 0.094408326 0.20557843 -0.050168823 0.13470197 0.08434138 0.43634242 0.11026387
0.05444427 -0.04524989 0.33141938 -0.21907857 0.09285128 -0.15973237 -0.090684675 0.34296745
0.28911084 0.12323375 0.91726595 0.24958754 -0.5317957 -0.5313819 -0.3171592 -0.23979943
-0.1214784 0.08709495 0.35868773 0.001421437 0.061519027 0.052330114 0.12237118 -0.026500877
-0.31074077 0.08389845 0.12571864 -0.19188179 -0.4730544 -0.28107432 -0.11514582 -0.41745225
0.50762194 -0.0010052598 0.11666988 -0.12586585 0.086210705 -0.13147378 -0.12972154 0.13902101
0.23775013 0.20499983 0.04849393 -0.4694194 -0.57007635 0.04538777 -0.66276956 0.04462908
0.37169433 0.2798358 0.19658193 -0.16617037 0.19207375 0.11455952 0.13805678 0.27616
-0.22507045 -0.115045995 0.33922604 -0.15970637 -0.07893226 -0.27427536 -0.17153999 0.062183905
-0.15611461 -0.012628525 0.23316924 0.036562882 0.008391567 -0.003926435 -0.09807396 0.03573183
0.4130979 -0.059374314 0.041999158 0.13323495 -0.18191244 0.10300624 -0.31100792 0.14737613
0.07607635 -0.407893 -0.15786046 -0.05163347 -0.27110866 -0.14201066 -0.29383838 0.080851704
0.02547027 0.40353966 -0.46881217 0.011228292 -0.19168696 -0.51060015 0.665669 -0.2150169
0.0090689985 0.27797008 0.05328961 -0.049111675 -0.10724905 -0.48500037 -0.2811012 0.1543591
-0.45166165 0.36796615 -0.05663283 0.11257287 0.2150525 -0.35458425 -0.36125666 -0.29395598
-0.39291805 -0.23255447 0.025825722 -0.10623698 -0.24706042 -0.25428945 -0.014580655 -0.12717049
0.13537605 0.0105249 0.03695932 0.30680662 0.06425802 -0.10771205 0.024655372 0.002336282
00000000: 4e8e 30bd 265d babc 1df1 99bc a297 4c3d
00000010: 40c3 11be 810d d83d 687e ebbb de26 40be
00000020: eec1 e73c 8d5a 463d e609 5bbd 09ef b63d
00000030: 08d3 2abd 4e67 9f3e 63ca 733e 4a0c 103d
00000040: 9028 51bc e1db e43d 95e9 65bd 1857 95bd
00000050: 1ce4 e53d b0f0 663e 35e2 b63d adbf 3ebd
00000060: 86a7 a53d 8c8e 15be 49d0 efbc 922e ec3e
00000070: 6e62 213b 030e 0bbe ff98 86be 4d53 afbe
00000080: 6fa2 7cbe bc40 d3bd 99e9 56be 3661 1abe
00000090: a2ef 133e d4df 8fbd 3711 92be f711 01be
000000a0: 5c95 83be fa7b 63be 07e7 b7be 33d0 b0be
000000b0: 07ab cfbd 7504 6e3e c230 bf3e 93f8 043d
000000c0: e52a ec3d 1a8e b5bd 7858 0d3e 92be 74be
000000d0: f985 8d3d 781b a23d 9fb6 de3d da10 ca3e
000000e0: 3ac0 863e 9ab1 cb3d b7a3 aa3d 7b0d 0cbe
000000f0: a6cd 0b3d 092b a8bc cb0a d43c b066 5d3e
00000100: bee2 643e 93dd 993d daaa d33c 4dde 563e
00000110: ca58 193e e097 54be 8a14 03be 831b 47be
00000120: 6845 9a3d 19bb e8bc b0a6 4f3c d353 0e3d
00000130: 661a 0fbe 32df bebd 3c0f 21bd 32a6 d1bd
00000140: 3aa8 68bd 5f71 1dbc af3b 46bc 4e9e ab3d
00000150: 699e 2d3e a19b 3e3e 48f9 80be 914a 2a3c
00000160: 7c60 e9bd f672 06be f701 cc3e d543 cdbc
00000170: e483 bfbd 4449 153f f603 283e 3779 23bd
00000180: f37c f63b 26a7 65be 619c 2f3d f833 b63e
00000190: bb24 b33d e70f 19be c57c 92be 6738 063e
000001a0: 20db ae3b 6864 00bd 4c8d 8e3e c10d e43c
000001b0: 1967 55be 13e8 ee3d e6cf 323e b784 f73d
000001c0: 363b d4bb 8623 353e 7906 493d 936b 93bd
000001d0: cbae 02be 55d6 88bd 7a7c 01be 168c a33e
000001e0: 4bcc 28bd 2759 c13d 2783 523e d37d 4dbd
000001f0: 50ef 093e 2cbb ac3d 4668 df3e 06d2 e13d
00000200: f400 5f3d f357 39bd cdaf a93e 2256 60be
00000210: d028 be3d e290 23be e3b8 b9bd 6e99 af3e
00000220: 5606 943e fa61 fc3d f1d1 6a3f e093 7f3e
00000230: c323 08bf a508 08bf b162 a2be fb8d 75be
00000240: abc9 f8bd d65e b23d eba5 b73e 834f ba3a
00000250: 60fb 7b3d 1a58 563d be9d fa3d 5e18 d9bc
00000260: 6a19 9fbe f3d2 ab3d 63bc 003e a97c 44be
00000270: 3034 f2be f9e8 8fbe 92d1 ebbd 4dbc d5be
00000280: 83f3 013f ecc2 83ba 9ef0 ee3d fae2 00be
00000290: 3d8f b03d 10a1 06be b9d5 04be 865b 0e3e
000002a0: c574 733e 7aeb 513e 92a1 463d bd57 f0be
000002b0: 86f0 11bf 87e8 393d 44ab 29bf fbcc 363d
000002c0: b84e be3e a346 8f3e c64c 493e 9128 2abe
000002d0: fbae 443e 2e9e ea3d c25e 0d3e d864 8d3e
000002e0: de78 66be 3c9d ebbd 09af ad3e 118a 23be
000002f0: 3da7 a1bd d26d 8cbe 2ea8 2fbe 8db4 7e3d
00000300: 82dc 1fbe dfe7 4ebc ebc3 6e3e f6c2 153d
00000310: c87c 093c 53a9 80bb 00db c8bd 8a5b 123d
00000320: 9181 d33e 7b32 73bd 4f07 2c3d be6e 083e
00000330: 4147 3abe f0f4 d23d 6e3c 9fbe c5e9 163e
00000340: ebcd 9b3d 5ad7 d0be 2ca6 21be 9e7d 53bd
00000350: c1ce 8abe 3e6b 11be fc71 96be 9495 a53d
00000360: 07a7 d03c c09c ce3e 2608 f0be dff6 373c
00000370: 9649 44be b1b6 02bf 4969 2a3f 642d 5cbe
00000380: 2396 143c 1852 8e3e 3546 5a3d 5329 49bd
00000390: 64a5 dbbd f851 f8be 7fec 8fbe 5010 1e3e
000003a0: 3240 e7be 0f66 bc3e d4f7 67bd 9b8c e63d
000003b0: b936 5c3e 118c b5be a2f6 b8be 6681 96be
000003c0: 8e2c c9be c222 6ebe 7790 d33c c692 d9bd
000003d0: 68fd 7cbe 3a32 82be b3e3 6ebc fb38 02be
000003e0: 05a0 0a3e a170 2c3c a862 173d c215 9d3e
000003f0: b599 833d 2398 dcbd 10fa c93c 4f1c 193b

conv_block_2.0.bias f4 [10]
-0.05407107 -0.0094933 0.48319444 0.11380005 -0.0394352 0.30845585 0.27562287 -0.11596624
0.05716224 -0.116767175
00000000: a079 5dbd c989 1bbc 4365 f73e 0010 e93d
00000010: ce86 21bd eded 9d3e 711e 8d3e b57f edbd
00000020: f422 6a3d a123 efbd

conv_block_2.2.weight f4 [10, 10, 3, 3]
-0.30215487 -0.06237971 -0.086120024 -0.15681545 -0.0023013041 -0.060898155 0.019972872 -0.100910224
0.07427645 -0.23233168 -0.2243242 -0.23301601 -0.30048946 -0.14451148 0.24764039 -0.33041418
0.15020278 0.22450455 0.36176655 -0.1145987 -0.22649953 -0.20764798 -0.056468684 -0.1563231
-0.36827132 -0.11095208 0.138651 0.046364263 0.3142584 -0.0012914457 0.35838765 -0.08581266
-0.45575914 0.35047573 -0.27956402 -0.45258522 -0.44128883 -0.2973219 -0.6146424 -0.28430504
0.051800158 -0.33680603 0.22415955 -0.2941518 -0.31704128 -0.039529637 -0.16287433 0.041670304
-0.012445746 0.05789383 0.270654 -0.16014962 -0.11554949 0.31399527 0.075123 -0.010274114
-0.38969052 0.0151975695 0.08841787 -0.14460789 -0.101651326 -0.54096 -0.52163786 -0.022317937
-0.037675086 -0.07398523 0.016132852 -0.0023178777 -0.054254565 0.018386861 -0.0848154 -0.050707575
0.06344623 0.041895177 -0.021172568 0.12246552 0.015979331 -0.11986326 0.22371346 0.051005512
-0.18970625 0.06218395 -0.23778412 -0.28536993 -0.31619722 -0.3584043 0.08036201 -0.19257529
0.040395346 0.07564866 -0.3728457 -0.15697145 -0.10985601 -0.17944252 0.026815975 0.30491987
-0.32092595 0.329878 0.21782726 0.28849286 -0.048181728 -0.09960119 0.2616061 0.17675783
0.020340633 0.1709693 -0.49838543 0.13199688 -1.0594223 -0.77915883 -0.70854795 0.3182718
-0.061613996 -0.20852664 0.24516247 -0.008751138 0.22622761 -0.36515567 -0.10565395 0.11757843
-0.21753694 -0.7092899 -0.56328064 0.041934263 0.01347261 0.18726696 0.15005615 -0.093344845
0.46469158 -0.1027568 -0.08384889 -0.19679473 -0.33456376 -0.4781251 -0.23755358 0.44196
0.1911011 0.11811015 -0.143912 -0.03962544 0.104024336 0.01017346 -0.014210016 0.042596854
0.33777115 -0.06708761 -0.5117676 0.13641793 -0.047534943 0.24762876 0.003781919 0.2723156
0.10196814 -0.013269515 0.001602429 -0.086156934 0.038342543 -0.03087875 0.05396007 0.08419673
-0.08803807 -0.07291504 0.10710879 0.046092343 0.053954866 -0.062183138 -0.047532648 -0.05052046
0.008311491 0.028682461 0.020266345 0.57252866 -0.032918036 -0.09456498 -0.07979594 0.077845424
-0.08778353 -0.4509061 -0.3664769 -0.510922 0.27350506 -0.00054020714 0.06434175 -0.15097319
-0.36009702 -0.06542838 -0.04900387 -0.19208607 -0.12911005 -0.1704836 -0.23795955 0.108198404
-0.4539363 -0.76203644 -0.31137353 -0.19051829 -0.6356766 -0.4525242 0.44657612 -0.5807965
-0.29629228 0.24767953 -0.2735235 -0.21032144 -0.02144707 -0.2116321 -0.22862695 -0.48825505
0.33795118 0.06698007 -0.45642716 0.05607547 -0.40478495 -0.1897287 -0.12593633 -0.27569583
-0.12908624 0.034269154 -0.23158959 -0.39496025 0.11890025 0.19671884 -0.33771032 0.26695442
0.382428 -0.10229324 -0.31056955 -0.12014804 0.13380507 -0.18109095 -0.19283265 0.21583955
-0.012560297 -0.24390182 0.21484156 0.07127759 -0.051459875 -0.26485 0.36810985 0.30671686
-0.28106433 0.26031554 0.06912965 -0.10798393 -0.07747803 0.0052194116 0.051400717 -0.011498959
0.0020360535 0.061390635 0.09413146 -0.027777884 0.0026105412 0.008196424 0.016400693 -0.07808116
00000000: 0bb4 9abe de81 7fbd b25f b0bd 3b94 20be
00000010: 7ad1 16bb 5870 79bd 269e a33c 05aa cebd
00000020: 401e 983d 5be8 6dbe 3eb5 65be c09b 6ebe
00000030: c1d9 99be d1fa 13be 7195 7d3e 0c2c a9be
00000040: c2ce 193e 85e4 653e 7739 b93e b9b2 eabd
00000050: 7eef 67be aca1 54be b54b 67bd 2a13 20be
00000060: 0f8e bcbe d83a e3bd 87fa 0d3e 74e8 3d3d
00000070: 7ae6 a03e ba45 a9ba 967e b73e 8cbe afbd
00000080: 4359 e9be 8e71 b33e 0423 8fbe 40b9 e7be
00000090: 9cf0 e1be 933a 98be 3459 1dbf 6e90 91be
000000a0: 672c 543d d771 acbe 158a 653e 119b 96be
000000b0: 3c53 a2be d4e9 21bd 87c8 26be 7bae 2a3d
000000c0: 3ee9 4bbc 1522 6d3d 2993 8a3e 43fe 23be
000000d0: 36a5 ecbd fdc3 a03e 16da 993d c254 28bc
000000e0: 8485 c7be 3aff 783c 6e14 b53d 1714 14be
000000f0: 922e d0bd 5b7c 0abf 0f8a 05bf 1bd4 b6bc
00000100: 3151 1abd 9185 97bd 0b29 843c 89e7 17bb
00000110: 093a 5ebd 0ba0 963c b2b3 adbd bfb2 4fbd
00000120: 19f0 813d 479a 2b3d 1872 adbc 34cf fa3d
00000130: 16e7 823c de7a f5bd 2415 653e 28eb 503d
00000140: 5b42 42be 99b4 7e3d ae7d 73be 021c 92be
00000150: 9ae4 a1be c580 b7be d694 a43d 7532 45be
00000160: 9775 253d afed 9a3d a2e5 bebe 20bd 20be
00000170: 30fc e0bd c8bf 37be 2dad db3c 751e 9c3e
00000180: 6850 a4be c5e5 a83e 1c0e 5f3e 56b5 933e
00000190: 345a 45bd b5fb cbbd 3cf1 853e 0100 353e
000001a0: 66a1 a63c 9412 2f3e 602c ffbe 312a 073e
000001b0: 269b 87bf f476 47bf 6663 35bf 85f4 a23e
000001c0: f55e 7cbd 0288 55be df0b 7b3e ef60 0fbc
000001d0: 36a8 673e aff5 babe 1961 d8bd f6cc f03d
000001e0: 01c2 5ebe 0694 35bf 2933 10bf 43c3 2b3d
000001f0: 39bc 5c3c e9c2 3f3e 52a8 193e 952b bfbd
00000200: 0eec ed3e 2872 d2bd f8b8 abbd 8f84 49be
00000210: f14b abbe d0cc f4be 3f41 73be 9548 e23e
00000220: 02b0 433e bce3 f13d ab5d 13be 494e 22bd
00000230: b60a d53d 95ae 263c 20d1 68bc 0a7a 2e3d
00000240: 57f0 ac3e 3b65 89bd 3403 03bf 24b1 0b3e
00000250: 00b4 42bd 6592 7d3e 12da 773b f36c 8b3e
00000260: acd4 d03d 6168 59bc 9808 d23a 0c73 b0bd
00000270: 120d 1d3d 6ff5 fcbc 3c05 5d3d 566f ac3d
00000280: 4e4d b4bd 7b54 95bd da5b db3d 53cb 3c3d
00000290: c7ff 5c3d bfb3 7ebd 98b1 42bd 8bee 4ebd
000002a0: ec2c 083c 7bf7 ea3c 9b05 a63c 3d91 123f
000002b0: 10d5 06bd 49ab c1bd 0e6c a3bd 6c6d 9f3d
000002c0: dac7 b3bd 2add e6be dca2 bbbe c9cb 02bf
000002d0: db08 8c3e b09c 0dba 9cc5 833d b798 1abe
000002e0: a35e b8be 51ff 85bd 48b8 48bd 36b2 44be
000002f0: 6d35 04be 4193 2ebe abab 73be 2097 dd3d
00000300: 576a e8be d214 43bf 5a6c 9fbe 3a17 43be
00000310: b4bb 22bf 40b1 e7be a0a5 e43e 14af 14bf
00000320: 9fb3 97be b49f 7d3e 460b 8cbe 815e 57be
00000330: c4b1 afbc 16b6 58be 2f1d 6abe 91fc f9be
00000340: f007 ad3e d92c 893d d2b0 e9be 64af 653d
00000350: f93f cfbe 3e48 42be 74f5 00be 0128 8dbe
00000360: 2f2f 04be d05d 0c3d d225 6dbe 3b38 cabe
00000370: f981 f33d aa70 493e 5ee8 acbe 40ae 883e
00000380: 9acd c33e 1e7f d1bd f902 9fbe 2d10 f6bd
00000390: 3204 093e e86f 39be ec75 45be 0b05 5d3e
000003a0: b4c9 4dbc 66c1 79be 6dff 5b3e fcf9 913d
000003b0: 97c7 52bd 6b9a 87be e578 bc3e fe09 9d3e
000003c0: aae7 8fbe 1448 853e d993 8d3d ae26 ddbd
000003d0: cdac 9ebd 9907 ab3b 8f89 523d 2166 3cbc
000003e0: 4f6f 053b bf74 7b3d ffc7 c03d 728e e3bc
000003f0: 9d15 2b3b 4b4a 063c bf5a 863c 04e9 9fbd

conv_block_2.2.bias f4 [10]
0.10722784 0.23232776 0.29765826 0.38269317 0.24269176 -0.07718835 -0.19775029 0.08478192
0.3163661 -0.23251101
00000000: 459a db3d 54e7 6d3e aa66 983e 5cf0 c33e
00000010: 3084 783e ed14 9ebd 0d7f 4abe 25a2 ad3d
00000020: bdfa a13e 5e17 6ebe

classifier.1.weight f4 [10, 490]
-0.043410853 -0.111926034 -0.19097662 0.097181685 -0.26663423 -0.13476631 -0.005847915 -0.043435633
-0.030084342 -0.18327038 -0.002019169 -0.057673994 -0.23459311 -0.055041164 -0.0089266645 0.22442086
0.14298782 0.2954375 -0.40437225 -0.14343035 0.05538087 -0.0046137944 0.08044318 0.35238436
-0.21494935 0.26351568 0.34709227 -0.019024042 -0.057471067 0.09405487 0.008128917 0.39943868
0.16217633 -0.078372434 0.0041821213 -0.017516121 -0.10471716 -0.1908806 -0.006007633 0.0137895765
-0.02330424 0.013994388 0.01749087 0.0007313118 -0.046612922 -0.0011715522 -0.025036324 0.0019004443
-0.02015086 0.017428007 0.07323752 -0.0093185725 0.10145492 0.07530521 0.017519139 0.026225265
0.033654045 -0.12565051 -0.2986637 -0.08878942 -0.20791778 -0.07560597 0.035522643 -0.13834693
-0.2254795 -0.045223814 -0.009256532 0.042033687 0.011010095 0.016662415 -0.044739567 -0.45737538
-0.44896075 -0.25856185 0.001198451 -0.05542094 -0.19443476 0.055393856 0.1213829 -0.1275928
-0.27891117 -0.12037147 -0.0671065 0.059699863 0.04341725 0.20440944 0.18948089 0.28478676
-0.008445263 -0.31777078 -0.07513122 0.021060416 0.023384186 0.30979326 0.17934784 -0.13657366
-0.32569644 -0.04388047 -0.04102134 -0.15055898 0.008202868 0.019042281 -0.0053328993 -0.012362834
0.04004916 -0.12346394 -0.1413531 -0.23933122 -0.030551462 0.011010385 -0.018327517 -0.038449634
0.015483681 0.12520143 -0.044937395 -0.107908405 0.114797406 0.36731586 -0.07179904 0.18847147
0.23670626 0.040531192 -0.05226292 0.24380285 0.34657967 -0.14984308 0.14378814 0.11781776
0.32920748 -0.18285017 0.072747044 0.056312803 -0.09004853 0.046671886 0.23424424 0.18455514
-0.2791386 -0.38426244 -0.07788712 -0.03676839 -0.0039042253 -0.06327007 -0.056664754 -0.13850243
-0.082537144 -0.04739108 -0.048507657 0.024229858 -0.07832353 -0.16997312 -0.07185816 0.07545441
0.17159383 -0.104153015 -0.041073374 -0.023949347 0.050146744 0.25468194 0.3431693 0.27504057
0.20087689 0.06522361 0.0064951563 -0.06979676 -0.111512244 0.064222544 0.072259344 0.13965544
-0.048999004 -0.33568576 -0.22852966 -0.17933294 -0.44640702 -0.31794 -0.011389314 0.016881814
-0.33114564 -0.1958866 0.32822463 0.10170105 -0.34352535 -0.42775273 0.014683919 -0.048017744
0.085694745 0.32521176 -0.14708115 -0.24125299 -0.09063579 -0.008725369 0.0043844962 -0.018770192
-0.0014468796 0.06008685 0.021488804 0.022837305 0.01610931 0.010354941 -0.03821898 -0.042853363
-0.13599585 -0.0697931 -0.008142749 0.03198708 -0.1602139 -0.124288864 -0.09978123 -0.5147776
-0.08464851 -0.0052535417 -0.006108984 0.09655338 0.1306539 -0.008388955 -0.22146766 0.4004567
0.110983215 -0.042428713 0.15858999 0.3988252 -0.26523325 0.41043624 0.24778283 0.07523686
0.011296033 -0.011546562 -0.057389446 -0.16936775 -0.09170382 0.31333333 0.006266289 0.033391587
0.10140616 -0.22363277 -0.6278109 -0.61222565 -0.3382498 -0.080831006 0.032036383 -0.03780929
0.042069677 -0.15004465 -0.3197504 -0.078074776 -0.018210847 0.009227164 -0.043003973 0.003309236
-0.020786665 0.0017749727 -0.020472204 0.0047769286 0.020612732 -0.030714668 0.026970398 0.10325412
00000000: 94cf 31bd 7a39 e5bd 608f 43be 3107 c73d
00000010: 4884 88be 2e00 0abe de9f bfbb 90e9 31bd
00000020: 7073 f6bc 3bab 3bbe 0954 04bb 913b 6cbd
00000030: 2d39 70be d872 61bd 2541 12bc 95ce 653e
00000040: 666b 123e 9643 973e e109 cfbe 68df 12be
00000050: 0dd7 623d 502f 97bb 65bf a43d b96b b43e
00000060: af1b 5cbe 87eb 863e 14b6 b13e 4fd8 9bbc
00000070: c866 6bbd d79f c03d 262f 053c 3a83 cc3e
00000080: 8d11 263e ba81 a0bd 2d0a 893b f87d 8fbc
00000090: f375 d6bd 3476 43be aedb c4bb aded 613c
000000a0: 89e8 bebc b848 653c 0349 8f3c 81b5 3f3a
000000b0: 31ed 3ebd c58e 99ba fa18 cdbc 5418 f93a
000000c0: 6b13 a5bc 2ec5 8e3c 8efd 953d edac 18bc
000000d0: 99c7 cf3d 9e39 9a3d 4c84 8f3c 5ed6 d63c
000000e0: d3d8 093d 87aa 00be 73ea 98be 3ad7 b5bd
000000f0: 66e8 54be 4ed7 9abd 3180 113d d1aa 0dbe
00000100: 19e4 66be 9b3c 39bd b6a8 17bc 842b 2c3d
00000110: af63 343c 9e7f 883c d640 37bd 1b2d eabe
00000120: 2fde e5be 3862 84be 5815 9d3a 1101 63bd
00000130: e819 47be abe4 623d 9997 f83d b0a7 02be
00000140: 72cd 8ebe 5185 f6bd 226f 89bd d887 743d
00000150: 49d6 313d b550 513e 4707 423e 92cf 913e
00000160: 005e 0abc dab2 a2be 66de 99bd e586 ac3c
00000170: 3190 bf3c 399d 9e3e f6a6 373e f7d9 0bbe
00000180: afc1 a6be 02bc 33bd fe05 28bd 222c 1abe
00000190: 5265 063c 8ffe 9b3c 9abf aebb 7c8d 4abc
000001a0: 970a 243d aada fcbd debe 10be 3e13 75be
000001b0: 0f47 fabc e764 343c 9723 96bc 5d7d 1dbd
000001c0: 44af 7d3c ce34 003e 4610 38bd 15ff dcbd
000001d0: e71a eb3d d310 bc3e 600b 93bd aafe 403e
000001e0: 2063 723e 0904 263d a511 56bd 74a7 793e
000001f0: e472 b13e 7770 19be 333d 133e 704a f13d
00000200: e28d a83e 133d 3bbe 67fc 943d 41a8 663d
00000210: 5d6b b8bd 052b 3f3d b9dd 6f3e 06fc 3c3e
00000220: 41eb 8ebe 0cbe c4be 4883 9fbd 749a 16bd
00000230: 08de 7fbb bd93 81bd 4d19 68bd 95d3 0dbe
00000240: 3c09 a9bd 261d 42bd f7af 46bd b27d c63c
00000250: 1668 a0bd 6f0d 2ebe 5f2a 93bd d787 9a3d
00000260: 4bb6 2f3e 2d4e d5bd 8e3c 28bd 6c31 c4bc
00000270: ac66 4d3d ac65 823e e3b3 af3e 1ed2 8c3e
00000280: acb2 4d3e f593 853d 52d5 d43b 9bf1 8ebd
00000290: 8860 e4bd 1c87 833d b5fc 933d d601 0f3e
000002a0: 2eb3 48bd 01df abbe ae03 6abe 0ea3 37be
000002b0: 768f e4be 08c9 a2be 3f9a 3abc bb4b 8a3c
000002c0: ec8b a9be 7f96 48be 0f0d a83e a448 d03d
000002d0: 8ee2 afbe 6802 dbbe d294 703c 41ae 44bd
000002e0: ba80 af3d 2882 a63e 719c 16be 060b 77be
000002f0: 429f b9bd daf4 0ebc d2ab 8f3b f2c3 99bc
00000300: 39a5 bdba a11d 763d 4a09 b03c 4d15 bb3c
00000310: acf7 833c c5a7 293c 818b 1cbd 0287 2fbd
00000320: 7f42 0bbe afef 8ebd 2a69 05bc e204 033d
00000330: 1d0f 24be 298b febd 1a5a ccbd 77c8 03bf
00000340: 335c adbd e725 acbb df2d c8bb c7bd c53d
00000350: 23ca 053e d471 09bc 6bc8 62be a908 cd3e
00000360: 2b4b e33d bbc9 2dbd 6a65 223e d132 cc3e
00000370: a7cc 87be b324 d23e c8ba 7d3e c815 9a3d
00000380: ff12 393c cb2d 3dbc 3211 6bbd bd6e 2dbe
00000390: 36cf bbbd 3a6d a03e 7155 cd3b 9ec5 083d
000003a0: 08ae cf3d fdff 64be 37b8 20bf d2ba 1cbf
000003b0: 142f adbe ba8a a5bd 9538 033d eadd 1abd
000003c0: 4151 2c3d 4ea5 19be 53b6 a3be abe5 9fbd
000003d0: ea2e 95bc 882d 173c ef24 30bd c4df 583b
000003e0: cc48 aabc 33a6 e83a 53b5 a7bc c887 9c3b
000003f0: 08dc a83c 549d fbbc 06f1 dc3c e576 d33d

classifier.1.bias f4 [10]
-0.0421801 0.6177581 0.046228822 -0.023679141 -0.104527265 -0.028709095 0.03871191 0.09773898
-0.2975852 -0.16065976
00000000: 0ac5 2cbd 6525 1e3f 6f5a 3d3d c2fa c1bc
00000010: 6412 d6bd 562f ebbc 6190 1e3d 602b c83d
00000020: 165d 98be fe83 24be
