model_weights/model_epoch_2.pth (torch, 34447 bytes, 10 tensors)

conv_block_1.0.weight f4 [10, 1, 3, 3]
000000 5c 7b f3 be 2a 91 44 3e b2 05 af bd 20 42 28 be
       -0.47555053 0.19196 -0.08546008 -0.16431475
000010 5a 2d aa bd 60 04 a8 3e 13 c1 d9 3d 8b 93 1d bd
       -0.083094314 0.32815838 0.10632529 -0.038470786
000020 05 e4 d7 bb 92 d8 fd 3d c5 d8 ed be b4 5e 59 bf
       -0.0065884613 0.12394823 -0.46454445 -0.8491013
000030 a6 31 7e bd 94 bb 20 be 94 4a 01 bf 7e c1 e8 3e
       -0.062059067 -0.15696555 -0.5050442 0.45460123
000040 0a 2d 54 3d bc 74 42 3f 47 c4 ef bd 62 c8 5c be
       0.051800765 0.7595937 -0.11707359 -0.21560815
000050 15 e7 f0 bd 19 2e f0 bd 94 9e 2a be 2f d1 d7 3e
       -0.117628254 -0.117275424 -0.16662055 0.42151782
000060 7e 43 0f be 54 7a e1 3e ba 85 e0 3e 12 c3 d3 3d
       -0.1399059 0.4403864 0.43852025 0.10339941
000070 a7 03 1c 3e a0 ad ea bc 73 db c3 3d 56 e0 2d be
       0.15235768 -0.028647244 0.09563341 -0.16980109
000080 7b cd 45 bd 34 ba 41 3e a7 a0 b7 3e 8b 17 b0 be
       -0.048291665 0.18918687 0.35864756 -0.34392962
000090 70 a8 cc 3e 74 27 c1 3e 7a 38 c1 be 5f c1 ac be
       0.39972258 0.37725413 -0.377384 -0.3374128
0000a0 d7 3e 70 3e 5a c1 2b be ad cd ed 3d c5 b1 69 3d
       0.23461471 -0.16772977 0.11611495 0.0570543
0000b0 c3 b8 be 3e ba 9a ba 3e b5 13 ea bd f9 15 ad 3e
       0.37250337 0.36446172 -0.1142954 0.33805826
0000c0 90 13 43 3e fb 8e fc bd ae 5b af be 04 18 81 be
       0.19050431 -0.12331959 -0.34249634 -0.25213635
0000d0 29 0b a8 3e 8d bf 64 3e 16 01 8b be be 19 9b be
       0.32821015 0.22338696 -0.27149266 -0.30293077
0000e0 00 b8 9d ba ef 14 a2 be 87 01 9b be 86 19 d9 bd
       -0.0012032986 -0.31656596 -0.30274603 -0.10600571
0000f0 b2 8d 93 be 41 fd 82 3e 28 5e 6f be 23 b5 ac be
       -0.28819042 0.25583842 -0.23375762 -0.33731946
000100 29 07 27 3e 92 9b 76 3c 37 ea 8d 3e c4 04 e0 3e
       0.16311325 0.015051739 0.27717754 0.43753636
000110 ab 71 d9 3e 4a 9c be be b3 b9 61 bd e5 fd 28 3e
       0.42469534 -0.37228614 -0.055108737 0.16503103
000120 60 38 62 3d b2 8d 94 be 4b ab 96 bc 18 5e 28 3e
       0.055229545 -0.29014355 -0.018392226 0.16442144
000130 f6 96 79 3d 3b 4b 0a bd 00 7d fd 3c 90 cc 16 3c
       0.060934983 -0.03376315 0.030943394 0.009204045
000140 04 a7 5a be e4 4b 4b be bf 12 84 bd f4 2c a5 be
       -0.21352774 -0.19853169 -0.06448888 -0.3226086
000150 31 20 8c be 3f 71 8a 3e 55 81 76 be e2 46 bd 3d
       -0.2736831 0.27039525 -0.24072774 0.092420354
000160 49 af ba bc 74 a8 fc bd
       -0.02278866 -0.123368174

conv_block_1.0.bias f4 [10]
000000 08 bd 6d bc 07 ca c6 3e 30 82 33 bd 7c 77 21 bd
       -0.014510401 0.3882601 -0.04382533 -0.03942059
000010 e8 40 6d be 01 c1 29 be 42 19 86 be e3 84 96 bd
       -0.23169291 -0.16577531 -0.26191145 -0.07349565
000020 6e ef 05 be 84 d0 0e be
       -0.13079616 -0.1394673

conv_block_1.2.weight f4 [10, 10, 3, 3]
000000 31 1c e4 bd cb b9 23 3d 3b 50 00 3d 2d d5 4d 3c
       -0.111381896 0.039972108 0.031326514 0.012563032
000010 44 85 ad 3d a6 66 e6 3c 5c a2 16 3e 2a 9e 21 3e
       0.08472684 0.028125118 0.14710373 0.15782991
000020 ca 72 f5 3d c0 a1 98 3c a1 3d 15 be 23 a0 49 be
       0.11984785 0.018631816 -0.14574291 -0.19689994
000030 62 17 bf bb 33 5a 59 be 56 dd ce be fe 95 5d be
       -0.005831645 -0.21225815 -0.4040324 -0.21639249
000040 f4 c2 ad be ef f7 87 be 21 97 65 bd c7 3a 26 3e
       -0.339378 -0.26556346 -0.05605233 0.1623336
000050 d6 1d 2f bb 36 04 1c 3e 2d 3e 79 3e 5c 90 50 bd
       -0.0026720664 0.15235981 0.24340124 -0.05091892
000060 dc 38 a8 3e 1b f0 25 3e e4 9b 10 bc 67 a4 3b be
       0.3285588 0.16204874 -0.00882623 -0.18324433
000070 9d a3 28 3e 29 10 14 3e a1 bd ae 3d 0c b0 41 3d
       0.16468664 0.1445929 0.085322626 0.047287032
000080 b8 14 a8 3d 5c 6c ad bd 81 9d 39 3e 6f 5a f1 3d
       0.08207077 -0.084679335 0.18126489 0.11784827
000090 4a 57 ba bc 54 6d 8b bd 11 67 ff 3d 11 ad d4 bd
       -0.0227467 -0.06807962 0.1247083 -0.10384572
0000a0 70 eb 5b 3d 44 0d 91 3d fc 5b 86 bd 1b 68 c1 bc
       0.053691328 0.07082608 -0.065605134 -0.023609212
0000b0 cf dc a9 3d 5c b4 ae bc e2 61 89 bd 60 b1 0f 3d
       0.08294069 -0.021326236 -0.06708123 0.035081267
0000c0 2d 95 01 be 8c fd df 3d d1 06 2c 3e 89 d1 90 3d
       -0.12654562 0.10937032 0.16799475 0.07071216
0000d0 c1 13 27 3d 59 37 ae bd b3 a9 8f 3d 22 74 2d 3d
       0.040790323 -0.085066505 0.070147894 0.04234708
0000e0 fd 39 84 bd 1f 24 92 3d dc a5 8c bd 9b 90 75 bd
       -0.06456373 0.07135796 -0.06867573 -0.05995236
0000f0 53 86 c8 3d 22 54 12 bd 78 e3 ea bc b4 2f 74 be
       0.09791245 -0.035724767 -0.028672919 -0.23846322
000100 04 37 5b 3e 86 5a 73 3e 4f 49 f8 bd 11 bc db 3d
       0.21407706 0.23765 -0.121233575 0.1072923
000110 09 29 d4 3c 75 3a 42 3e ab 66 12 3e 4e 2f 01 bd
       0.025898473 0.18967612 0.14296977 -0.031539254
000120 0f af 9d bd 95 68 ad bd 92 02 76 bd 41 03 86 3d
       -0.076994054 -0.08467213 -0.060061045 0.065435894
000130 3d b0 d3 3d 30 5a ed 3c e4 12 8c 3d f0 3d 2a 3d
       0.10336349 0.028973669 0.068395406 0.041562974
000140 c7 58 df bb f5 1e 29 3d 31 cb 93 3d 01 17 06 bd
       -0.006816003 0.04128929 0.0721649 -0.032736782
000150 3a 8f 6c bd 92 ad 1c bd 0d 53 6a bd 5a 09 9c bd
       -0.05775378 -0.038251467 -0.05720811 -0.07618971
000160 75 19 c0 bd 48 a3 7b 3c f9 40 8c 3d bc a4 06 3e
       -0.093798555 0.0153587535 0.0684833 0.13148779
000170 70 0a e3 bd 7e b3 1c bc 44 1e 74 3d 5e 0f e4 bc
       -0.11085975 -0.009564279 0.059599176 -0.027839359
000180 86 3d 9c bd 4c 42 25 bc fd 6a 03 3d 4f b4 59 be
       -0.07628922 -0.010086607 0.032084454 -0.21260189
000190 3a 65 88 be 01 f3 94 bd 52 86 e1 bd c1 d0 6b bd
       -0.2663973 -0.07272912 -0.11011948 -0.05757213
0001a0 09 9d cb 3d 07 0c 08 bc 56 b5 a2 3d 9b 64 15 3e
       0.099420615 -0.008303649 0.07944743 0.14589159
0001b0 7a d1 98 3c 98 26 19 3d dc b6 aa bd 76 e2 27 3b
       0.018654574 0.03739032 -0.08335659 0.002561716
0001c0 c2 d0 87 bd d9 e5 9f bd 63 02 63 bd 98 93 72 bd
       -0.06631614 -0.07807512 -0.055422198 -0.059222788
0001d0 8e 6f 74 be ae 3f d9 3d 58 ba 27 3d 7d 46 fd 3d
       -0.2387068 0.10607849 0.040949196 0.1236696
0001e0 c4 93 23 3e a1 54 13 3e 30 b1 2a bd c6 64 f5 bc
       0.15974337 0.14387752 -0.041672885 -0.02995528
0001f0 2b 5f 9f 3b 31 ca ba bc 24 5d ca bd eb b1 0c 3e
       0.00486364 -0.02280149 -0.098810464 0.13739745
000200 66 c9 cf 3c 3e 3b 32 bd dc 1d 5e bd 92 11 77 3c
       0.025364589 -0.04351353 -0.054227695 0.015079873
000210 e2 16 99 bc b2 a4 e1 3d 6a 67 d6 3d cb 69 c1 3d
       -0.01868767 0.11017741 0.104689434 0.094440065
000220 04 16 67 3d 88 03 c5 3d 36 66 eb 38 5f 24 97 bd
       0.05641748 0.09619814 0.000112247115 -0.07379984
000230 ee 37 a1 3d 6b 76 cb bc 52 29 f3 bc 6f cc 70 3c
       0.07871996 -0.02483674 -0.029682789 0.014697178
000240 8c cb dd 3c f2 22 56 3d 8f 45 a7 3d e9 e0 90 3d
       0.027074598 0.05227942 0.08167564 0.07074148
000250 41 6c b9 bd 30 c1 da bb 40 3b 55 bd 0c 6b 09 bd
       -0.09053851 -0.006675862 -0.05205846 -0.033549353
000260 b2 76 05 bd 3f 25 d6 3d d8 c2 9f 3e 42 60 5e 3e
       -0.0325839 0.10456323 0.3120334 0.21716407
000270 5e d9 e0 3c 3b 99 56 3d 31 d9 06 3e 05 fa 0b be
       0.027447399 0.052392226 0.1316879 -0.13669594
000280 65 5e 29 be 9b 61 41 be c2 d5 48 bb 30 8d 78 bd
       -0.16539915 -0.1888489 -0.0030644988 -0.060681522
000290 f0 58 c9 bd 42 35 95 3d 17 3a 84 3d ff 38 9b 3c
       -0.098314166 0.07285549 0.06456392 0.018948076
0002a0 e5 45 97 bc aa 7b 98 bc 3e 4b 95 3c d2 30 d1 3d
       -0.018465945 -0.018613655 0.018224355 0.1021439
0002b0 c1 ed 97 3d 2d 99 99 bd c9 23 6f bd 22 a6 72 3d
       0.07418395 -0.07499919 -0.058383737 0.059240468
0002c0 cf 70 df bc 70 c3 00 bd dd 60 be 3c b9 1d 67 bd
       -0.027275471 -0.031436384 0.023239547 -0.05642483
0002d0 e6 bb 7f 3d d4 49 b9 3d 9d d2 b2 3d 11 cb dd 3c
       0.062435053 0.09047285 0.087315775 0.027074369
0002e0 52 b6 c6 bd 11 fc 32 be e3 2a 49 be 1b 64 b5 3c
       -0.097027436 -0.17478968 -0.19645266 0.02214246
0002f0 52 24 b8 3c 4e a8 a3 3d c9 73 1d bd 08 4e 27 3e
       0.022478256 0.07991086 -0.0384405 0.1633836
000300 e9 c6 67 be f3 7a 7d be cd b6 4d 3d 6c c4 9c be
       -0.22634472 -0.24753933 0.05022316 -0.30618608
000310 17 06 f4 bd b6 be 3a be c4 f6 f9 3d c8 04 5a 3e
       -0.11915224 -0.18236813 0.1220527 0.21290886
000320 b9 95 e8 bb 72 57 2b be 55 c2 99 bd d5 f1 33 bc
       -0.0070979265 -0.16732576 -0.07507769 -0.01098295
000330 c7 2d a0 be 2e 8a 1a be 58 5b 07 be 97 b7 28 bc
       -0.31284925 -0.15091774 -0.13218439 -0.0102976775
000340 d7 7f db bc 13 c8 bf 3c bd b5 f6 3c ea 2f 55 bc
       -0.026794357 0.023410833 0.030115956 -0.013011912
000350 02 f1 25 3d bd be ab bc 4e 11 65 bd ad c1 7c bd
       0.040513046 -0.020964975 -0.055924706 -0.06170814
000360 2e 7e ee 3d a0 34 e2 3c cf 29 db 3d 51 bb aa bc
       0.116451606 0.027612984 0.10701334 -0.020841273
000370 b8 0d 02 3e 22 85 34 3e 83 0d 4d 3d c8 37 96 3c
       0.12700546 0.17628911 0.050061714 0.018337145
000380 ea 33 52 3e cd b5 16 be 40 e1 3f 3d 64 83 2c 3e
       0.20527616 -0.14717789 0.046845675 0.16846997
000390 82 f8 0b 3d bf 27 cb 3d 87 7f a1 3d d5 1b d4 3d
       0.034172542 0.0991969 0.07885652 0.10356871
0003a0 d6 d8 d3 3a 06 35 57 3d 58 fb 23 3c bd be a1 3d
       0.0016162645 0.0525408 0.0100086555 0.078977086
0003b0 1d c7 7d bd 40 05 62 3b 51 33 93 3d 2f a7 be 3d
       -0.061957467 0.0034487993 0.07187522 0.093092315
0003c0 97 12 b4 3d b8 65 75 bc 14 77 94 3c 44 d7 e3 3d
       0.08792608 -0.014977865 0.018123187 0.11125043
0003d0 55 c6 19 3e b6 f6 4b bc 0f 2d 80 3d 51 c5 1d 3e
       0.15017064 -0.012448957 0.06258594 0.15407301
0003e0 1b 10 a3 3e 2d d7 97 be 0e 2b 3b be 6a 28 a8 3e
       0.31848225 -0.29656354 -0.18278143 0.32843333
0003f0 86 73 1a 3d 55 87 22 3d 84 09 31 bd e9 95 49 bd
       0.037707828 0.039679844 -0.043221965 -0.04921523

conv_block_1.2.bias f4 [10]
000000 4f a6 38 3e 21 08 22 3e 1e 89 6a 3e 33 80 ac 3d
       0.18032192 0.15823413 0.22903869 0.084228896
000010 33 13 d6 bd 53 51 11 3d 51 74 58 3d d0 3b 93 bd
       -0.10452881 0.035477947 0.052845303 -0.07189143
000020 c0 a6 e1 bd 7c e9 bb bd
       -0.11018133 -0.09175393

conv_block_2.0.weight f4 [10, 10, 3, 3]
000000 fc 87 7d be e9 77 04 be f0 06 98 3e 3e 3b dc bd
       -0.24758905 -0.12936367 0.29692793 -0.10753487
000010 85 34 a9 bd cd 2e be 3c c5 c4 1b 3e c5 b8 bf bd
       -0.082619704 0.023215676 0.1521178 -0.09361414
000020 a8 b9 2d be 7d ad 6c bd cc 35 99 3c 04 47 e4 3c
       -0.16965353 -0.05778264 0.01870241 0.027865894
000030 19 f3 7b bd ec a4 58 bd 52 a8 d1 3d 56 31 20 3b
       -0.061511133 -0.052891657 0.10237183 0.002444347
000040 5e bd 19 be b1 40 09 be 51 ee d9 bd 86 16 4a bd
       -0.15013644 -0.13403584 -0.10641158 -0.049337886
000050 db 8f 7b 3e b3 49 6a be e6 dc 43 be 46 d2 4e 3e
       0.24566595 -0.22879677 -0.19127235 0.201974
000060 7c d2 3f 3d cb b8 a3 bd 1a 09 97 bd 87 45 f3 bc
       0.046831593 -0.07994231 -0.07374783 -0.02969624
000070 22 c4 10 3d 67 db 03 3d 23 d1 03 3e ce e4 42 3d
       0.035343297 0.03219166 0.12872748 0.047581486
000080 c5 75 e2 bd 25 b5 5f bd 1d 82 0d bd a4 25 b1 39
       -0.11057619 -0.054616112 -0.034547914 0.00033788115
000090 40 e1 0d bd ce 35 42 3c 85 95 07 3c da 83 68 3d
       -0.034638643 0.011853648 0.008275394 0.05676637
0000a0 6d ae cb 3d e2 8e 69 3d 96 b1 ae 3d 02 eb 1e 3d
       0.099453785 0.05702103 0.085299656 0.03879834
0000b0 0d 93 04 3d 80 76 a6 bd c5 45 2d b8 f7 9c 8d bd
       0.0323668 -0.08128071 -4.1311392e-05 -0.06914704
0000c0 48 4e c9 bd da f5 38 3d 22 84 88 3b 27 74 08 bd
       -0.09829384 0.045156337 0.004166142 -0.033313897
0000d0 5c 21 5c bb 19 b4 75 bd 79 aa 8c bc 0d 34 3c ba
       -0.003358922 -0.059986208 -0.017171131 -0.0007179387
0000e0 a3 b0 18 3e b2 10 45 bd 14 d7 16 3d e3 a3 14 3e
       0.14911132 -0.048111625 0.03682621 0.14515643
0000f0 2f 9d ea 3b 4f d1 41 3d 0e 78 6f bd b2 ce 67 3d
       0.007159851 0.047318753 -0.058464102 0.056593604
000100 13 34 cf bd 6b c8 1e bd b9 60 06 3e fb f5 c5 3d
       -0.10117354 -0.038765352 0.13122834 0.09666058
000110 48 7d a3 3d 10 0f 88 bd 52 56 cf 3d 5c f5 f6 3d
       0.0798288 -0.06643498 0.10123886 0.12058517
000120 98 0b 66 bd 0b 69 07 be 95 3b 8e 3d 32 c9 92 bd
       -0.0561634 -0.13223664 0.06944958 -0.07167281
000130 69 c3 58 bc cc bd bb bd c5 15 7a 3d 92 2c 4d bd
       -0.013230183 -0.0916706 0.061055917 -0.050091334
000140 fa 63 c7 bd 61 e6 42 bd 94 53 92 bd 1d 81 d2 3d
       -0.09735866 -0.047582988 -0.071448475 0.10278533
000150 d1 b9 62 3c 24 42 98 3d 79 d3 c1 bb 14 04 48 3d
       0.013838247 0.0743449 -0.005915102 0.048832014
000160 51 eb a7 bd 72 40 ae 3d e4 4c 24 be 9e ed 53 bd
       -0.0819918 0.08508386 -0.16044956 -0.05174028
000170 1b 79 2a 3e 00 2c bc be 7e 97 9f be b4 a1 9f 3d
       0.1664776 -0.3675232 -0.31170267 0.07794514
000180 48 98 1e bd c6 c1 7d 3e 64 d7 5f 3e c3 9b 94 bd
       -0.038719445 0.2478095 0.21859509 -0.07256272
000190 c7 24 bd 3d 55 de 27 3e 8b 93 11 be f7 26 37 be
       0.0923553 0.16393407 -0.1421644 -0.17885958
0001a0 85 ae ab bc 68 d8 28 bd e4 c5 c1 3d 54 66 1f 3b
       -0.02095724 -0.041222006 0.09461573 0.0024322467
0001b0 d3 bc 3d be ae 7c 60 3e 00 9f e1 3e be de 0e be
       -0.18529062 0.21922562 0.4406662 -0.13952157
0001c0 b4 e6 2a be ba 90 b3 bd a7 48 7a bd ae d4 3d 3e
       -0.16689569 -0.08767839 -0.061104443 0.18538162
0001d0 a3 f1 0b 3e 3f 63 4c bd 32 04 3a 3d 93 f9 94 bc
       0.13666396 -0.049899336 0.045414157 -0.018185413
0001e0 66 53 fd 3a 91 a3 c9 bc 41 87 fe bd 04 92 e7 3d
       0.0019327223 -0.024614127 -0.124281414 0.11307147
0001f0 f7 14 b5 3d 88 91 33 be 80 70 64 bc 3c aa 35 3d
       0.08841889 -0.17535985 -0.013942838 0.0443518
000200 ee 87 0c bd ea 6d e5 bc d4 3c d2 bd 69 8e ae bd
       -0.03430932 -0.028006513 -0.10265508 -0.08523256
000210 d8 c7 d0 3d f1 47 91 3b 71 9d 32 3d 0e 12 93 bc
       0.10194367 0.004433625 0.04360718 -0.017952945
000220 28 82 e8 bd ee 85 be 3d 01 d3 a6 3d bd 04 cb 3d
       -0.1135295 0.09302889 0.081457146 0.09913013
000230 54 ea b5 3d 0c 3a 14 3d 39 56 88 bb 4f 61 dd 3d
       0.08882585 0.03618817 -0.004160669 0.10809576
000240 0a 8f 88 bd 80 d6 11 3e a8 73 05 3e e2 92 3c bd
       -0.066679075 0.14241982 0.130324 -0.046038516
000250 a3 9f 18 be 1f f6 0e bd 7b 9d 6f 3c b7 4e 8c 3d
       -0.14904647 -0.034902688 0.014624949 0.06850951
000260 bd 01 a8 3d 2a b1 9e 3d cc 33 a1 3d 3f 77 65 bd
       0.082034566 0.07748635 0.078712076 -0.056021925
000270 38 53 72 3d 37 36 4b 3c f3 a7 52 bd 2a 9f b4 3d
       0.059161395 0.012403063 -0.0514297 0.08819421
000280 ff 0d 7a bd 7c 8f 0a 3d f2 91 ba bd 6c 9a 57 bd
       -0.061048504 0.033828244 -0.09109868 -0.052637503
000290 ba 43 f6 3c da bd 84 bc d2 b6 02 be a6 ca f4 bd
       0.030061591 -0.01620381 -0.12765053 -0.119527146
0002a0 f5 8b 3d bd 2d c7 0b bd 77 39 e1 3d 3e e4 d0 3d
       -0.04627605 -0.034125496 0.10997289 0.10199784
0002b0 bd 2a 34 3d b7 ea c4 bd 2f c3 10 bc f8 54 7e bd
       0.04398607 -0.09615081 -0.008835598 -0.06209275
0002c0 c3 7a d0 3d 67 0c 68 3d b3 f6 75 bc 3a f5 91 bb
       0.10179665 0.056652453 -0.015012431 -0.004454282
0002d0 07 4a 1a be 25 52 51 bd 31 4b 01 bc 74 7c 46 bd
       -0.15067302 -0.05110373 -0.007891462 -0.04845853
0002e0 9a 79 4a bc b3 9b 54 3e 52 dd b5 bd b8 fc e6 bb
       -0.012358094 0.2076252 -0.08880104 -0.0070491694
0002f0 06 af 06 3f 22 9b 52 3a 23 f5 1b bd 24 32 c6 bd
       0.52610815 0.0008033981 -0.038075577 -0.09677532
000300 57 94 32 3e 03 93 e4 3d bd 0f 21 3e b1 8f 61 3d
       0.174394 0.11160853 0.1572866 0.055068675
000310 e9 6d a6 be db 89 aa bd 45 f2 18 be 5d 6c 79 3e
       -0.3250573 -0.08327075 -0.14936168 0.24357744
000320 86 ff c8 3e 3a 72 f6 bd fc c3 7b bc ff 79 c6 3e
       0.3925745 -0.12033506 -0.015366551 0.3876495
000330 2b 9a e9 3d b4 15 97 be 08 8e 38 be 83 76 a1 3d
       0.11406358 -0.29508746 -0.1802293 0.078839324
000340 52 a7 85 be 91 e3 71 be da 3f 06 3e be 2d 14 3d
       -0.26104218 -0.23621966 0.13110295 0.036176436
000350 da 77 a3 be b9 0e 54 3e b9 86 23 3e da 64 78 be
       -0.31927377 0.20708741 0.15969361 -0.24257222
000360 29 a7 66 bc 5d 52 56 bd 4a ff 19 bd 97 60 b0 bc
       -0.01407794 -0.05232464 -0.03759698 -0.021530433
000370 2f ca b1 3d ae b8 c7 bd 0f bd 0d 3d 39 c9 4d 3b
       0.086811416 -0.09752022 0.03460413 0.0031400456
000380 89 56 0c bd cf ba ac 3c 43 ff 18 bc 8c 38 ed bd
       -0.034262214 0.021085171 -0.009338203 -0.11583051
000390 03 b4 3c 3d 89 a5 37 bb bc 70 40 3d 5a 40 59 bc
       0.04607011 -0.002802225 0.046982512 -0.0132599715
0003a0 00 94 a6 bd fd 01 cf 3d bf a1 88 3d fc 67 bf 3d
       -0.081336975 0.10107801 0.066714756 0.09346005
0003b0 47 c5 7c 3d e8 f5 19 be 6c 85 22 bc 1f 29 27 3e
       0.061711576 -0.15035212 -0.009919506 0.1632428
0003c0 ad f2 ee 3b 50 9f c1 bd 56 f0 b6 bd 2f 70 71 3d
       0.007292113 -0.094542146 -0.08932559 0.058944877
0003d0 73 31 82 bd 12 4c 15 be d4 b2 0e 3d 90 56 94 3d
       -0.06357088 -0.145798 0.034838513 0.07243073
0003e0 62 0d 96 be 2c b7 87 bd c6 79 2a 3a 71 63 38 be
       -0.29307085 -0.06626734 0.0006503131 -0.18006684
0003f0 2e 34 3c bd 68 a3 c0 bd 35 a4 90 3e 5c 77 8b 3d
       -0.0459482 -0.09406167 0.2825028 0.06809875

conv_block_2.0.bias f4 [10]
000000 c3 ae 2d bd 44 0c 2f be 69 83 ea bd 96 85 6c be
       -0.042402994 -0.17094523 -0.11450846 -0.23097834
000010 e6 5a a7 3e 86 e7 a6 3d 6c 48 74 3e c7 b6 5e 3e
       0.32686538 0.08149628 0.23855752 0.21749412
000020 bf 2f 7f 3e 1e 1f 9a 3d
       0.24920557 0.075254664

conv_block_2.2.weight f4 [10, 10, 3, 3]
000000 7f 54 6b bb 86 c1 76 bd 14 3c 6f bd e7 65 01 be
       -0.0035908518 -0.060243152 -0.058406904 -0.12636529
000010 eb 5e 66 bc c4 66 30 bd 73 75 3a 3d bb 70 8a 3c
       -0.014060716 -0.043066755 0.045522165 0.016899457
000020 29 99 b6 bc a2 a8 3c 3d 4f 8e 85 3d cd 22 07 be
       -0.02228983 0.04605926 0.06521284 -0.13196869
000030 8d a4 33 3c ac cf f1 bd f1 84 8c bd 7b 79 07 bd
       0.010964525 -0.118071884 -0.06861294 -0.033074837
000040 2a 8a 72 be a8 85 5a 3c e0 25 94 bd 70 a6 a2 3c
       -0.23685518 0.01333753 -0.072337866 0.019854754
000050 f7 e1 23 be 81 60 7a bd 57 b9 97 be 54 12 00 be
       -0.16004167 -0.06112719 -0.2963359 -0.12506992
000060 84 3c 4f be c6 1a e9 be 33 87 86 be 72 f3 b5 be
       -0.20237929 -0.4552824 -0.26275024 -0.35537297
000070 07 e2 05 be e7 22 f5 3d d1 51 50 be fa d0 82 be
       -0.13074504 0.11969548 -0.2034371 -0.2555006
000080 a6 ba 0d 3e 8e 84 ea 3c 29 09 7a 3e 19 a6 95 bd
       0.13840732 0.02862766 0.24417557 -0.07307071
000090 75 5b 2b be 44 43 cc bd 51 aa e8 bd a7 84 11 be
       -0.16734107 -0.099737674 -0.1136061 -0.14210759
0000a0 ae 80 25 be 8b 04 13 be 56 2e 42 be 6f 07 ff bd
       -0.16162369 -0.14357202 -0.18962988 -0.1245259
0000b0 50 6a 96 3c 57 40 98 3d 5a 65 2b 3e e8 3d f2 be
       0.01836124 0.07434147 0.16737881 -0.47312856
0000c0 ce e7 d4 3e ff af 9b be 10 fb 47 be 63 47 6e 3d
       0.41583103 -0.30407712 -0.19529366 0.05817355
0000d0 4e b0 a8 be 3f d4 a3 be bd 6f 6e be c7 91 87 be
       -0.3294701 -0.31997868 -0.23284812 -0.26478407
0000e0 e8 5e af 3c aa 93 c0 be 34 83 9f bc ed a2 90 3e
       0.02140756 -0.3761266 -0.019471742 0.28249303
0000f0 2b c1 d8 be ee 01 98 bd 89 a6 e9 3d 93 9d d1 3d
       -0.42334875 -0.07422243 0.11408717 0.10235133
000100 47 87 81 bc df a1 d2 bd 36 3d e7 3d 68 27 22 be
       -0.015811576 -0.10284781 0.11290972 -0.15835345
000110 39 7a 11 be 4e 0c 18 be 1d 68 5f be 10 79 45 bd
       -0.1420678 -0.14848444 -0.2181706 -0.048211157
000120 39 d8 6b be 6e a2 33 be be f0 a3 3d 3f 65 24 be
       -0.23031701 -0.17542431 0.08004902 -0.16054247
000130 c5 97 84 bd a8 41 eb 3e 29 b1 80 be ad ce 28 3d
       -0.0647426 0.4594853 -0.25135162 0.041212726
000140 c2 f8 09 3d 8c c7 2d bc f9 94 f0 3d 9e 91 ee 3b
       0.0336845 -0.010606658 0.11747164 0.0072805425
000150 a1 7d 13 3e 69 26 4a 3e f7 90 03 be c4 2d b7 bc
       0.14403392 0.19741215 -0.12848268 -0.02236069
000160 26 e0 11 bd b6 b6 01 be 53 59 44 3e 8f a9 49 3c
       -0.035614155 -0.12667355 0.191747 0.012308492
000170 bd 63 df 3c c9 23 c8 bd cc 0d bd 3d 01 45 b0 3c
       0.027269239 -0.097724505 0.09231147 0.021517279
000180 50 1c a6 bd 41 47 41 3d 2e 8b e8 bb 2f bc a0 bd
       -0.08110869 0.047187094 -0.0070966696 -0.07848393
000190 b1 51 a2 3c d6 b3 f5 3c 81 52 13 3e a5 fa 89 3e
       0.019814344 0.029992979 0.14386941 0.2694904
0001a0 a4 a0 7a 3d 67 a3 2d be 3b a0 b3 3d 47 08 7d 3e
       0.061188355 -0.16956864 0.08770796 0.24710189
0001b0 fd b5 5f 3e 0f e6 c3 3e dc e0 10 3c af 25 21 be
       0.21846767 0.38261458 0.008842673 -0.15737031
0001c0 be 7f 66 bd 63 a4 59 3e a6 36 59 be 6b c9 76 be
       -0.05627417 0.21254115 -0.21212253 -0.24100272
0001d0 84 2d 7c be 29 ed de bc 74 91 0b be fa b8 b6 bc
       -0.24626738 -0.027212696 -0.13629705 -0.022305
0001e0 dc 82 67 be 11 63 85 be d5 ac dc 3d c3 bf be 3d
       -0.22608513 -0.26052144 0.107751526 0.093139194
0001f0 b1 e1 75 ba da 18 36 3e c1 7c b5 3d d5 2a 54 3e
       -0.0009379639 0.17782918 0.088616855 0.20719464
000200 b5 1d 85 be ce ae 5d be 02 bc 68 bd 68 5c f8 bb
       -0.25999227 -0.21648714 -0.056819923 -0.007579375
000210 4c e2 0e be 1e b3 7d be c5 27 8e bd cc 7a 21 bf
       -0.13953513 -0.24775359 -0.06941179 -0.63078
000220 4c e3 ea be 14 2c ff bd 49 04 c5 bd ba 83 8d be
       -0.4587654 -0.12459579 -0.09619958 -0.27639562
000230 1f b2 a5 be e7 d0 40 3e d9 e7 02 3e 0a 28 64 3d
       -0.32362458 0.1882969 0.12783755 0.055702247
000240 32 37 af 3e ea e7 3b 3e ec 73 32 be f4 2a 0d be
       0.34221798 0.18350187 -0.17427033 -0.13785917
000250 28 dc 49 bd b8 28 0e 3e 40 8d c0 be aa 04 85 be
       -0.049282223 0.1388272 -0.37607765 -0.2598012
000260 34 85 c3 bb b5 71 f7 3c f9 1e b0 3e c1 17 6c 3d
       -0.005966807 0.030205587 0.3439863 0.05763984
000270 b6 23 45 be 02 b0 2c 3e d6 af 53 3e 94 97 60 be
       -0.19251904 0.16864017 0.20672545 -0.21932822
000280 ab 81 3e be d4 49 99 bd 87 df a0 be f1 09 b9 be
       -0.18604152 -0.07484785 -0.31420538 -0.36140397
000290 9f 70 59 be 00 8c 9b be d1 e2 26 be b5 b2 32 3e
       -0.21234368 -0.3038025 -0.16297461 0.17450984
0002a0 15 5f 5d be 1e 2c 29 bd ab 80 81 3d ff 29 4d be
       -0.21618302 -0.04130184 0.063233696 -0.20035551
0002b0 13 12 42 be 83 7e 4e be 44 d2 28 be 74 c3 53 3e
       -0.18952207 -0.20165448 -0.1648646 0.20680028
0002c0 a0 4d fe bb 36 1d 1f 3e 53 9a 40 3e fd ee fa 3d
       -0.0077607185 0.15538487 0.1880887 0.12252615
0002d0 bf 1c 82 3e 20 f1 a6 3e 7d c8 95 3d b2 2a 19 3e
       0.25412557 0.3260584 0.07313631 0.14957693
0002e0 bd 07 11 3e 5d 1e 8b be b2 6e e6 bd 29 a6 e9 bd
       0.14163108 -0.27171603 -0.11251582 -0.11408646
0002f0 2d 12 1a be fd 41 3d 3e 6b 4d 88 bd 08 0d 0d bd
       -0.15045996 0.18482204 -0.06655391 -0.034436256
000300 51 87 8a 3b f5 13 8a 3e cb 8e 09 3d 54 90 2d be
       0.0042275568 0.2696835 0.033583444 -0.16949588
000310 c5 f7 5b bd 36 87 bd bd 8e 8f be bc 1f 19 61 3e
       -0.05370309 -0.09254305 -0.023261812 0.21982239
000320 ba 31 3c bd f8 e7 9d bd c4 0a 14 bd be f8 a2 bd
       -0.04594586 -0.0771026 -0.03614308 -0.079576
000330 f3 ca 21 be fc f2 66 be 23 81 95 be 7d 69 18 be
       -0.15800075 -0.22553629 -0.29200086 -0.1488399
000340 93 a1 36 bd 41 1c bd bc 43 32 ee be ce ce c9 be
       -0.044587683 -0.023084762 -0.46522722 -0.39415592
000350 fb 57 6a 3d 6c f5 5e 3d 3c d2 bc 3d e5 06 ae 3d
       0.05721281 0.05443327 0.092197865 0.08497409
000360 40 a4 aa 3e 86 09 ce 3e 45 3a 4b 3e a6 b6 c9 3d
       0.33328438 0.4024164 0.19846447 0.098492905
000370 e9 ae 14 3e 31 fd ed bd 58 ae 61 be 22 9b f4 bd
       0.14519848 -0.11620558 -0.22039163 -0.11943652
000380 46 ea 04 be 4f 99 e9 be e0 de f4 be dc 9c c0 be
       -0.12979993 -0.45624778 -0.4782629 -0.37619674
000390 b2 86 20 3f 18 0e ca bd 4b 8c 08 bf 17 20 40 3e
       0.6270553 -0.098659694 -0.5333907 0.18762241
0003a0 2a bb 89 3e 6a 1e 95 3e b3 a1 e9 bd 90 16 bf bb
       0.26900607 0.29124767 -0.11407795 -0.005831547
0003b0 a8 7a 43 3e 92 98 be 3c d7 40 83 3d e4 48 9f 3b
       0.19089758 0.02326611 0.064088516 0.004860984
0003c0 50 78 6e be d1 ff 10 be c0 23 83 be 6a 07 45 3e
       -0.23288083 -0.14160086 -0.25613213 0.1924111
0003d0 78 2e 4b 3e e6 5e 82 3d 52 db 12 be 56 55 81 bb
       0.19841945 0.06365757 -0.14341477 -0.0039469404
0003e0 c0 ed 90 bd a0 24 70 3d 08 d3 28 be 90 33 3a be
       -0.07076597 0.05862868 -0.16486752 -0.18183732
0003f0 7c 7f 89 be 3d 27 46 bd 28 88 f1 3e 2c 75 b0 39
       -0.26855075 -0.048377264 0.4717419 0.00033656636

conv_block_2.2.bias f4 [10]
000000 2b 8b 8c bd 3f 4a 24 3e 7a d9 39 be 27 f3 22 3e
       -0.06862482 0.16043948 -0.18149367 0.15913068
000010 a0 91 1f 3e f2 a5 9b bd 2a 18 69 3e 63 52 1a bd
       0.15582895 -0.07600011 0.22763124 -0.037676226
000020 cc 43 07 3d 20 a6 17 be
       0.03302364 -0.14809465

classifier.1.weight f4 [10, 490]
000000 78 ae c9 bc df 49 62 bd f7 76 5e bd 5e ce a2 bd
       -0.024619326 -0.05524623 -0.054312672 -0.07949518
000010 8e 66 52 be d7 69 8b bd e6 39 68 bc 72 b5 f9 bb
       -0.20546934 -0.06807297 -0.01417396 -0.007620507
000020 96 1b ae bd 05 18 0f bd de ea c3 bd a1 51 4a be
       -0.08501355 -0.034935016 -0.09566282 -0.19757701
000030 73 86 9d bd 23 0b 0c 3a df 75 39 bc 14 db 96 3d
       -0.0769166 0.00053422357 -0.011319607 0.073660046
000040 6a 60 7b 3c 00 26 b1 3b 99 a0 91 be 09 28 f6 bc
       0.015342811 0.0054061413 -0.2844284 -0.030048387
000050 b4 00 92 3d a7 bf b5 bb 0e 6f 01 3e 5c ab 8a 3e
       0.0712904 -0.0055465284 0.1264002 0.27083862
000060 e3 b4 3a be 0d 34 81 bd db 87 b9 3d 7a ec 45 3d
       -0.18233065 -0.06308756 0.090591155 0.048321225
000070 97 ff 9b 3c d6 25 60 3e 18 2d 0b bc 48 15 10 bd
       0.019042773 0.21889433 -0.008494638 -0.035176545
000080 06 6a 3e 3e c0 f3 2c 3e 08 a6 e1 3b f7 15 e8 bc
       0.18595132 0.16889858 0.0068862475 -0.028330786
000090 b7 81 f8 bc b5 69 8e be ee ee c9 3c 60 82 16 3e
       -0.03033529 -0.27815023 0.024650063 0.14698172
0000a0 14 d5 af 3d 9d 76 8e 3c cc 9c 0f bd 3a 5a 5c bd
       0.08585563 0.017390544 -0.035061643 -0.053796984
0000b0 07 f4 d2 bd 47 7f a5 bd 56 80 97 bd 8d e3 96 bc
       -0.10300451 -0.08080917 -0.07397525 -0.018419052
0000c0 0b 21 d1 bc 6d e2 0a bd 8d 1d 12 3d 88 0b 87 bd
       -0.025528451 -0.033907343 0.035672713 -0.06593996
0000d0 19 6e 7c 3c 42 5c 21 bc dc d3 b9 3c 83 ab 8f 3b
       0.015407109 -0.009848656 0.02268403 0.0043844595
0000e0 91 2d 0f bd 7b 3f dd bc 01 b3 60 bc 49 8f da bb
       -0.034955565 -0.027007809 -0.013714553 -0.006669913
0000f0 0d 5a 81 3d b8 76 33 3d 08 89 7d 3d 50 28 0b bd
       0.06316004 0.04381439 0.06189826 -0.033973992
000100 12 f6 09 be 5d 79 17 be 5a e8 ee bd c2 7e 25 be
       -0.13472775 -0.1479239 -0.11665411 -0.16161636
000110 24 92 ca 3d fb e2 fc bc c8 c3 ee bd 04 c3 88 be
       0.09891155 -0.030869951 -0.11658436 -0.26711285
000120 00 11 55 be 24 88 7d 3e ca cd 50 3e 15 28 30 3e
       -0.20807266 0.24758965 0.20391002 0.1720279
000130 78 4a 86 bd df 37 8f b9 37 a4 16 be 14 a9 7c be
       -0.065571725 -0.00027316713 -0.1471108 -0.24673873
000140 06 35 36 3e 60 35 27 3e ad 8d 1e 3e 38 ea db bc
       0.17793664 0.16328955 0.15483733 -0.026845083
000150 fc f6 eb 3b 55 7e 64 bd ba a5 20 3d fe ff 5b bd
       0.0072010737 -0.055784542 0.03922055 -0.05371093
000160 56 e3 b1 3c 6c 70 f6 3a f7 1d 29 bd e5 e8 31 3e
       0.021714848 0.0018801815 -0.041288342 0.17373998
000170 20 d0 23 3e 6c da 68 3e f0 44 5a be 56 bb d1 bd
       0.15997362 0.22739571 -0.2131536 -0.102408096
000180 fd 68 30 bd 95 72 1f bd f3 8b 8d bc ef 68 1d 3d
       -0.043068875 -0.038927633 -0.017278647 0.03843015
000190 20 e6 ba 3b 5a 51 71 3d ee eb a8 3d 18 83 ae 3d
       0.0057037026 0.058915474 0.08248125 0.08521098
0001a0 08 cb 48 bb b1 80 af bc 61 3c 12 3e c9 4b 4d b9
       -0.0030638594 -0.02142367 0.14280845 -0.00019578556
0001b0 5c 95 03 3e 28 42 a9 3c a9 f5 c9 bc f2 99 86 bb
       0.12849945 0.020661429 -0.024653273 -0.004107707
0001c0 29 a1 1a 3d c6 ce f2 bd 3c 12 1f be 9f fb 29 be
       0.03775135 -0.11855845 -0.155343 -0.16599892
0001d0 d8 af bd 3b 77 a6 7b 3b 55 af 4d bd cc 50 19 be
       0.0057887845 0.0038398781 -0.050216038 -0.14972228
0001e0 83 16 e0 be a0 01 83 be 56 eb be bd be c4 17 bd
       -0.43767175 -0.25587177 -0.093222305 -0.037052862
0001f0 b8 c3 2c bd 1f e3 8b bd 4e 49 08 be 53 ac 08 bf
       -0.04217884 -0.06830429 -0.13309214 -0.53387946
000200 2f eb 99 be 6a af 05 3e 96 de 7a 3e 2c a6 ed 3c
       -0.30062243 0.13055196 0.24498972 0.029009901
000210 e1 ae 2c 3d 7a dc 23 bc c8 cc ad bd b9 b3 6b 3d
       0.042158965 -0.010001296 -0.084863245 0.057544444
000220 71 ec fb 3d b3 2b 20 3e f6 60 a7 3d da 66 54 3c
       0.12300957 0.1564167 0.08172791 0.012963975
000230 6f 08 b8 3d 08 99 ab 3d c5 45 03 3e c8 91 d0 bd
       0.089859836 0.08378798 0.12819584 -0.101840556
000240 a9 1a 2b be e6 f4 9d 3b bf 93 27 bd ce 56 13 bd
       -0.16709389 0.004820454 -0.040912386 -0.035971455
000250 60 b5 8e bd ef 6c 6e 3b 80 1c 41 bd 77 ee c3 3c
       -0.06968188 0.0036380847 -0.04714632 0.02391742
000260 e7 6a 68 bc cf 97 36 bd b2 6e fc 3b bd 67 c0 bc
       -0.014185644 -0.04457837 0.0077036256 -0.023486966
000270 31 e3 5e 3c c9 7d 21 3d 6c 1f 21 3e 5c 3e 61 3e
       0.013603971 0.0394266 0.15734643 0.21996444
000280 a2 b1 25 bc 24 35 8e bc b5 f0 b9 bd 15 e7 c1 3c
       -0.010113152 -0.017359324 -0.09079114 0.023669759
000290 ad 53 4b 3d c1 1c 06 3e 4a 44 06 3e 05 7e a8 bc
       0.049640346 0.13096906 0.13111988 -0.020567903
0002a0 d2 27 09 3c bd c3 b0 bc e5 36 ff 3c ea 5a e7 bd
       0.00837131 -0.02157771 0.031154105 -0.11296637
0002b0 8c 84 83 be 95 02 c6 bc 45 c0 ff 3c 4d 0a d6 bc
       -0.25687063 -0.024171153 0.031219611 -0.026127959
0002c0 4c 41 04 bb cb 6a 4f 3e cd ae e8 bc 47 4e 91 be
       -0.0020180522 0.20255582 -0.028403664 -0.28380033
0002d0 7c 99 15 be 33 0d 18 bd da 14 b3 bc 2a ce b2 3d
       -0.14609331 -0.037121963 -0.021860529 0.08730729
0002e0 07 5e 83 3d 67 11 f6 bd d1 db 1c be 72 7d 0c be
       0.06414419 -0.12015038 -0.15318228 -0.13719729
0002f0 8a da 25 bd 7d 50 ed 3c 82 98 e8 3c 32 da ba 3d
       -0.04049162 0.028969044 0.028393034 0.09123649
000300 ac 36 a4 3b c6 e1 a1 3c d2 c9 06 bd e4 8a 0e bd
       0.0050114 0.019760977 -0.032907315 -0.034800425
000310 f8 47 6d bc 20 1f ba 3c d7 71 99 3b 70 2a 79 ba
       -0.014482491 0.02271992 0.00468276 -0.000950492
000320 be 68 ca 3c b4 e4 e3 3b 37 ee fd bb b9 87 09 bc
       0.024708148 0.006954754 -0.0077493447 -0.008394175
000330 bc 45 fb bc c1 db 78 bd 48 d8 14 3e 64 41 42 bd
       -0.0306729 -0.06075645 0.1453563 -0.047425643
000340 cb e7 92 be f0 95 09 bd 5c 0d eb bb ad 07 24 be
       -0.2869247 -0.033590257 -0.0071732234 -0.16018553
000350 b0 55 03 bc 8e c5 df 3d d6 8d 28 bc 6d 82 90 be
       -0.008016035 0.109263524 -0.010287723 -0.28224507
000360 03 e2 55 3d ab 41 38 bd b7 41 48 be ab b9 64 bd
       0.052217495 -0.0449845 -0.19556318 -0.05584113
000370 47 36 59 be f6 b1 3d be 7d f4 48 bd 78 91 4c 3d
       -0.21212111 -0.18524918 -0.049061287 0.049943417
000380 5a 1b d2 3c 5f b2 c5 3d 67 ff f1 3d ff 12 ca 3d
       0.025647808 0.09653162 0.11816292 0.098669045
000390 01 1f 94 3d a9 d0 16 3e e3 11 cf 3d 4c 67 ce 3c
       0.07232476 0.14728035 0.101108335 0.02519574
0003a0 b6 7b 0c 3e 65 68 a5 3e 0b 54 2e 3e bf 84 b0 bd
       0.13719067 0.3230621 0.17024247 -0.08619069
0003b0 82 1e 85 3a 6b 06 30 bd 2f c9 5f bd ce 4e c9 3c
       0.0010156187 -0.04297487 -0.054635223 0.02457371
0003c0 36 a0 8c 3c ae 50 6c 3d 0c 68 d8 bd 8e 3c e5 bd
       0.017166238 0.05769413 -0.1056672 -0.111931905
0003d0 11 45 dc 3c a8 8e 21 bd 9c 43 a5 bc 82 b8 bb bc
       0.026888402 -0.03944269 -0.02017384 -0.022915129
0003e0 a1 2d 4c bd 92 8c 33 bd d1 67 a0 3a 55 b7 0d bd
       -0.049848203 -0.04383523 0.0012237971 -0.034598667
0003f0 a5 06 5e bb fc dc ea 3d f7 d6 80 bb 73 67 ef 3c
       -0.0033878472 0.11467931 -0.003931876 0.029224133

classifier.1.bias f4 [10]
000000 5f ed 10 bd 49 2a 05 3f 23 49 f6 3c 26 1d 02 be
       -0.035382625 0.5201765 0.030064171 -0.12706432
000010 f7 98 6b bd 58 27 f2 bd 33 4a a1 bd bc 44 0f 3e
       -0.057518926 -0.118239105 -0.078754805 0.13991064
000020 17 a4 2d be 2c 6c fd ba
       -0.16957127 -0.0019334606
