model_weights/model_epoch_9.pth (torch, 34447 bytes, 10 tensors)

conv_block_1.0.weight f4 [10, 1, 3, 3]
00000000: 54f9 07bf a168 a33d 8a3f 74be 7cef 6fbe
00000010: 1070 00be da0e a73e 1be2 36bd a8e4 dbbd
00000020: fddb c6bd 82f6 be3e 3b4f 85bf de9d 8dbf
00000030: 1633 e8bd d57a 11bf 51c8 e4be fc1a 193f
00000040: 4eff c33e d1bc 653f c9f5 10bc b98d edbe
00000050: 2f37 82be 82ed 71be 3e95 a23d 4080 253f
00000060: 52c1 c4be d0ad c93e 148f 9c3e ea1c 183d
00000070: c389 fe3e 427b 9ebe 4071 d93b 7660 53be
00000080: 7407 c1be 2e31 063f ef0a 0c3e 231f 2dbf
00000090: 79c3 8d3e d9be 2a3f f3b3 10bf 2567 2cbf
000000a0: c388 2e3e 8c1e 25be b6b9 8abd f168 123e
000000b0: 638a 0a3f dd02 a23e 75e0 c5bd 72e3 2d3f
000000c0: ec0b 503e dad6 a8be 9df7 ffbe f907 debe
000000d0: 73ca d93e 0208 e93e 1601 8bbe be19 9bbe
000000e0: 00b8 9dba ef14 a2be 8701 9bbe 8619 d9bd
000000f0: b28d 93be 41fd 823e 285e 6fbe 7931 11bf
00000100: 4ad4 353e ed5b 0d3d 7336 b63e 28b2 103f
00000110: 0733 2f3f fba1 35bd 7a9c 9bbe 0318 fd3b
00000120: 07a5 6a3d bc1a 93be 99c5 0dbd efd6 323e
00000130: fca1 9d3d 41d1 6bbd 8282 92bc 1e17 103c
00000140: a5b6 5dbe ba4c 4bbe f40a 8ebd 9165 a5be
00000150: a8ca 8bbe 035d 8b3e 7e7c 74be 9d85 ba3d
00000160: 0873 afbc 797c fcbd
-0.5311482 0.07978941 -0.23852363 -0.234312 -0.12542748 0.32628518 -0.044649225 -0.10736972
-0.09709928 0.37297446 -1.0414804 -1.1063802 -0.11337869 -0.5682805 -0.4468408 0.598068
0.3828072 0.89741236 -0.008847662 -0.46397188 -0.25432727 -0.23625758 0.07938622 0.6464882
-0.38428742 0.3939042 0.3057791 0.03713695 0.4971448 -0.30953413 0.006635815 -0.20642266
-0.37701 0.5241879 0.13676046 -0.67625636 0.27688196 0.6669746 -0.5652458 -0.67344886
0.17044358 -0.16124934 -0.06773703 0.14297844 0.5411741 0.3164281 -0.096619524 0.6792518
0.20317048 -0.3297642 -0.499936 -0.43365458 0.4253727 0.45513922 -0.27149266 -0.30293077
-0.0012032986 -0.31656596 -0.30274603 -0.10600571 -0.28819042 0.25583842 -0.23375762 -0.56716114
0.17756763 0.034511495 0.35588416 0.56521845 0.68437237 -0.04434393 -0.3039282 0.0077238097
0.05728629 -0.28731334 -0.034612272 0.17464803 0.07696912 -0.057572607 -0.017884497 0.008794574
-0.21651705 -0.19853488 -0.06935683 -0.32304052 -0.27303052 0.272194 -0.23875615 0.09107516
-0.021417156 -0.12328429

conv_block_1.0.bias f4 [10]
00000000: 3082 3cbe 1663 c63e 9522 d9bd 59b0 cbbd
00000010: 0916 15bf d96a fabe 4219 86be 71cf 47be
00000020: 3614 04be cfd6 11be
-0.18409038 0.38747472 -0.10602299 -0.09945745 -0.5823675 -0.48909643 -0.26191145 -0.19512726
-0.12898335 -0.14242099

conv_block_1.2.weight f4 [10, 10, 3, 3]
00000000: d082 f8bd db26 6d3d e5e4 10bd 95cd 6bbc
00000010: 2fd5 1f3d 1b8d 853c 5200 363e 3be8 7f3d
00000020: d674 413d 99dc 4a3e 7d52 25be 5649 b9be
00000030: 7b98 4c3e 005f 85be 8331 1fbf 1ca8 54be
00000040: 8df9 03bf 0271 c8be 96d0 443e 74c7 edbc
00000050: 58a3 18bd 3283 bf3d 4e71 5c3e e022 96bd
00000060: 124b 9b3e bda1 ca3c 14cf b4bd 8519 9dbe
00000070: dc66 1d3e 7645 193e 1e90 9f3c 7706 a8bd
00000080: 27bb 893d dbd4 28be 54c5 453e 4407 9c3d
00000090: 1cc7 11bd 4299 55be d938 723e 2d81 c9bd
000000a0: 9784 043e 42fd 3ebd 6513 43bd 8703 42bc
000000b0: e772 9cbd 3831 333e 71b0 803d 2a31 dc3d
000000c0: 6291 a7bd a5d5 1e3e 94ff 083c c5bb a03d
000000d0: d830 36be ef1c 673b b3a9 8f3d 2274 2d3d
000000e0: fd39 84bd 1f24 923d dca5 8cbd 9b90 75bd
000000f0: 5386 c83d 2254 12bd 78e3 eabc 3ba7 d7be
00000100: d123 093e 4422 1ebb 34c6 e43d 86d4 4e3e
00000110: 8689 21be 595a d93d 5ece 303e f71f b53d
00000120: 430a 9ebd 6dda b2bd 3a47 8abd 595d 6d3d
00000130: d1d8 d33d 2cf1 ff3c 8d5f 8a3d f0a1 293d
00000140: 5411 93bb f418 293d 6f73 913d 8564 f5bc
00000150: dbf7 6cbd c256 2bbd 6b68 71bd eb40 9cbd
00000160: 79f3 c0bd e3e2 803c eca4 c6bc ff30 3d3d
00000170: 554f 8fbd 4b69 133d d31e 683d 1737 2a3d
00000180: 47ce fabd 628c 7ebd 0b41 81bb 3fb7 f8be
00000190: a98d 27bf f7b5 b9be 893a 05bf de53 41bd
000001a0: 33a8 e03d afe0 5cbe d334 a53d 1e05 ca3e
000001b0: 08e0 aa3d d8d3 63be 6e9a 003e aadf fdbc
000001c0: d559 61be 4f9b dabd 003a 1ebe aa64 a8be
000001d0: e8c1 bbbe b041 a23d 86f4 8ebd d0e3 2cbc
000001e0: 7f95 0f3e 8de5 583e 8567 13be 3886 51bd
000001f0: e25e b13d 88a9 a1bd fec9 b63c b2a1 233e
00000200: 49bd 66bd 282d 00bd 21c9 66be e114 92be
00000210: d96c 1b3e b73c 7d3e 650b c03d c617 323e
00000220: b666 2a3e 1075 223e fbcc ca3d 8d2f 0fbe
00000230: 47ac f33d 2735 cf3d 2c09 fb3d b24e 253e
00000240: 8ccb dd3c f222 563d 8f45 a73d e9e0 903d
00000250: 416c b9bd 30c1 dabb 403b 55bd 0c6b 09bd
00000260: b276 05bd 9d08 703e a79f c33e d681 3d3e
00000270: 7eeb bc3c 9922 30be 4506 4b3e cdaf 0abe
00000280: 88f9 e7be ce6d 13bf d9d8 433b de37 88bd
00000290: cd9f d6bd c1d7 913d 2faa 5e3d e8df 1dbb
000002a0: 283e 9abc df43 0dbd 7c62 0f3c 16a6 d13d
000002b0: 6f7d 973d 0dc8 99bd 4670 6fbd aeee 723d
000002c0: da51 e0bc 1679 01bd 5005 bd3c a9a1 66bd
000002d0: b890 e23b 84c3 203d 2620 bd3d b294 603d
000002e0: 7fcb 10be 6384 7fbe 89b3 45be f9d8 a63d
000002f0: e6cd b63d 6fd2 193e 82cb eebe ac3f 923e
00000300: 624a c2be ce0c 10bf 2ecc a0be 7e3e f7be
00000310: f184 99be ed3f 92be 7c22 4b3e 4a8b 273e
00000320: be16 8bbd b5ce c5be 1649 28be 3455 d33d
00000330: 8c97 0abe dd4e 1cbe 315f 5e3d 637c 1dbd
00000340: b06e 9fbd 6cfd 38be c857 8fbb 6916 3cbe
00000350: 946a 3bbe a8d5 cf3c 860c 61be 8595 7b3d
00000360: d303 443e 84ea a2bd a24a d73d 6e5d 883d
00000370: 2ee5 083d 1122 b53d 0c81 4d3d 451b 893b
00000380: 3836 623e f3b3 75be a2e3 a93e 428f 163e
00000390: 6f00 b0bd c973 cdbd 37b6 a83d 6987 d7bd
000003a0: 81be 283e ff3b 773d 58fb 233c bdbe a13d
000003b0: 1dc7 7dbd 4005 623b 5133 933d 2fa7 be3d
000003c0: 9712 b43d b865 75bc 1477 943c b783 053e
000003d0: 60c5 a73d 65b2 133d 2759 b6bb 276c 0c3c
000003e0: e753 3e3e d1ce 8ebe 6c2d 243d 6377 a53e
000003f0: 364d 083d b425 de3c 5547 b7bd e98b 52bd
-0.121343255 0.057898384 -0.03537454 -0.014392276 0.039021667 0.016302636 0.1777356 0.06247733
0.047230564 0.19810714 -0.16144748 -0.36188763 0.19980042 -0.26049042 -0.62184924 -0.20767254
-0.5155266 -0.39148718 0.19220194 -0.02902577 -0.03726515 0.093511954 0.21527597 -0.07330871
0.30330712 0.024735326 -0.088285595 -0.30683532 0.15371269 0.14967903 0.0194779 -0.08204358
0.067251496 -0.16487448 0.19313556 0.07618573 -0.035590276 -0.20859244 0.23654498 -0.098390914
0.12941204 -0.046628244 -0.047625918 -0.011841661 -0.076391034 0.17499244 0.062836535 0.10751565
-0.081820264 0.15511186 0.008361716 0.07848314 -0.1779207 0.0035265049 0.070147894 0.04234708
-0.06456373 0.07135796 -0.06867573 -0.05995236 0.09791245 -0.035724767 -0.028672919 -0.42119774
0.13392569 -0.002412931 0.11170617 0.20198259 -0.15775117 0.106129356 0.17266223 0.088439874
-0.07716801 -0.08733068 -0.06751867 0.05795035 0.10344089 0.03124293 0.06756506 0.0414142
-0.0044881497 0.041283563 0.07102095 -0.029955158 -0.05785356 -0.041830786 -0.05893747 -0.076295696
-0.09421439 0.015733188 -0.024248563 0.046189304 -0.06997553 0.035989087 0.05667002 0.041556444
-0.122463755 -0.0621456 -0.0039445213 -0.48577306 -0.6545053 -0.3627164 -0.5204244 -0.047199123
0.109695815 -0.21570085 0.08066716 0.3945703 0.08343512 -0.2224878 0.1255891 -0.03099044
-0.22006924 -0.10674154 -0.15451813 -0.328893 -0.36671376 0.07922685 -0.06980233 -0.010552362
0.14021872 0.21181317 -0.14394958 -0.05115339 0.086606756 -0.07893664 0.022313114 0.1597965
-0.05633286 -0.031293064 -0.22537662 -0.28531554 0.15178241 0.24730192 0.09377173 0.17391881
0.16640744 0.15864968 0.09902378 -0.13982983 0.11898094 0.1011756 0.12257609 0.16143301
0.027074598 0.05227942 0.08167564 0.07074148 -0.09053851 -0.006675862 -0.05205846 -0.033549353
-0.0325839 0.23440786 0.38207743 0.1850656 0.02306151 -0.17200698 0.1982661 -0.13543625
-0.45307565 -0.57589424 0.002988389 -0.06651281 -0.10479698 0.0712123 0.05436152 -0.0024089757
-0.018828467 -0.034488555 0.008751508 0.102367565 0.073969714 -0.0750886 -0.05845668 0.059309654
-0.02738278 -0.031609617 0.023073822 -0.056306515 0.0069142245 0.03924896 0.092346475 0.054829307
-0.14140128 -0.24952845 -0.19306768 0.08146853 0.08925991 0.1502168 -0.4663964 0.28564203
-0.37947375 -0.5626954 -0.31405777 -0.48289865 -0.2998424 -0.28564397 0.19837373 0.16361728
-0.06791447 -0.38634267 -0.1643413 0.103189856 -0.13534373 -0.15264459 0.05429 -0.038448703
-0.07784784 -0.18065423 -0.004374478 -0.18367924 -0.18302375 0.025370434 -0.21977434 0.06142189
0.19142084 -0.079548866 0.10512282 0.06658445 0.033421688 0.08844388 0.050171897 0.004184159
0.22090995 -0.23994426 0.33181483 0.14703086 -0.08593833 -0.1003185 0.0823788 -0.10523874
0.16478921 0.06035995 0.0100086555 0.078977086 -0.061957467 0.0034487993 0.07187522 0.093092315
0.08792608 -0.014977865 0.018123187 0.13038526 0.08191943 0.036058802 -0.005564827 0.008570707
0.18586694 -0.27892163 0.04008238 0.32317647 0.03327676 0.027117588 -0.089491524 -0.05140296

conv_block_1.2.bias f4 [10]
00000000: c469 403e ea0b f13b 3052 933e 2e39 dfbc
00000010: 7907 cfbd e1b9 6b3d 2c1c 743e 69e6 82be
00000020: 250e c23d ac8b 82bd
0.18790346 0.0073561566 0.28773642 -0.027248945 -0.10108847 0.057550315 0.23838872 -0.25566414
0.09475354 -0.063742965

conv_block_2.0.weight f4 [10, 10, 3, 3]
00000000: 8652 cdbe 8275 8cbe 9102 f63e d82c 50be
00000010: 1305 82be f777 8c3c fa03 733e 46c2 58be
00000020: cc25 8bbe 6b6a 03be a785 e4bd c4d7 a63c
00000030: 1f8e 43be 4a65 1bbe eaf3 813e 8a20 183e
00000040: 65a3 13be a878 b8bd cb3f 4dbe 3a71 f2bd
00000050: b32c ce3e dd58 a6be 5205 96be 19fe cd3e
00000060: 34b8 753e 7d63 263d b1ca 0c3d 882e 9ebb
00000070: 0d5a 18be 00b0 1bbd 011c 423e 2f65 4abd
00000080: bdd6 09be 4e6f 033d 29d6 d7bd 3754 ac3d
00000090: ef4e 0ebd 72d8 423c d2d6 083c 261c 673d
000000a0: 90d3 cb3d 31d0 6a3d 03ff ae3d 66a5 1e3d
000000b0: 8fe3 063d bf46 ecbd 3aad ae3a 5dfb d0bd
000000c0: 8e4a 1ebe 2234 153b a533 abbd 9567 0dbd
000000d0: 26d0 d5bd 7a5e efbd 5ca4 b2bd 77f9 023d
000000e0: ccd5 463e 2b8f d9bd 6af1 ea3d 766e b53e
000000f0: 7c83 b63a 0f66 71bd 2e7f a1bd 3d89 a03d
00000100: c115 67be 23a3 80bd b21a 583e 5d65 393e
00000110: f0b7 f93d 3976 0fbe bf7e 143c 1cb3 e03d
00000120: ef4d 12be c107 86be 3f20 33be cbfd 95bd
00000130: 3dc5 10bd 804b cfbd 23c3 a03e 4203 aa3d
00000140: 58b8 06bc 5866 54bd be7f a7bd 017c bc3d
00000150: 2c26 053c 3fe3 533d 2d0c 9cbc 9a04 563d
00000160: 4589 99bd 690d 903d 5f85 68be 4522 97bd
00000170: 87ea c3bc 8cb5 04bf 71b0 efbe 6d2d b2bc
00000180: 36d0 81bc 2406 e83d 63c8 423e c80f 8dbc
00000190: 6af1 923e 58a6 b03e a1af 33be 4b53 16be
000001a0: ecd4 14be 7c90 52be 8a10 a23d 8fd0 a03b
000001b0: 86a1 36be a8cc 963e 7515 dd3e 404f 8dbe
000001c0: fbf9 e3be 24ca aebd d793 adbe 51c5 8c3d
000001d0: f71a b13e e200 1dbe cde3 923d 7ed8 a33e
000001e0: 056c 303e d033 313e 3772 fbbc f972 283d
000001f0: 5055 bb3c 2077 84be f6b4 5bbc 722b 383d
00000200: 3ddc 0cbd bda2 e4bc a757 d0bd 7baa adbd
00000210: be89 d03d 0f29 a23b e709 333d b0f4 37bc
00000220: b61f 21be c955 fb3d 7c7e 3a3e 30ba ce3d
00000230: 7b43 703d 4eb5 7f3d 0bc8 0dbd e7d5 a6bd
00000240: 9c25 d23d 2756 8d3e 04e9 993e 7431 04be
00000250: d593 a7be 128a 2a3d 76bf 12be 5749 6ebd
00000260: c99d 353e 3aae f83d b1d3 a53d ca7f a7bd
00000270: ef67 333e 7414 2c3d 22a7 7abd 4359 a53d
00000280: ab05 65be b480 59bd 29a2 4abe bd02 cabd
00000290: 4354 483d 927a 3bbe 37e0 2abe c911 36be
000002a0: 4e29 06be db94 84bc 1f0f 173e 49e8 c33d
000002b0: 2ee9 153d cd38 debd 4d5c 24bc 4275 8abd
000002c0: 3d60 af3d e8f0 4b3d e9e1 44bd 5b1b 58bc
000002d0: 87d3 aebe 7f39 bd3c efec 4dbd cec9 193d
000002e0: 5dec 9f3e 2b30 c6bd d985 a2be 543d 4e3d
000002f0: ead6 1b3f 3f63 413e 6782 25be 2202 7ebe
00000300: 8ead 813e 3d6a 313d f66c 34be 8ade 6b3e
00000310: 8ad3 81be ea37 02bd ec2a e6bd a96f d03e
00000320: 1030 ad3e decd cbbd aab2 363e 7a95 e83e
00000330: d4e5 0e3e b4f8 8abe 192c 2bbe 6ece 9a3e
00000340: 0c30 89be a118 dfbe e59c 353e fd0c 903e
00000350: ce76 00bf 9a01 e43e a020 bb3e 256d 8bbe
00000360: c48f 6abc 905d 57bd decb 1abd 4822 b3bc
00000370: 30d0 b23d d219 c7bd 4b83 093d abe6 993b
00000380: 971a 0bbd 280e 0abc 0064 02be ab93 e8bd
00000390: 5608 863d d5fe b1bd 0b25 213e 6c3a aa3c
000003a0: a01e 10be 1416 863e 48ce b63d 39dc 3e3e
000003b0: bc40 eebc 77fe 19be 2656 773d a391 9f3e
000003c0: 235d 353d 2bce be3d 6d6e a5bd 8d0a cd3d
000003d0: 9d03 833d 71d1 793c 3e6d 423d b6d1 8e3d
000003e0: 5624 aabe bbde d2bd f1c6 0dbe 46d8 95be
000003f0: b049 f33b 93a7 1c3e f052 783e b06a 88bd
-0.40102023 -0.274334 0.48048833 -0.20329607 -0.25394496 0.017147047 0.23731986 -0.2116786
-0.27177274 -0.12833564 -0.11158305 0.020366557 -0.19097184 -0.15175357 0.25381404 0.14856163
-0.14417799 -0.09007388 -0.20043866 -0.118380025 0.40268478 -0.32489672 -0.29300934 0.40232924
0.23996049 0.040622223 0.03437299 -0.0048273243 -0.14878102 -0.038009644 0.18955995 -0.049412902
-0.13460822 0.03208857 -0.10538895 0.084145 -0.034743246 0.011892425 0.008351998 0.05642333
0.09952462 0.057327453 0.085447334 0.038731955 0.03293186 -0.11536931 0.0013326772 -0.10204194
-0.15458128 0.002276667 -0.0835946 -0.03452261 -0.10440092 -0.11687942 -0.08722755 0.03197619
0.19417495 -0.1062301 0.11471827 0.35435838 0.0013924683 -0.05893522 -0.07885586 0.07838676
-0.22566892 -0.06281116 0.21103933 0.18105073 0.121932864 -0.14009942 0.009063422 0.109716624
-0.14287542 -0.2617779 -0.1749277 -0.07323798 -0.03534435 -0.10121822 0.31398878 0.08301403
-0.008222662 -0.051855415 -0.08178662 0.09203339 0.008126777 0.05173039 -0.019048775 0.052250482
-0.07496885 0.07033808 -0.22707127 -0.07379583 -0.023915542 -0.5183952 -0.46814302 -0.021750176
-0.015846353 0.11329296 0.19021754 -0.01721944 0.2869981 0.3450191 -0.17547466 -0.14680211
-0.14534348 -0.20562929 0.07913311 0.0049076746 -0.17835054 0.29453015 0.43180433 -0.27599525
-0.44526657 -0.08534649 -0.33901855 0.068735726 0.34590885 -0.15332368 0.07172356 0.32001108
0.17228706 0.17304921 -0.03069411 0.04112527 0.022867829 -0.25872135 -0.013409844 0.044963308
-0.034389723 -0.02790963 -0.10172968 -0.08479782 0.10182522 0.004948742 0.043710615 -0.011227772
-0.15734753 0.122722216 0.18212312 0.10094106 0.058658104 0.062428765 -0.034614604 -0.081462674
0.1026108 0.27604792 0.3006059 -0.1290949 -0.32729974 0.04163558 -0.14330849 -0.05817541
0.17735972 0.12142606 0.080970176 -0.08178671 0.17520116 0.042011693 -0.061194547 0.08073666
-0.22365443 -0.053101256 -0.19788422 -0.098638035 0.048908483 -0.18308476 -0.16687094 -0.17780222
-0.13101694 -0.016184261 0.14751862 0.09565789 0.03659933 -0.10850678 -0.010031772 -0.067606464
0.08563278 0.049790293 -0.048067007 -0.013190116 -0.34145758 0.023098705 -0.050274786 0.03754597
0.31235018 -0.09677156 -0.31742743 0.050351456 0.6087481 0.18885516 -0.16163026 -0.24805501
0.25327724 0.043314207 -0.1761969 0.2303411 -0.25356704 -0.031791605 -0.112386554 0.4071019
0.3382573 -0.099513754 0.17841592 0.45426542 0.1395486 -0.2714287 -0.1671604 0.30235618
-0.2679447 -0.43573478 0.17735632 0.2813491 -0.5018128 0.44532472 0.36548328 -0.27231708
-0.014316503 -0.052579463 -0.03779208 -0.021866933 0.08731115 -0.09721722 0.033572476 0.004696687
-0.033960905 -0.008426227 -0.1273346 -0.113562904 0.06544559 -0.086911835 0.15736787 0.02077981
-0.14074183 0.2618872 0.08926064 0.18638696 -0.029083602 -0.15038477 0.060384892 0.311658
0.044278275 0.09316667 -0.08077703 0.10011778 0.063971736 0.015247689 0.047467463 0.06973593
-0.33230847 -0.10296389 -0.13845421 -0.29266566 0.0074245557 0.152983 0.24250388 -0.06660974

conv_block_2.0.bias f4 [10]
00000000: f2cc 3ebe 24d8 93be fd36 7dbe 76e4 d8be
00000010: 59a0 093f 20ef 033d 0057 af3e 071a 923e
00000020: 573f 903e 6d85 6ebd
-0.18632868 -0.2887584 -0.24728008 -0.42361802 0.53760296 0.03221047 0.34246063 0.28535482
0.28173324 -0.058232713

conv_block_2.2.weight f4 [10, 10, 3, 3]
00000000: 9ac9 00be e477 bcbd 711f 113e 1b75 75be
00000010: 7fc5 03bc 6a63 14be 1077 e6bd 23f3 ddbd
00000020: af86 9ebd 8f4e fd3d 4232 6f3d 9f26 a6be
00000030: 8b3b 3cbe 24ce 93be 6963 2abe 99d4 dfbb
00000040: 42f6 afbe 12ef a0bd c05c a0bd a941 f63c
00000050: 46c0 c7be b83f 993d a21e e6be 60a6 e7bd
00000060: 263c 20be c351 0dbf 50c8 a9be 3ab4 00bf
00000070: e6e3 03be fdaf 9fbd 15b7 f2be fc53 a3be
00000080: 23f9 f93d f892 ea3e 8bf2 9e3e f97b 00be
00000090: d9c1 34be 1642 82bd 23c2 d73b 29c9 97be
000000a0: 3eda 99be af60 93be a991 ecbe bce3 6fbe
000000b0: f170 0b3e 91cf 8bbc 4326 833e 338a 3abf
000000c0: 4b58 bd3e 6659 ccbe 2416 37be 2aed 013e
000000d0: b8b7 cabe 1811 e9be 3ec8 88be fbf0 29bd
000000e0: c310 9c3e 5ac6 e2be 99d5 8c3e ec8d 563e
000000f0: 322b d2be 9711 8ebe 7e50 04be 4f05 04bc
00000100: 121b 1dbe 732d c1bd 1ce2 45bc 82b2 76be
00000110: 5d10 dcbd fa26 dcbd cbb9 73be 73d9 15bd
00000120: ae1c 8ebe 38ce 8fbe dcd1 533d 5d90 76be
00000130: 2219 75bd 8a96 e13e cd1d e9be 4980 89bd
00000140: 2ef3 803e ffe2 893c 5435 fcbb 7d57 0b3e
00000150: b40f dc3e 5a04 443e e7a7 d5bd 62ef d0bd
00000160: 0da8 203e 581f e4be ed7c ec3e 7d85 453e
00000170: 2fc2 02be 12d6 dabd 2186 bf3b 42c6 00bd
00000180: 5050 13be 213a b0bd b042 ffbd bf00 ebbd
00000190: de0b 15be c209 54bd d844 703e 14af 4a3e
000001a0: 2f09 253e b4cf 3bbe 50cc a43d 0548 863e
000001b0: aafb 203e bd35 4a3e c2a7 5bbd 8ed5 8ebe
000001c0: 2daa 20bc 58ca 053f ecf7 7abe 1284 83be
000001d0: 85e2 e7be f35f 3ebe 5a20 65be c2d7 e1bd
000001e0: 41c7 b8be 7e32 e5be d9d1 c33d 45a2 653e
000001f0: 3041 2a3e 38b6 433e f7c5 723e c366 183e
00000200: 13cb dcbe 8816 3bbd 1ace 07bd 80cb 99bd
00000210: 22d1 45be ec48 c0be 13ea 3dbe 69be 3ebf
00000220: 945b 0bbf c812 adbd e6cb cfbd 4dce 03bf
00000230: 2b85 0bbf d0fb cd3d e670 fe3d d114 cb3d
00000240: 4616 b73e 43d8 233e 0184 9ebe 6119 bebe
00000250: c566 033d 8f5f e7bc 7be9 f9be 77e6 babe
00000260: f155 ecbd a047 533e 36e8 303f 1924 98bd
00000270: fc0e 84be 836c 5c3d cb28 523e e60d ecbe
00000280: ccb4 bdbe cfbd cbbe cdad d7be 3e72 c6be
00000290: 8bd8 08bf 64d2 64bd b509 76be dfd2 6e3e
000002a0: 14cf 9abe 9644 d7bd 65eb 503e 8e23 a6be
000002b0: d426 93be c033 25bf 4959 b6be 1d61 523e
000002c0: 0946 03be c202 973e cb15 913e 97ec d13d
000002d0: 5907 f83e 1021 133f e60e 2d3e 811e 0f3d
000002e0: 4214 7f3e 06ac afbe 43db 48be 1036 dabd
000002f0: a591 9cbd 7364 553e 48e8 f9bd 816f 053e
00000300: 5f49 4abd 0a85 6f3e c07a 50bc b772 a2bd
00000310: 79cc 3dbe b85b 61bd fd82 e6bd 78f4 fc3d
00000320: 9a57 b0be d48a 62be 7513 84be 80fa 46be
00000330: 6e28 04be 29af 1d3b 54b0 98be 1310 d2be
00000340: f775 1c3d 9885 2ebe cbd8 2abe 87b2 d2be
00000350: fc56 c53d b4f5 abbd 8288 b53e 26bb 0e3e
00000360: 7f3d 9c3e 0df5 a43e 54d8 5a3e 90bf 3a3e
00000370: fe90 af3e 0150 87be b334 cabd 965a a9bd
00000380: 2699 79be e805 0cbf 201d 27bf e0a5 12bf
00000390: a2fc 453f e979 61bd fbc0 01bf 75ff 013e
000003a0: af7c c63e 27d1 f03d f103 2dbe 3f07 5bbd
000003b0: d8fc de3e 1229 3c3e 47af 47be cd98 45be
000003c0: 7db1 66be a551 11be 6b39 a7be 276a bdbd
000003d0: a730 083f 0024 223e 6848 aebe 1397 25be
000003e0: ee51 b83d c7d6 02bd ba03 ddbe a011 46be
000003f0: 00ed b8be f06e 9abd c0e6 433f 4674 2a3d
-0.12576905 -0.09202555 0.1417215 -0.23970453 -0.008042692 -0.14491048 -0.11253178 -0.1083739
-0.077405326 0.123684995 0.05839754 -0.3245134 -0.18382089 -0.2886821 -0.16639484 -0.0068307635
-0.34367567 -0.07858099 -0.07830191 0.030060606 -0.3901388 0.074828565 -0.44945246 -0.113110304
-0.15647945 -0.55202883 -0.3316064 -0.50275004 -0.12879905 -0.07797239 -0.47405306 -0.31900012
0.12205722 0.45815253 0.3104442 -0.12547292 -0.17652072 -0.06360261 0.006584422 -0.2964566
-0.30049318 -0.287847 -0.4620488 -0.23426718 0.13617302 -0.017066749 0.2561513 -0.72867125
0.36981425 -0.39911956 -0.1787954 0.12688127 -0.3959329 -0.45520854 -0.26715273 -0.041489583
0.30481538 -0.44291955 0.27506712 0.20952576 -0.4104858 -0.27747795 -0.1292133 -0.008057906
-0.15342358 -0.09432497 -0.012077834 -0.24091533 -0.107453085 -0.10749622 -0.23801343 -0.03658433
-0.27756256 -0.2808702 0.05171381 -0.24078508 -0.05983842 0.44060165 -0.4553055 -0.067139216
0.2518553 0.016831873 -0.007696787 0.13607593 0.4298073 0.19142285 -0.104324155 -0.10201909
0.15689106 -0.44555163 0.4618906 0.19289203 -0.12769388 -0.10685362 0.005844847 -0.031439073
-0.14386106 -0.08604837 -0.124638915 -0.11474752 -0.14555308 -0.05176712 0.23463762 0.1979335
0.16116785 -0.18340951 0.08046782 0.26226822 0.15721002 0.19747062 -0.053626783 -0.27897304
-0.009806198 0.5226188 -0.24508637 -0.256867 -0.45290008 -0.18591289 -0.22375622 -0.11027481
-0.3608952 -0.44765085 0.0956151 0.22425182 0.1662643 0.1911248 0.2370833 0.1488295
-0.43123683 -0.045675784 -0.03315554 -0.07509518 -0.19318059 -0.37555635 -0.18546323 -0.7450929
-0.5443661 -0.08450848 -0.101463124 -0.51486665 -0.54500073 0.10057795 0.124238774 0.0991608
0.3575918 0.16000466 -0.30960086 -0.37128738 0.03208043 -0.028243808 -0.48810944 -0.36503956
-0.115398295 0.20632792 0.69104326 -0.0742876 -0.25792682 0.053814422 0.20523374 -0.46104354
-0.37052 -0.3979325 -0.42124787 -0.38759035 -0.5345542 -0.055864707 -0.2402714 0.23322628
-0.30236113 -0.105111286 0.20402296 -0.32449 -0.2874056 -0.6453209 -0.35614994 0.20544858
-0.12819685 0.29494292 0.2833694 0.10250204 0.48443106 0.57472324 0.16900215 0.0349412
0.24910071 -0.3431093 -0.19614892 -0.10654843 -0.07644967 0.208391 -0.12202507 0.13030817
-0.04938638 0.23390594 -0.012724578 -0.07932036 -0.18535031 -0.05501911 -0.11255453 0.12351316
-0.34441835 -0.22123271 -0.25796095 -0.19431496 -0.12906048 0.0024060702 -0.29822028 -0.4102789
0.038198438 -0.1704315 -0.16684262 -0.4115183 0.096357316 -0.083964735 0.3545571 0.13938579
0.30515668 0.3221821 0.21371585 0.18237138 0.34290308 -0.26428226 -0.09873333 -0.08269231
-0.24374828 -0.5469651 -0.65278816 -0.57284355 0.7733861 -0.055047903 -0.5068509 0.12695105
0.38767 0.11758643 -0.16896035 -0.053473707 0.4355228 0.18375042 -0.19500457 -0.1929657
-0.22528644 -0.14191301 -0.32660994 -0.092487626 0.5319924 0.15834045 -0.34039617 -0.16170911
0.09000002 -0.03194311 -0.43166906 -0.19342661 -0.36118317 -0.07540691 0.7652397 0.041614793

conv_block_2.2.bias f4 [10]
00000000: 1b80 7c3e 87dd 563e 9fdd 0fbe 9f70 623e
00000010: 0a13 163e 90c8 413c 2b8d 323e 72fc b83d
00000020: 4796 6b3e c97a 343d
0.24658243 0.20982943 -0.14049385 0.22113274 0.146557 0.011827603 0.17436664 0.09032525
0.23006545 0.04406241

classifier.1.weight f4 [10, 490]
00000000: 381c bcbc 112a 94bd 3a86 17be 7e0d a6bd
00000010: c204 0fbe 8b7e 4fbd 95e4 61bc 71d5 bbbb
00000020: fc41 3fbe 5be9 afbd 1b5e 00be 8bb1 adbe
00000030: a4f8 ebbd 6d94 d0bc 2458 45bc d589 183e
00000040: 823b 24be 4fe5 d7bc 809c f5be 8f8c 76bd
00000050: 367e 3a3d b2a2 acbc a51d 273c ecad ab3e
00000060: a304 9bbe de11 5ebb 54f6 27bc f408 903c
00000070: d147 243c 6b47 9f3e e649 53bc 39c5 9cb9
00000080: c203 953e 92b4 893d 009b 6cbc dafd a9bc
00000090: 4038 34bc fff8 eabe 39fd 86bd 7cec a93c
000000a0: 746a 67bd 61ba a73c 6a8e 2dbc c271 81bd
000000b0: 8139 1fbe 93b0 38be 582b 08be 529e a6bc
000000c0: d338 cebc 0bd0 09bd 512a c3bb aa93 cbbd
000000d0: d197 f83c 375c bc3c 5e65 823d 87b0 d13a
000000e0: a933 01bd b84c 023d 7183 793d a5dc 3fbd
000000f0: 312e 103d d62c e43c 2370 9d3d a087 8cbc
00000100: d4fa ffbd 0f23 4bbe 4aac f5bd dd37 a2be
00000110: 92e9 8c3e 8c8a c9bc e7e1 7fbd b6e3 90be
00000120: df22 8abe f64f fc3d 82e9 aa3e 0598 963e
00000130: 5462 ccbd 61c7 9d3d 7e52 ddbe 0e7f cbbe
00000140: 598d 5e3e c862 1e3e 5f48 af3e 7960 1ebd
00000150: 20f5 083d 9b46 48be 3393 b73d cb19 61bd
00000160: 7a11 663d f377 023d 3ead 2abd d112 963e
00000170: 1094 263e 7084 9f3e eddc 91be 747e 7cbe
00000180: 6b4b d3bd e77f 0fbd e63d 92bc 414e 3bbd
00000190: db7a a3bb 7970 4e3d 3987 313e 4195 103e
000001a0: 466a ffbb 7566 e7bc 5e18 7d3e 78d4 b8bc
000001b0: 2801 9f3e d0d5 52bc 5b80 023e cadf 743d
000001c0: 8211 cb3d c71d 65be abf9 2dbe 2ef2 5bbe
000001d0: 0bca 2c3e 3444 89bb b915 f53c f8de 78be
000001e0: 65d8 00bf 68ce ffbe 807c 8abd f831 0fbd
000001f0: dda4 cfbd 9e15 1dbe 0bf4 9ebe c0fa 41bf
00000200: 0696 adbe 7458 b93e ba16 d93e aaef 12bc
00000210: 799a cd3c 7f0d b0bd a63a d4bd 2217 203e
00000220: 0ddd 123e c62b 843e b0e9 d53d e9f1 9e3c
00000230: be86 453e 5b4e 8c3d 4f2b 063e 4e40 72be
00000240: 9a30 c3be 2524 88bd 5f2d 1dbd 6c0b 39bd
00000250: b0b7 02be 2dbd d33a b634 eabd 82b6 90bd
00000260: 9521 5cbd 1282 29bd c58d 073a 7066 0fbd
00000270: abde 6abd ddd9 673d 677e ab3d eb0f a53e
00000280: b1eb 903d 71df 933b e014 363b 8cc1 ec3d
00000290: 236d c33c 489a 143e 8e91 6b3e 2919 bb3c
000002a0: 8434 9f3c 0a6e 893d 624d 6fbb 2d35 013d
000002b0: 7359 e1be e576 c8bd 487b c73c f065 803b
000002c0: 2f2d 803d 790a cd3e cc63 1c3d b538 f8be
000002d0: a1ad 5dbe 6479 4dbd c9c1 9cbc a158 2e3e
000002e0: 76e9 8b3c 1db9 2ebe 6652 a2be 1dbb 76be
000002f0: 34bd 9bbd 282d 3c3d db70 2e3d 9200 d43d
00000300: e8a6 8fbc 05a6 01bd 35bd a6bd c6b8 17bd
00000310: 71b6 ca3b 804b a93d 57e6 c83c 350e b33a
00000320: 0796 e93c 13a9 c83b 0151 82bc f571 24bc
00000330: 6c01 64bd 2c59 ddbd 7097 643c beb4 04be
00000340: 3b02 90be 27f4 e5bb 2d76 37bb 70dd 82be
00000350: a630 e6bd dba6 5dbd ae01 2bbd 8b7c 97be
00000360: 2adf d43d b677 a7bc f9b2 a0be 3d7d f53d
00000370: 726c e1bd 7d4e c3bd 307c 36be a38b b7bc
00000380: bd34 a9bc f145 6f3e 6042 5d3e 37d1 483e
00000390: caa1 9e3c afdb c23d 2746 8a3d 4cd4 843d
000003a0: 91fe 8d3d caea 9f3e 5f4e 593e 8f40 37be
000003b0: e74c ecbd e38c f2bd 3fe8 1bbd 612c 163e
000003c0: 9b80 3b3c 0c3f 8f3d ded5 41be ec20 30be
000003d0: e836 e83c 1341 43bd 0732 e7bc dd9b 50bd
000003e0: 63a8 ee3d 0749 14bb 3665 003d 1d24 11bd
000003f0: d8d3 44bd d303 253e 1a5c d63d f312 a5bc
-0.022962674 -0.07234586 -0.14797297 -0.08108042 -0.13966659 -0.05065779 -0.013787408 -0.0057322313
-0.18677515 -0.08589431 -0.12535898 -0.33924517 -0.11522034 -0.0254614 -0.01204494 0.14896329
-0.16038325 -0.02635446 -0.47970963 -0.06019264 0.04553052 -0.021073673 0.010199939 0.3353113
-0.30276975 -0.0033885161 -0.0102516 0.017582394 0.010026888 0.31109175 -0.012896037 -0.0002990158
0.2910443 0.06723894 -0.014441252 -0.020750929 -0.010999739 -0.45893094 -0.06591267 0.020742647
-0.056498006 0.020474615 -0.010593036 -0.06320526 -0.1554928 -0.18036108 -0.13297784 -0.020339165
-0.02517358 -0.03364567 -0.0059559722 -0.09940274 0.03034583 0.02299319 0.063669905 0.0015998044
-0.031543408 0.031811446 0.060916368 -0.046841282 0.0352003 0.02785341 0.07687404 -0.017154515
-0.124990135 -0.19837593 -0.11995752 -0.31683245 0.2752195 -0.024602197 -0.062471297 -0.2829873
-0.2697973 0.12319939 0.33381277 0.29412857 -0.09979692 0.07704044 -0.43227 -0.39745373
0.21733607 0.1546737 0.34234902 -0.038666222 0.033436894 -0.19558184 0.08963623 -0.05495624
0.05616901 0.031852674 -0.041669123 0.2931123 0.16267419 0.3115573 -0.28488865 -0.24657613
-0.10317119 -0.035034087 -0.017851781 -0.045728926 -0.0049890107 0.05040023 0.1733674 0.14119436
-0.007794651 -0.028247098 0.24716327 -0.02256225 0.3105557 -0.01286836 0.12744276 0.059783734
0.09915449 -0.2237464 -0.16989772 -0.21479103 0.16873948 -0.0041890386 0.029917585 -0.24303806
-0.5033019 -0.49962163 -0.06762028 -0.034959763 -0.10138867 -0.15340278 -0.31045565 -0.7577324
-0.3390352 0.36200297 0.42400151 -0.008968273 0.025098072 -0.08596324 -0.10362749 0.15633824
0.14342137 0.25814646 0.10444963 0.019402461 0.19289681 0.068508826 0.13102458 -0.23657343
-0.38123018 -0.06647519 -0.038373347 -0.04517691 -0.12765384 0.0016154401 -0.11435835 -0.070660606
-0.053742964 -0.04138381 0.00051709666 -0.0350098 -0.05734126 0.056604255 0.08373719 0.32238707
0.070762046 0.0045127203 0.0027783439 0.11560354 0.023855751 0.14511979 0.23004743 0.022839146
0.019434221 0.067104414 -0.003651463 0.031544853 -0.44013557 -0.09788302 0.024350777 0.003918402
0.06258618 0.40047053 0.03818111 -0.48480764 -0.21648265 -0.050164595 -0.019135373 0.17025997
0.017079096 -0.17062803 -0.3170349 -0.24094816 -0.07604447 0.0459415 0.042588096 0.10351671
-0.017535642 -0.03165247 -0.08141557 -0.037041448 0.0061862995 0.082663536 0.024523897 0.001366085
0.028513921 0.006123671 -0.015907766 -0.010036935 -0.05566542 -0.10808024 0.013952121 -0.12959573
-0.28126702 -0.0070176306 -0.0027994022 -0.25559568 -0.11239748 -0.054114204 -0.04174965 -0.29587206
0.10394128 -0.020442825 -0.31386545 0.11986778 -0.110070124 -0.09536455 -0.17820811 -0.022405451
-0.02065503 0.23366524 0.21607351 0.19611059 0.019364256 0.095145576 0.06751662 0.06485805
0.0693332 0.31233817 0.21221302 -0.17895721 -0.115381055 -0.11843278 -0.038063284 0.14665367
0.011444236 0.06994447 -0.1892924 -0.17200059 0.028346494 -0.04766948 -0.028222097 -0.050929893
0.11653211 -0.0022626536 0.031346522 -0.03543483 -0.048053592 0.1611474 0.10466786 -0.020150637

classifier.1.bias f4 [10]
00000000: b6dd 34bc a8c1 5c3f d42c 623d 5551 21be
00000010: b1a5 0fbe 3122 99bd aa2a edbd 64ed 3a3e
00000020: 2b49 d0be 20cb bcbd
-0.011039188 0.86232996 0.055218533 -0.15753682 -0.1402805 -0.074772246 -0.11580403 0.1825462
-0.40680823 -0.092184305
