model_weights/model_epoch_6.pth (torch, 34439 bytes, 10 tensors)

conv_block_1.0.weight f4 [10, 1, 3, 3]
000000 5a da f6 be 1e 46 02 3e 3c c5 d0 bd dd 06 84 bd
       -0.48213464 0.1272206 -0.101938695 -0.064466216
000010 79 0f ed 3e 4a 18 2a 3f bf 03 a7 be 4a 2f b4 bc
       0.46300867 0.6644331 -0.32620046 -0.021995205
000020 da 69 ea 3e f8 e5 4b bd 88 07 97 bd 2d fd 52 be
       0.45783883 -0.049779862 -0.07374483 -0.20604391
000030 d3 7a 07 be 2f 03 6a bc a3 79 94 be b7 fe 1c 3e
       -0.13230447 -0.014282986 -0.2899905 0.15331541
000040 e3 ed d2 bd fb 0a 9a 3d f5 17 ac be 87 47 b6 be
       -0.102992795 0.075216256 -0.33612028 -0.35601446
000050 61 47 32 3d e2 ef 3a 3d b3 a0 8f 3e b3 9b da 3e
       0.043525103 0.045638926 0.2805229 0.42696914
000060 69 bb f2 3d 83 eb 33 be 2e 41 ee be 69 16 83 3e
       0.11852152 -0.1757031 -0.46534103 0.25603035
000070 cb cc c3 3c b6 5d d7 3d 1a 52 02 3f 4b f7 f6 bd
       0.023901364 0.10515921 0.5090653 -0.12058886
000080 f7 99 ad be 06 b7 aa 3e 3c a5 15 bf f1 b3 c0 be
       -0.33906528 0.3334276 -0.5845525 -0.37637284
000090 7e 85 50 bd 99 04 26 3e 44 c9 cd be d3 7e 3c 3e
       -0.050908558 0.16212691 -0.40192616 0.18407755
0000a0 43 a8 ae 3e aa b2 57 3e c9 4a e9 3d ac e6 dc 3d
       0.34112749 0.21064249 0.11391217 0.10786185
0000b0 0a c9 38 be 26 d5 32 bf 12 ee 61 3e 78 bb 18 3e
       -0.1804544 -0.6985649 0.22063473 0.14915264
0000c0 9a 60 3e 3e 9e f7 03 3f aa c6 e2 bd 62 cc 96 bc
       0.18591538 0.5154971 -0.110730484 -0.018408004
0000d0 c5 a1 18 bd fe 14 a9 3e 00 98 06 3f bb 15 04 3e
       -0.03726365 0.33023828 0.52575684 0.12898915
0000e0 a4 d5 c3 be 95 40 b8 bd cd c1 08 bf 93 66 30 bf
       -0.38248932 -0.08996693 -0.53420717 -0.68906516
0000f0 44 a7 e7 be 62 09 25 bf 47 06 b0 3e be 17 e9 3e
       -0.452448 -0.6446744 0.3437979 0.45525926
000100 04 6b cb 3d 45 ee 29 bf dc 31 da 3e d5 46 e6 be
       0.09932521 -0.66379195 0.42616165 -0.44975916
000110 37 58 19 bf 54 48 4f 3d a6 af d1 3e b6 f6 e8 3e
       -0.5990023 0.050606087 0.40954322 0.45500726
000120 77 79 8b be ed 29 54 be 8d d5 dc bd 7a 46 9c 3e
       -0.27241108 -0.20719118 -0.10782919 0.3052252
000130 a5 d9 ad 3d c8 bd 81 be 3c b1 b0 be d8 12 91 be
       0.08488778 -0.25340104 -0.3451022 -0.2833469
000140 97 3a 6c 3e 3d c6 4c bf 58 a0 9f bf 68 d9 d2 be
       0.23069225 -0.7998999 -1.2470808 -0.41181493
000150 45 29 33 be 58 e4 0c bf 7d d4 a9 3e ab 52 36 3f
       -0.17496212 -0.55035925 0.33169928 0.7121989
000160 f8 8f 32 3f 43 8f 92 3e
       0.6975093 0.28624925

conv_block_1.0.bias f4 [10]
000000 59 96 2f be 54 de 0b be 77 f6 9a bb af 49 1c bd
       -0.17147197 -0.1365903 -0.004729088 -0.038156208
000010 67 30 12 be 75 11 70 be d8 90 80 3e dd 51 12 be
       -0.14276277 -0.2344416 0.25110507 -0.14289041
000020 4d ee bc 3d 3f 55 a2 3e
       0.0922514 0.31705663

conv_block_1.2.weight f4 [10, 10, 3, 3]
000000 25 ca eb bc 89 47 f1 bd e2 e2 5c bd 2f 0e 85 bd
       -0.028782913 -0.117812224 -0.05392731 -0.06496846
000010 a1 69 9c 3d 56 4f 4e bc 05 66 9b bd 7f c9 a0 3c
       0.076373346 -0.012592157 -0.07587818 0.01962733
000020 ab 4d ef bc e9 04 3b bd e6 f1 a6 3d 14 83 7f bd
       -0.02921184 -0.04565898 0.08151607 -0.062380865
000030 7f f0 a0 3c e7 ec a9 3d 94 2e b3 bd 7f 12 c7 3d
       0.019645927 0.08297139 -0.087491184 0.09720325
000040 d3 34 9a bd 36 e1 60 3d 8b a0 e9 3b 9a e1 0b bd
       -0.07529607 0.054902278 0.007129734 -0.034150697
000050 b4 ba b1 3d 75 c5 a5 3d 96 33 ea 3c 2e 29 b0 bc
       0.08678189 0.080943026 0.028589051 -0.021504011
000060 10 18 7f bb 35 ae c1 3d ec 1c af bd ec 1e 99 bd
       -0.0038924254 0.094570555 -0.08550438 -0.07476601
000070 b5 4f 9c bd d3 40 a6 bd ac 72 df 3c b5 1d 02 bc
       -0.076323904 -0.08117833 0.02727636 -0.007941653
000080 69 a7 a3 3c fc 5e 41 bd 0a ce 35 bc bd 06 74 bc
       0.019977288 -0.047209725 -0.011096487 -0.014894185
000090 28 c5 03 bd 53 8a 69 3c 26 71 dd bc 84 cb db bd
       -0.032170445 0.0142541705 -0.027031492 -0.10732177
0000a0 62 0c 70 3d f1 a7 cc bd e3 45 95 bd ee 43 b9 bd
       0.05860556 -0.0999297 -0.072887205 -0.0904616
0000b0 f0 03 4d 3c b8 39 9a 3d 85 35 8b bc 94 7e 0b bd
       0.012513146 0.0753054 -0.016993294 -0.03405626
0000c0 7e 46 1e bd 77 3e 0d 3d 70 46 66 bc 08 9f 44 bd
       -0.038641445 0.0344834 -0.01405488 -0.048003227
0000d0 ba 56 82 bc b3 aa 90 bc 84 7b b0 bd 21 46 69 bd
       -0.015910495 -0.01765952 -0.08617309 -0.056951646
0000e0 62 df 2b 3d 49 5f c5 bd 78 d1 9d bc 66 5a 05 bd
       0.04196108 -0.09637315 -0.019264922 -0.032556914
0000f0 39 1c cf bd d5 da 4f 3d 50 0f 90 bd 37 02 85 bd
       -0.10112805 0.050745804 -0.07034171 -0.06494563
000100 ac c8 8a 3d 4a f8 a0 3d 2d 42 a4 bd 43 8e 31 3d
       0.067765564 0.078598574 -0.080204345 0.043348562
000110 c4 c3 9a bd ce c1 0e bd 78 d3 94 bd a2 d3 9d bc
       -0.075568706 -0.034852795 -0.07266897 -0.019265953
000120 9d fc 32 3d ed 09 75 bd 8c 94 a8 3c 98 2b a1 bc
       0.043697942 -0.05982392 0.020578645 -0.019674107
000130 a2 56 76 bd 43 03 d4 3d e2 00 41 bb 67 ae 93 bd
       -0.060141213 0.103521846 -0.002944999 -0.07210999
000140 98 82 91 bd 6c 44 13 bd 2b f9 32 3d 5e 55 02 3d
       -0.07104987 -0.035953924 0.043694656 0.031819694
000150 84 cc 3f 3d b3 73 8f bd d2 37 d2 bd d4 25 ff 3c
       0.0468259 -0.0700449 -0.10264553 0.031145968
000160 9b 87 99 3d 0b 86 c5 bd c8 46 41 be 51 cf 8a 3d
       0.07496568 -0.09644707 -0.18874657 0.06777824
000170 ee 31 f7 3e f3 d7 a1 be 13 ca 01 be da cb af 3e
       0.4828028 -0.3161007 -0.12674741 0.34335214
000180 04 91 bf be c4 c5 a0 be f3 e7 01 3f 81 c9 b8 bd
       -0.37415326 -0.31400883 0.5074455 -0.09022809
000190 80 9a 8e 3c 37 f6 1b 3d 8a 3b 86 3d 2a 8c ef 3c
       0.017407656 0.038076606 0.06554325 0.02924164
0001a0 52 c6 12 bd 72 76 29 3d e3 5a ad 3d 04 28 a8 bd
       -0.035833664 0.041372724 0.08464601 -0.082107574
0001b0 b2 d1 cc bd 50 92 75 3d 4c 15 dc bd 9a dd fe 3d
       -0.10000934 0.059953988 -0.107462496 0.12444611
0001c0 12 88 4e bd 80 42 96 3d cb de 63 3d e0 92 a0 bd
       -0.050422736 0.073369026 0.055632394 -0.07840514
0001d0 62 aa a5 bd 5b d1 59 be 51 df 2c be 4a 85 41 bc
       -0.080891386 -0.21271269 -0.16882063 -0.011811564
0001e0 a3 0c e4 bd 52 c6 16 be 4b 48 99 bc 3b 09 23 3d
       -0.11135223 -0.1472409 -0.01871123 0.039803725
0001f0 b0 e5 0c be 2a eb 26 3d c0 f9 31 be 69 b9 78 be
       -0.13759494 0.040751614 -0.17380428 -0.24289478
000200 e2 0e 07 bd 94 a0 cb bd d4 61 02 be 86 37 bc bd
       -0.032973178 -0.09942737 -0.12732631 -0.09190278
000210 bc f8 11 bd ae 62 b9 bc 3f a4 24 be 75 ae 72 be
       -0.035637602 -0.022630062 -0.1607828 -0.23699363
000220 10 ee 05 be 9f f7 bb 3e 09 7e c9 bd f2 c3 0d be
       -0.13079095 0.36712357 -0.098384924 -0.13844278
000230 3b ce 75 3e 1c ab ca bd 7c ee f1 bd 75 2e d4 3d
       0.24004452 -0.09895918 -0.118130654 0.103604235
000240 2c 2e d3 bc 12 69 14 be 8d e5 5b be ca 59 be bd
       -0.025778852 -0.14493206 -0.21474285 -0.0929447
000250 ec 45 33 be 32 49 84 be 2d 4c d5 bd f8 92 32 be
       -0.17507142 -0.25837094 -0.1041492 -0.17438877
000260 73 0c e8 bd 34 2f d3 bc 56 2a 1d be ab 67 7f be
       -0.113304995 -0.025779344 -0.15348181 -0.2494189
000270 c5 88 e1 3d d9 ac b9 bd b0 c2 27 be c6 09 0a 3e
       0.11012415 -0.09066171 -0.16382861 0.13480291
000280 78 e6 9f bd c9 25 d4 bd 4d 1c 01 bd 0f 4d f9 bd
       -0.0780763 -0.103587694 -0.03152113 -0.12172901
000290 56 97 00 be 49 c1 ed 3c f5 e8 ea 3c af cf 2c bb
       -0.1255773 0.02902283 0.028675536 -0.0026368906
0002a0 20 aa 94 3b 4a 40 c7 bd ae 1d 51 bd 89 0b 84 3d
       0.004536882 -0.09729059 -0.051053695 0.06447513
0002b0 6a e9 81 3c 21 60 80 be a0 ad e3 3d 59 eb 8f bd
       0.01585837 -0.2507334 0.11117101 -0.07027311
0002c0 af fb 28 be 80 ae c3 3d e9 51 69 3d f7 44 46 be
       -0.1650226 0.095547676 0.05696288 -0.19362246
0002d0 47 70 f1 3c 63 5c 9a bc b1 ab da be b8 26 22 3e
       0.029472483 -0.018842882 -0.42709115 0.15835083
0002e0 9a cd 83 3d cd a0 a2 be b3 9f 96 bd ab a9 3c 3e
       0.064357 -0.31763306 -0.07354679 0.18424098
0002f0 3b cc 23 be 9f 6c 25 39 c5 dc d3 bd e0 b3 91 3c
       -0.15995876 0.00015776091 -0.10344843 0.017785966
000300 15 0a 0e bc cf a1 86 bd 4d 01 01 bc 8d 10 0c 3d
       -0.008669396 -0.06573831 -0.007873845 0.03419547
000310 e5 5e 94 3d af 37 a9 bd 09 2f 9d bc c6 e4 a6 3c
       0.07244662 -0.08262574 -0.019187467 0.02037276
000320 a7 5e fd bd e7 e8 7b 3e a4 5c d5 bc 4d 40 bc bc
       -0.12371569 0.24600564 -0.026045151 -0.02297988
000330 e8 6d 7f bd a7 16 bf bd 49 57 18 3c fe c1 e4 bd
       -0.062360674 -0.093304925 0.009298154 -0.111698136
000340 db 93 33 be 59 d1 87 3e b0 05 82 be 36 26 94 bb
       -0.17536871 0.26526907 -0.25394964 -0.0045211567
000350 f4 94 03 bb aa 27 2a 3e ad 9d ae 3e ba bc 02 3e
       -0.0020077797 0.16616693 0.34104672 0.12767306
000360 93 92 6d bd 01 b0 28 bc 1f 53 80 be b8 1b 4f 3e
       -0.058001112 -0.010295869 -0.25063416 0.20225418
000370 49 35 8b 3d df c4 70 3d df ff 3c 3e 5b 33 94 3d
       0.06797273 0.0587815 0.18456982 0.07236358
000380 14 bd 27 3d 8f 16 07 be 42 04 d1 3c d5 7f 63 be
       0.040951803 -0.13192199 0.025514726 -0.22216733
000390 c7 f5 bd 3c 49 fe 70 3e 71 a9 91 be f2 48 24 3e
       0.023188485 0.23534502 -0.28449586 0.16043451
0003a0 af 1c 2f 3e d4 97 b0 be fa 3b 9a 3d 5a 35 0d bd
       0.17100786 -0.34490836 0.07530971 -0.03447471
0003b0 ae b6 f1 3d a6 50 2b be 0a 54 4b be 9f 91 7b 3e
       0.118024215 -0.16729984 -0.19856277 0.24567269
0003c0 5c 57 f9 be 86 e2 b2 be e9 07 3d be 65 24 b7 bd
       -0.48699462 -0.3493845 -0.18460049 -0.089424886
0003d0 e1 00 42 bd cc eb 9f 3d a9 7c 1a be 99 9a 83 be
       -0.04736412 0.078086466 -0.15086617 -0.25703886
0003e0 ce 72 aa 3e 07 27 91 3c e0 31 b8 3d f7 bc ad 3e
       0.33290714 0.017718805 0.08993888 0.3393323
0003f0 63 c3 cc 3d 2d 97 11 bd b2 b1 a6 3c fe d2 f1 3d
       0.099982046 -0.035544563 0.020348404 0.11807822

conv_block_1.2.bias f4 [10]
000000 1a ff ad bd 67 58 0b 3d 63 3c 55 3f b4 6a 92 3c
       -0.084959224 0.034019854 0.8329527 0.017873146
000010 d3 e5 c1 3e 3a fd dc bd 09 6e ec 3e cd b0 54 3e
       0.37870654 -0.10790487 0.461777 0.20770569
000020 98 79 6f bd 4d e2 b8 3e
       -0.05846557 0.36110154

conv_block_2.0.weight f4 [10, 10, 3, 3]
000000 3a e8 39 3d 84 dd aa bd 28 ee 86 3d 36 ff 15 3d
       0.045387484 -0.08343032 0.065883934 0.03662034
000010 c0 37 12 3d d8 15 ff 3c 0c 2e d2 bd ce d3 4c 3d
       0.0356977 0.031138346 -0.10262689 0.05000668
000020 b4 e5 80 bd f6 73 1a 3c 5f 60 38 3c 59 b3 6b bd
       -0.062938124 0.009427061 0.011253445 -0.057544086
000030 ab ad 8d 3d ee a0 4b bd 6e d0 9a bd 8e db f2 bc
       0.0691789 -0.04971402 -0.07559286 -0.029645707
000040 35 4b 79 bc 5e df 7b 3d 3a 0b b4 3d a3 70 17 3d
       -0.015215685 0.061492316 0.08791204 0.036972653
000050 f3 15 85 3d 00 ee d2 3c 53 10 61 bd a4 aa 34 3d
       0.06498327 0.025748253 -0.05494721 0.044108048
000060 8b a0 e8 bd 77 2b d7 bd 46 07 44 3c ef b5 5f bd
       -0.11358746 -0.10506337 0.011964625 -0.054616865
000070 83 f3 9a bd bb 66 1d 3d 52 d5 f6 3d 05 6b b3 bd
       -0.075659774 0.03842805 0.12052406 -0.08760647
000080 f2 c3 05 3e 1d fe b4 3d e8 a8 ae 3d cc c3 6e 3d
       0.13063028 0.08837531 0.0852831 0.058292195
000090 0d fe 6f 3d 1d 25 4a 3d 4e 2f e6 bd e7 86 19 bd
       0.05859189 0.0493518 -0.112394914 -0.03748217
0000a0 04 04 08 bd be 30 a2 bd b9 75 ca 3c fc 6e 69 bd
       -0.033206955 -0.07919453 0.024714338 -0.05699061
0000b0 07 d0 79 bc e0 64 2e bd 22 1d 9e bc 1e 36 57 3d
       -0.0152473515 -0.04257667 -0.019301001 0.052541845
0000c0 f0 f5 b1 bc 9f 60 b6 3d ef 39 cd 3c a4 81 a0 3d
       -0.021723717 0.08905148 0.025052039 0.07837227
0000d0 f3 a0 a4 bd 57 74 91 3a 64 95 e2 bb 58 57 8a bd
       -0.08038511 0.0011097294 -0.0069147814 -0.06754941
0000e0 18 97 5a 3d a7 a2 dc bc c6 99 aa bc ca 19 51 bd
       0.05336675 -0.026933027 -0.020825278 -0.051049985
0000f0 25 e6 b3 bc 54 ce 14 3c 36 8c 1b be 14 4f b8 bc
       -0.021960327 0.009082396 -0.15190205 -0.022498645
000100 59 74 bc 3d dd c1 a0 bd 2b bb 03 be a7 b6 e2 3d
       0.09201879 -0.078494765 -0.12864368 0.110699944
000110 2b d5 b9 bd 72 c1 56 bc 66 8f e2 3c 21 d6 a8 3d
       -0.09073862 -0.013107644 0.027656268 0.08243967
000120 fe 04 f7 3d 94 38 52 bd 45 0b 86 bc 27 2d 6b 3d
       0.12061499 -0.05132349 -0.016362796 0.057416108
000130 ae 96 17 bd 87 10 2e bd dc 72 05 3d ab a6 00 3c
       -0.037008934 -0.04249623 0.03258024 0.007852237
000140 e4 5c 8e bd 5a 10 3a 3c 53 62 b6 bd 23 70 c5 bd
       -0.06951311 0.011356438 -0.089054726 -0.09640529
000150 64 a0 49 be b0 35 e3 3c 79 73 54 bd 48 b4 4f bd
       -0.1969009 0.027735561 -0.051867936 -0.05070904
000160 01 00 17 3d ba b2 33 bd ae b8 16 3d 34 03 b8 3d
       0.036865238 -0.04387162 0.036797218 0.08984986
000170 45 99 28 3b b9 f5 b3 3c 94 93 af 3d aa db aa 3d
       0.0025726121 0.021967756 0.0857307 0.08342679
000180 22 90 36 3d 09 5f 09 3d a9 a3 07 3d 1c d4 39 bd
       0.04457105 0.0335379 0.033115063 -0.0453683
000190 c8 92 34 3e 83 1f ea 3c 3e ef d7 bd 79 33 a7 3d
       0.17634118 0.02857948 -0.10543679 0.081641145
0001a0 35 e1 63 3d 95 61 43 3d af ef 04 3c 37 72 36 3c
       0.055634696 0.047700483 0.008113786 0.011135629
0001b0 fa 45 35 be 5a 25 b7 3e c0 dc 23 3e 31 c6 f5 39
       -0.17702475 0.35770684 0.16002178 0.00046877706
0001c0 8e 2b c5 3c 66 e0 a6 bd 35 95 d5 3e 92 47 5a 3e
       0.02406862 -0.08148269 0.41715398 0.21316364
0001d0 2d d5 8f bd e9 1e 5e bd db 00 a5 bb 68 c6 7f 3e
       -0.07023082 -0.054228697 -0.0050355024 0.2497803
0001e0 b5 82 9e 3d 49 14 8e bc a1 83 fd 3d e5 8a 8c bd
       0.07739774 -0.017343657 0.12378622 -0.068624295
0001f0 e0 04 b8 bc 5c 70 80 3d 98 84 d6 bd d0 27 6e 3d
       -0.022463262 0.06271431 -0.10474509 0.058143437
000200 31 00 e0 3d a5 bc 9f 3c 71 08 ec 3c 56 5d 8c bd
       0.109375365 0.019499132 0.028812619 -0.0685374
000210 15 8c 6d be 61 e0 46 be db cd 98 be ec fc 94 bc
       -0.23197968 -0.19421531 -0.29844555 -0.018187009
000220 dc 9d 6c 3c 52 fb 67 bd 18 aa cc bd a9 45 a5 3d
       0.0144419335 -0.056636162 -0.0999338 0.08069927
000230 dd 2f 63 3d 40 d2 e7 3c 71 65 3b bd e3 d3 96 3d
       0.055465568 0.028298497 -0.04575104 0.07364633
000240 d6 1c 2f 3e 1a d1 3d 3e e9 43 d4 3b e3 6e 89 3e
       0.17100844 0.18536797 0.006477822 0.26842412
000250 52 53 9e bd 5f e2 9d be 77 ed 0b bd cf 57 ab be
       -0.07730736 -0.3083677 -0.03416201 -0.3346543
000260 94 1f 42 be 17 52 6d bd 61 69 8c 3d a4 93 d2 bd
       -0.18957359 -0.057939615 0.06856037 -0.102820665
000270 09 f2 83 3e 61 c6 75 bc 56 d6 d6 bd df a2 a3 3e
       0.25770596 -0.0150009105 -0.104901 0.31960198
000280 32 ef 5e be 9d 98 ad bc 83 62 47 bd 4c 92 4c 3e
       -0.21770933 -0.021190936 -0.048677932 0.19977683
000290 46 c0 a1 3e a6 67 61 be fd f4 61 3d c9 05 f8 bc
       0.31592005 -0.22012195 0.05516528 -0.030276196
0002a0 37 92 49 3d 8a 25 81 3d 52 c9 9d bd 71 ab d7 be
       0.049211707 0.06305988 -0.077044144 -0.42122987
0002b0 c8 d9 73 be 51 81 97 be a7 ad 2e 3e 63 ff dd 3d
       -0.23813546 -0.29590848 0.1705843 0.10839727
0002c0 a4 d0 94 be bd 63 3d 3e b5 29 fb bd e8 4c 42 bd
       -0.2906543 0.18495078 -0.12263814 -0.047436625
0002d0 1f aa 0a 3d a7 3a d7 3c c9 3e 10 3d ed 54 9c bd
       0.033853646 0.026273085 0.035216127 -0.07633386
0002e0 bc 75 3e bd d3 0f a7 3c e8 cd 1c bc fa 43 d7 bd
       -0.046499 0.020393288 -0.009570576 -0.105110124
0002f0 b5 98 77 3d 14 cd 94 3c 99 70 ed bd b7 03 4b bd
       0.060448367 0.018164195 -0.11593742 -0.04956409
000300 2d bf 1d bd 19 84 3e be 4f 48 b3 bb 42 c6 5f bd
       -0.038512398 -0.18605079 -0.0054712663 -0.054632433
000310 c3 46 3d bd 3e 0b 0d bd ce 86 c8 bd 1c 9a 32 3e
       -0.04621006 -0.03443455 -0.09791337 0.174416
000320 97 4a 24 3e 55 4b 29 be 68 9d 5d be ef 8c 86 3d
       0.16044079 -0.16532643 -0.21642077 0.0656985
000330 d5 2c 71 be 28 1a 88 be e5 9a ba 3a 53 23 20 be
       -0.23552258 -0.26582456 0.0014236836 -0.15638475
000340 57 5b d6 be 86 78 a9 be ef 6b 65 3c a1 84 e6 3a
       -0.41866562 -0.33099765 0.014002784 0.0017587134
000350 74 c4 1f 3e 27 9b c3 bd b0 be ab 3e c4 48 26 3e
       0.15602285 -0.09551077 0.3354392 0.16238695
000360 54 ba b4 3d 6a 5e b1 be 91 72 be 3d 00 ce 14 3e
       0.08824602 -0.34642345 0.092991956 0.14531708
000370 3d e6 62 3e d4 4d e3 3e 50 a1 32 be 40 e1 2c be
       0.22158141 0.44395316 -0.17444348 -0.16882801
000380 fb 14 a0 bd cd 72 9e 3d b6 12 4f 3c 75 ce 25 3c
       -0.07816502 0.0773674 0.012638738 0.010120024
000390 57 ed ea bc 4a 0e b4 3d 4a 8d 30 3d d4 57 3a 3d
       -0.028677626 0.08791788 0.043103494 0.045493916
0003a0 2f ba 86 bd b2 91 1a bc d3 06 21 3e 04 51 7a 3e
       -0.065784805 -0.0094341505 0.1572526 0.24444968
0003b0 7d c1 09 3f b6 f7 f2 bd 46 2f 8a 3e e7 33 c5 3e
       0.53810865 -0.11863653 0.26989192 0.3851616
0003c0 0b af de be ce c6 e6 be 79 9a c2 be 02 29 39 3c
       -0.43492922 -0.4507355 -0.38008478 0.011301281
0003d0 96 bb a4 3e 7c 58 ad 3e 71 25 06 be 6a c5 66 3d
       0.32174367 0.3385657 -0.1310022 0.056340612
0003e0 12 c7 2a be 88 ca 9d be 5f 18 9c be 5b cb 39 bc
       -0.16677502 -0.30818582 -0.30487344 -0.011339988
0003f0 51 45 ab be 9c 0d e6 be b8 fc f8 bd 28 71 9a bd
       -0.33451322 -0.44932258 -0.12157577 -0.07541114

conv_block_2.0.bias f4 [10]
000000 a3 4b 96 bc fb be 33 bc ab ea ae bd 90 91 56 3e
       -0.018346613 -0.010970826 -0.08540853 0.20953965
000010 1c 70 fd bd 3b 5a bc bc 17 5c ce bd 30 31 0f be
       -0.12374899 -0.022992244 -0.100761585 -0.13983607
000020 fc de 74 3e 82 b8 80 3e
       0.23913187 0.25140768

conv_block_2.2.weight f4 [10, 10, 3, 3]
000000 25 f1 bc bd a4 0c 3e bd 74 b0 14 bc 5f 5a af 3d
       -0.09225682 -0.046398774 -0.009075273 0.08562159
000010 2d 9b 9a 3c 33 9f 60 3d 2d 4a 6d 3b b8 ca 93 3d
       0.018872822 0.054839324 0.0036207542 0.072164
000020 98 4e e5 bd e5 12 97 3e 60 2d 0c be bf 72 b0 bd
       -0.11196631 0.29506603 -0.13689184 -0.08615636
000030 f2 78 40 bc 5f be 83 bd f4 de 13 bd 92 c3 a7 3d
       -0.011747586 -0.06432795 -0.036101297 0.08191599
000040 28 aa 99 3d dd 7a ad bd 45 cd 0a 3e 26 9c 94 be
       0.07503158 -0.084707 0.13554867 -0.29025382
000050 3b e0 c0 be 62 31 b3 3e c7 ec 05 bf 4a 74 b3 be
       -0.37671074 0.34998614 -0.5231442 -0.3504966
000060 99 97 53 bd 5c b8 13 bf a4 60 a9 be dd 1a 56 bd
       -0.051658247 -0.57703185 -0.33081543 -0.052271713
000070 87 79 04 be ef 64 64 3e f9 e2 17 be 84 fe 0d be
       -0.12936984 0.22304128 -0.14832677 -0.13866621
000080 82 f2 6e 3e 80 d4 f4 3c 3d ff f9 3d 3e 7f b0 3e
       0.23334697 0.029886484 0.12206886 0.34472078
000090 9c 18 61 3e c3 81 89 be d4 e3 31 be ec e7 44 3d
       0.21982044 -0.26856813 -0.17372066 0.04807274
0000a0 fc 12 99 be b5 ca f2 bc bc fa 81 bd cd bb a9 3d
       -0.29897296 -0.029637674 -0.06346652 0.08287773
0000b0 91 e7 c6 3e ee 63 09 3b a4 af 8c be d9 55 2b bf
       0.38848546 0.0020964104 -0.27477753 -0.6692787
0000c0 d7 ac 49 3e 0b 1e b3 be 85 b1 b1 be 7f 83 69 be
       0.1969484 -0.34983858 -0.3470575 -0.22804068
0000d0 5e bf 27 bf ca cc c7 bc e7 b5 bd bd e2 b2 72 bc
       -0.6552638 -0.024389643 -0.09263211 -0.014813157
0000e0 7c b2 5f be 2c 38 5c 3e 0a de 28 bb 2f 4a d5 bd
       -0.2184543 0.21505803 -0.0025767111 -0.1041454
0000f0 6c d6 55 3e fd 13 90 3c 1a 07 8c 3d 34 0d 40 3e
       0.20882577 0.017587656 0.06837292 0.18755037
000100 43 fe ac 3d 34 94 4c bd c1 2b 16 bd 87 18 8d be
       0.08446934 -0.049946025 -0.03666282 -0.27557775
000110 72 4e 5f be a6 4b 6f 3d 81 7f ac be 04 d0 cc bd
       -0.21807268 0.058421753 -0.33691028 -0.10000613
000120 5a e5 51 bd 47 ba 18 be 20 a9 3f 3e 95 f6 cf bd
       -0.051244117 -0.14914809 0.1871686 -0.10154454
000130 ee f0 86 be bb 61 8d 3e a4 a7 6e 3b 1f 39 53 bd
       -0.2635569 0.27613625 0.003641584 -0.051568147
000140 b8 38 9a 3e 02 d3 e6 37 ff 7f 5f 3e 6b b6 08 bf
       0.30121398 2.7516395e-05 0.2182617 -0.5340335
000150 8c 40 e7 3e 9f be 02 3e 89 92 0f bf 96 00 b1 3e
       0.45166433 0.12768029 -0.5608297 0.3457076
000160 72 2e 86 be b5 c5 b5 be c3 cf 4f 3d 7b 6e dc bd
       -0.2620731 -0.355024 0.050735246 -0.1076326
000170 91 3e 9e bd 82 69 49 3d a0 2d fd 3b da e4 91 bd
       -0.07726777 0.049172886 0.007726386 -0.07123728
000180 c6 4b 63 3d 5a 96 7e bd b3 0f 29 bd e6 f6 ff bd
       0.055492185 -0.062155105 -0.041274738 -0.12498264
000190 9d 6b 93 be 4d 34 c2 be 01 71 ff bd b3 e0 58 be
       -0.2879304 -0.37930527 -0.12472726 -0.21179466
0001a0 81 3b 68 be 5c 03 2f 3c 21 08 27 bd 84 a9 07 3d
       -0.22678949 0.010681953 -0.040779237 0.033120647
0001b0 61 2e 1b 3f b7 09 93 bd 21 33 9b 3e 23 3f 6e 3e
       0.60617644 -0.07179587 0.30312446 0.23266272
0001c0 d9 eb 67 3e 5a 7a 7b be c7 5d 9a be e0 06 98 be
       0.22648562 -0.24558392 -0.3014967 -0.29692745
0001d0 1c 0a 39 bf 50 c2 89 bd c3 95 b2 3d d5 a5 e9 3d
       -0.7228105 -0.06726515 0.08719971 0.11408583
0001e0 48 6a 1b be fd 74 76 be 96 80 f2 3d 61 1b 5e 3d
       -0.15177262 -0.24068065 0.11840932 0.05422533
0001f0 f2 af ae bd ad 77 82 3d 47 93 61 3d 73 99 6c be
       -0.08529653 0.063704826 0.055072095 -0.23105411
000200 6c 0f 0b bd 37 50 82 be 64 dd 89 be 64 aa 1a 3d
       -0.033950254 -0.25451824 -0.2692672 0.037760153
000210 33 5e b5 be 2c 42 93 3d e6 25 2c be 13 06 1a bf
       -0.3542343 0.07190356 -0.16811332 -0.6016552
000220 62 db 92 3d 0f 71 aa 3e f7 72 17 bf 56 fd 1f bf
       0.0717075 0.33289382 -0.591598 -0.62495935
000230 e4 bc 1b bf f1 1b 45 3e 17 ab 67 3d de 53 c5 bc
       -0.608351 0.1924894 0.05655965 -0.024087843
000240 a8 ac 0f be 05 9e 28 be b5 ca 99 be 5f 3c b4 bd
       -0.14030707 -0.1646653 -0.30037466 -0.08800577
000250 c0 16 0f be c0 30 81 be 3b bd 40 3d 9e e6 0f 3c
       -0.13973522 -0.25232506 0.047055464 0.008783011
000260 96 30 da bd 94 96 0c be b0 95 92 bc 24 f9 29 be
       -0.10653798 -0.13729316 -0.017893642 -0.16598946
000270 3c d0 18 bf f3 35 08 be e3 04 9d be 18 63 66 bd
       -0.5969274 -0.1330183 -0.3066779 -0.056246847
000280 3d 93 80 3e bd f8 dd 3e 97 0b fc 3d 17 29 85 3d
       0.25112334 0.43353835 0.12306898 0.06501978
000290 ca ff 21 bc b0 f2 6d be 05 7e 28 be 65 0c 04 bf
       -0.009887645 -0.23237109 -0.16454323 -0.5158141
0002a0 54 67 0b 3f eb 0d 9b 3e 9a f8 af 3c 83 04 4a 3e
       0.5445454 0.30284056 0.021480847 0.19728284
0002b0 9a 6d 5b 3d 47 31 9e 3e 96 86 53 be 9e f2 57 bd
       0.05357132 0.3089697 -0.20656809 -0.052721612
0002c0 5f 25 e4 bd 2c 5e 96 be 00 1d d1 be f5 97 03 bf
       -0.111399405 -0.29368722 -0.40842438 -0.51403743
0002d0 d1 fb 64 3d bc f1 e3 3c 0e fd d6 3d 81 3d 7c 3d
       0.055904213 0.027825229 0.10497485 0.061582092
0002e0 bb 6b 33 3d e6 e1 6f 3d ef 3f b4 bd 45 a9 0d 3d
       0.04380391 0.058565043 -0.08801257 0.034585256
0002f0 48 53 aa bd 8b a3 8f 3e 2e 8e f7 bd c8 f5 57 bd
       -0.08316666 0.2805446 -0.120876655 -0.05272463
000300 be a2 48 3c cf d8 4a be f0 ad 68 3d a0 38 27 be
       0.012245832 -0.19809268 0.056806505 -0.16330194
000310 35 f3 35 be f3 96 86 3d 19 97 e8 be d0 bd 17 be
       -0.17768557 0.0657176 -0.45427778 -0.14818501
000320 f5 55 90 bd 5b ff a1 be 4c 11 8a bd 29 b0 14 be
       -0.07047645 -0.31640133 -0.0674158 -0.14520325
000330 f1 c9 af 3e c9 7d 89 3a 9c b0 68 3a eb 37 16 3d
       0.34333757 0.0010489757 0.00088764145 0.03667442
000340 bf 41 80 3e 60 bc 51 bd 3b 8c 96 bd cf d9 ae bc
       0.2505016 -0.05120504 -0.073509656 -0.021344094
000350 de 66 c9 bd ed 7d ed bd c7 1d 2a be 5e 24 d1 bd
       -0.098340735 -0.11596284 -0.16612922 -0.102120146
000360 8b ed 26 be f0 21 84 3e 55 13 2a bd 4c 23 82 be
       -0.16301553 0.25807142 -0.041522343 -0.25417554
000370 e9 99 c9 3c 1e 8e a4 be 42 cc 0a be 13 6b a0 bd
       0.024609523 -0.32139677 -0.1355448 -0.07832923
000380 ba 58 90 be 85 55 74 bd b4 79 0c bf cc fc 99 3c
       -0.28192693 -0.05965187 -0.54873204 0.0187973
000390 df f6 08 bf 81 55 44 be 36 29 5b 3d ad 52 ef 3e
       -0.53501695 -0.19173242 0.0535061 0.46742764
0003a0 d1 fa 14 3f 41 c4 1a bd 62 18 53 3e 4e f3 97 3e
       0.58195215 -0.03778482 0.2061477 0.29677814
0003b0 f2 d7 ed 3d 11 92 d7 3c b6 13 89 bd 13 13 62 3d
       0.11613454 0.026314767 -0.06693213 0.05519397
0003c0 53 f3 3b 3c 21 0c 97 3d a4 7e 5c 3d dc f5 fc 3d
       0.011471587 0.0737536 0.05383171 0.123515815
0003d0 df a7 1e bc 61 a4 a1 3e 3d 42 04 3e 8e 7c 9d be
       -0.009683578 0.31570724 0.12915893 -0.3075909
0003e0 6d 7e 42 3e 46 52 a5 be bc 28 bf bd 64 ae b8 3d
       0.1899354 -0.32289332 -0.09333941 0.09017637
0003f0 3e 40 0a be 55 d9 be bd 7d 97 c7 bd 33 a4 f9 be
       -0.13501069 -0.093187965 -0.09745691 -0.48758087

conv_block_2.2.bias f4 [10]
000000 a7 18 08 be 78 36 89 bd c0 a3 38 3c 8d 8c 72 bd
       -0.13290654 -0.06699842 0.01126951 -0.05921607
000010 80 d6 1e 3c 74 dd cb be e8 90 8b bc 66 6e 6c 3c
       0.0096946955 -0.39817393 -0.01703687 0.014430618
000020 c0 53 10 be 7a 56 53 be
       -0.14094448 -0.20638457

classifier.1.weight f4 [10, 490]
000000 4d bb ca bd e3 8b 03 be 8d f3 ec 3c 4d 52 6b bd
       -0.09899006 -0.12846331 0.028924728 -0.057451535
000010 af 16 16 bd 26 22 14 bd 92 27 eb 3b 4e 9b c1 bc
       -0.036642727 -0.03616538 0.007176348 -0.023633625
000020 2e 5a 8a bc 22 36 83 3d b0 f7 70 be f7 8f 97 be
       -0.016888704 0.064068094 -0.23531985 -0.29602024
000030 2d ae 07 bf 5a 4a 91 be 1e ea 84 3e ee 19 ab 3d
       -0.53000146 -0.28377038 0.25959867 0.08354555
000040 f0 b9 bb bd e1 91 cd bd d6 0c 21 be b1 b5 e3 be
       -0.09166324 -0.1003759 -0.15727553 -0.44474557
000050 0a 1a 23 be 75 46 61 3e 14 6f 2b 3e ae cd 05 be
       -0.15927902 0.21999533 0.16741592 -0.13066742
000060 36 9c 88 3e 41 67 f0 3d cf b3 3a 3e 77 ea 54 3d
       0.2668168 0.11738444 0.18232654 0.051981416
000070 02 a6 0a 3e 3d 37 21 3b 10 c8 79 be fb aa 4c 3e
       0.1353989 0.0024599575 -0.24392724 0.19987099
000080 31 71 b1 3e 9f 8d ae 3e 2b 0b 80 3e d2 43 cc 3d
       0.3465667 0.34092423 0.2500852 0.09973873
000090 df 86 16 bd ae ed 9a be 0f cd 4b be a6 c6 af bc
       -0.036749717 -0.3025946 -0.19902442 -0.021457028
0000a0 ba d0 a1 bc 61 c4 95 bd 62 75 d5 bc 72 cf 21 bc
       -0.019752849 -0.07312847 -0.026056949 -0.009876119
0000b0 0f 01 db bc 90 9a 91 be 1c 1d ad be b3 22 13 be
       -0.026733903 -0.28438234 -0.3381127 -0.14368705
0000c0 d8 1a c7 bd 99 73 7b bc 69 de 71 bd 39 10 56 bd
       -0.09721917 -0.015347385 -0.059049997 -0.052261565
0000d0 a1 81 06 3c 4c 7d c3 3d 50 cf e9 3c 3b 41 97 bb
       0.008209617 0.09545383 0.028541237 -0.0046159304
0000e0 98 76 6e 3c db bc 47 3d 49 08 6e bd b2 29 f9 3c
       0.014554642 0.04876409 -0.05811337 0.03041539
0000f0 76 1b 11 bc 3f 87 6c bd 92 88 e2 bc a0 8c fd 37
       -0.008856645 -0.05774617 -0.027653012 3.0225434e-05
000100 59 9e 42 be a2 b2 7c be 30 19 89 be 00 94 6f be
       -0.19005717 -0.24677518 -0.2677703 -0.23396301
000110 ee 2b 7d bd 3d b6 24 bd ca ca e0 bd 68 39 0e bf
       -0.061809473 -0.04021286 -0.10976179 -0.55556345
000120 da 3c 46 bf 5a 44 6b be 9a 36 02 3e 12 35 3a 3d
       -0.774366 -0.22975293 0.12716141 0.045460768
000130 8f ae e6 bd 77 5c 0b bd 19 08 b5 be 7e e0 fa be
       -0.11263763 -0.03402373 -0.3535774 -0.489994
000140 66 86 cc be df 03 c0 bd dc 22 cc bc a0 02 6d 3b
       -0.39946288 -0.09375738 -0.024918966 0.0036164895
000150 0c c2 2c bb ac c9 b2 3d 33 4d 35 3c 9d 48 e9 3d
       -0.0026360778 0.08729872 0.011065769 0.11390803
000160 66 e3 38 3e 6d 81 d6 bd d6 3c f9 bc 9b 9a 06 3d
       0.18055496 -0.10473905 -0.030424517 0.032862287
000170 b0 3a d8 3d e3 42 66 3e 02 70 a6 3e 35 47 83 bd
       0.10558069 0.22486453 0.3250733 -0.06410066
000180 cf 84 d6 bd 20 90 e0 3b f4 a2 13 3d 2e 0f d0 3c
       -0.1047455 0.0068531185 0.036044076 0.025397863
000190 90 85 05 be 14 7e 0b bd dc 57 53 bd 5e c5 84 3d
       -0.13039231 -0.034055784 -0.05159746 0.06482957
0001a0 38 3d 8e 3b 71 31 eb bb 98 0a 62 bd ac 6b e9 bb
       0.004340794 -0.0071775247 -0.055185884 -0.007123431
0001b0 a8 fa 87 3d 2a f6 02 3e f9 f9 14 be 8c 24 01 3c
       0.06639606 0.12789217 -0.14548482 0.007882249
0001c0 ad 5a c6 3c ed 28 18 bd 0f 3f 76 3c dd 1f c8 bd
       0.02421316 -0.037148405 0.015029683 -0.097717024
0001d0 de 67 c1 be f7 93 98 be b3 4f c9 bd f0 ce 7e 3c
       -0.37774557 -0.29800388 -0.098296545 0.015552267
0001e0 ba e7 c1 3b d7 7b 1d bd 50 c9 e6 be 96 e0 15 be
       0.0059175165 -0.03844818 -0.45075464 -0.14636454
0001f0 fe 89 7a bd d7 a3 4e be 9d df fd bc f0 34 46 bd
       -0.061166756 -0.20179687 -0.030990416 -0.04839033
000200 b2 90 1c 3d 41 8e 46 3e 5f 05 6f 3e 53 95 5e bc
       0.03822393 0.19390203 0.23341893 -0.013585406
000210 5a 56 ac bd 62 30 f4 bb 9c 65 88 bc 2b cb bb bd
       -0.08414908 -0.0074520567 -0.016650014 -0.091696106
000220 a5 61 51 3e 95 c2 74 3e f4 7d 12 3d 81 1d 3b bd
       0.20447405 0.23902352 0.03576465 -0.045682434
000230 2d 01 e0 3c c6 bf df 3c 27 f9 09 bc fe bc 7e 3b
       0.02734431 0.027313124 -0.008421219 0.0038869972
000240 52 28 14 3d fa 3b 53 bc e5 f3 8e 3a 0b 0e 40 bc
       0.036171265 -0.0128927175 0.0010906426 -0.011722098
000250 a2 3c 93 bd c3 40 9e bd 77 da ed bb 43 90 60 bd
       -0.07189299 -0.07727196 -0.007258709 -0.05482508
000260 c6 25 e7 bc 2d 85 1f 3d 41 50 83 bd 7b fb f8 bd
       -0.028216254 0.038945366 -0.064117916 -0.12157341
000270 85 09 4c be f3 31 08 bd a5 b4 86 bd cf a8 7f bc
       -0.19925506 -0.03325076 -0.06577424 -0.015604212
000280 1f 5d 45 bc 42 d7 b5 bd bc 1c a3 bd 2d 24 16 be
       -0.012046128 -0.08878948 -0.07964465 -0.14662237
000290 0d bf 8b be 0a 66 e1 3d 5e a4 6a 3e 72 0d 7a 3c
       -0.27294198 0.110057905 0.22914264 0.015261995
0002a0 55 49 2b bc bc d4 d4 3c 99 e0 94 3e dd b5 77 be
       -0.010454495 0.025980346 0.29077604 -0.24190469
0002b0 9e d0 a5 3e 3c 62 da 3e e3 61 37 3d a0 39 52 3b
       0.32385725 0.42653072 0.044771086 0.0032077804
0002c0 5d 58 bb 3d 01 d6 58 bc 6d 46 bf be c7 70 bb 3d
       0.09147713 -0.013234616 -0.37358418 0.0915237
0002d0 78 71 5a 3e 71 9c 82 bc ae 90 6c 3d 4b 7b 0a 3e
       0.21332347 -0.015943738 0.057755165 0.13523595
0002e0 48 80 99 3e 47 d7 04 be 8e ca 9e be 17 bf 10 be
       0.29980683 -0.12972747 -0.31013912 -0.14135395
0002f0 55 6c b0 bc 3b 0b ad 3c f8 4d 89 bc e8 dc 72 3c
       -0.021536032 0.02112352 -0.016760811 0.014823176
000300 84 24 f9 bd 51 bd 5b be da ea 5d bd 1a 79 7c bd
       -0.12165168 -0.21458937 -0.05417905 -0.06163893
000310 03 5b c7 bb f7 3c b4 bc b5 a9 08 3d 76 42 3c 3c
       -0.0060838475 -0.022001727 0.03336497 0.011490455
000320 44 de 7c 3d 6e aa 5a 3d 93 31 93 3d 70 27 ea 3c
       0.061735407 0.05338519 0.0718719 0.028583258
000330 bb 96 cc bd 0d b5 8e bd 15 14 44 3d 63 cf 70 3e
       -0.09989687 -0.069681264 0.047870714 0.23516612
000340 52 f7 9b 3d 41 ab b4 3c 8a bf 9a bd ec 47 34 be
       0.07615532 0.022054316 -0.075560644 -0.17605561
000350 49 d1 34 be cf c2 63 bd 8b 96 9f 3d b9 67 8d 3d
       -0.17657961 -0.055605706 0.07792386 0.06904549
000360 72 b7 26 3b 6d d5 43 be 85 68 b2 be 48 63 d7 be
       0.0025438932 -0.19124384 -0.34845367 -0.42067933
000370 59 5f 27 3e 21 fb 21 3e 82 de ae bd cc e9 06 be
       0.16344966 0.15818454 -0.08538534 -0.13175124
000380 53 c3 ec 3b 3a da cc bd 46 cc a7 bd ee 66 58 3e
       0.007225433 -0.10002561 -0.08193259 0.21133015
000390 3e b0 2d 3e 06 d9 14 bd 2d 19 30 3d fc 4d 42 3c
       0.16961762 -0.036339782 0.04299276 0.011859413
0003a0 a1 ac bf bc 9d 04 11 3e 0b 51 f0 bc 74 d6 16 be
       -0.023397746 0.14161916 -0.02933552 -0.14730245
0003b0 cf f5 02 bc e3 a6 2c bd 0b a8 d6 3c 90 95 66 3d
       -0.007993176 -0.042151343 0.026203176 0.056294978
0003c0 cc 56 4d 3d 16 ab a2 bd ec f2 a3 be 2d fb 7e bd
       0.050131604 -0.07942788 -0.32021272 -0.06225126
0003d0 a3 e5 55 3c 09 7f c0 bc bb a5 af bd a4 83 30 bb
       0.013055238 -0.023498075 -0.085765325 -0.0026933933
0003e0 24 f7 84 3d 4f 5b de bc 25 41 1c bc d6 13 1a bd
       0.06492451 -0.027143149 -0.009537016 -0.037616573
0003f0 fe 3a 72 bd d2 45 e4 3c fd c7 82 3c 1a 59 38 be
       -0.05913829 0.027865324 0.015964502 -0.1800274

classifier.1.bias f4 [10]
000000 65 4a 13 bd 1d 02 c5 3e f1 68 36 3e b5 a3 82 be
       -0.03595962 0.38478175 0.1781347 -0.25515524
000010 ab 7e de bd a3 87 77 3c 8b bb b6 bd 30 a8 33 3e
       -0.10864004 0.015108022 -0.0892249 0.17544627
000020 13 1c c3 bd 92 06 41 be
       -0.09526839 -0.18850163
