model_weights/model_epoch_2.pth (torch, 34439 bytes, 10 tensors)

conv_block_1.0.weight f4 [10, 1, 3, 3]
00000000: a987 d7be eee0 c03d 9426 0bbe 3c1f efbb
00000010: d031 d93e 3fff fe3e 2fb0 ccbe 9e5a ee3c
00000020: 6854 8f3e 437a 4bbd 8907 97bd 4cfd 52be
00000030: f733 07be d3f1 69bc 227c 94be 5aca 203e
00000040: 17c1 d1bd 7881 9b3d b3b9 86be 455e b5be
00000050: e8de 92bd 6965 673c add5 363e 9828 bb3e
00000060: 0c21 cb3d bfa4 1fbe e812 a4be 1af7 f83d
00000070: 221c cf3d 0b53 393e 5d54 f13e 6d87 fc3d
00000080: ab79 3cbe 5340 0e3e 8072 f1be 362b 7bbd
00000090: a8be e9bd 8f2c 5c3d 86d4 72be ef3e 3c3e
000000a0: 4d4f 753e df7f a83d d9b3 233e a2c2 fd3d
000000b0: 1a95 babd cfef 06bf 78f9 283e ca21 3c3e
000000c0: f604 283e e7c3 e83e 6d53 fdbd a5d0 67bc
000000d0: 8566 a33d 49cf 0f3e 5914 bc3e 7c8c 283e
000000e0: 87ad 8dbe 591a 6fbe 99cf 00bf 7f09 f8be
000000f0: a59c b9be e5ad fabe 2b25 963e c73c 963e
00000100: 8618 373e 56f8 14bf e68b e33e b39f 99be
00000110: 687f 9fbe 4407 f63c ba48 8e3e 22e3 003f
00000120: fd4b 78be 1ee4 59be 54ff c7bd 2177 9c3e
00000130: 0fda 473d 9e6b 81be fe18 a1be 65b5 8fbe
00000140: 267d 443e 6357 40bf 2784 71bf 24b1 e8be
00000150: afa4 b0bd 7afb fbbe 7879 bb3e ba75 313f
00000160: a798 183f 8656 fc3e
-0.42095688 0.09417902 -0.13588935 -0.0072974246 0.42420816 0.49804112 -0.39978167 0.029095944
0.27994084 -0.049677145 -0.07374484 -0.20604438 -0.13203417 -0.014278847 -0.29000956 0.15702191
-0.10241907 0.075930536 -0.26313552 -0.35423484 -0.07171422 0.014123299 0.17854948 0.36554408
0.099184126 -0.1559019 -0.32045674 0.12156506 0.10112788 0.18098085 0.47134677 0.12330518
-0.18405788 0.13891725 -0.4715767 -0.061320506 -0.11413318 0.053753432 -0.23713884 0.18383382
0.23956032 0.082275145 0.15986575 0.12390639 -0.0911047 -0.5270967 0.16501415 0.18372265
0.16408142 0.45461962 -0.12369428 -0.014148866 0.079785384 0.14043917 0.36734274 0.1645984
-0.27671453 -0.23349895 -0.5031677 -0.48444745 -0.36252323 -0.48960796 0.29325232 0.29343244
0.17880449 -0.5819143 0.44442672 -0.30004653 -0.3115189 0.030032761 0.2778986 0.5034658
-0.24247737 -0.21278426 -0.09765497 0.30559638 0.04879194 -0.25277418 -0.3146438 -0.2806808
0.19188365 -0.7513334 -0.94342273 -0.45447648 -0.08625161 -0.492153 0.3661611 0.6932026
0.5960793 0.49284762

conv_block_1.0.bias f4 [10]
00000000: 7e02 59bc 16c2 07be 442d 6c3d 5a78 f7bd
00000010: d50d 9bbc 8406 94bd 6e74 af3e eaa4 98bd
00000020: 32bd b73c 8fcf d13e
-0.013245223 -0.13257632 0.057660356 -0.12083502 -0.018927494 -0.07227805 0.34268516 -0.0745333
0.022429083 0.40978667

conv_block_1.2.weight f4 [10, 10, 3, 3]
00000000: 943b ddbc 42fa e9bd 3b06 4dbd 67ac 85bd
00000010: 85ae 9d3d 0af2 1cbc d7f0 9dbd ae9e 9c3c
00000020: 9241 02bd 6204 3bbd 67f2 a63d 4e82 7fbd
00000030: 83f0 a03c e7ec a93d 942e b3bd 7f12 c73d
00000040: 4d35 9abd 36e1 603d 45d5 eb3b b1e9 0bbd
00000050: 04ae b13d cdaa a43d 492b e53c 6575 b2bc
00000060: 2847 7cbb 1a4a c13d 6e0a afbd 7847 99bd
00000070: a077 9cbd 100b a6bd e0da f93c 0661 a0bb
00000080: 8a6c af3c fe35 29bd a3d7 00bc 0f10 5bbc
00000090: 42e9 d5bc 9c6b 9f3c 48fe b7bc 6eed d5bd
000000a0: 6f67 793d 57e1 c7bd dc49 94bd fda4 b8bd
000000b0: 4057 523c 2dc8 a53d 09ec 4abc ca43 ebbc
000000c0: b363 21bd ab3d 0c3d 6dc5 4ebc 32b6 48bd
000000d0: be94 85bc fb9b 94bc a28f b3bd fa44 6abd
000000e0: 68a0 2b3d 3a86 c4bd a3dc 9dbc d8a7 05bd
000000f0: 9d46 c8bd c97c 643d 3216 89bd 1c38 70bd
00000100: 200b 9a3d 102e a73d 7f40 a4bd 13de 303d
00000110: b36e 9dbd 644d 0dbd d02c 95bd 754d 92bc
00000120: 602a 333d 4787 71bd b99e a83c a26f a0bc
00000130: 8b7f 76bd 4870 d23d 64a1 43bb 67ae 93bd
00000140: 9982 91bd 722a f0bc 383c 763d aeaf 473d
00000150: 9c52 373d 3dd8 91bd 12d7 d5bd 3fb8 f73c
00000160: df42 983d 09d8 c4bd b5dc 39bd 56d8 903d
00000170: 120e b23e 7072 4abe c6d0 adbd ccd5 3e3e
00000180: 0a23 36be 710b 0cbe dd6d 993e e7cc b8bd
00000190: f35c 8e3c 37f6 1b3d 223e 863d 2c8f ef3c
000001a0: 52c6 12bd 61cc 293d c267 ad3d 951d a8bd
000001b0: a224 c0bd a764 a23d 6fcf 47bd 1671 d93d
000001c0: baa6 19bd ca52 a43d bbfc 283d 98b7 a4bd
000001d0: f867 90bd ba85 f1bd 2a10 d7bd 5915 3dbb
000001e0: e9ca c8bc 25aa 8dbd 094b 0bbc 8eb8 9a3d
000001f0: 0c3f 05be fa20 5e3d c365 54bd 3013 e8bd
00000200: 89f8 fb39 a744 9abd 3326 a0bd 6877 b8bd
00000210: a0f9 e0bd 992e bdbc 658e c3bd b1ff cfbd
00000220: 0af9 ddbd 2ae7 403e ab20 44bd 969b 16be
00000230: 179a 2f3e 941b 03be 59f4 87bd 7516 963c
00000240: 4654 3abd 8b5b 01be 2e9a 18be 863c ad3c
00000250: defd 96bd 107a 30be 47ba 013d 9f41 d5bc
00000260: b5c9 e0bc e7ee aabc cc80 9abd de67 55be
00000270: c336 b23d 3f81 0fbd 25fa 05be f3e7 463d
00000280: ba7c f1bc 9c8d 9dbd d1aa acbc 3f54 d8bd
00000290: 08c4 cbbd a9aa 123d 90be 093d eb3c f23a
000002a0: 5c96 f93c 06e7 85bd d61d 3abd 8517 943c
000002b0: 667e 313d e3b5 0fbe d9e1 0f3d 0d54 adbc
000002c0: fe20 d9bd 3c41 84bd cb6b 4e3c 789b 97bd
000002d0: 2b9b 9f3d 8d5c 4c3c a946 abbe 4c41 8d3e
000002e0: e24c 81bd 2483 c3be 6d43 6c3d 4697 c73d
000002f0: a71b 3ebe 9a98 0c39 d745 d4bd 25e4 943c
00000300: beea 0cbc 05f1 86bd 8353 02bc ed12 0c3d
00000310: ad78 943d d4a1 a9bd f236 39bc 6b3a 9b3d
00000320: 0bc0 7dbd e272 393e 77b6 a1bc 281d 9ebc
00000330: d45f 62bd 24fc bebd 4ab7 953c f40d 823d
00000340: fc1f 02be 415d 033e 184d 76bd d8f7 5d3c
00000350: e658 993c 41c7 363e 3f1e 803e 629a 4f3d
00000360: dab3 01bd a586 e63d 06fc c6bd 6851 f43d
00000370: 84be c53c 3642 a73c bb1c 063e 695b 213e
00000380: 5713 b33d 9671 22bc 0bb2 993d cead a8bd
00000390: 6c8c e33d 6072 853e 9eb9 85be 611e 813e
000003a0: 1851 133e a311 8abe 2af0 0bbd 6c7e 18be
000003b0: b714 0abd f82c 33be 250c 17be 4b33 933d
000003c0: 19ce a4be f494 9abe 7929 d9bd 6f7b d4bc
000003d0: 3fbe c83b b21f 8f3d 0e7b f4bd e9de 21be
000003e0: 2e1c 843e bedc 863d 7f4c d63d 5d86 903e
000003f0: c33f bb3d 8610 33bd 76b5 833c 1f25 c33d
-0.027005948 -0.11424686 -0.05005477 -0.06527024 0.076993026 -0.009579191 -0.07711952 0.019118633
-0.031800814 -0.045658477 0.08151703 -0.062380128 0.019645935 0.08297139 -0.087491184 0.09720325
-0.075296976 0.054902278 0.0071970546 -0.034158412 0.08675769 0.0804039 0.027974742 -0.021784494
-0.003849456 0.09437962 -0.08546911 -0.07484335 -0.07640004 -0.08107579 0.030499876 -0.0048943786
0.02141406 -0.041311257 -0.007863912 -0.013370528 -0.026112203 0.019460492 -0.022460118 -0.10445677
0.060889658 -0.09759777 -0.0724065 -0.09015844 0.012838185 0.08094821 -0.012385377 -0.028718848
-0.03940172 0.0342385 -0.012620312 -0.04900188 -0.016306277 -0.018140784 -0.0876763 -0.057194687
0.041901022 -0.09595914 -0.019270247 -0.03263077 -0.097790934 0.055783067 -0.066936865 -0.05864726
0.07521653 0.081630826 -0.08020114 0.043180536 -0.0768713 -0.034497634 -0.07283938 -0.0178592
0.043741584 -0.0589669 0.020583497 -0.01958448 -0.06018023 0.10275322 -0.0029850835 -0.07210999
-0.07104988 -0.029317115 0.060116023 0.048751526 0.044756517 -0.07121322 -0.10441412 0.030239223
0.0743463 -0.09611518 -0.0453765 0.07072513 0.3477636 -0.19770217 -0.08487086 0.18636245
-0.17786804 -0.1367624 0.29966632 -0.09023457 0.017378306 0.038076606 0.0655482 0.029243074
-0.035833664 0.041454677 0.08467056 -0.08208767 -0.09381987 0.07929354 -0.04878181 0.106172726
-0.03751252 0.08023603 0.041256648 -0.0804283 -0.070510805 -0.117930844 -0.1050113 -0.0028851836
-0.024510818 -0.06917218 -0.0085017765 0.07554732 -0.13012332 0.054230668 -0.05185486 -0.11331785
0.00048059624 -0.07532626 -0.07819786 -0.0900715 -0.10985112 -0.023093509 -0.09548644 -0.10156191
-0.10838516 0.18838182 -0.047882717 -0.14707789 0.17148624 -0.12803489 -0.066384025 0.018321255
-0.045490526 -0.12632577 -0.14902565 0.021147024 -0.0737264 -0.17234063 0.03167179 -0.026032267
-0.027439931 -0.02086587 -0.07544097 -0.20840403 0.08701851 -0.035035368 -0.13083704 0.048561048
-0.02947842 -0.076930255 -0.021077545 -0.10562944 -0.09949499 0.035807285 0.033629 0.001848129
0.030467205 -0.06538205 -0.04543861 0.018077621 0.043333434 -0.14034228 0.035127494 -0.021158243
-0.10601996 -0.06457755 0.012598942 -0.074027 0.07793268 0.012473238 -0.33452347 0.2758888
-0.06313492 -0.3818599 0.05768149 0.0974565 -0.18565236 0.00013408289 -0.103648834 0.018175194
-0.008600889 -0.065889396 -0.007954481 0.034197737 0.072495796 -0.082828194 -0.011304604 0.07579502
-0.061950725 0.1811023 -0.019740326 -0.019301012 -0.05526717 -0.09325436 0.018275876 0.063503176
-0.12707514 0.12828542 -0.060132116 0.01354786 0.018719148 0.17849447 0.25023076 0.05068434
-0.03166566 0.1125615 -0.097160384 0.119295895 0.024138696 0.020417314 0.13096897 0.15757526
0.08743923 -0.009914776 0.07504662 -0.082362756 0.11110768 0.26063824 -0.26118177 0.2521849
0.14386404 -0.2696658 -0.034164585 -0.14891976 -0.03371116 -0.17497623 -0.14750727 0.07187518
-0.3218849 -0.30191767 -0.106036134 -0.025937764 0.0061261947 0.06988467 -0.11937533 -0.1580769
0.2580275 0.06585072 0.10463809 0.2822751 0.09143021 -0.04371693 0.016077738 0.09528565

conv_block_1.2.bias f4 [10]
00000000: 6494 a0bd b517 143c ab8d 763e 6d57 cd3d
00000010: 5cd1 1e3e 297b cfbd 8d01 ea3e 9c51 753e
00000020: 3d2d b6bd 70b9 963e
-0.07840803 0.009038855 0.2407748 0.10026441 0.15509552 -0.10130913 0.45704308 0.23956913
-0.08895347 0.29438353

conv_block_2.0.weight f4 [10, 10, 3, 3]
00000000: 44d6 393d 33de aabd e0e7 863d d4f6 153d
00000010: 0b9d 123d be10 ff3c 01e8 d1bd 0b1e 4d3d
00000020: 33cb 80bd 4e14 92ba b3d9 6dbb f6b5 13bd
00000030: 2d7b 883d c281 38bd 3e39 32bd 51c6 abbc
00000040: 9fa6 5fbc 8d03 a43d fdaf 9f3d 7a13 013d
00000050: 8995 3e3d 7e42 4f3d 8834 93bd 5e2a fd3c
00000060: e958 d3bd 0c94 e2bd 0142 403c 9eae 4fbd
00000070: 127e 57bd c422 3c3d 8f3d f63d 42a4 96bd
00000080: e578 b83d 7dc2 c33d 23a9 a63d 6296 1a3d
00000090: 3e4c 693d d6b8 873d d524 d3bd 8dfa 94bd
000000a0: 14dc 4bbd d582 d2bd 6f46 613d 596c 1abd
000000b0: e2a3 adbb 7009 2ebd 4c11 9ebc ba3b 573d
000000c0: fcd0 b1bc 3161 b63d 344f cd3c d181 a03d
000000d0: b49c a4bd 0652 8f3a cef7 0db9 05a4 aabd
000000e0: 5dbd 763d d9ea 7dbc 31be d2bc 0c64 31bd
000000f0: 3fb1 d83a 3877 a63c 6ecd e7bd f85b 6abc
00000100: 0f9b 983d 0e1a aabd 7358 edbd 89a6 d43d
00000110: 9d00 97bd 6d56 86bc 78a7 f93c 4229 c43d
00000120: 9cc6 ac3d 804f 02bd 39ff edbc ef8b 1e3d
00000130: 9386 f7bc 8e5c 44bd 8360 5c3d f727 ee39
00000140: 1506 98bd 1282 2c3d 67c1 a8bd 6fcf c7bd
00000150: 7cee 19be ded8 083d ad1e 38bd 536f 8fbd
00000160: 6af7 373d cd7c 6fbd 1bae 173d 4775 b83d
00000170: 9bae 6c3b 1c3e b53c 669d af3d 9a1b ab3d
00000180: 42e8 393d 6b81 0f3d 0dd7 093d b483 f8bc
00000190: 12d1 b83d 4128 e13c ede1 94bd 96b4 4b3d
000001a0: 5f79 5e3d 4e17 563d e620 a63c 434e 3d3c
000001b0: 2661 2cbd 0c50 8d3e e802 d73d 84da 9f3d
000001c0: 0f95 693c 90c6 abbd f5aa 6b3e c66f e43d
000001d0: c856 a5bd 9249 19bd aefd 8cbc a956 413e
000001e0: 2ec8 f33d 2d34 b3bb ecca 223e caa6 44bd
000001f0: 313e f93b bd06 ce3d cf85 41bd 4519 953c
00000200: f2d1 9d3c c007 9c3d 0396 d73c 3dbc 16bd
00000210: c893 e0bd 7c4f 83bd 2f38 3fbe b76e 96bc
00000220: 8651 693c 45b2 67bd 4741 ccbd d91f a53d
00000230: ca6e 633d f4ff e63c 7d6c 3bbd 53b3 963d
00000240: ee3c 233e 0775 493d ca18 3d3d acd9 ef3d
00000250: 6c6a a5bd e3c1 59be 85ec 5b39 a1ba 45be
00000260: 047d 8ebd 4811 4c3d bade 26bc 1007 aebd
00000270: 25f4 d53d b98b 17bd 5c28 9ebd ea41 403e
00000280: 58a2 0abe 3f42 9cbd b944 88bc c0d9 1a3e
00000290: e672 483e d45c 00be fd97 b13c 7baa 20bd
000002a0: 53f1 7d3c ca0e b93a 34b3 a13b fa4c 33be
000002b0: f04f 2fbe 75d2 04be 50f8 333d 6850 48bd
000002c0: 36d0 33be 9ad7 563e 6dc2 8fbd 7a23 8c3b
000002d0: da76 0a3d c68a ed3c 3488 103d 66d3 9dbd
000002e0: 2211 41bd 78e4 a53c 62d7 29bc f375 d6bd
000002f0: aeb1 7b3d 312a 9e3d 630d 8ebd a13c 67bd
00000300: fc08 edbc 9475 babd 7477 95bd ecda 593c
00000310: 6619 703d f10b 64bd 8e84 45bd 126e fb3d
00000320: 1aa3 433e ca54 13be c4df bcbd ef37 51bc
00000330: cba9 93be f54c 97be 7864 29be 96db d6bd
00000340: 9052 8bbe ff67 36be 7ac5 113d a282 00bc
00000350: 7083 6dbc f251 84bd 2abb 433e 433f e13d
00000360: 2bde 083e 668f 65be 54d1 883d c2eb c83d
00000370: 1fd4 d33d 0946 8b3e a6b0 13be 813a 7cbd
00000380: ece0 b43c 0821 9e3d 7f77 4c3c feb8 233c
00000390: 76ee eabc 9542 b33d c6b6 2e3d 5a01 3a3d
000003a0: ccdc 86bd a4ba 20bc 0b3d 633e 088f 9a3e
000003b0: 03b8 fc3e 63ae 263d 90ff 473e 37fb 8f3e
000003c0: 583d cfbe 30d0 c1be c8ae b7be fbf3 babc
000003d0: 6313 283e e733 b43e f8bd 07be ad48 e33d
000003e0: a87a a93a 791d a2be 01cd 60be 614f 8bbd
000003f0: cb7d 63be 39c5 6bbe ff12 b4bd 525f e1bd
0.045370355 -0.083431624 0.065871954 0.036612347 0.0357943 0.031135913 -0.10249329 0.05007748
-0.06288757 -0.0011144967 -0.003629309 -0.036062203 0.06664119 -0.04504562 -0.04351162 -0.020968588
-0.013650565 0.0800849 0.07797239 0.031512715 0.046529327 0.05060052 -0.07187754 0.030903991
-0.10319693 -0.11063394 0.011734487 -0.050703637 -0.052610464 0.045931593 0.1202346 -0.073555484
0.09007434 0.0955858 0.08137729 0.037741072 0.056957476 0.066270515 -0.103097595 -0.07274351
-0.04977043 -0.102788605 0.05499881 -0.037700985 -0.0052990774 -0.04248947 -0.019295357 0.052547194
-0.021706097 0.089052565 0.025062181 0.078372605 -0.08037701 0.0010934479 -0.00013539122 -0.083320655
0.060239185 -0.015497887 -0.025725456 -0.043308303 0.0016532316 0.02032052 -0.113184795 -0.014304154
0.0745145 -0.08305751 -0.11589136 0.103833266 -0.07373164 -0.016398633 0.030475363 0.09578182
0.08436319 -0.0318141 -0.029052364 0.03870767 -0.030215537 -0.04793983 0.05380298 0.00045424674
-0.07423035 0.042116232 -0.082400136 -0.09756362 -0.15032381 0.033409946 -0.04495113 -0.07003655
0.044913687 -0.05846863 0.037031274 0.09006744 0.0036114815 0.022124343 0.08574943 0.08354874
0.045387514 0.035035532 0.033652354 -0.030336238 0.09024252 0.027485015 -0.072696544 0.049732767
0.054314967 0.05226832 0.02027936 0.011554304 -0.042084835 0.27600133 0.10498601 0.078053504
0.01425673 -0.08387482 0.23014434 0.111541316 -0.08073193 -0.037423678 -0.017210808 0.18880714
0.119034156 -0.0054688663 0.15897721 -0.048010625 0.0076062907 0.10059879 -0.04724675 0.018200526
0.019265149 0.07618666 0.026316648 -0.03680061 -0.10965687 -0.06411645 -0.18673776 -0.01836334
0.014240628 -0.056566495 -0.09973388 0.08062715 0.05552558 0.02819822 -0.04575776 0.07358422
0.15941212 0.04918387 0.04616622 0.117114395 -0.08076939 -0.21265368 0.00020973578 -0.19309475
-0.069574386 0.04982117 -0.010184938 -0.08497441 0.104469575 -0.036998484 -0.07722542 0.18775144
-0.13538492 -0.07629823 -0.016634332 0.15122128 0.1957508 -0.12535411 0.021678919 -0.039225083
0.015499431 0.0014118787 0.0049346928 -0.17509833 -0.17120337 -0.12970908 0.04393798 -0.048904806
-0.17559895 0.20980683 -0.07019506 0.00427669 0.033804752 0.028996836 0.035286143 -0.07706337
-0.04713548 0.020250544 -0.010366293 -0.10471716 0.061448745 0.07722891 -0.06936147 -0.056454305
-0.028934948 -0.091044575 -0.072981745 0.013296824 0.05861797 -0.05567545 -0.048222117 0.122768536
0.19105187 -0.14387813 -0.092223674 -0.012769683 -0.2884048 -0.295509 -0.16542232 -0.104911014
-0.27211428 -0.17813109 0.03558872 -0.007843645 -0.014496669 -0.06460942 0.19114366 0.10998394
0.13366 -0.22417983 0.06680551 0.09810592 0.10343193 0.2720187 -0.14422855 -0.06157923
0.022079907 0.07721144 0.012479662 0.009992836 -0.02867816 0.08752934 0.042654775 0.045411445
-0.065850824 -0.009810124 0.22191255 0.3018725 0.4935914 0.040693652 0.19531083 0.2812135
-0.4047649 -0.37854147 -0.35875535 -0.022821417 0.16413645 0.35195848 -0.13256061 0.11097846
0.0012930231 -0.3166311 -0.21953203 -0.0680225 -0.22215955 -0.23024453 -0.08792686 -0.11004509

conv_block_2.0.bias f4 [10]
00000000: 0210 89bd aa53 503c e590 b6bc 5f83 0f3e
00000010: 7b41 1bbd 2a22 cd3d a4fe 9dbd 3d24 c0bd
00000020: f359 903e b271 043e
-0.066925064 0.01271526 -0.022285888 0.14014958 -0.037904244 0.10016282 -0.077145845 -0.09381912
0.28193626 0.12933996

conv_block_2.2.weight f4 [10, 10, 3, 3]
00000000: 7c07 bfbd dd42 0ebd f324 b63c 69a6 673d
00000010: 8349 113d 5df1 9b3d 2636 dabc af3c a03d
00000020: c7fb dfbd c517 663e 0f17 8bbb 7453 c9bd
00000030: dcfd 473c a34e 8fbc 4cdc c8bd b899 b43c
00000040: 378b 093d 0452 95bd cf8e 9e3d 6055 5cbe
00000050: 2b23 c0be e92c 813e e28d dabe e647 bcbe
00000060: 153d 06be 3717 dfbe 54ae 41be 4948 1bbd
00000070: 43e0 edbd 67f8 f43d c1c4 b1bd 498a e9bd
00000080: 4d10 0f3e f8a5 47bc a542 d33d 6828 7a3e
00000090: 5704 d43d 2e97 87be c5ad 00be 3648 183c
000000a0: 9faa 8bbe b5b5 55bd efca 03bd c3fe 833d
000000b0: 61d4 643e 5c3d 993d d764 8fbd 3da2 0ebf
000000c0: 2026 633e ccb9 b3be 6899 73be d361 64be
000000d0: 1381 17bf 4370 55ba 9fe2 82bd 5c2c 5e3c
000000e0: 7356 a5bd bbf5 b73d 6ec7 c03c 7bd8 b8bd
000000f0: 14ea 3e3e ecaa bd3d b226 923d e6ac 803d
00000100: f469 1c3e bd34 de3b e2dc 863d b9e9 20be
00000110: 167f 1ebe 80c7 263c 1091 77be 71ea 07be
00000120: efe2 b2bd 955d c4bd 35ad b03e 981d 43bd
00000130: ac71 51bd 8e36 dd3e af67 9dbc 10af 7c3d
00000140: efb3 863e 0691 30bd cdfc 0a3e c3d7 cdbe
00000150: d56b ed3e b80f 853e e5cd fdbe 19ea a53e
00000160: e44d 36be edf3 8ebe 0cae 4e3d 4278 c9bd
00000170: d714 a3bd d331 383d 3a72 1d3c d3c7 adbd
00000180: 3184 403d 8b73 81bd e979 41bd 403d aabd
00000190: a8c2 5fbe ce45 5dbe 06fa 51be 9a30 3fbe
000001a0: ec81 13be 7684 21bd 67cb 1b3d 9a39 cb3d
000001b0: 04e8 023f 1e9e 52bc 9752 593e 9ebe 183e
000001c0: 2588 0a3e ca1d c0bd 8f00 8abe 3313 9abe
000001d0: eac3 0dbf ec1c bcbd 401f bcbd 41a8 1fbd
000001e0: b851 99bc 32a1 1bbe a47f ed3d 4360 b33d
000001f0: a8a2 58bd 31d0 de3d defa 7d3d 3e5a 91bd
00000200: 9169 873d d681 26be d9c1 a4bd 185c 0f3d
00000210: 77be 7abe 0439 893a c09d 9fbd b9ce 1dbf
00000220: 85ef 9c3d 74a9 853e 4f74 15bf a903 ffbe
00000230: 866e 0abf 2c29 1a3e db80 c63d 4838 3e3e
00000240: b4c5 c9bd 7f53 d2bd 0e53 4bbe 676d a0bd
00000250: f776 1dbe e924 3dbe 4edd 273d 75aa 933c
00000260: ccd3 a2bd bc7e 45be 5d7b b7bd 3ba5 3ebe
00000270: 8daf 00bf b8c3 a8bd 7ad4 8fbe 6030 46bd
00000280: e780 993e 6e68 b93e fd26 af3d cc43 c03b
00000290: e997 03be 03df 84be f142 43be b65c c3be
000002a0: f67d eb3e ebcd 7e3e d849 063e acb7 803e
000002b0: db3e 163e e4cb da3c 2d2f 78be 510c a7bd
000002c0: 48fc 2dbd 91ae 83be ea54 a6be c0a3 d3be
000002d0: 55cc 273d 9f2e 213d 93fa bb3d 1671 6a3d
000002e0: 67bc 543d 1ce3 793d 8dc5 acbd a448 133d
000002f0: 5edd b8bd e943 b53d 31b4 06be 1d7e 5c3d
00000300: a994 17bd f940 12be 0077 423c c18e a03c
00000310: 0b06 39be 51b3 fcb9 9f58 82be c37a a7bd
00000320: 8847 79bc 9a97 6abd 875a 263b 9507 c7bd
00000330: f385 02bd 7439 85bd 7d27 653d d544 8bbd
00000340: eb9b 123e ffff 173d 7ec1 06bd 4f70 babd
00000350: 8046 07bd d9b5 69bc f194 b7bd f4c2 b4bd
00000360: 5ad2 b5bd 30b1 723e f5b1 083e 4b93 a43d
00000370: 7794 04bd bde5 2dbe 3b4d 11bd eeab ebbd
00000380: ba2f a9bd 6635 58be 977e ccbe d87e f9bb
00000390: 1f09 adbe 3a70 44bd b914 173e 56bf df3e
000003a0: 86df c93e 7a1e debd 40d8 823d b37f 0d3e
000003b0: 5baf c53c b5c1 f13c 84a3 61bd 030e 1b3d
000003c0: b2bd 823d 0c7d af3d 85c9 3a3d e1a7 dd3d
000003d0: f9ed cb3d 3981 a13e 51d2 a83d d465 55bd
000003e0: c75a 0c3e 6ed4 91be 1ac7 a8bd 77b7 0b3d
000003f0: b5f0 2dbe 62ab 7cbd 5e87 08be e899 97be
-0.093275994 -0.034731735 0.022234416 0.056555185 0.035470497 0.07614396 -0.026637148 0.078240745
-0.109366946 0.22470005 -0.004244692 -0.098303705 0.012206521 -0.017493552 -0.09807643 0.022045955
0.03358003 -0.07291034 0.07742082 -0.21516943 -0.3752683 0.25229576 -0.42686373 -0.36773604
-0.13109238 -0.435724 -0.18914157 -0.037910733 -0.1161504 0.119614415 -0.08680106 -0.11403329
0.13971062 -0.012185566 0.10315446 0.24429476 0.1035239 -0.26482528 -0.12566288 0.00929456
-0.2727861 -0.052175242 -0.032175954 0.06445076 0.22346641 0.074824065 -0.070016555 -0.55716306
0.22182512 -0.3510269 -0.23788989 -0.22302942 -0.59181327 -0.00081420335 -0.06390881 0.013560381
-0.080731295 0.08982416 0.023532595 -0.090256654 0.18643981 0.092611164 0.07136287 0.06282978
0.15274793 0.0067811892 0.06585099 -0.15714158 -0.15478167 0.0101794 -0.2417643 -0.13273026
-0.087346904 -0.09588162 0.34507146 -0.047635645 -0.051133797 0.43205684 -0.01921448 0.06169039
0.26309153 -0.043107055 0.13572998 -0.40203676 0.46371332 0.25988555 -0.49571148 0.32405165
-0.1780315 -0.27920476 0.050458953 -0.098373905 -0.07962959 0.04496939 0.009609753 -0.08485379
0.047001068 -0.06320866 -0.047235403 -0.08312464 -0.21851599 -0.2160866 -0.20505533 -0.18670884
-0.1440503 -0.039432965 0.038035776 0.09923096 0.5113528 -0.012855081 0.21222912 0.14916465
0.13528498 -0.09380682 -0.2695355 -0.30092773 -0.55377066 -0.09185204 -0.09185648 -0.03897882
-0.018715724 -0.1519821 0.11596611 0.08758595 -0.052889496 0.10879553 0.062006824 -0.070972905
0.06611932 -0.16260466 -0.08044786 0.034999937 -0.24486719 0.0010469262 -0.0779376 -0.6164356
0.07662872 0.26105845 -0.583806 -0.4980748 -0.54074895 0.15054768 0.09692546 0.18576157
-0.09852162 -0.10269832 -0.19855902 -0.07833367 -0.15377413 -0.18471111 0.040982537 0.018025616
-0.07950553 -0.19286627 -0.089590766 -0.18617718 -0.5026787 -0.082404554 -0.28091794 -0.048385978
0.29981157 0.36212486 0.08552358 0.005867457 -0.12850918 -0.25951394 -0.19068505 -0.3815667
0.45994538 0.24883239 0.13114107 0.2514013 0.14672415 0.02670855 -0.24236746 -0.08156646
-0.042476922 -0.2571912 -0.3248666 -0.4133587 0.04096635 0.039351102 0.091786526 0.057236753
0.051937487 0.061007604 -0.08436117 0.035957947 -0.090265974 0.088508435 -0.13154675 0.05383121
-0.037007008 -0.14282598 0.011869192 0.01959932 -0.18068711 -0.00048198787 -0.25458238 -0.08177712
-0.015214808 -0.057273485 0.0025383548 -0.09718243 -0.031866025 -0.06505099 0.055945862 -0.06800238
0.1431729 0.03710937 -0.032899372 -0.091034524 -0.03302622 -0.014264547 -0.08963955 -0.08826247
-0.08878012 0.23700404 0.13349135 0.080359064 -0.03236815 -0.1698217 -0.035474043 -0.11507402
-0.08261056 -0.2111412 -0.3994033 -0.007613998 -0.3379602 -0.04795859 0.14753999 0.43700665
0.39428347 -0.10845657 0.06388903 0.13818245 0.024131468 0.029511312 -0.05508758 0.03785516
0.06383838 0.08568773 0.04560234 0.10823036 0.09957499 0.31543902 0.0824324 -0.052099064
0.13706504 -0.28482383 -0.082411006 0.034110513 -0.16986354 -0.06168688 -0.13332888 -0.2960961

conv_block_2.2.bias f4 [10]
00000000: 9d9d 99bd cce8 a8bc 8690 24bd 7273 8fbd
00000010: 7ad2 333d 7b9c 93be 48b7 c73c a322 3fbd
00000020: cfe3 92bd aadf d0bd
-0.075007655 -0.020618819 -0.04017689 -0.07004441 0.043901898 -0.28830323 0.024379387 -0.04666389
-0.07172357 -0.101989105

classifier.1.weight f4 [10, 490]
00000000: f587 acbd 56c6 b0bd 621d de3a acf6 ddbc
00000010: f9c3 33bd 06e4 0dbd 5fa7 273c 1c41 46bd
00000020: 56da 90bc 76a1 b23c 4167 f0bd 0657 91be
00000030: 50ec a2be 98e9 1fbe bab7 403e 928d 3f3d
00000040: d8b1 91ba 89ec 6ebd 4c97 d5bd 1a4c 90be
00000050: 3311 91bd f9e4 253e df69 453e b18f da3c
00000060: 75e2 743e a5f4 153d d8f1 bc3d 616e fb3d
00000070: 7316 cf3d 9196 123d c835 d8bd bc92 e23d
00000080: 3aa0 8b3e 0f76 853e f50d 443e 3a7c 583d
00000090: d2c3 a0bc ec4a 71be 42a3 34be 331a c03c
000000a0: 044d b1bd ff46 aebc 39ff d9bc b645 81bb
000000b0: d13b 0cbd aa55 39be 18f7 1ebe 810e c2bd
000000c0: f746 9abd 1bde 5dbc d88a 4dbd 24ea 283c
000000d0: f685 a539 82b5 163d 2c43 043b 9963 c23b
000000e0: 125a 023c d343 2cbc 4784 b3bd 761a 58bd
000000f0: 94df 943c a7cd a1bc 54e0 dcbc 25b5 0e3c
00000100: 5fac efbd af23 1fbe 0e06 96bd 52e1 fdbd
00000110: c275 4dbc b0d2 d1bc 9db6 6bbd 9cb9 cebe
00000120: d1ef 0cbf e230 3cbe 765d 513e ade6 ec3d
00000130: b715 b3bd 643a 46bc 5590 87be a3e0 dfbe
00000140: 51cb a7be a523 bdbd 6002 babc fd06 8a3c
00000150: fcb8 8e3c 453a 893c 87d2 d0bc f4c7 c03d
00000160: 73c1 323e ea6c 6bbd 6ffc df3b dd54 f63c
00000170: a88a 793d a542 523e 056d 8e3e 1625 4b3c
00000180: 251b 72bd c2cd 9e3c 45fa ff3c 6167 ea3c
00000190: 9fbb f9bd a746 183d 6423 06bd 197d 773d
000001a0: 649c 1ebc cc09 0fbc 17df acbd 7dc9 4d3d
000001b0: 8aed 913d a6af c43d 5643 d5bd fc72 c1bb
000001c0: e9c4 c53c c79c de3b 5591 253d 0b22 1fbd
000001d0: 02eb a4be 3eed 88be 5cc5 ebbd e08a e93b
000001e0: 3249 83bd eb27 9dbd e584 cabe 1fc5 debd
000001f0: 6f0c d1bc a2e7 f2bd 4116 ffbc 03d9 c2bc
00000200: 70cc a6bd c2e7 153e 8f9c 423e dd61 7b3d
00000210: 5ceb 5ebd 8fcc 82bb f40c 51bc be39 95bd
00000220: 2dc0 0b3e 61cb 3c3e 23c9 fe3b 4d37 42bd
00000230: 2a27 863c de18 a13c c415 e0bb 6eda 65bc
00000240: a425 b53c 852b 28bd 468f 33bc b460 1fbb
00000250: e7f1 71bd 8c2e b2bd 002d ecbc b390 b2ba
00000260: e11f 04bd 4079 1a3d 57d7 51bd 5c45 f1bd
00000270: 9c86 b2bd 3006 62bd a47c c7bc b12b edbc
00000280: 43a2 43bc e145 8fbd c614 73bd be44 50bd
00000290: 4643 1cbe 0718 fe3d dee9 273e cbd4 a53c
000002a0: b0ca d1bc 6a18 493c d582 323e 1633 57be
000002b0: 5290 0d3e 6b11 bb3e 6ccc 563d 8b50 9bbc
000002c0: b2b9 313e cec5 ca3c c9db 80be 76fd 3c3d
000002d0: 6ef1 3f3e abee 91bc 11c3 1d3d bd19 b33d
000002e0: 91d4 553e da8b 95bd 61ee 61be 2081 c6bd
000002f0: b513 dbbb 3e3a cb3c 97e9 ffbc 202a 953b
00000300: eb64 a9bd 6ca6 dcbd 34c1 07bd 1b2d 2dbd
00000310: c8ba 18bc 4625 84bc 2fb6 693c bfc1 1f3d
00000320: efde 6dbc dc3a 303c aa54 213d 8e2b 183d
00000330: d2e4 9dbd d69c 1cbd e7ca 2a3d c2c5 c53d
00000340: 87a2 5cbb 9775 f0bc 789f 49bd 8705 c3bd
00000350: ed77 bdbd b1ee e7bc aa2e af3c 4494 56bc
00000360: 5c3e d33c 035b e6bd 6a0f 70be aca9 9fbe
00000370: 7870 913a 7d11 c53d 988b e1bc 86fa 3dbd
00000380: 9327 8f3b d3ce ecbd fa29 9fbd d9cd e43d
00000390: b2ad 813d 394a 35bb 16f0 263d 5c49 323c
000003a0: 411d 3e3d 6d6d 053e 677c 3bbc 1548 81bd
000003b0: be4a 3dbb f12b f0bc b727 ac3c d8ac 71bc
000003c0: 815b d13d 120d 0cbd eb3f 11be 80cf b1bc
000003d0: e734 433c 6ad0 c1bc 7d97 b0bd 855e 3e3c
000003e0: 06e7 293d 5be2 9dbc a3db b1bc 5f9a 19bd
000003f0: f62f 74bd f5f2 7b3c 34a2 913c 60aa debd
-0.08424369 -0.086315796 0.0016946013 -0.027095161 -0.043888066 -0.03464129 0.0102327755 -0.048401937
-0.017682236 0.021805506 -0.11738444 -0.28386706 -0.31820917 -0.15616453 0.18820086 0.04676587
-0.0011115624 -0.058331046 -0.10429248 -0.2818306 -0.070833586 0.16200627 0.19278668 0.026679846
0.23914512 0.036610264 0.092258155 0.122769125 0.10111704 0.035788123 -0.10557133 0.110631436
0.2727068 0.26066634 0.19145949 0.052852847 -0.019624624 -0.23563737 -0.17640403 0.023449993
-0.08657268 -0.021274088 -0.026610957 -0.003945078 -0.034236733 -0.18099084 -0.15523946 -0.09475423
-0.07533067 -0.013541724 -0.05018124 0.01030973 0.0003157106 0.036794193 0.002018164 0.005932283
0.007956045 -0.010514217 -0.08765464 -0.05275961 0.018173017 -0.019751383 -0.026962437 0.00871018
-0.11702799 -0.15540956 -0.073253736 -0.12396492 -0.012540283 -0.025613159 -0.0575472 -0.40375984
-0.5505343 -0.18378022 0.20445809 0.115674354 -0.08744376 -0.012098882 -0.26477304 -0.43726072
-0.32772306 -0.09235314 -0.02270621 0.016849035 0.017422192 0.016751418 -0.025491012 0.09413138
0.17456608 -0.057476915 0.0068355124 0.030069763 0.06092325 0.20533235 0.2781755 0.012398979
-0.05910792 0.019385222 0.031247267 0.028613748 -0.12193989 0.037176754 -0.032748595 0.060422037
-0.009680841 -0.008730363 -0.084409885 0.050240982 0.07125385 0.09603815 -0.10413234 -0.0059036
0.024141746 0.0067935917 0.040421803 -0.038850825 -0.32210547 -0.267435 -0.11512253 0.007127151
-0.06410445 -0.076736294 -0.39554515 -0.108774416 -0.025518624 -0.11860587 -0.031138541 -0.02378512
-0.08144462 0.1463919 0.19005035 0.061372627 -0.054423675 -0.0039916704 -0.012759436 -0.07286404
0.13647528 0.18436958 0.007775442 -0.04741602 0.016376097 0.019665178 -0.006838532 -0.0140291285
0.022112675 -0.04105713 -0.010959452 -0.0024319114 -0.059068587 -0.08700284 -0.028830051 -0.0013623446
-0.032256965 0.03771329 -0.051230755 -0.117808074 -0.08717081 -0.055181682 -0.024351425 -0.028951498
-0.011940542 -0.0699575 -0.059345983 -0.050846808 -0.15260038 0.124069266 0.16397807 0.02024307
-0.025609344 0.012273887 0.17432721 -0.21015581 0.13824585 0.36536726 0.052441046 -0.018959304
0.17355993 0.024752524 -0.25167683 0.046140157 0.18744442 -0.017814001 0.038516108 0.087451436
0.20881869 -0.07302065 -0.2206359 -0.096925974 -0.006685699 0.024808045 -0.031239314 0.004552141
-0.08271202 -0.1077393 -0.033143237 -0.042279344 -0.009321876 -0.016131055 0.014264627 0.03900313
-0.014518484 0.010756221 0.039387383 0.037150912 -0.0770966 -0.038235508 0.04169741 0.0965686
-0.003366621 -0.029352946 -0.049224347 -0.09522539 -0.0925139 -0.02831206 0.021384556 -0.013096873
0.025786571 -0.11247828 -0.2344338 -0.31184137 0.001109614 0.09622476 -0.027532384 -0.046381496
0.0043687313 -0.11562886 -0.07771678 0.11172075 0.06331958 -0.0027662648 0.040756308 0.010881748
0.046414617 0.13030024 -0.011443234 -0.06312577 -0.002888366 -0.029317828 0.021015031 -0.014750682
0.10222531 -0.034192152 -0.14184539 -0.021705389 0.011914468 -0.02365895 -0.08622644 0.011619215
0.041480087 -0.019272974 -0.021711176 -0.037500735 -0.05961605 0.01537775 0.01777754 -0.1087234

classifier.1.bias f4 [10]
00000000: 7e40 74bd b32e 333e 9317 063e ffd4 d9bd
00000010: f3ce acbd 9c1c 423d b068 ecbd e66e a83d
00000020: 4954 063d b177 f9bd
-0.059631817 0.17498283 0.1309493 -0.10636329 -0.0843791 0.047390565 -0.11543405 0.08224277
0.032795224 -0.121810324
