model_weights/model_epoch_1.pth (torch, 34447 bytes, 10 tensors)

conv_block_1.0.weight f4 [10, 1, 3, 3]
0	0x3e863f6e	0.26220268
1	0x3e91daf0	0.2848735
2	0xbea10a04	-0.31452954
3	0x3e963790	0.29339266
4	0xbe7a9479	-0.244707
5	0x3d30b5c0	0.04314208
6	0x3e0d9dcb	0.13829724
7	0x3e3743bf	0.17896937
8	0xbd622a70	-0.055216253
9	0xbdd9ccdc	-0.10634777
10	0x3d85d1e7	0.06534176
11	0xbed1aabb	-0.4095057
12	0x3ca0b783	0.019618755
13	0xbe99ba42	-0.30024916
14	0x3d409bb5	0.047023494
15	0x3ef7b78b	0.4838222
16	0x3da39774	0.07987872
17	0x3e93d8e0	0.288764
18	0x3e62073e	0.22073075
19	0xbc8d16c4	-0.01722277
20	0x3e81affc	0.25329578
21	0xbebc7b44	-0.36812794
22	0x3ecff28b	0.40614733
23	0x3e08c04c	0.13354605
24	0xbcf52781	-0.029926063
25	0x3bb91c2a	0.0056491094
26	0x3e8dcab9	0.27693728
27	0x3e2074ad	0.15669508
28	0x3e26f59e	0.16304633
29	0xbdfd7150	-0.12375128
30	0xbec04ec7	-0.37560102
31	0xbe8e4fe5	-0.2779533
32	0x3eac1831	0.33612207
33	0x3e57ccc9	0.21074213
34	0x3e9fc698	0.31206203
35	0x3e8af15a	0.27137262
36	0xbe8b4a60	-0.2720518
37	0x3e3d5166	0.18488082
38	0xbea1180a	-0.31463653
39	0xbe36de6c	-0.17858285
40	0x3e41be17	0.1892017
41	0x3ec27643	0.37980852
42	0x3e28526b	0.1643769
43	0x3e01130f	0.12604927
44	0x3e14e6a8	0.14541113
45	0xbe99adb2	-0.30015332
46	0x3e504bd5	0.20341428
47	0xbea21d7d	-0.31663123
48	0x3e668301	0.22510912
49	0x3e339ee9	0.17541088
50	0x3e4f8f3f	0.20269488
51	0x3eb4b594	0.35294783
52	0x3eda09a1	0.4258547
53	0x3e667248	0.22504532
54	0xbc8c1292	-0.017098699
55	0x3e5e669a	0.21718827
56	0x3ea98405	0.33108535
57	0x3e6e2b37	0.23258673
58	0x3e829027	0.25500605
59	0x3e1c9611	0.15291621
60	0xbed52d77	-0.4163625
61	0x3c09a315	0.008400698
62	0x3db6835c	0.089117736
63	0xbe1889e8	-0.14896357
64	0x3e07ee32	0.13274458
65	0x3e2dc8c6	0.1697112
66	0xbeaad142	-0.33362776
67	0x3d65d4e1	0.05611122
68	0xbcca964e	-0.024729874
69	0x3e7fbd98	0.24974668
70	0x3ec854e3	0.39127263
71	0x3d6c36b6	0.057669364
72	0xbdd366da	-0.10322352
73	0xbc893ddd	-0.016753132
74	0x3db62821	0.08894373
75	0x3d7a4f09	0.06111053
76	0x3e6d6c39	0.23185815
77	0x3d9a0f03	0.075223945
78	0x3e91a86a	0.28448802
79	0xbea6ce7b	-0.32579407
80	0xbdd67c3a	-0.10472913
81	0xbe5d8785	-0.21633728
82	0x3e1094c0	0.14119244
83	0xbdbf0265	-0.093266286
84	0xbe824ca2	-0.2544909
85	0x3dbd3bd3	0.09239926
86	0xbe216377	-0.15760599
87	0xbe32d95b	-0.17465727
88	0xbe26bb30	-0.16282344
89	0x3df9f382	0.122046486

conv_block_1.0.bias f4 [10]
0	0xbe887301	-0.2665024
1	0x3dd641fa	0.10461803
2	0xbd349814	-0.044090346
3	0xbcec6c2e	-0.028860178
4	0x3cc6b634	0.024256803
5	0xbca6ecc3	-0.020376569
6	0xbb12d106	-0.002240242
7	0xbe5f6579	-0.21816052
8	0xbcc176b1	-0.023616167
9	0xbda33e82	-0.07970907

conv_block_1.2.weight f4 [10, 10, 3, 3]
0	0xbcb2b6fd	-0.021815771
1	0x3c2d3263	0.010571095
2	0x3e112bf8	0.14176929
3	0xbdc5b421	-0.096534975
4	0x3da85f15	0.082212605
5	0xbd78e147	-0.060761716
6	0x3c7139dd	0.014723268
7	0xbc859b95	-0.016309539
8	0xbc8394da	-0.016062189
9	0xbd0c7578	-0.034291714
10	0x3d2b9283	0.04188777
11	0x3db332ce	0.087499246
12	0xbe02a07f	-0.12756537
13	0xbcad1472	-0.021127913
14	0xbccb736c	-0.02483531
15	0xbd95b9e1	-0.07310844
16	0x3d5d1159	0.053971622
17	0xbd271690	-0.040793
18	0x3da64ba7	0.08119898
19	0x3df40127	0.11914282
20	0xbdcd9229	-0.100376435
21	0xbd68affe	-0.056808464
22	0xbcc46294	-0.023972787
23	0xbc6a41f9	-0.014297956
24	0xbd57632a	-0.052584805
25	0x3e126ada	0.14298573
26	0x3e0af1a3	0.1356874
27	0x3cffcfdf	0.03122705
28	0xbb2e6676	-0.0026611364
29	0xbd5f0d2e	-0.05445593
30	0x3a9d9c64	0.0012024757
31	0x3e03be05	0.12865455
32	0x3ccd2648	0.025042668
33	0x3dac3100	0.084077835
34	0x3dc6ae91	0.09701265
35	0x3d8e8292	0.06958498
36	0xbd3c6c17	-0.04600152
37	0x3debe0a1	0.11517454
38	0xbdc273b9	-0.094947286
39	0x3d953f56	0.07287471
40	0x3dcbdbb4	0.099540144
41	0xbde4345e	-0.11142801
42	0xbccb779a	-0.024837304
43	0x3cb3375f	0.021876989
44	0xbd41bef0	-0.047301233
45	0x3d92bbcc	0.07164726
46	0x3d955610	0.07291806
47	0x3de720c8	0.112855494
48	0x3d32e526	0.043675564
49	0x3be39abc	0.006945936
50	0xbc1fe1db	-0.009758438
51	0xbda5fe89	-0.08105189
52	0x3e1f88a1	0.15579464
53	0x3e34264d	0.17592736
54	0x3c914338	0.017732248
55	0x3de5b183	0.11215498
56	0xbdbfd0ac	-0.09365973
57	0x3d061403	0.03273393
58	0x3dd64455	0.10462252
59	0xbc222919	-0.009897494
60	0xbd911592	-0.07084192
61	0x3bfad1c1	0.007654399
62	0xbd35c39a	-0.044375993
63	0xbc114d3a	-0.00886851
64	0x3c47e3ea	0.012200335
65	0xbdbb1eb9	-0.09136719
66	0x3d05e438	0.03268835
67	0x3c833039	0.016014205
68	0xbdc21e79	-0.094784684
69	0x3d83d3ca	0.0643688
70	0xbd8071cb	-0.06271704
71	0xbda78258	-0.08179158
72	0xbd8a0a5d	-0.06740258
73	0x3d99506a	0.07486041
74	0xbb7d2d69	-0.0038631803
75	0x3ddf5f0f	0.10906803
76	0x3cb9b639	0.022669898
77	0xbdcd8101	-0.10034371
78	0xbd64af2c	-0.05583112
79	0xbd033002	-0.032028206
80	0xbd1ef1d7	-0.038804855
81	0x3ccd4627	0.025057865
82	0x3d3c2b50	0.045939744
83	0x3cd5968e	0.026072767
84	0x3da9213c	0.08258292
85	0xbb9c4321	-0.0047687446
86	0x3c1e4700	0.009660482
87	0xbd3b4789	-0.045722518
88	0xbdae8ae2	-0.085225835
89	0x3d6ea4b2	0.058262534
90	0x3ce19f96	0.027541917
91	0xbda72cf7	-0.08162873
92	0x3cd6a828	0.02620323
93	0x3deca498	0.11554831
94	0xbbe8ae92	-0.0071008885
95	0x3a8f23b3	0.0010920673
96	0xbd753768	-0.059867293
97	0xbde17b85	-0.110098876
98	0x3c446fea	0.011989573
99	0x3d9b2962	0.075762525
100	0xbd00e1af	-0.03146523
101	0x3d3e5443	0.046467077
102	0x3cba047e	0.02270722
103	0xbe0203d4	-0.12696773
104	0xbdde0ba0	-0.10842061
105	0xbe2d134b	-0.16901891
106	0xbe393b72	-0.18089083
107	0xbc24f237	-0.010067514
108	0x3e1b5497	0.15168987
109	0x3d360225	0.04443564
110	0x3e6b12fc	0.2295646
111	0xbd840d11	-0.06447805
112	0xbc99c067	-0.018768502
113	0x3e56b0e6	0.20965919
114	0xbc6401ad	-0.013916415
115	0xbe23548d	-0.15950222
116	0xbc8a3692	-0.016871724
117	0xbcf839ad	-0.03030094
118	0x3bb8a62f	0.005635045
119	0x3e0b2697	0.1358894
120	0xbe1cb840	-0.15304661
121	0xbe058f7e	-0.13043019
122	0x3cd7f936	0.02636395
123	0xbe41f693	-0.18941717
124	0xbe05247f	-0.13002203
125	0xbd97f522	-0.07419802
126	0x3dc298b5	0.09501783
127	0x3db30dde	0.08742879
128	0x3dc7f168	0.097628415
129	0xbdc6d3bb	-0.09708353
130	0xbd8f159d	-0.06986544
131	0xbe103de6	-0.14086112
132	0xbe4162f4	-0.18885404
133	0xbe2d0acd	-0.16898651
134	0xbdd6c4e8	-0.10486776
135	0x3cf5068c	0.029910348
136	0x3e611875	0.21981986
137	0x3e48f398	0.19624174
138	0xbe0d352e	-0.13789818
139	0xbdfbecdd	-0.123010375
140	0xbd7c9c4a	-0.061672486
141	0xbebcf4a5	-0.369054
142	0xbe85766d	-0.26066914
143	0xbe3ed885	-0.18637283
144	0x3dadb584	0.08481887
145	0x3e42cad4	0.19022685
146	0x3e890268	0.26759648
147	0x3d3c0119	0.045899484
148	0x3dea0aeb	0.11427864
149	0x3e85f576	0.26163834
150	0x3c513f88	0.012771495
151	0xbd609344	-0.054827943
152	0xbd6cb402	-0.057788856
153	0x3db10451	0.086434014
154	0x3c09fb00	0.0084216595
155	0x3dbffd8f	0.09374534
156	0xbd896fee	-0.06710802
157	0xbde2b11f	-0.110689394
158	0xbdfb67c3	-0.1227565
159	0xbdb7d52d	-0.08976207
160	0xbe302a04	-0.17203528
161	0xbd2b1b5e	-0.041774146
162	0x3ccbdabb	0.024884572
163	0x3dc27782	0.094954506
164	0x3e10ff5b	0.1415991
165	0x3ccc0e63	0.024909204
166	0x3d5686f2	0.052374788
167	0x3dd8d97b	0.10588356
168	0xbe239b1c	-0.15977138
169	0x3cd0fcf2	0.025511239
170	0xbe0014a7	-0.12507878
171	0x3d549fcb	0.051910203
172	0xbd86573a	-0.06559606
173	0x3d354c60	0.04426229
174	0x3ab09bc2	0.0013474154
175	0x3d88e3d9	0.066840835
176	0x3d42d9f1	0.047571126
177	0x3d67e28e	0.056612544
178	0x3cf2d29d	0.029641444
179	0xbd38dde8	-0.0451335
180	0xbd27301c	-0.040817365
181	0x3d9ab6f4	0.07554427
182	0x3ba01863	0.0048857196
183	0x3d8daca5	0.06917695
184	0xbdb7d44c	-0.08976039
185	0x3dcb2597	0.09919279
186	0xba46cb3a	-0.00075833837
187	0xbc95eab7	-0.018300397
188	0x3cae58f7	0.021282656
189	0xba8213f8	-0.0009924164
190	0x3db93e1d	0.0904505
191	0xbd87c62f	-0.066295974
192	0x3d3cf4b6	0.046131812
193	0xbc08f477	-0.008359066
194	0xbb7b1611	-0.0038312713
195	0xbde9ef79	-0.11422629
196	0xbdefd444	-0.11710408
197	0x3c5fa5c2	0.01365036
198	0xbc721eae	-0.014777822
199	0x3db38617	0.0876581
200	0x3baf46ab	0.0053490005
201	0xbc00c9fa	-0.007860655
202	0xbc55213c	-0.013008412
203	0xbb43f67a	-0.002990155
204	0xbd9e49a2	-0.07728888
205	0x3dc71c0f	0.097221486
206	0xbd50e3e2	-0.050998576
207	0x3d4cb5eb	0.049978178
208	0x3dc1ead5	0.09468619
209	0xbd0e84f2	-0.034794755
210	0x3d5db21b	0.054124933
211	0xbb8918fc	-0.0041838866
212	0x3d18a348	0.037265092
213	0xbbc0494c	-0.0058681127
214	0x3d8e0356	0.0693423
215	0x3d7b8f79	0.061416123
216	0xbce4bff8	-0.02792357
217	0x3dde71e5	0.108615674
218	0x3e01fdc8	0.12694466
219	0xbd244ded	-0.04011338
220	0xbd820f2a	-0.063505486
221	0xbc49b0a0	-0.012310177
222	0x3dc547b8	0.0963282
223	0xbd81aa6c	-0.063313335
224	0x3dabe09f	0.083924524
225	0xbe0ae9c7	-0.13565741
226	0x3e061cd6	0.13096938
227	0x3e1a0aea	0.15043226
228	0x3d7d7135	0.06187554
229	0xbb403919	-0.0029330908
230	0x3dad6f7a	0.08468528
231	0xbc827114	-0.01592306
232	0xbda596cd	-0.080854036
233	0x3caacc66	0.020849418
234	0xbc6fe404	-0.0146417655
235	0x3a8f71bd	0.0010943931
236	0x3cdc89f0	0.026921242
237	0x3d307020	0.04307568
238	0x3d994935	0.07484666
239	0x3b18a616	0.0023292354
240	0x3dd332f8	0.10312456
241	0x3c81727c	0.01580166
242	0x38d77d7d	0.00010275373
243	0xbdb63358	-0.08896512
244	0x3d10d5fc	0.03536032
245	0x3bccd820	0.00625135
246	0x3dcd5505	0.10025982
247	0x3dcc4510	0.0997411
248	0xbd9c82f3	-0.07642164
249	0xbd7a50e2	-0.061112292
250	0x3d2d7c63	0.042354953
251	0x3dbef4d3	0.0932404
252	0xbdb5ebb7	-0.0888285
253	0xbc1ad67f	-0.009450554
254	0xbd57e6f0	-0.052710474
255	0xbc9ff217	-0.019524617

conv_block_1.2.bias f4 [10]
0	0xbe5d3447	-0.21601973
1	0x3d2e3188	0.042527705
2	0xbc1393fb	-0.009007449
3	0xbdc0e5b9	-0.09418816
4	0xbcd95b2c	-0.026532732
5	0xbd07bde8	-0.033140093
6	0xbca9c112	-0.020721946
7	0xbdab5fd2	-0.08367886
8	0x3c87a475	0.016557911
9	0xbd68152d	-0.05666082

conv_block_2.0.weight f4 [10, 10, 3, 3]
0	0x3e2ccbd9	0.16874637
1	0x3dfa64f8	0.122262895
2	0xbdba9438	-0.09110302
3	0xbe025d98	-0.12731016
4	0xbc7985a0	-0.015229613
5	0x3d44e094	0.048065737
6	0xbb127194	-0.002234553
7	0xba3d4fc0	-0.00072216615
8	0xbe3b6bb3	-0.18302803
9	0xbcbab0d7	-0.022789402
10	0xbe207b8a	-0.15672126
11	0xbd0119ac	-0.031518623
12	0x3d2d0712	0.04224307
13	0x3e2bf69d	0.16793294
14	0x3e8213a5	0.25405613
15	0x3c6cd53d	0.014455137
16	0xbdaaef51	-0.08346427
17	0xbe413264	-0.18866879
18	0x3dd2bc47	0.10289817
19	0xbd81503d	-0.06314132
20	0x3e0958d6	0.13412794
21	0x3dd5a504	0.10431865
22	0x3e4491cf	0.19196247
23	0xbdcac254	-0.099003464
24	0xbd99cc3c	-0.07509658
25	0xbdedf5e8	-0.116191685
26	0xbe215dc7	-0.1575843
27	0x3d96000c	0.07324228
28	0x3db2b002	0.08724977
29	0x3d5e2c23	0.05424131
30	0x3d655244	0.055986658
31	0x3c108d5f	0.008822768
32	0xbc8331dd	-0.016014988
33	0xbe02c7c3	-0.12771516
34	0xbdb3e628	-0.08784133
35	0x39a15435	0.00030771052
36	0x3e9f7efa	0.31151563
37	0x3eb12803	0.3460084
38	0x3de8dd4e	0.113703355
39	0x3e8f4414	0.27981627
40	0xbe112060	-0.14172506
41	0xbe8d3807	-0.27581808
42	0xbe7a0ea4	-0.24419647
43	0xbeb809b8	-0.35944915
44	0x3c0baf84	0.008525733
45	0x3d74916d	0.059709
46	0x3e9fee44	0.3123647
47	0x3e85c3db	0.26125988
48	0x3ea0daaa	0.31416827
49	0x3ee493db	0.44644055
50	0xbe13b0e3	-0.14422946
51	0xbe7e9ae9	-0.24863781
52	0xbf29c877	-0.6632151
53	0xbed455dc	-0.41471756
54	0x3e7e616e	0.24841854
55	0x3d20ce8a	0.03925947
56	0x3d20b3c7	0.03923395
57	0xbc8708b4	-0.016483642
58	0xbd87e55d	-0.066355444
59	0x3cf20bbb	0.02954661
60	0xbbc6b3a1	-0.006063894
61	0xbe1d7dd8	-0.15380037
62	0xbead4026	-0.33838004
63	0x3ce42bed	0.027852977
64	0x3c3992d1	0.011326508
65	0x3c83262b	0.01600941
66	0xbd4053d5	-0.04695495
67	0xbd17ca5f	-0.03705823
68	0x3d97bd04	0.07409099
69	0x3dbe4bac	0.09291777
70	0xbdce7c6c	-0.10082325
71	0x3d00ff2d	0.031493355
72	0xbcd3291c	-0.025776438
73	0xbe62ddf9	-0.22154988
74	0xbd186cab	-0.03721301
75	0xbcac19ea	-0.02100845
76	0x3ecb5e8b	0.39720568
77	0x3e807d4c	0.25095594
78	0x3d367dc7	0.044553544
79	0xbe2548c0	-0.16141033
80	0xbea93f3a	-0.3305605
81	0xbed807cf	-0.42193457
82	0xbd6c6b27	-0.057719376
83	0xbdcb07cd	-0.09913597
84	0x3d9e21e6	0.07721309
85	0x3e8831a4	0.26600373
86	0x3e7a4106	0.24438867
87	0x3e627a5e	0.22116992
88	0x3dc4f0f3	0.0961627
89	0xbdd410d8	-0.10354775
90	0xbd51b06e	-0.051193647
91	0xbd5d4e5a	-0.0540298
92	0xbd953fc0	-0.0728755
93	0xbd6884e8	-0.056767374
94	0x3d9c9f60	0.07647586
95	0x3dada6e5	0.08479098
96	0x3cb8a077	0.022537453
97	0xbd49f5be	-0.049306624
98	0xbd19883a	-0.03748343
99	0xbd4534cb	-0.04814605
100	0xbd740178	-0.059571713
101	0xbc579658	-0.013158403
102	0xbdce4fa7	-0.10073786
103	0xb763acf2	-1.3570521e-05
104	0x3ce3892c	0.02777537
105	0xbda0d514	-0.078531414
106	0x3ceb6cf9	0.028738486
107	0x3d22b137	0.039719786
108	0xbc0c7145	-0.008571927
109	0xbda38961	-0.07985187
110	0x3d927396	0.071509525
111	0xbd9ca4e9	-0.076486416
112	0xbda08641	-0.07838107
113	0x3d285d51	0.04110462
114	0x3d2fb509	0.042897258
115	0xbda2df57	-0.07952755
116	0x3d9273e0	0.07151008
117	0x3d2c99a8	0.042138726
118	0xbdb90518	-0.09034175
119	0xbd27528a	-0.0408502
120	0x3daf86d1	0.08570636
121	0xbd95303f	-0.07284593
122	0x3db9988a	0.09062298
123	0xbd1edee5	-0.038786788
124	0xbc45b3f8	-0.012066834
125	0xbdce0f2c	-0.100614876
126	0x3d8bbaf2	0.06822766
127	0xbdd48c73	-0.10378351
128	0x3d98009f	0.074219935
129	0xbdd6f2a3	-0.10495498
130	0xbd94b91b	-0.072618686
131	0xbbec9adb	-0.0072206086
132	0x3db20720	0.08692765
133	0xbd9ba998	-0.07600707
134	0xbdde8858	-0.10865849
135	0xbdd42804	-0.10359195
136	0x3db0a085	0.08624367
137	0xbd90c2ec	-0.070684284
138	0xbd19f7d2	-0.037589855
139	0xbd9c7062	-0.07638623
140	0xbca2584a	-0.01981749
141	0x3cd039a3	0.025418108
142	0xbb2d5e89	-0.0026454052
143	0x3d9d4482	0.076790825
144	0xbc035cdf	-0.008017748
145	0xbd88c0e6	-0.066774175
146	0x3ddfd17d	0.109286286
147	0x3dc4a12f	0.09601056
148	0x3dc8a2a6	0.09796648
149	0xbdc5d03a	-0.09658857
150	0x3d78abdb	0.06071077
151	0xbd855aaa	-0.065114334
152	0x3d866b80	0.06563473
153	0x3d8cc435	0.06873361
154	0xbdd2783f	-0.10276841
155	0x3cb7f36b	0.022454938
156	0xbd919a82	-0.07109548
157	0xbd25c202	-0.040468223
158	0xbc04e268	-0.00811062
159	0x3d1bbba1	0.038020734
160	0x3cb3a125	0.021927426
161	0xbd86d94f	-0.06584417
162	0xbb0a4b97	-0.0021102184
163	0x3d6f3cff	0.05840778
164	0x3d8e2834	0.06941262
165	0xbd8e04d2	-0.06934513
166	0xbd437ffd	-0.04772948
167	0x3dda8c1c	0.10671255
168	0xbd9c1da1	-0.07622839
169	0x3d3f664e	0.046728425
170	0x3d8a7f0d	0.06762514
171	0xbc8e5cf8	-0.017378315
172	0xbb919f88	-0.0044440664
173	0xbcf152e6	-0.029458474
174	0xbdc2b3af	-0.09506928
175	0xbd59d211	-0.05317885
176	0xbdaede36	-0.08538477
177	0x3da7f1e4	0.08200434
178	0xbdc07465	-0.093972005
179	0xbd14b501	-0.03630543
180	0xb9c6099b	-0.0003777266
181	0x3c556d92	0.013026612
182	0x3e1b0348	0.1513797
183	0xbd290af2	-0.041270204
184	0x3c6a5a05	0.014303689
185	0x3ca7fd7f	0.020506619
186	0xbe1ce404	-0.15321356
187	0xbd85cbd5	-0.065330185
188	0xbd9fea30	-0.078083396
189	0x3d3386cf	0.043829735
190	0x3dd9072a	0.105970696
191	0x3e18c0a0	0.1491723
192	0x3ea5c63b	0.323778
193	0x3e81a906	0.25324267
194	0x3e259840	0.1617136
195	0xbd4b01c6	-0.04956224
196	0xbdb94ad7	-0.09047478
197	0x3cc84578	0.024447188
198	0xbad92b1d	-0.0016568635
199	0x3e2addfa	0.1668624
200	0x3dd6789e	0.10472225
201	0xbd8c0681	-0.06837178
202	0xbdb57dbd	-0.08861873
203	0x3dcaefd3	0.09909024
204	0xbdfdf435	-0.124000944
205	0xbd8fa32d	-0.07013545
206	0x3cb0ec3f	0.021597026
207	0x3da0b809	0.07847602
208	0xbd2a04d8	-0.041508526
209	0xbca9e169	-0.020737367
210	0xbd1477ef	-0.03624719
211	0x3cc7db63	0.024396604
212	0x3d015f9b	0.031585317
213	0xbd62a89c	-0.05533658
214	0x3dcd24e3	0.10016801
215	0x3e30cf3b	0.17266552
216	0x3d98704c	0.07443294
217	0x3e79f4b1	0.24409749
218	0x3ea28a7a	0.31746274
219	0xbe7dbecc	-0.24779814
220	0xbe42e644	-0.19033152
221	0x3d890c11	0.066917546
222	0x3bcb0e56	0.0061967773
223	0xbdee73a5	-0.11643151
224	0xbc3aa0c4	-0.011390869
225	0x3e2241ec	0.1584546
226	0x3e68f637	0.22750174
227	0x3ee63f4b	0.44970164
228	0xbea42ebc	-0.32066905
229	0xbca5a557	-0.020220442
230	0x3e7c96fb	0.2466697
231	0xbee08322	-0.43850046
232	0xbecff3a0	-0.4061556
233	0xbdc3998f	-0.09550773
234	0x3dc839fa	0.09776683
235	0x3dd680f2	0.10473813
236	0x3dbadd9e	0.091243014
237	0xbc6dab84	-0.014506225
238	0x3e60f487	0.2196828
239	0x3e3b2520	0.18275881
240	0xbe55741d	-0.20845075
241	0xbe5bf38c	-0.21479625
242	0xbe47561a	-0.19466439
243	0xbd954dcb	-0.072902285
244	0x3de18503	0.11011698
245	0xbd990efd	-0.07473562
246	0xbcf43f30	-0.029815286
247	0xbdaa9ba4	-0.08330467
248	0x3c2e4763	0.010637137
249	0xbda33ebf	-0.07970952
250	0xbd5bf73b	-0.053702574
251	0x3d1d41df	0.038392898
252	0x3d0e2e2d	0.034712005
253	0x3e516199	0.20447387
254	0x3d892a6e	0.06697546
255	0x3d13fcb3	0.036129665

conv_block_2.0.bias f4 [10]
0	0x3e6b49f6	0.22977433
1	0xbdb1a9c7	-0.086749606
2	0x3d6bf947	0.057610776
3	0xbdd09d80	-0.10186291
4	0x3d83eb8a	0.0644141
5	0x3e8f393c	0.27973354
6	0xbe067bdd	-0.13133188
7	0x3d83aedd	0.06429837
8	0xbcf6d3cc	-0.03013029
9	0x3e9c04ff	0.30472562

conv_block_2.2.weight f4 [10, 10, 3, 3]
0	0xbd5ba037	-0.05361959
1	0xbf07ea94	-0.5309231
2	0xbf01a296	-0.5063871
3	0x3ed9fee4	0.4257728
4	0xbe4f1e83	-0.20226483
5	0xbecb4698	-0.39702296
6	0xbe0e760a	-0.13912216
7	0x3ba81064	0.005128907
8	0xbd709a4f	-0.05874091
9	0x3d0960ff	0.03353977
10	0xbb73b5c0	-0.003718719
11	0xbceb3a7e	-0.028714415
12	0xbbc27417	-0.005934249
13	0x3d9d0074	0.07666102
14	0xbc0b4299	-0.008499765
15	0xbdc12325	-0.094305314
16	0xbda94cff	-0.08266639
17	0xbdc977e6	-0.09837322
18	0xbd6e09db	-0.058114868
19	0xbe76547f	-0.2405567
20	0xbe7c1065	-0.24615629
21	0x3ecfbea7	0.40575144
22	0xbe0a059c	-0.13478702
23	0xbe769462	-0.24080041
24	0x3dbecfcc	0.09316978
25	0xbde8286b	-0.11335834
26	0xbe241329	-0.16022934
27	0x3dba46e3	0.09095552
28	0x3d068bde	0.03284823
29	0x3d11095f	0.035409328
30	0xbda560d2	-0.08075108
31	0xbd8b5f0f	-0.0680524
32	0x3d996736	0.07490389
33	0x3d56ef8d	0.052474547
34	0x3d0b7d8a	0.03405527
35	0x3d016fe8	0.031600863
36	0x3e8183dc	0.25295913
37	0x3e5e8aa6	0.21732578
38	0x3db208f2	0.086931124
39	0xbe8b94a6	-0.27261847
40	0xbe76da07	-0.24106608
41	0x3dec106a	0.11526568
42	0xbdd30ae8	-0.103048146
43	0xbea7479b	-0.32671818
44	0xbe851713	-0.25994167
45	0xbdb20f69	-0.086943455
46	0xbd09f05e	-0.033676498
47	0x3cc4d42a	0.024026949
48	0x3ce5d1a9	0.028054075
49	0xbd4291f6	-0.04750248
50	0xbe1d0b3a	-0.15336314
51	0x3e423613	0.1896594
52	0xbcf14d1f	-0.02945572
53	0x3b9f909e	0.0048695346
54	0xbcc97307	-0.024590982
55	0xbdb41ef0	-0.08794963
56	0x3ba18146	0.0049287407
57	0x3d9862b2	0.074407
58	0xbd49d642	-0.049276598
59	0xbdc5ef62	-0.09664799
60	0x3d59910f	0.053116854
61	0xbd8bea8e	-0.06831847
62	0x3c46ae6d	0.012126547
63	0x3cfba550	0.030718476
64	0xbdf0796a	-0.11741908
65	0x3b7dc59b	0.0038722518
66	0xbe82313d	-0.2542819
67	0xbe23f349	-0.16010775
68	0xbe442237	-0.19153677
69	0x3da868d4	0.082231194
70	0xbbdeae01	-0.006795645
71	0xbe38ce0f	-0.18047355
72	0x3cd9c9bc	0.026585452
73	0x3e3ea03d	0.18615814
74	0x3cb53766	0.022121143
75	0x3dfcd3de	0.12345098
76	0x3e3eca42	0.18631843
77	0x3e490c0a	0.19633499
78	0xbd72ab27	-0.059245255
79	0xbdcc9e9c	-0.0999119
80	0x3d81c2ee	0.06336008
81	0x3e1720d9	0.14758624
82	0x3ca81ce9	0.020521598
83	0x3d6e5b5c	0.058192596
84	0xbd447707	-0.047965076
85	0x3d5b73c9	0.05357722
86	0x3e5de0d2	0.21667793
87	0xbea2f495	-0.31827226
88	0xbe0792d8	-0.1323961
89	0x3cb8ca58	0.022557423
90	0xbe049471	-0.12947251
91	0xbda603a7	-0.081061654
92	0xbf0fbdda	-0.56149065
93	0xbdb2f77f	-0.087386124
94	0xbe4e15e2	-0.20125535
95	0xbd80a25e	-0.06280969
96	0x3ea17af7	0.31539127
97	0x3eb76ca7	0.35825083
98	0x3e98f0c2	0.29871184
99	0x3c3e9271	0.011631594
100	0xbda39226	-0.0798686
101	0xbd213cd2	-0.039364643
102	0x3cd0340e	0.025415447
103	0xbdb506b5	-0.0883917
104	0xbd5cd09a	-0.053909875
105	0x3d587aac	0.052851364
106	0x3c414161	0.011795373
107	0xbd74dad6	-0.05977901
108	0xbef62de4	-0.48081887
109	0xbeb0c3a1	-0.34524253
110	0xbe6c8f7c	-0.2310161
111	0x3e89b7ad	0.26897946
112	0x3ccc86a4	0.024966545
113	0xbd30deea	-0.043181337
114	0x3dd4577a	0.10368247
115	0x3e0afeb9	0.13573731
116	0xbd3efc42	-0.04662729
117	0x3b0fb14b	0.0021925743
118	0x3d5bb556	0.053639732
119	0x3c901094	0.01758603
120	0xbdaa7605	-0.08323292
121	0xbd52aac9	-0.051432405
122	0xbd7b2473	-0.061314058
123	0x3cf842be	0.030305263
124	0xbd29c650	-0.04144889
125	0xbd99be55	-0.07507006
126	0xbd715f9f	-0.058929082
127	0x3d527864	0.051384345
128	0x3d16af2d	0.036788154
129	0x3ea11e88	0.31468606
130	0x3ebb14b0	0.3653922
131	0xbe144c3b	-0.14482205
132	0xbe9fd13c	-0.3121432
133	0xbf028d20	-0.5099659
134	0xbf103ef4	-0.5634606
135	0xbd9347fd	-0.07191465
136	0x3cb58e5e	0.022162613
137	0xbd897e7a	-0.067135766
138	0xbde2aed0	-0.11068499
139	0x3d0319ad	0.03200691
140	0xbe18ab4b	-0.14909093
141	0xbd752845	-0.059852857
142	0xbda3ba6f	-0.07994544
143	0x3d9cf9e2	0.07664849
144	0x3db4385a	0.08799811
145	0x3db13cf5	0.08654205
146	0xbd9426b6	-0.07233946
147	0xbd81a1e4	-0.06329706
148	0xbd46b7d0	-0.04851514
149	0xbd835139	-0.06411976
150	0xbdee2840	-0.11628771
151	0xbd24edd2	-0.040265866
152	0xbae6e9db	-0.0017617302
153	0x3cf60ce3	0.030035442
154	0xbece2142	-0.4025975
155	0xbe02b562	-0.12764505
156	0xbdb9d5a7	-0.09073954
157	0xbd7578fb	-0.05992983
158	0x3e6834e7	0.2267643
159	0xbe3e8551	-0.18605544
160	0xbe4956c9	-0.19662012
161	0xbe780597	-0.24220882
162	0xbe910a97	-0.28328392
163	0xbe477ac2	-0.19480422
164	0xbda24467	-0.07923203
165	0xbd798567	-0.060918238
166	0x3dac0dba	0.08401056
167	0xbe3b8608	-0.18312848
168	0x3e76fb90	0.24119401
169	0x3d26073e	0.04053425
170	0x3d0d05ca	0.03442935
171	0x3e70ac32	0.23503187
172	0xbe29d236	-0.16584095
173	0xbe74b63b	-0.2389764
174	0xbe3eb924	-0.18625313
175	0xbe1c2988	-0.15250218
176	0x3dfd2d7b	0.1236219
177	0xbdf2481e	-0.118301615
178	0xbe38d6ed	-0.18050738
179	0x3d007089	0.031357322
180	0xbefc839a	-0.49319154
181	0xbe0a10c0	-0.13482952
182	0x3f10400a	0.56347716
183	0xbf36159d	-0.7112673
184	0xbe5972a9	-0.21235146
185	0x3d0d7e06	0.034544013
186	0xbf45e6ac	-0.773051
187	0xbe7d81c4	-0.24756533
188	0xbe14ac2b	-0.14518802
189	0xbd431bd5	-0.047633965
190	0x3ca1a5d3	0.019732391
191	0x3d0e2876	0.034706555
192	0xbdb13874	-0.08653346
193	0xbd0c43dc	-0.034244403
194	0xbd0cb0ed	-0.034348417
195	0x3d8ae917	0.067827396
196	0x3da94310	0.08264744
197	0xbd019fd7	-0.031646576
198	0xbe0e92ef	-0.13923238
199	0xbe034ab9	-0.12821473
200	0xbe783ff9	-0.24243154
201	0xbd48474d	-0.048896123
202	0xbe6c105f	-0.2305312
203	0xbec021dc	-0.37525833
204	0x3e12a7f1	0.14321877
205	0x3b086520	0.0020812228
206	0xbec37ee0	-0.38182735
207	0x3c86b85f	0.016445337
208	0x3dc2c5fb	0.09510418
209	0xbdc1f1ff	-0.09469985
210	0x3d9705fb	0.073741876
211	0x3d5651ff	0.05232429
212	0x3d956490	0.072945714
213	0xbdd02495	-0.101632275
214	0xbc99cc93	-0.018774306
215	0x3dd282de	0.10278867
216	0xbc1590ad	-0.009128732
217	0xbdaecc70	-0.08535087
218	0xbd299d1a	-0.04140959
219	0xbdd3a962	-0.103350416
220	0xbe7721b3	-0.24133949
221	0x3d87c7b3	0.066298865
222	0xbd86258d	-0.06550131
223	0xbe4b7011	-0.19866969
224	0x3e39d6d1	0.18148352
225	0x3d00cbdb	0.03144441
226	0xbdd48ae8	-0.10378057
227	0xbdeb6e6a	-0.11495669
228	0x3d32c8e2	0.043648608
229	0x3d3c8f2e	0.046034984
230	0x3c2716b8	0.010198288
231	0xbdcaad47	-0.09896331
232	0xbce08c21	-0.027410569
233	0xbc380922	-0.011232646
234	0x3da73851	0.081650384
235	0x3c7b2432	0.015328454
236	0x3d246533	0.040135574
237	0xbdb6dfbd	-0.089293934
238	0xbd4cf52c	-0.0500385
239	0xbb886edc	-0.004163606
240	0xbd1eef8f	-0.03880268
241	0x3d2baacc	0.04191093
242	0xbd845b5b	-0.06462737
243	0x3e6937a0	0.22775126
244	0x3e418289	0.18897451
245	0xbe6d5e20	-0.23180437
246	0x3e6766ff	0.22597884
247	0xbe221000	-0.15826416
248	0xbe199e15	-0.1500171
249	0x3e9605a0	0.29301167
250	0xbdb79677	-0.08964246
251	0xbe9ceb63	-0.30648336
252	0xbcc744b2	-0.024324749
253	0xbbbecd0d	-0.005822784
254	0xbd999d9c	-0.07500765
255	0xbdbda167	-0.09259301

conv_block_2.2.bias f4 [10]
0	0x3dde77bb	0.108626805
1	0x3e123bbf	0.14280604
2	0x3e0be8c8	0.13663018
3	0xbe7032ba	-0.2345685
4	0x3d7caddf	0.061689254
5	0xbbc26112	-0.005931982
6	0x3cbee9d5	0.02330486
7	0xbd736b8c	-0.059428737
8	0x3d36205f	0.044464465
9	0x3bc0740f	0.0058732103

classifier.1.weight f4 [10, 490]
0	0x3b80bae4	0.003928529
1	0x3d0b6495	0.03403147
2	0xbd02ff62	-0.031981833
3	0xbd4e31db	-0.050340515
4	0xbd19f90c	-0.037591025
5	0xbd77fe02	-0.060544975
6	0xbc8811d2	-0.01661006
7	0xbd17fda4	-0.037107125
8	0xbd6cbc7b	-0.057796936
9	0xbde1de55	-0.110287346
10	0x3c544dc6	0.012957996
11	0x3e0cc0ed	0.1374547
12	0x3de0ddc5	0.10979799
13	0xbcca7960	-0.02471608
14	0x3cab18c4	0.020885833
15	0xbd26d682	-0.040731914
16	0x3c7a13e6	0.015263533
17	0x3db199fa	0.08671947
18	0x3e1f23cf	0.15541004
19	0x3db4ea01	0.08833695
20	0x3c8350f9	0.016029822
21	0x3d74cc0c	0.059764907
22	0xbd3e05a4	-0.046392098
23	0xbe0c0612	-0.1367419
24	0xbec84f2c	-0.39122903
25	0xbe5e79c7	-0.21726142
26	0x3e15d2cf	0.14631198
27	0x3d1ffd75	0.039060075
28	0xbd336bc2	-0.043803938
29	0xbbfc5d84	-0.0077015776
30	0x3de8abc1	0.113608845
31	0xbdba390a	-0.090929106
32	0xbe40c306	-0.18824396
33	0xbe1352c1	-0.14387037
34	0xbd34f086	-0.044174694
35	0x3a7de212	0.0009684871
36	0x3bbbaf88	0.005727712
37	0x3e4f685e	0.20254657
38	0x3e94e51e	0.29081053
39	0xbb955360	-0.004557058
40	0xbe1bce75	-0.15215476
41	0x3d033bb4	0.03203936
42	0x3cdef360	0.02721566
43	0x3cb5d302	0.022195343
44	0xbce2559b	-0.02762871
45	0xbdc0ebd9	-0.09419984
46	0xbe12e53f	-0.14345263
47	0xbe12d59c	-0.14339298
48	0xbd2a8c8a	-0.041637935
49	0xbd078e23	-0.033094537
50	0xbac4931b	-0.0014997454
51	0xbda97643	-0.0827451
52	0xbd22ccff	-0.03974628
53	0xbd9dd53f	-0.07706689
54	0xbc9fc58a	-0.019503374
55	0x3c2f533d	0.010700998
56	0xbbfdb3bc	-0.0077423733
57	0xbd2325a5	-0.039830822
58	0xbdd74c52	-0.10512604
59	0xbd4b4182	-0.04962302
60	0x3cfdef04	0.03099776
61	0xbd260d94	-0.040540293
62	0x3bd58e70	0.006517224
63	0xbb1080c7	-0.0022049414
64	0xbdeabb1a	-0.11461468
65	0xbe14d9ed	-0.14536257
66	0xbde4b97c	-0.11168191
67	0xbd110e1d	-0.03541385
68	0xbc0b7223	-0.008511099
69	0xbc31d21a	-0.010853315
70	0xbc1ccffa	-0.00957107
71	0xbb349d7d	-0.002755969
72	0xbea09862	-0.3136626
73	0xbf0a8db4	-0.5412247
74	0xbe1cbf02	-0.15307239
75	0x3c0f01f4	0.008728493
76	0x3c6a7e09	0.014312276
77	0xbd736c98	-0.059429735
78	0x3dd29b39	0.102835126
79	0x3d20a6d9	0.03922162
80	0x3b6bd955	0.0035987694
81	0xbdf47122	-0.11935641
82	0xbdf68591	-0.120371945
83	0x3c8d9d81	0.017287018
84	0x3c0067b5	0.007837226
85	0x3e123c8b	0.14280908
86	0x3ed8febb	0.42381844
87	0x3e99a422	0.30008036
88	0xbdabcef7	-0.08389085
89	0xbd9eab35	-0.07747499
90	0x3d1f2ca0	0.038860917
91	0xbcc2929e	-0.023751553
92	0xbd3a903f	-0.04554772
93	0xbd5f06b3	-0.05444975
94	0xbd8ccbba	-0.06874795
95	0xbce142c9	-0.027497666
96	0xbd0c6d40	-0.034283876
97	0x3c9e9aa2	0.019360844
98	0x3d1b2243	0.03787447
99	0xbd557f68	-0.052123457
100	0xbe1d1bd5	-0.15342648
101	0xbcffe444	-0.031236775
102	0xbdb3ca13	-0.08778777
103	0xbd22c5b2	-0.03973932
104	0xbca91442	-0.020639542
105	0x3c8faae5	0.017537544
106	0x3c56517b	0.01308095
107	0xbc46d5d6	-0.012135943
108	0xbd3934db	-0.045216423
109	0xbd22abd7	-0.03971466
110	0xbd91dd08	-0.071222365
111	0xbcabdd25	-0.020979473
112	0xbd3b3696	-0.045706354
113	0x3e6a5dc0	0.22887325
114	0x3e205203	0.15656285
115	0xbd225887	-0.039635208
116	0xbdf186f1	-0.11793316
117	0x3bfea4b2	0.007771098
118	0xbcf5aaa3	-0.029988592
119	0xbd84c941	-0.06483699
120	0x3e94f5dd	0.2909383
121	0x3e5bb0de	0.21454188
122	0xbe860f89	-0.26183727
123	0x3dc223b3	0.09479465
124	0x3e5d776a	0.21627584
125	0xbccdbc5b	-0.025114229
126	0x3c3b82b2	0.011444734
127	0x3db8ad23	0.09017398
128	0x3d852a3d	0.06502197
129	0xbdee4685	-0.11634544
130	0x3e280420	0.16407824
131	0x3e347d92	0.17626026
132	0xbd5ffa1f	-0.054681893
133	0x3d2e41ac	0.0425431
134	0x3c825d55	0.015913645
135	0xbe0d80a0	-0.13818598
136	0xbe2eb6be	-0.17061898
137	0xbdf30b68	-0.1186741
138	0x3af227c5	0.0018474987
139	0x3c80140b	0.015634557
140	0x3ccc4cd2	0.024938975
141	0xbce0704e	-0.027397301
142	0xbd97d394	-0.07413402
143	0xbdf81e7c	-0.121151894
144	0xbcb815f7	-0.022471411
145	0x3d12fe7c	0.035887226
146	0x3c198c84	0.00937188
147	0xbd2ad407	-0.04170611
148	0xbdab4d2a	-0.08364327
149	0xbd6a242e	-0.05716341
150	0xbdae7e61	-0.085201986
151	0xbd1daccb	-0.038494866
152	0xbd61fe35	-0.05517407
153	0xbcc5d313	-0.0241485
154	0xbcda8bb5	-0.026677946
155	0xbd294461	-0.041324977
156	0xbda6e976	-0.08149998
157	0x3d39b34d	0.04533701
158	0xbdc5ab1d	-0.09651778
159	0xbc27c34f	-0.010239436
160	0xbb01c914	-0.001980369
161	0x3d4b370f	0.049613055
162	0x3ddd229d	0.107976176
163	0x3d936504	0.071970016
164	0x3c11fdb4	0.008910585
165	0xbe13b9e6	-0.14426383
166	0xbdd00d86	-0.101588294
167	0x3d543616	0.051809393
168	0x3d897b94	0.06713024
169	0x3e123de1	0.14281417
170	0x3c9d5c49	0.019209044
171	0xbe3890b3	-0.18023948
172	0x3d969924	0.07353428
173	0xbda1004c	-0.07861385
174	0x3d1f6e2c	0.038923427
175	0xbabe94b3	-0.0014540165
176	0x3cbb4578	0.022860274
177	0xbd9eef20	-0.07760453
178	0x3d62643f	0.055271383
179	0x3e2b92b1	0.16755177
180	0xbc2b63c0	-0.010460794
181	0xbb8d3305	-0.0043090605
182	0x3c5cfb26	0.013487613
183	0xbdaf1f67	-0.085509114
184	0xbdcf3759	-0.101179786
185	0x3e45f418	0.19331396
186	0x3dae1946	0.08500914
187	0x3c84789f	0.016170798
188	0xbd33b016	-0.0438691
189	0x3a3eb37a	0.0007274669
190	0x3b88c4bb	0.0041738427
191	0xbd38093e	-0.04493069
192	0xbc9d74e7	-0.019220782
193	0xbd3cbb2e	-0.046076946
194	0xbce27279	-0.027642475
195	0xbd3a2b07	-0.04545119
196	0x3d272e80	0.04081583
197	0x3b4be554	0.0031112032
198	0xbd366a59	-0.044535015
199	0x3bbd8979	0.0057842103
200	0x3b38c8f9	0.002819596
201	0x3d89c875	0.06727687
202	0x3d017dab	0.031613987
203	0x3d80da97	0.06291693
204	0x3d371871	0.044701044
205	0x3d223b0c	0.039607093
206	0xbb81b616	-0.003958474
207	0x3a1d0106	0.0005989227
208	0xbd340851	-0.043953244
209	0x3cce7d3d	0.025206203
210	0xbc4faeeb	-0.012675981
211	0xbe0b2aec	-0.13590592
212	0xbe053324	-0.1300779
213	0xbd3a8773	-0.04553933
214	0xbd6d1f4a	-0.057891168
215	0xbe7869ef	-0.2425916
216	0xbd13ea96	-0.03611239
217	0xbdc20774	-0.09474078
218	0xbeb5c201	-0.35499576
219	0xbe239ea0	-0.1597848
220	0x3d29e682	0.041479595
221	0x3d57b42c	0.05266206
222	0xbeb78691	-0.35844854
223	0xbe1cf7f6	-0.15328965
224	0xbdbb61f3	-0.09149542
225	0xbec03e7e	-0.37547678
226	0xbe8a58ca	-0.27020866
227	0xbd6f0413	-0.058353495
228	0x3db90e70	0.09035957
229	0xbd9d191e	-0.07670806
230	0xb9f5482a	-0.00046783808
231	0xbd29d627	-0.041463997
232	0xbdd99bc8	-0.10625416
233	0x3d5df668	0.05419007
234	0x3e428b28	0.18998396
235	0x3e3e6c2f	0.18595956
236	0x3dc4cfa8	0.0960992
237	0x3dad58a0	0.084641695
238	0xbcf81535	-0.03028355
239	0x3d39a993	0.045327734
240	0x3e74f0a5	0.23919924
241	0x3defa394	0.11701122
242	0xbbf4c744	-0.0074700434
243	0x3d99543f	0.07486772
244	0xbc11fd28	-0.008910455
245	0xbd06a5c8	-0.032872945
246	0xbc12c7cb	-0.008958767
247	0xbc66665c	-0.01406249
248	0xbd848905	-0.06471447
249	0xbd928e49	-0.07156045
250	0xbd331e8f	-0.043730315
251	0xbd3ddf96	-0.046355806
252	0xbc9e46c9	-0.019320862
253	0xbdd345d6	-0.103160545
254	0xbe0b7e50	-0.13622403
255	0xbc7e99a4	-0.0155395605

classifier.1.bias f4 [10]
0	0xbcb7622f	-0.022385685
1	0x3eb53e5a	0.35399133
2	0xbcfe5411	-0.031045945
3	0xbd890e38	-0.06692165
4	0xbb549d42	-0.0032442366
5	0xbcb7d6e5	-0.022441337
6	0xbda0df15	-0.078550495
7	0x3de93f2a	0.11389001
8	0xbdc4c682	-0.09608175
9	0xbdbd1467	-0.09232407
