model_weights/model_epoch_2.pth (torch, 34447 bytes, 10 tensors)

conv_block_1.0.weight f4 [10, 1, 3, 3]
0	0x3e9aca85	0.30232635
1	0x3e78fe86	0.24315843
2	0xbeb68999	-0.35651854
3	0x3e91fbc8	0.28512406
4	0xbec5b9da	-0.38618356
5	0x3c3ab882	0.011396529
6	0x3e42b405	0.19013985
7	0x3e0331a6	0.12811908
8	0x3c4b9792	0.012426274
9	0xbe8142bc	-0.25246227
10	0xbe0f459a	-0.13991395
11	0xbf0fcb85	-0.5616992
12	0xbdbc9d6a	-0.09209712
13	0xbef2f86a	-0.4745515
14	0xbd861ef4	-0.065488726
15	0x3ed804ba	0.42191106
16	0x3d37a20e	0.04483228
17	0x3ede410a	0.43408996
18	0x3e95ce95	0.29259172
19	0xbd44a027	-0.048004296
20	0x3e2f8609	0.17140974
21	0xbef830d6	-0.4847476
22	0x3ebae980	0.3650627
23	0x3dc0c2d1	0.09412158
24	0xbd93efc1	-0.07223464
25	0xbce9df3f	-0.028548835
26	0x3e8763a2	0.264432
27	0x3e09fd35	0.13475497
28	0x3dd4bd27	0.103876404
29	0xbe12e5dc	-0.14345497
30	0xbee79eb1	-0.4523826
31	0xbeb922cb	-0.36159357
32	0x3eaa8a6d	0.33308735
33	0x3e2215cb	0.15828626
34	0x3e975daa	0.29563648
35	0x3e86e751	0.26348355
36	0xbe9a136d	-0.30092946
37	0x3e32fbf0	0.17478919
38	0xbea3e771	-0.32012513
39	0xbe76278b	-0.24038522
40	0x3e42066d	0.18947764
41	0x3eed0d88	0.46299386
42	0x3e254a84	0.16141707
43	0x3e21c549	0.15797915
44	0x3def0ee5	0.11672763
45	0xbeab975d	-0.3351392
46	0x3e1f0ed1	0.15532996
47	0xbebfd73e	-0.37468904
48	0x3dc7b839	0.097519346
49	0x3e77b4eb	0.24190108
50	0x3e582ac4	0.21110064
51	0x3eab4bb3	0.3345619
52	0x3ed7cbaf	0.42147586
53	0x3e3f0a23	0.1865621
54	0xbddee838	-0.10884136
55	0x3e18989f	0.1490197
56	0x3e7241fb	0.23657982
57	0x3da303bd	0.079596974
58	0x3e5e1b1a	0.21690026
59	0x3db29c24	0.08721188
60	0xbed56d4d	-0.41684952
61	0x3caa261d	0.020770127
62	0x3e36970d	0.17831059
63	0xbe26ca8c	-0.16288203
64	0x3dabc578	0.083872736
65	0x3e6e02ca	0.23243251
66	0xbeb339d6	-0.35005063
67	0x3d9c43b2	0.07630099
68	0x3d33a156	0.043855034
69	0x3e899dc2	0.26878172
70	0x3ee95938	0.4557588
71	0x3c8f6113	0.017502343
72	0xbdd72d4e	-0.10506688
73	0xbd95b4f5	-0.073099054
74	0x3dbad268	0.09122163
75	0x3d2f2404	0.042758957
76	0x3e3ee39a	0.1864151
77	0xbd043bd2	-0.03228361
78	0x3e9ce2c2	0.30641752
79	0xbed961e7	-0.42457506
80	0xbe4615e2	-0.19344285
81	0xbe5c92ff	-0.2154045
82	0x3e1df320	0.15424776
83	0xbdb1f300	-0.08688927
84	0xbe81daf1	-0.25362352
85	0x3dd1681d	0.10224936
86	0xbe1b92b7	-0.15192686
87	0xbe330e35	-0.17485888
88	0xbe241907	-0.16025172
89	0x3e081544	0.13289362

conv_block_1.0.bias f4 [10]
0	0xbea4b228	-0.32167172
1	0x3d9e1ca2	0.07720305
2	0xbdecb7cc	-0.11558494
3	0xbd4acdf4	-0.04951282
4	0xbd0fb4ba	-0.035084464
5	0x3da91074	0.08255091
6	0xbdc8cbdf	-0.0980451
7	0xbe91c2cf	-0.2846894
8	0xbd9b5768	-0.07585031
9	0xbd5ea0ba	-0.0543525

conv_block_1.2.weight f4 [10, 10, 3, 3]
0	0xbd40d18a	-0.047074832
1	0x3cf3b0c2	0.02974737
2	0x3e361446	0.17781171
3	0xbdd57118	-0.104219615
4	0x3ddf32d7	0.10898369
5	0xbcee7f14	-0.02911333
6	0x3d0e9c21	0.034816865
7	0xbbaead77	-0.005330737
8	0xbb143685	-0.0022615504
9	0xbdd4e25c	-0.10394737
10	0xbd375d74	-0.04476686
11	0x3d3afe7a	0.045652844
12	0xbe469ae6	-0.19395027
13	0xbda487ee	-0.08033739
14	0xbd1bcbb4	-0.038036063
15	0xbe15009e	-0.14551017
16	0xbbbc1e4d	-0.005740917
17	0xbd366586	-0.044530414
18	0x3dd2764e	0.10276471
19	0x3df028b1	0.11726511
20	0xbe204033	-0.1564949
21	0xbd612c9a	-0.054974176
22	0xbc3cbfe8	-0.011520363
23	0xbd4af636	-0.04955121
24	0xbd608a9c	-0.05481969
25	0x3e32e74d	0.17471047
26	0x3de70981	0.112811096
27	0x3c9cd15a	0.019142795
28	0xbd445f49	-0.047942434
29	0xbdf1946c	-0.11795887
30	0xbcbfc7b7	-0.023410661
31	0x3ddd60da	0.108094886
32	0xbc90b2b6	-0.017663341
33	0x3d84f148	0.06491333
34	0x3deb155d	0.11478684
35	0x3da8dbc0	0.08245039
36	0xbd57b4ad	-0.05266254
37	0x3da38dc4	0.07986024
38	0xbe190836	-0.14944538
39	0x3d261341	0.040545706
40	0x3dd088ed	0.101823665
41	0xbe181e8b	-0.14855401
42	0xbd818b8a	-0.06325443
43	0x3d131f24	0.03591837
44	0xbcb08d1a	-0.021551657
45	0xbbee465f	-0.0072715725
46	0x3cae6130	0.021286577
47	0x3d8e1e6b	0.069393955
48	0xbd5a5b87	-0.053309944
49	0xbcd239e5	-0.025662372
50	0xbcc56652	-0.024096642
51	0xbe4d948c	-0.20076197
52	0x3df5c537	0.12000506
53	0x3e655c1c	0.22398418
54	0x3d17d3cf	0.03706723
55	0x3dd426c7	0.10358959
56	0xbe129ff1	-0.14318825
57	0x3d6b29a8	0.057412773
58	0x3ddc607e	0.10760592
59	0xbd847c1f	-0.06468987
60	0xbd638166	-0.055543326
61	0x3cf9dac6	0.030499827
62	0xbdba6900	-0.091020584
63	0x3b9d89d7	0.0048076916
64	0xbb2bbf32	-0.002620649
65	0xbdee9261	-0.11649013
66	0x3c913c0f	0.017728833
67	0xbb9a552d	-0.004709861
68	0xbdffeaff	-0.12495994
69	0x3cb6aab4	0.022298194
70	0xbda78436	-0.08179514
71	0xbdd29597	-0.10282438
72	0xbd8616b0	-0.06547296
73	0x3d9e9fc1	0.077453144
74	0xbca4e7fb	-0.020130148
75	0x3dcc7d45	0.09984831
76	0xbbe1339e	-0.0068726083
77	0xbe00fe86	-0.12597093
78	0xbdc99316	-0.098425075
79	0xbd9ca18e	-0.076480016
80	0xbd528147	-0.05139282
81	0x3ccb78f7	0.024837954
82	0x3d3babee	0.04581826
83	0x3cd3bb0d	0.025846029
84	0x3da907e2	0.08253457
85	0xbb80063b	-0.0039069927
86	0x3c1f434c	0.009720635
87	0xbd3ab2a7	-0.045580532
88	0xbdaa8128	-0.08325416
89	0x3d702b5d	0.058635104
90	0x3d539c78	0.051662892
91	0xbd888c2f	-0.06667363
92	0x3d9bd6fa	0.07609363
93	0x3dd330e6	0.10312061
94	0x3b643cab	0.00348262
95	0x3bb5862e	0.005539677
96	0xbdaaaac4	-0.08333352
97	0xbdfe2200	-0.12408829
98	0x3cf6794e	0.03008714
99	0x3c9d230a	0.019181747
100	0xbda7dea2	-0.08196761
101	0x3c9ee5e2	0.019396726
102	0xbaa995fd	-0.0012938377
103	0xbe24d06a	-0.16095129
104	0xbe040e43	-0.12896065
105	0xbe14ad11	-0.14519145
106	0xbe4c37f5	-0.19943221
107	0xbd134688	-0.035955936
108	0x3e3c1dc2	0.18370727
109	0x3dc69bd9	0.09697694
110	0x3e839f70	0.2570758
111	0xbd123556	-0.035695396
112	0x3cf61c2e	0.030042734
113	0x3e667cd5	0.22508557
114	0xbc777dda	-0.015105689
115	0xbe32b48c	-0.17451686
116	0xbd097f40	-0.03356862
117	0xbd7df3e9	-0.06200019
118	0x3c389814	0.011266727
119	0x3e075591	0.13216235
120	0xbe317f63	-0.1733375
121	0xbe14a9ec	-0.14517945
122	0x3cdaa9fd	0.026692385
123	0xbe4c7dd8	-0.1996988
124	0xbe1864ce	-0.14882204
125	0xbd2c9b52	-0.042140312
126	0x3dd0fb64	0.10204199
127	0x3de311a9	0.11087353
128	0x3e216a0a	0.15763107
129	0xbdf17aac	-0.11790976
130	0xbd4f0d67	-0.05054989
131	0xbe0f41ec	-0.13989991
132	0xbe682f01	-0.2267418
133	0xbe55cb75	-0.20878394
134	0xbe201192	-0.15631703
135	0x3c111243	0.008854452
136	0x3e993aba	0.29927617
137	0x3eb3cb22	0.35115916
138	0xbe34f8ed	-0.17673083
139	0xbd8eda90	-0.06975281
140	0xbd49d460	-0.049274802
141	0xbed05125	-0.40686908
142	0xbe9e4325	-0.30910602
143	0xbe75bb54	-0.23997241
144	0x3e013c1d	0.12620588
145	0x3e4c3ec8	0.19945824
146	0x3e80a2da	0.25124246
147	0x3c6abf7a	0.014327878
148	0x3db8a02f	0.090149276
149	0x3e809c75	0.25119367
150	0xbd2377b3	-0.039909076
151	0xbd80a2cc	-0.06281051
152	0xbd90eeec	-0.07076821
153	0x3d5ad96f	0.053430017
154	0x3c3aeae8	0.011408545
155	0x3e10682b	0.14102237
156	0xbd8cb85b	-0.068711005
157	0xbdf9658a	-0.1217757
158	0xbe159859	-0.14608897
159	0xbdbef5c9	-0.093242235
160	0xbe2d04c6	-0.16896352
161	0xbd51b668	-0.051199347
162	0xbbb272cc	-0.0054458138
163	0x3d5a6337	0.053317275
164	0x3e0bed2e	0.13664696
165	0xbd01b2fd	-0.031664837
166	0x3d395fc6	0.045257352
167	0x3e191fb6	0.14953503
168	0xbe229c7a	-0.15880004
169	0x3c7ff8bd	0.015623269
170	0xbdfcfb9c	-0.12352678
171	0x3d56da41	0.052454237
172	0xbd88475e	-0.06654237
173	0x3d372633	0.044714164
174	0x3aa9407b	0.0012912893
175	0x3d88625b	0.06659385
176	0x3d430622	0.04761327
177	0x3d6571f4	0.056016877
178	0x3cf6f3bb	0.030145517
179	0xbd373a19	-0.04473314
180	0xbd2b0da5	-0.04176106
181	0x3d78a479	0.06070373
182	0xbc68ff9b	-0.014221097
183	0x3d8ea503	0.06965067
184	0xbdc3a276	-0.09552471
185	0x3d93c221	0.072147615
186	0xbbcf299b	-0.0063220984
187	0xbbb11b2e	-0.0054048514
188	0x3ca354dc	0.019937925
189	0x3d09be40	0.033628702
190	0x3dd2e0b8	0.10296768
191	0xbdff80a8	-0.12475711
192	0x3d382ce4	0.044964686
193	0xbd2554ed	-0.040364195
194	0xbd649a6f	-0.05581134
195	0xbe19832f	-0.14991449
196	0xbe325f75	-0.17419226
197	0xbcc0040d	-0.023439432
198	0xbd85f276	-0.065403864
199	0x3da2ab60	0.079428434
200	0xbbb919c4	-0.0056488235
201	0xbd6147bb	-0.055000048
202	0xbcdef30e	-0.027215507
203	0xbbd87d50	-0.0066067353
204	0xbda5a2ff	-0.0808773
205	0x3dd6fd31	0.10497511
206	0xbd6a3df6	-0.057187997
207	0x3d13869a	0.036017038
208	0x3daf3087	0.08554178
209	0xbd60c1d4	-0.05487235
210	0x3cd1a414	0.025590934
211	0x3ad6ee2e	0.0016397887
212	0x3cef5403	0.029214865
213	0xbc8f09e4	-0.01746077
214	0x3d0fe160	0.035127044
215	0x3cd745e5	0.026278445
216	0xbcef9f75	-0.02925084
217	0x3e038add	0.12845941
218	0x3e24fac5	0.16111286
219	0xbd4d7712	-0.050162382
220	0xbda1d8f8	-0.07902712
221	0xbd2da4cb	-0.042393487
222	0x3db00c95	0.0859615
223	0xbd85d7d0	-0.065353036
224	0x3dc312e2	0.09525086
225	0xbe012026	-0.1260992
226	0x3e03ff01	0.12890245
227	0x3e126881	0.14297678
228	0x3d8b775a	0.06809874
229	0xbce6f6b3	-0.028193807
230	0x3d4eff6e	0.050536565
231	0xbd27ade9	-0.040937338
232	0xbdbf426c	-0.09338841
233	0x3d35c569	0.044377718
234	0xbd971cf7	-0.073785715
235	0xbc2f5466	-0.0107012745
236	0x3d517bd1	0.05114347
237	0x3bf4962c	0.007464191
238	0x3d86f93d	0.06590507
239	0x3c41100c	0.011783611
240	0x3db9b9e6	0.090686604
241	0x3b474f41	0.003041223
242	0xbb8de4bb	-0.0043302453
243	0xbdb4e2c6	-0.08832316
244	0x3d05bea1	0.0326525
245	0x3c71635d	0.014733163
246	0x3db7d549	0.08976228
247	0x3dcf700d	0.10128794
248	0xbd823826	-0.06358366
249	0xbd94cf3e	-0.07266091
250	0x3d434ab3	0.04767866
251	0x3d68cc8d	0.0568357
252	0xbdb69661	-0.08915401
253	0x3bc50df7	0.0060136276
254	0xbd318d87	-0.04334786
255	0xbb92b2ef	-0.004476897

conv_block_1.2.bias f4 [10]
0	0xbea7e8e2	-0.32794863
1	0xbcfe2bf7	-0.031026823
2	0x3d4acfdf	0.049514648
3	0xbd9f1a6b	-0.07768711
4	0x3c8b13d3	0.016977226
5	0x3cea77d5	0.028621593
6	0x3c9f8a85	0.019475231
7	0xbdb05b0f	-0.08611118
8	0xbd23505d	-0.039871562
9	0x3d56b926	0.052422665

conv_block_2.0.weight f4 [10, 10, 3, 3]
0	0x3e9537d5	0.2914416
1	0x3e041717	0.12899433
2	0xbdc803b6	-0.09766333
3	0xbe2a3717	-0.16622578
4	0xbd9802d6	-0.07422416
5	0x3db67e3f	0.08910798
6	0xbd7e0dd8	-0.06202492
7	0xbcd3aa11	-0.02583793
8	0xbe2f5602	-0.17122653
9	0xbd5afa59	-0.053461406
10	0xbe7bc3af	-0.24586366
11	0x3dc7cce1	0.097558744
12	0xbd756a3c	-0.059915766
13	0x3e2e7c40	0.17039585
14	0x3e9e31d2	0.30897385
15	0x3dee843f	0.11646318
16	0xbde73709	-0.11289794
17	0xbe9e94bd	-0.30972853
18	0x3e43a7cc	0.19106978
19	0xbd905f4f	-0.07049429
20	0x3e2f6b83	0.17130856
21	0x3de32c2b	0.11092409
22	0x3e26de67	0.16295777
23	0xbe0d3763	-0.1379066
24	0xbd77ff1e	-0.060546033
25	0xbe145ea5	-0.14489229
26	0xbde2ce25	-0.11074475
27	0x3ce1bff1	0.027557345
28	0x3d538bca	0.051646985
29	0x3c345877	0.01100742
30	0x3d173e9e	0.03692495
31	0xbc0111f6	-0.007877817
32	0x3c3073e8	0.010769822
33	0xbe2ddc72	-0.16978624
34	0xbdafd8c0	-0.08586264
35	0x3af0c642	0.0018369632
36	0x3ece31ce	0.40272373
37	0x3ecf58b8	0.40497375
38	0xbc948f2b	-0.018134674
39	0x3ec8b8fa	0.39203626
40	0xbe3682d1	-0.1782334
41	0xbe964fbe	-0.29357713
42	0xbe7fe64c	-0.24990195
43	0xbec41d7e	-0.3830375
44	0x3db92a56	0.09041278
45	0x3dea2bf8	0.114341676
46	0x3ece2c0f	0.4026799
47	0x3ebed6b5	0.37273183
48	0x3e816328	0.25270963
49	0x3e8546eb	0.2603067
50	0xbe3a8e9a	-0.1821846
51	0xbe9c1f32	-0.3049255
52	0xbf314076	-0.69238985
53	0xbecb6941	-0.3972874
54	0x3eb44cb4	0.3521477
55	0x3c70659c	0.014672663
56	0x3dcc7f85	0.0998526
57	0xbd461bb8	-0.04836628
58	0xbdd120e4	-0.102113515
59	0x3dabb969	0.083849736
60	0x3db8eee7	0.09029942
61	0xbe1a189b	-0.15048449
62	0xbe8905b8	-0.26762176
63	0x3ce5a99f	0.028034983
64	0x3c3a55bd	0.011372981
65	0x3c82453f	0.01590216
66	0xbd3f09d1	-0.04664022
67	0xbd180371	-0.037112657
68	0x3d97cda0	0.07412267
69	0x3dbe234c	0.09284076
70	0xbdcecc40	-0.10097551
71	0x3d00e156	0.031464897
72	0xbde40bb3	-0.11135044
73	0xbe991ed1	-0.29906324
74	0x3d2ae316	0.041720472
75	0xbbde8686	-0.006790939
76	0x3ee682e4	0.45021737
77	0x3e5dee11	0.21672846
78	0x3e1f51ff	0.15558623
79	0xbe391615	-0.1807483
80	0xbed10c41	-0.4082966
81	0xbedb2e81	-0.42808917
82	0x3c8c26a6	0.017108273
83	0xbdcf35c2	-0.10117675
84	0x3c38133c	0.011235055
85	0x3ebeaf73	0.37243232
86	0x3e8ff507	0.2811663
87	0x3e8b9583	0.27262506
88	0x3dd71426	0.1050189
89	0xbddcf0b3	-0.10788097
90	0xbd5c686e	-0.05381053
91	0xbd4ab250	-0.04948646
92	0xbd905c01	-0.07048798
93	0xbd7a39a5	-0.06109013
94	0x3da18882	0.07887365
95	0x3db9edee	0.090785846
96	0x3cfb61b8	0.030686244
97	0xbd214695	-0.039373953
98	0xbd0d5749	-0.03450707
99	0xbd2072e3	-0.039172065
100	0xbd18fef6	-0.037352525
101	0x3d2e6534	0.042576984
102	0xbdda4f6f	-0.10659682
103	0x3c85d0db	0.016334942
104	0x3da9deed	0.08294473
105	0xbdb4d3bf	-0.0882945
106	0x3c7983df	0.015229194
107	0x3cca2bdc	0.024679117
108	0xbc5e463c	-0.01356655
109	0xbd9bfc2f	-0.076164596
110	0x3dc01a35	0.093799986
111	0xbdafc9cd	-0.08583412
112	0xbd9bef90	-0.07614052
113	0x3d255bea	0.04037086
114	0x3d569c79	0.052395318
115	0xbd9ed9e5	-0.07756404
116	0x3d7bab7d	0.06144284
117	0x3d20822b	0.039186638
118	0xbdb301ff	-0.08740615
119	0xbd33176c	-0.04372351
120	0x3db942c8	0.09045941
121	0xbd9598cd	-0.07304535
122	0x3da654af	0.08121621
123	0xbd1c231f	-0.03811943
124	0xbc2e6891	-0.010645048
125	0xbdc3a178	-0.09552282
126	0x3d4e4995	0.050363142
127	0xbdb7d941	-0.08976985
128	0x3de6f0e3	0.11276414
129	0xbdeaf044	-0.11471608
130	0xbd9c4e26	-0.07632093
131	0xbc423fd1	-0.011856035
132	0x3dc1ff50	0.09472525
133	0xbd78eb3c	-0.060771212
134	0xbdc722f1	-0.097234614
135	0xbdf14df0	-0.117824435
136	0x3db48df2	0.088161364
137	0xbd244fc7	-0.040115144
138	0xbd5646f4	-0.05231376
139	0xbdb7d44e	-0.08976041
140	0xbc63a335	-0.013893892
141	0x3d63ef88	0.055648357
142	0x3ca81e7a	0.020522345
143	0x3dcd8d33	0.10036697
144	0xbbdcf624	-0.0067432094
145	0xbd2503ed	-0.040286947
146	0x3e19739e	0.1498551
147	0x3dac3cab	0.08410009
148	0x3de30a59	0.11085958
149	0xbd83d618	-0.064373195
150	0x3d48882c	0.04895799
151	0xbd8654af	-0.06559121
152	0x3d7f0319	0.062258814
153	0x3d8cbc00	0.06871796
154	0xbdd2832b	-0.102789246
155	0x3cb847bd	0.022495145
156	0xbd919d11	-0.07110036
157	0xbd25c995	-0.040475447
158	0xbc04cf73	-0.0081061
159	0x3d1bb084	0.038010135
160	0x3cb372ca	0.021905322
161	0xbd86d0d8	-0.065828025
162	0x3b9cb079	0.0047817794
163	0x3d945b70	0.07244003
164	0x3de6ac04	0.11263278
165	0xbda6eb0a	-0.08150299
166	0xbd2f25be	-0.042760603
167	0x3e0e0176	0.13867745
168	0xbda4de65	-0.08050231
169	0x3d037946	0.032098077
170	0x3d05d29e	0.032671563
171	0xbd0b3f96	-0.033996187
172	0xbcc32ec1	-0.023826005
173	0xbc0bafbe	-0.008525787
174	0xbdec044e	-0.115242586
175	0xbd924d90	-0.071437
176	0xbda48085	-0.08032326
177	0x3dad8dc5	0.08474306
178	0xbdd2a4e1	-0.102853544
179	0xbd7311e6	-0.05934324
180	0xbc47abce	-0.0121869575
181	0x3cc84cd0	0.02445069
182	0x3e5107e5	0.20413168
183	0xbd3ed7a9	-0.04659239
184	0x3d198f62	0.037490256
185	0x3d2d3b91	0.042293135
186	0xbe326572	-0.17421511
187	0xbd964aba	-0.07338472
188	0xbddf868c	-0.10914335
189	0x3cba685c	0.02275484
190	0x3da196c8	0.07890087
191	0x3dcae27b	0.09906479
192	0x3ea1c90d	0.31598702
193	0x3e8bf920	0.27338505
194	0x3e4ee1c0	0.20203304
195	0xbe0962ca	-0.13416591
196	0xbe816f24	-0.25280106
197	0xbd7a8f79	-0.061171982
198	0x3bfccb21	0.0077146445
199	0x3e3e2209	0.18567671
200	0x3e2463bc	0.1605367
201	0xbde0d324	-0.10977772
202	0xbe1bff48	-0.15234101
203	0x3db9a70f	0.09065067
204	0xbe0722e0	-0.13196898
205	0xbda7c06b	-0.08190998
206	0xbb2b05be	-0.0026095952
207	0x3d1c31c7	0.03813341
208	0xbdc9d52b	-0.09855112
209	0xbd91c874	-0.071183115
210	0xbd0a06f5	-0.03369804
211	0x3d1c1abc	0.038111433
212	0x3d39af22	0.045333035
213	0xbcd84394	-0.026399411
214	0x3e02748f	0.12739776
215	0x3e3c6489	0.18397726
216	0x3d2ce912	0.04221446
217	0x3e26e2d4	0.16297466
218	0x3eb38a27	0.3506634
219	0xbea61eae	-0.32445282
220	0xbe647ddc	-0.22313637
221	0x3dc8f724	0.09812763
222	0x3d85d040	0.06533861
223	0xbd90595c	-0.07048294
224	0xbd7a6b26	-0.06113734
225	0x3e61cbf5	0.2205046
226	0x3e9af53d	0.30265227
227	0x3f1bed21	0.60908705
228	0xbebac4ac	-0.36478174
229	0xbdc8cfa9	-0.09805233
230	0x3e4a0ba3	0.19731002
231	0xbeaa33d5	-0.3324267
232	0xbeaf2951	-0.3421121
233	0xbe4b5b6a	-0.1985909
234	0x3dad4f7f	0.08462428
235	0x3de022eb	0.1094416
236	0x3e28526b	0.1643769
237	0xbc3dc900	-0.011583567
238	0x3e7e45e5	0.2483135
239	0x3e752b8a	0.2394239
240	0xbe95ea64	-0.29280388
241	0xbeb96a7f	-0.36214063
242	0xbeaf41ea	-0.34229976
243	0xbd962eb2	-0.07333125
244	0x3de13509	0.10996444
245	0xbd996bff	-0.07491302
246	0xbcf32cdf	-0.029684482
247	0xbdaa6b3d	-0.08321235
248	0x3c2a1d7f	0.010383009
249	0xbda34315	-0.07971779
250	0xbd5c305f	-0.053757068
251	0x3d1d4a8a	0.038401164
252	0x3d20607a	0.039154507
253	0x3e4aa3d5	0.1978906
254	0x3db33f4d	0.08752308
255	0xbd01a44e	-0.031650834

conv_block_2.0.bias f4 [10]
0	0x3e859cab	0.2609609
1	0xbd82e4c3	-0.06391289
2	0x3cf14445	0.029451499
3	0xbdcc777a	-0.09983726
4	0x3d52de27	0.051481392
5	0x3eb69e5f	0.35667703
6	0xbe1109b2	-0.14163855
7	0x3dc00919	0.09376735
8	0xbd722214	-0.05911453
9	0x3ea5a544	0.3235265

conv_block_2.2.weight f4 [10, 10, 3, 3]
0	0xbdf64938	-0.12025684
1	0xbf123dd3	-0.57125586
2	0xbef6b5b5	-0.48185506
3	0x3efaf783	0.4901696
4	0xbe1bcffc	-0.15216058
5	0xbecc2752	-0.3987375
6	0xbd9ebd68	-0.0775097
7	0xbcb0f61b	-0.021601727
8	0xbd9a2eff	-0.07528495
9	0x3d002922	0.031289227
10	0xbbb38da5	-0.005479532
11	0xbcda3973	-0.026638722
12	0xbcaea1ec	-0.021317445
13	0x3d98ed5e	0.07467149
14	0xbc0298f9	-0.007971042
15	0xbdf2045a	-0.11817236
16	0xbdb199f1	-0.0867194
17	0xbdc68e9f	-0.096951716
18	0xbd860a0f	-0.06544887
19	0xbe8dc2ee	-0.27687782
20	0xbe946087	-0.28979895
21	0x3ece3f14	0.402825
22	0xbdcb81fb	-0.09936901
23	0xbe874c95	-0.26425615
24	0x3df6340f	0.12021648
25	0x3cd03809	0.025417345
26	0xbe19b5bb	-0.15010731
27	0x3dbffac4	0.093740016
28	0x3d05a79b	0.032630544
29	0x3d1112af	0.03541821
30	0xbda4e328	-0.08051139
31	0xbd8c66ac	-0.068555206
32	0x3d9b1cb0	0.07573831
33	0x3d577c3f	0.052608725
34	0x3d0a4bf8	0.033763856
35	0x3d03552b	0.032063644
36	0x3e42fbc2	0.1904135
37	0x3e743899	0.23849715
38	0x3e223361	0.15839912
39	0xbede414c	-0.43409193
40	0xbe951f66	-0.29125518
41	0x3ea59589	0.3234065
42	0xbe087fa9	-0.13329948
43	0xbee0f4fa	-0.43936902
44	0xbe49ea93	-0.19718389
45	0xbdec6d81	-0.11544324
46	0xbd5e6c35	-0.054302413
47	0xbc01d42a	-0.007924119
48	0x3d94d7e3	0.072677396
49	0xbd70d584	-0.058797374
50	0xbe399fc9	-0.1812736
51	0x3e47a48f	0.19496368
52	0xbcb4fbd5	-0.02209274
53	0xbbb19549	-0.0054194075
54	0xbcabc6a3	-0.02096874
55	0xbdb4fa77	-0.08836835
56	0x3b053833	0.0020327687
57	0x3d8e34b5	0.06943647
58	0xbd495eda	-0.049162723
59	0xbdd2cea2	-0.10293318
60	0x3d65adf9	0.056074116
61	0xbd76f5d6	-0.06029304
62	0x3c0eb9cd	0.008711291
63	0xbd9e20c9	-0.07721097
64	0xbe0e5282	-0.13898662
65	0xbd013f25	-0.03155436
66	0xbeb26ad1	-0.3484712
67	0xbe473a72	-0.19455889
68	0xbe8110a6	-0.25208014
69	0x3db1a5d4	0.08674207
70	0x3c15f44d	0.009152484
71	0xbe4988ef	-0.19681142
72	0x3daaa4e6	0.08332233
73	0x3e99e743	0.3005925
74	0x3d093a28	0.033502728
75	0x3dcf1a80	0.10112476
76	0x3e730ad3	0.23734598
77	0x3e508c80	0.20366096
78	0xbd7b4a85	-0.061350364
79	0xbd933903	-0.071886085
80	0xbd62aa65	-0.055338282
81	0x3da84573	0.082163714
82	0xbdf3a728	-0.11897117
83	0xbdbbfb11	-0.091787465
84	0xbe29e7e2	-0.16592363
85	0xbdb11ce2	-0.08648087
86	0x3e5fa941	0.21841909
87	0xbeb980a4	-0.36230958
88	0xbe01ae3a	-0.12664118
89	0x3d79578f	0.060874518
90	0xbe40792b	-0.18796222
91	0xbd071749	-0.03298119
92	0xbf34d998	-0.7064452
93	0xbe7aa6d0	-0.24477696
94	0xbe3cc81e	-0.18435714
95	0xbd34bbb8	-0.044124335
96	0x3e488473	0.19581775
97	0x3ea697d6	0.32537717
98	0x3ed35ced	0.41281834
99	0x3caa65c3	0.020800477
100	0xbdd0c92e	-0.10194622
101	0xbd0c99ad	-0.034326244
102	0x3d3951e6	0.04524412
103	0xbddf6158	-0.10907239
104	0xbd40c494	-0.04706247
105	0x3d53820f	0.051637705
106	0x3beffde4	0.0073239673
107	0xbd8670a7	-0.065644555
108	0xbf0cf164	-0.5505583
109	0xbeb45647	-0.35222074
110	0xbe6d8a6a	-0.23197332
111	0x3e7b164b	0.24520223
112	0x3bc50973	0.0060130893
113	0xbd9c2d5e	-0.076258406
114	0x3e2c4bbf	0.1682577
115	0x3e14f8bf	0.14548014
116	0xbcf614ef	-0.030039279
117	0x3b0ca3cb	0.0021459933
118	0x3d5aff51	0.053466145
119	0x3c8e7302	0.017388824
120	0xbdac02a9	-0.08398945
121	0xbd5770e4	-0.052597895
122	0xbd753997	-0.059869375
123	0x3d0455b9	0.032308314
124	0xbd230fa8	-0.039809853
125	0xbd98fb91	-0.074698575
126	0xbc1f1e12	-0.009711759
127	0x3e915ab7	0.28389522
128	0x3d5fd82e	0.054649524
129	0x3e6ec938	0.23318946
130	0x3ed6afe5	0.41931072
131	0xbe58a90d	-0.21158238
132	0xbec92c56	-0.39291638
133	0xbf30ae37	-0.6901583
134	0xbf26438e	-0.6494683
135	0xbde2138c	-0.110388845
136	0x3cf6416f	0.030060498
137	0xbdcaefc3	-0.09909012
138	0xbe0c9feb	-0.13732879
139	0x3cba2dd9	0.02272694
140	0xbe27653f	-0.16347216
141	0xbdb90dd0	-0.09035838
142	0xbd8755e3	-0.066081785
143	0x3dc6337d	0.09677789
144	0x3db543af	0.088508
145	0x3daae1ae	0.08343826
146	0xbd99548c	-0.07486829
147	0xbd852e26	-0.06502943
148	0xbd3d6909	-0.046242747
149	0xbd686d3a	-0.05674479
150	0xbdd2ef69	-0.1029957
151	0xbd125945	-0.035729665
152	0xbad63b16	-0.0016344513
153	0x3d9a85bb	0.07545038
154	0xbed9e6bd	-0.42558852
155	0xbe0b4454	-0.13600284
156	0xbdc15afa	-0.094411805
157	0xbdcc458b	-0.09974202
158	0x3e8206c0	0.25395775
159	0xbe679723	-0.22616248
160	0xbe89200f	-0.2678227
161	0xbe8ce6b5	-0.27519765
162	0xbe8f4597	-0.2798278
163	0xbe441e25	-0.19152124
164	0xbe125006	-0.14288339
165	0xbc32fad5	-0.010924061
166	0x3e3b874b	0.18313329
167	0xbe350794	-0.17678672
168	0x3e80b44a	0.2513755
169	0x3dc51472	0.0962304
170	0x3d52e215	0.05148514
171	0x3ecd7c0c	0.40133703
172	0xbdf6206b	-0.12017902
173	0xbdf90c87	-0.121605925
174	0xbe2b33cd	-0.16718979
175	0xbe7e2106	-0.24817285
176	0x3d941a49	0.07231576
177	0xbe5aa112	-0.21350506
178	0xbe4ab6fd	-0.19796367
179	0xbd429dd3	-0.047513794
180	0xbf08404b	-0.53223103
181	0xbddb4a69	-0.10707552
182	0x3f0c672c	0.5484493
183	0xbf521bd3	-0.82073706
184	0xbe60f1a0	-0.21967173
185	0x3d4b950d	0.049702693
186	0xbf44df06	-0.76902807
187	0xbe1e3c68	-0.1545273
188	0xbcb75806	-0.02238084
189	0xbd3096c9	-0.04311255
190	0x3cb6dc38	0.022321805
191	0x3ccc8e9d	0.024970347
192	0xbd783777	-0.06059977
193	0xbd4845af	-0.04889458
194	0xbd0c1bea	-0.03420631
195	0x3db91f2b	0.09039148
196	0x3d9c4f9e	0.07632373
197	0xbd02acf8	-0.031903237
198	0xbd12108c	-0.03566031
199	0xbd551b37	-0.052027907
200	0xbe8547bd	-0.26031294
201	0xbd2872ab	-0.04112498
202	0xbe9fc882	-0.31207663
203	0xbee1d087	-0.44104406
204	0x3e2f2eb7	0.17107664
205	0x3c30c314	0.010788698
206	0xbec88ab2	-0.39168316
207	0x3c87528c	0.016518854
208	0x3dc2bfe0	0.095092535
209	0xbdc296f7	-0.095014505
210	0x3d96fce2	0.07372452
211	0x3d563093	0.052292418
212	0x3d94a593	0.07258143
213	0xbdd087ca	-0.1018215
214	0xbca4e83c	-0.02013027
215	0x3dd1b891	0.102402814
216	0xbb875722	-0.00413026
217	0xbe5b456c	-0.21413201
218	0xbd87dd96	-0.06634061
219	0xbe0f6730	-0.14004207
220	0xbe99b311	-0.3001943
221	0x3dade72e	0.0849136
222	0xbdc75547	-0.09733062
223	0xbe810c1c	-0.2520455
224	0x3e327e17	0.17430912
225	0x3dcfb8b9	0.10142655
226	0xbda77304	-0.08176234
227	0xbdd1b95b	-0.10240432
228	0x3d5b2420	0.05350125
229	0x3d60ed13	0.05491359
230	0x3b24688e	0.0025086734
231	0xbdd46264	-0.10370329
232	0xbd59a318	-0.053134054
233	0xbd334fb9	-0.0437772
234	0x3da8e5d4	0.08246961
235	0x3c8ee759	0.0174443
236	0x3cdd933c	0.027047746
237	0xbdc783de	-0.097419485
238	0xbd429a45	-0.047510404
239	0xbc056608	-0.008142002
240	0xbd2a1f3f	-0.041533705
241	0x3d2e20a7	0.04251161
242	0xbd78e2b1	-0.060763065
243	0x3e193112	0.14960125
244	0x3e83d371	0.25747254
245	0xbec22bf0	-0.37924147
246	0x3e1cea01	0.1532364
247	0xbe461fb3	-0.1934803
248	0xbe30d758	-0.17269647
249	0x3e80b30a	0.25136596
250	0xbc9f61da	-0.019455839
251	0xbea3f38c	-0.3202175
252	0xbdba2e34	-0.09090844
253	0xbd85ab40	-0.06526804
254	0xbdb53b4f	-0.08849203
255	0xbe0ca856	-0.1373609

conv_block_2.2.bias f4 [10]
0	0x3e0ec100	0.13940811
1	0x3e4952f5	0.19660552
2	0x3e8483ea	0.25881892
3	0xbe592759	-0.21206416
4	0x3cf184de	0.029482301
5	0x3db17ccb	0.086663805
6	0x3da027fd	0.07820127
7	0xbc31cf9f	-0.010852723
8	0x3def0c3e	0.11672257
9	0x3d8c667a	0.06855483

classifier.1.weight f4 [10, 490]
0	0x3b8c1130	0.00427451
1	0x3d186e21	0.037214402
2	0xbd22d7e0	-0.039756656
3	0xbd6a93fd	-0.05727004
4	0xbd2066c1	-0.039160494
5	0xbd6dfb9b	-0.058101278
6	0xbc5a3897	-0.013319156
7	0xbd1cf75d	-0.03832184
8	0xbd5a8196	-0.05334624
9	0xbdd650b9	-0.104646154
10	0xbcc99596	-0.024607461
11	0x3d3a2cd1	0.045452897
12	0x3dd22f43	0.10262921
13	0xbc083916	-0.008314392
14	0x3c405b8f	0.011740579
15	0xbd407e7a	-0.046995617
16	0xbc093e08	-0.008376606
17	0x3e2af3d6	0.16694579
18	0x3e5b6409	0.21424879
19	0x3e06d791	0.1316817
20	0x3d17d63a	0.037069537
21	0x3d8b834b	0.068121515
22	0x3c084654	0.008317549
23	0xbde3057c	-0.110850304
24	0xbeaedf72	-0.3415485
25	0xbe169121	-0.147038
26	0x3e43ee8d	0.19133969
27	0x3d1ae659	0.037817333
28	0xbd5f7562	-0.054555304
29	0xbba4485e	-0.0050135097
30	0x3d7a4021	0.061096314
31	0xbccac035	-0.024749855
32	0xbe62b9bb	-0.22141163
33	0xbe48d62b	-0.19612949
34	0xbd8055eb	-0.062663876
35	0x3a988d7f	0.0011638849
36	0xbc59f74a	-0.013303587
37	0x3e54c7d8	0.2077936
38	0x3e99cd23	0.3003932
39	0xbda6f1d5	-0.081515945
40	0xbe520ef7	-0.20513521
41	0x3cccc182	0.024994615
42	0x3cd5852b	0.026064476
43	0x3cc4187d	0.023937458
44	0xbc1aa0dc	-0.009437766
45	0xbdf35dff	-0.11883163
46	0xbe3795b2	-0.17928198
47	0xbe4e1a50	-0.20127225
48	0xbd4f8431	-0.050663177
49	0xbceb1c65	-0.028700063
50	0xbbfcd570	-0.0077158734
51	0xbdb568ef	-0.08857905
52	0xbcd7de64	-0.026351161
53	0xbce3991c	-0.02778297
54	0xbc0c180c	-0.008550655
55	0x3c2e945d	0.01065549
56	0xbc33a625	-0.010964905
57	0xbccc655d	-0.024950678
58	0xbdb2c1e3	-0.08728387
59	0xbde9f2ca	-0.114232615
60	0xbd6395c0	-0.055562735
61	0xbd07a777	-0.03311869
62	0x3d31a919	0.043374155
63	0xbbec2508	-0.007206563
64	0xbe1332bf	-0.14374827
65	0xbdff0e92	-0.12453951
66	0xbe12b3ac	-0.14326352
67	0xbdb8184b	-0.089890085
68	0xbd240042	-0.04003931
69	0xbca7fdf2	-0.020506833
70	0xbc5d4172	-0.013504373
71	0xbc6acd5f	-0.014331191
72	0xbe9a7668	-0.30168462
73	0xbf0fba9a	-0.56144106
74	0xbe232c9c	-0.15934986
75	0xbd124ef3	-0.035719823
76	0x3c0ff9b3	0.00878756
77	0xbd4590e5	-0.048233885
78	0x3e29c91c	0.16580623
79	0x3d6bf92f	0.057610687
80	0x3d9fd929	0.07805092
81	0xbd3942f4	-0.045229867
82	0xbe315e70	-0.17321181
83	0xbc35adbb	-0.011088784
84	0xbbe5a6e6	-0.0070084212
85	0x3e1a13ec	0.15046662
86	0x3ef7fd5f	0.48435494
87	0x3eb57e7a	0.35448056
88	0xbe073fb0	-0.13207889
89	0xbe03280e	-0.12808248
90	0x3cf495c2	0.029856566
91	0xbcc4a06d	-0.024002278
92	0xbd3f6983	-0.046731483
93	0xbd6a8fec	-0.05726616
94	0xbd8ccce4	-0.06875017
95	0xbcb646b9	-0.02225052
96	0xbd0abb89	-0.033870254
97	0x3ca6a0bf	0.020340322
98	0x3d20ec5b	0.039287906
99	0xbd5bea99	-0.053690527
100	0xbe4a4833	-0.19754104
101	0xbc73d27f	-0.014881729
102	0xbde85c01	-0.11345673
103	0xbd06254f	-0.032750424
104	0xbc786cba	-0.015162641
105	0x3c2dc5e8	0.010606267
106	0x3cfa58af	0.030559866
107	0x3bcb950b	0.0062128357
108	0xbd70738c	-0.058703944
109	0xbd48f26b	-0.049059313
110	0xbd76d9f3	-0.060266446
111	0xbcb705cd	-0.022341633
112	0xbd3d692c	-0.046242878
113	0x3e831531	0.25602105
114	0x3e304cae	0.17216751
115	0xbdc220f6	-0.09478943
116	0xbe2fddf3	-0.1717451
117	0x3cacb6d6	0.021083277
118	0xbd057e86	-0.032591365
119	0xbdbdc3b2	-0.092658415
120	0x3eb31b72	0.34981877
121	0x3e9545d1	0.29154828
122	0xbea13e28	-0.31492734
123	0xbb9e7dbc	-0.004836766
124	0x3e7e8ac2	0.2485762
125	0xbcd20d79	-0.02564119
126	0xbc299b62	-0.010351988
127	0x3ddfff93	0.10937419
128	0x3def3846	0.11680655
129	0xbe0a2691	-0.13491274
130	0x3dfc1c94	0.12310138
131	0x3dedd275	0.11612407
132	0xbd43ac34	-0.047771648
133	0x3d26fa11	0.040765826
134	0x3d74b973	0.05974717
135	0xbde37c4f	-0.11107694
136	0xbe440ee8	-0.19146311
137	0xbe3af0f2	-0.18255976
138	0xbc272e13	-0.010203856
139	0x3c91623e	0.01774704
140	0x3cd2db8f	0.02573946
141	0xbcdd5399	-0.027017402
142	0xbd9a52a6	-0.07535295
143	0xbdff6948	-0.12471253
144	0xbd142070	-0.036163747
145	0x3d128c50	0.035778344
146	0x3ba001e4	0.004883038
147	0xbd333c17	-0.043758478
148	0xbdb0698a	-0.0861388
149	0xbd3a94c1	-0.04555202
150	0xbdb4340f	-0.08798992
151	0xbd57da78	-0.052698582
152	0xbd537563	-0.05162562
153	0xbcce10d9	-0.025154518
154	0xbcac8dbc	-0.021063678
155	0xbc531e89	-0.012885698
156	0xbe154be1	-0.14579727
157	0x3cc0a1b3	0.023514604
158	0xbd89381c	-0.06700155
159	0x3ce1acd9	0.02754824
160	0x3ba4a57e	0.005024611
161	0x3d893653	0.06699815
162	0x3db22058	0.08697575
163	0x3da892de	0.08231138
164	0x3d8e16ad	0.06937919
165	0xbe2bbf47	-0.16772185
166	0xbdc70827	-0.09718352
167	0x3d6281c1	0.055299524
168	0x3d9cd6fb	0.07658192
169	0x3e417813	0.18893461
170	0x3d136f31	0.035994712
171	0xbe70abe3	-0.2350307
172	0x3ddb4767	0.10706978
173	0xbda43e9d	-0.08019755
174	0x3d2f3c67	0.042782214
175	0x3c01e4f9	0.0079281265
176	0x3d39af35	0.045333106
177	0xbcfeb826	-0.031093668
178	0x3bdd0794	0.006745288
179	0x3e226541	0.15858938
180	0xbc982a72	-0.018574927
181	0xbcd32a85	-0.02577711
182	0x3beb1fdb	0.0071754283
183	0xbde2f9ba	-0.11082788
184	0xbdea538b	-0.11441716
185	0x3e990007	0.29882833
186	0x3dd649b2	0.10463275
187	0x3c4a5995	0.01235046
188	0xbd666ffd	-0.056259144
189	0x3a3ea102	0.0007271917
190	0x3b827832	0.0039816136
191	0xbd390466	-0.04517021
192	0xbca12406	-0.019670498
193	0xbd5ee26f	-0.054415163
194	0xbcf5f34d	-0.030023241
195	0xbd49ccdd	-0.04926764
196	0x3d16a561	0.03677881
197	0x3c657f7e	0.014007447
198	0xbd54952f	-0.051900085
199	0x3cae6fd4	0.021293558
200	0xbd4a03a3	-0.049319874
201	0x3d1819d1	0.037133995
202	0x3d225dd0	0.039640248
203	0x3d70c50d	0.058781672
204	0x3d66eb29	0.05637661
205	0x3d420027	0.047363427
206	0xbb6a9f76	-0.0035800613
207	0x3c504485	0.012711649
208	0x3c7384b5	0.014863183
209	0x3d2164bf	0.03940272
210	0xbc8c0d10	-0.017096072
211	0xbe2c9b18	-0.16856039
212	0xbe357ff8	-0.17724597
213	0xbe159978	-0.14609325
214	0xbdfcc832	-0.12342872
215	0xbe680536	-0.22658238
216	0xbcd387c9	-0.025821583
217	0xbde9b6fa	-0.11411853
218	0xbee7ee26	-0.4529888
219	0xbe779d0d	-0.24181004
220	0xbd0d2a01	-0.034463886
221	0xbd03b2c8	-0.03215292
222	0xbed385fe	-0.41313165
223	0xbe308391	-0.17237689
224	0xbdf6b3e9	-0.12046034
225	0xbeeb0396	-0.45901173
226	0xbeb00d12	-0.34384972
227	0xbcffa0c5	-0.03120459
228	0x3e163738	0.14669502
229	0xbdc30d38	-0.09524006
230	0xbb8046b2	-0.0039146775
231	0xbd2bdbf7	-0.04195782
232	0xbe0010b4	-0.12506372
233	0x3daeae8d	0.08529387
234	0x3e8ccc1a	0.27499467
235	0x3e8719f4	0.26386988
236	0x3df146a6	0.11781053
237	0x3dc63d61	0.09679676
238	0xbd7eea5f	-0.062235232
239	0x3c04e20d	0.008110535
240	0x3e9bd2f0	0.3043437
241	0x3e00887d	0.12552066
242	0xbd6df484	-0.058094516
243	0x3dab0f92	0.08352579
244	0xbc28c8b6	-0.0103017595
245	0xbd06a5c8	-0.032872945
246	0xbc12c0e8	-0.008957125
247	0xbc301731	-0.010747717
248	0xbd7133a7	-0.05888715
249	0xbd892607	-0.06696706
250	0xbd44d32d	-0.048052955
251	0xbd3d1cac	-0.04616992
252	0xbc9e467b	-0.019320717
253	0xbdd8ddfa	-0.10589214
254	0xbe1b22af	-0.1514995
255	0x3d54f0b1	0.051987354

classifier.1.bias f4 [10]
0	0x3c008272	0.007843601
1	0x3ee0eb85	0.43929687
2	0xbcba3f62	-0.022735301
3	0xbdd237ea	-0.10264571
4	0xbc298115	-0.010345717
5	0xbd2ba22b	-0.041902702
6	0xbdcd7423	-0.10031917
7	0x3e38328b	0.1798803
8	0xbe131182	-0.14362147
9	0xbe1a2e35	-0.15056689
