model_weights/model_epoch_1.pth (torch, 34447 bytes, 10 tensors)

conv_block_1.0.weight f4 [10, 1, 3, 3]
-0.12638749 -0.22950451 -0.23061134 -0.055257533 0.30138183 0.102423266 0.3451852 0.5409642
0.31621894 -0.13035366 0.18357535 -0.15758666 0.10164279 0.39410487 0.00940019 -0.35633373
-0.10780729 0.28851628 0.27132693 -0.34773552 -0.16388498 0.032776196 -0.3434893 -0.09095114
0.22968063 -0.10935727 0.4050264 -0.07306476 -0.27674782 0.2793536 -0.2025521 0.24216418
0.519047 -0.06453562 -0.10627765 0.28134707 0.30774525 0.3092193 0.5233605 0.09020736
-0.27769202 -0.13335773 -0.30261123 -0.53799486 -0.32317477 -0.116121955 0.13494505 0.21278931
-0.18610922 0.2697019 0.12591195 -0.05637343 0.24008639 0.07708247 0.35186207 0.3513999
-0.28749406 0.13197401 -0.05421891 0.22544944 -0.14762926 0.0122499745 -0.16208671 -0.1521066
-0.0418723 0.26439697 -0.36902088 -0.22261521 -0.24637035 -0.13086385 -0.24424918 -0.2756896
-0.19264328 -0.12035223 -0.09976808 0.1410474 0.3439292 -0.27112022 -0.15800448 -0.1409133
0.027856015 0.13505307 -0.34282959 -0.24256143 0.3056694 0.2134382 -0.16213515 -0.32354018
0.18556376 0.06431676
00000000: b96b 01be 3b03 6bbe 6125 6cbe b955 62bd
00000010: b84e 9a3e 4ac3 d13d 1dbc b03e a17c 0a3f
00000020: 73e7 a13e 6e7b 05be 2dfb 3b3e 665e 21be
00000030: 182a d03d 1dc8 c93e 4103 1a3c 6071 b6be
00000040: 12ca dcbd 68b8 933e 5deb 8a3e 640a b2be
00000050: 77d1 27be 5540 063d d4dd afbe 9744 babd
00000060: 6631 6b3e b4f6 dfbd 9f5f cf3e faa2 95bd
00000070: e4b1 8dbe 6f07 8f3e d169 4fbe e3f9 773e
00000080: 44e0 043f 402b 84bd 19a8 d9bd b90c 903e
00000090: c990 9d3e fe51 9e3e f4fa 053f a3be b83d
000000a0: a62d 8ebe ee8e 08be dcef 9abe 08ba 09bf
000000b0: 2a77 a5be 59d1 edbd 092f 0a3e 71e5 593e
000000c0: 6a93 3ebe 5e16 8a3e 10ef 003e d3e7 66bd
000000d0: 35d9 753e 6add 9d3d 4427 b43e b0ea b33e
000000e0: 6c32 93be 3224 073e a614 5ebd 38dc 663e
000000f0: 202c 17be 1eb4 483c 0ffa 25be d5c1 1bbe
00000100: 4a82 2bbd 0a5f 873e 4ef0 bcbe 3ef5 63be
00000110: 8248 7cbe 2c01 06be 751c 7abe 3027 8dbe
00000120: 4844 45be 3b7b f6bd 3553 ccbd bb6e 103e
00000130: 7d17 b03e 45d0 8abe edcb 21be 934b 10be
00000140: 4c32 e43c 5a4b 0a3e 5c87 afbe 0662 78be
00000150: b380 9c3e 8b8f 5a3e c206 26be 0fa7 a5be
00000160: 6d04 3e3e 81b8 833d

conv_block_1.0.bias f4 [10]
0.108078666 -0.092946276 0.09895184 -0.01953552 0.06369578 -0.35479945 0.052228577 0.30926824
0.105736785 0.0008275132
00000000: 5958 dd3d 9e5a bebd 43a7 ca3d f408 a0bc
00000010: ef72 823d 46a8 b5be a2ed 553d 6858 9e3e
00000020: 878c d83d 79ed 583a

conv_block_1.2.weight f4 [10, 10, 3, 3]
-0.03300473 0.056914166 -0.015429086 0.11117579 0.099391356 -0.17050152 -0.033142656 0.11855617
-0.019453393 0.059320163 -0.0017251236 0.041521627 0.010430435 -0.06730526 0.036786944 -0.023924643
-0.02485997 -0.15950401 0.05869966 -0.04319728 -0.0017428076 -0.1303267 0.05417206 0.049036503
-0.13589509 0.028084017 -0.034951303 0.022120927 0.05891121 -0.10276107 0.16838196 0.011925907
-0.18437846 0.22343002 -0.115456715 -0.19285312 -0.030241229 0.027842296 0.10097627 -0.10184763
-0.07467994 -0.004755044 -0.15810905 0.04426529 -0.050644558 0.1545935 0.099953115 0.088461936
0.12186997 -0.036579706 0.043460455 0.102470934 -0.0049935505 0.049734663 0.051724 0.15504836
0.09721604 0.057809677 0.1351465 0.12238804 -0.06520035 0.033874594 0.14386651 -0.111030184
-0.123467 0.00025937654 -0.11225776 -0.15801728 -0.011612685 -0.030037245 -0.11410212 -0.054649822
-0.057055842 -0.10157793 -0.0051718713 -0.057567447 0.09896493 0.061138887 -0.0060329507 -0.03379737
0.0543467 -0.08147019 0.015943093 -0.107940845 -0.10910784 0.07747687 -0.053162348 -0.010575022
0.03881379 -0.07943829 -0.05159279 0.015444592 -0.1570558 -0.043819528 -0.11146469 0.0653473
-0.005911672 0.07992118 0.12959714 0.041652746 0.009860733 0.007306057 -0.01300007 -0.042229854
-0.067635395 -0.08355702 -0.056183703 0.02635871 -0.053053454 -0.008645971 -0.06263495 0.06587233
0.051865954 0.070866585 -0.03308705 0.09725589 0.018511407 0.097876914 0.047375746 -0.019569265
0.016213447 0.0028922935 -0.08442844 -0.04418812 -0.05050184 0.06423271 0.10801267 -0.053005848
-0.05345082 0.12882267 0.0532617 -0.049279816 0.0648446 0.05262767 -0.10759758 -0.03224942
-0.1079354 0.07665611 0.10113709 -0.09604938 0.05147795 -0.11209983 -0.05572326 0.09637968
-0.05334418 0.0006300074 0.09762021 -0.010225655 0.0444516 -0.046662718 0.10802555 -0.097572275
-6.332157e-07 -0.022834947 0.010993361 0.112725325 0.011675198 0.008584717 0.012094838 -0.07479822
-0.049295153 -0.04780901 -0.00030065147 -0.10016484 -0.025756918 0.04319664 0.08648787 -0.04433502
0.03958014 -0.004968727 -0.108246475 0.019466834 0.0038271009 0.069880754 0.09569549 -0.0354027
0.039213132 -0.026103321 0.03277237 -0.10629242 0.012072843 0.08613034 -0.1073569 -0.057613265
-0.029550094 -0.15343207 -0.16495427 -0.15341122 -0.088591866 0.103978865 -0.08627756 -0.11298388
0.033527587 0.09097233 -0.04900631 0.027714713 -0.001201294 0.049867082 0.03917625 0.05932586
0.08208529 0.02276206 0.035027448 0.10767783 0.047230735 0.10010948 0.05783142 0.076036
-0.1287666 -0.08114008 0.028415967 -0.14403959 -0.09620866 -0.19643362 0.0012630312 0.15339723
0.05402816 -0.011669044 0.11211471 0.10036958 0.097048566 -0.05451006 0.061557572 -0.071544595
-0.02226255 0.10060068 0.026680257 -0.02118586 0.08628282 0.05986803 -0.09264969 0.002360605
-0.04128416 -0.07080396 0.16558124 0.13783486 0.062131137 0.11743475 -0.03172973 0.063889354
0.14114143 0.02765938 -0.053724572 -0.10007084 0.0122183245 -0.08450944 0.035035007 0.037117008
-0.044568207 0.020429593 0.020097503 0.040263113 -0.014743776 -0.10688125 -0.024172131 0.06502026
00000000: f82f 07bd d41e 693d 47ca 7cbc 22b0 e33d
00000010: b28d cb3d f397 2ebe 98c0 07bd 94cd f23d
00000020: b95c 9fbc b3f9 723d 8b1d e2ba 9512 2a3d
00000030: 6ae4 2a3c 57d7 89bd e8ad 163d 9dfd c3bc
00000040: 23a7 cbbc 0555 23be 0e6f 703d a2ef 30bd
00000050: eb6e e4ba 5d74 05be 86e3 5d3d 80da 483d
00000060: 1528 0bbe 7410 e63c 1929 0fbd f236 b53c
00000070: e24c 713d 6574 d2bd 526c 2c3e e164 433c
00000080: b5cd 3cbe d7ca 643e 9274 ecbd 4a7b 45be
00000090: 74bc f7bc 8715 e43c a6cc ce3d 7e95 d0bd
000000a0: ccf1 98bd 33d0 9bbb 57e7 21be 854f 353d
000000b0: ab70 4fbd c24d 1e3e 38b4 cc3d 882b b53d
000000c0: f696 f93d 9ad4 15bd 9703 323d 48dc d13d
000000d0: f0a0 a3bb 93b6 4b3d 8cdc 533d ffc4 1e3e
000000e0: 3419 c73d d7c9 6c3d d863 0a3e 95a6 fa3d
000000f0: c387 85bd 16c0 0a3d be51 133e cb63 e3bd
00000100: 44dc fcbd eefc 8739 65e7 e5bd 48cf 21be
00000110: 2243 3ebc ab10 f6bc 5fae e9bd 7ed8 5fbd
00000120: 63b3 69bd 1708 d0bd cd78 a9bb d8cb 6bbd
00000130: 20ae ca3d c56c 7a3d 0fb0 c5bb 1c6f 0abd
00000140: a59a 5e3d d8d9 a6bd 179b 823c 1710 ddbd
00000150: ee73 dfbd 31ac 9e3d c3c0 59bd db42 2dbc
00000160: 35fb 1e3d 8bb0 a2bd f652 53bd 500b 7d3c
00000170: 3cd3 20be 1b7c 33bd 9947 e4bd ced4 853d
00000180: b3b6 c1bb b7ad a33d 1db5 043e 129c 2a3d
00000190: e98e 213c a667 ef3b 3ffe 54bc 36f9 2cbd
000001a0: 6d84 8abd f11f abbd e220 66bd 39ee d73c
000001b0: 944e 59bd d5a7 0dbc c146 80bd 12e8 863d
000001c0: 6571 543d 8022 913d 4986 07bd 192e c73d
000001d0: 3ca5 973c b173 c83d 120d 423d b94f a0bc
000001e0: 10d2 843c a28c 3d3b d1e8 acbd 9afe 34bd
000001f0: 04db 4ebd 708c 833d bf35 dd3d a91c 59bd
00000200: 3fef 5abd 17ea 033e f128 5a3d a2d9 49bd
00000210: 3fcd 843d 1d90 573d 1f5c dcbd f817 04bd
00000220: 3c0d ddbd e1fd 9c3d f620 cf3d 8ab5 c4bd
00000230: 8bda 523d 9894 e5bd 133e 64bd b662 c53d
00000240: 6d7f 5abd 1527 253a 1bed c73d 8189 27bc
00000250: e212 363d 6821 3fbd 803c dd3d f9d3 c7bd
00000260: 40fa 29b5 5b10 bbbc 7f1d 343c 89dc e63d
00000270: 5449 3f3c eaa6 0c3c 6d29 463c cf2f 99bd
00000280: b7e9 49bd 61d3 43bd c2a0 9db9 3923 cdbd
00000290: 2c00 d3bc f6ee 303d 8d20 b13d a398 35bd
000002a0: c91e 223d b4d0 a2bb 54b0 ddbd e978 9f3c
000002b0: 19d0 7a3b a41d 8f3d fffb c33d 6c02 11bd
000002c0: f39d 203d a2d6 d5bc 523c 063d d7af d9bd
000002d0: 2ccd 453c 1b65 b03d efdd dbbd e3fb 6bbd
000002e0: 0a13 f2bc 4c1d 1dbe c6e9 28be d517 1dbe
000002f0: a76f b5bd dff2 d43d 4ab2 b0bd 1864 e7bd
00000300: 3954 093d b34f ba3d d7ba 48bd f709 e33c
00000310: bd74 9dba 6d41 4c3d 4777 203d acff 723d
00000320: 551c a83d 8077 ba3c f178 0f3d 3286 dc3d
00000330: 0475 413d 3306 cd3d a4e0 6c3d c3b8 9b3d
00000340: 64db 03be c52c a6bd 9ac8 e83c 1d7f 13be
00000350: 0c09 c5bd e525 49be 4b8c a53a 2a14 1d3e
00000360: a24c 5d3d 852f 3fbc 669c e53d 918e cd3d
00000370: 66c1 c63d f145 5fbd cb23 7c3d f985 92bd
00000380: f45f b6bc bb07 ce3d 8e90 da3c f88d adbc
00000390: 0cb5 b03d 2e38 753d 1fbf bdbd 61b4 1a3b
000003a0: 9419 29bd ab01 91bd 218e 293e 9524 0d3e
000003b0: 387d 7e3d a181 f03d 09f7 01bd 6cd8 823d
000003c0: 6187 103e ed95 e23c 4c0e 5cbd f1f1 ccbd
000003d0: 5e2f 483c 4913 adbd de80 0f3d 0108 183d
000003e0: 278d 36bd f65b a73c 85a3 a43c efea 243d
000003f0: e18f 71bc 8fe4 dabd a204 c6bc 5829 853d

conv_block_1.2.bias f4 [10]
0.11528133 -0.057993684 -0.02301601 -0.08820387 0.16782485 0.28691548 -0.05723522 0.039829697
-0.024857197 0.009348693
00000000: 9e18 ec3d c98a 6dbd 128c bcbc 3ba4 b4bd
00000010: 47da 2b3e 96e6 923e 7a6f 6abd 7724 233d
00000020: 52a1 cbbc 432b 193c

conv_block_2.0.weight f4 [10, 10, 3, 3]
0.10581158 0.09792406 -0.06958731 0.0022826565 -0.027302029 0.055525552 0.061826967 -0.112001486
0.022126932 0.06597465 -0.08002542 -0.017244527 -0.05422392 0.05856196 -0.0008053937 -0.030698614
-0.060406864 0.09203137 -0.05191579 -0.060377516 0.13704099 0.1186862 0.044415615 0.07231495
0.09859067 -0.09468194 0.07259486 0.16940114 0.07414599 -0.07835368 -0.12988889 0.022700727
-0.07603859 -0.012993891 0.0099359425 -0.053224042 -0.022381896 0.024177724 -0.11057087 -0.045994777
0.05991954 -0.10760303 -0.109791376 -0.09578677 0.051932164 0.26592398 0.17656128 -0.07900187
-0.04997272 -0.16070428 0.03713671 -0.17676976 0.08544158 0.16979368 0.040581208 0.16956729
0.123693354 0.013506904 -0.06681317 -0.13368322 -0.020491624 -0.031727407 -0.024380596 -0.018157566
-0.013734581 0.029261494 -0.041555 0.04132025 0.09769378 -0.115775034 -0.02095048 -0.050383672
-0.01206949 0.004223124 0.037514344 0.051466674 -0.020017758 -0.07770657 -0.014084002 -0.01104904
-0.013541323 -0.08520638 -0.01927493 0.16514044 0.03202832 0.13814422 -0.01634941 0.0898741
-0.022010611 -0.09789424 0.10238011 0.021855237 -0.021175941 0.25829107 0.050806597 -0.010630749
0.039138198 -0.065050796 0.15961121 0.12898922 0.0079276925 0.00976386 -0.12620173 0.077138044
0.011958483 -0.025502192 0.0305168 0.06550235 -0.1340146 0.04125688 -0.0001983951 -0.005690916
0.03500707 0.17955911 -0.01473067 -0.05541624 -0.051186293 0.043205395 0.038398907 -0.02199481
0.13369688 0.06212401 0.0091638705 -0.055746987 -0.03601704 -0.0867002 0.19860566 0.2307771
-0.12727809 0.08348727 0.22758396 -0.14808959 0.04203076 -0.090828024 0.06445606 0.30213633
0.27846798 0.2074136 0.63462615 0.17715615 -0.32389265 -0.28722233 -0.47707534 -0.12945952
-0.10492729 0.025672086 0.21770132 0.074115604 0.08894818 0.02581142 -0.029003225 -0.23074348
-0.34001085 0.021311283 0.1367765 -0.09141642 -0.1316871 -0.20914009 -0.03259696 -0.042430796
0.26850626 0.063364096 -0.051343475 -0.05686394 0.042487476 -0.038482174 -0.014002912 0.0391639
0.07778803 0.13044755 0.052605174 -0.2795509 -0.26465902 0.050882738 -0.31733856 -0.020989584
0.14166318 0.19240618 0.19581237 -0.086668864 0.03429499 0.054116778 0.06819943 0.20319168
-0.13547496 -0.19815333 0.17730115 0.0046254885 -0.07489088 -0.015194616 0.011619185 -0.00096659956
0.028421031 -0.0153769 0.10413014 0.092780456 -0.040379092 0.0037882251 -0.06593739 -0.00989987
0.117914595 -0.03852278 0.06769172 0.07259194 -0.03954867 0.10824594 -0.09336855 0.1412369
-0.023901442 -0.15473914 -0.09868426 -0.06080029 -0.2215095 0.063467026 -0.1492134 0.07797315
0.051632043 0.17872743 -0.21371818 0.13717219 -0.15123403 -0.249546 0.42249635 0.014536591
0.029434808 0.2014436 0.21529455 0.17790523 -0.13948748 -0.3364525 -0.38602036 0.13128012
-0.23603351 0.40213618 -0.04395001 0.063617356 0.21736115 -0.2618883 -0.21994603 -0.16474721
-0.034000084 -0.18142426 -0.14815666 -0.033520076 -0.06560108 -0.09091235 0.053731184 -0.0460365
0.20259622 -0.0762959 0.117790036 0.2613187 0.05150546 -0.1056775 0.07179126 -0.014710108
00000000: beb3 d83d 698c c83d cb83 8ebd 9f98 153b
00000010: 81a8 dfbc c36e 633d 463e 7d3d 0961 e5bd
00000020: 8a43 b53c b81d 873d 5ee4 a3bd 6544 8dbc
00000030: e719 5ebd aade 6f3d 0e21 53ba a97b fbbc
00000040: 306d 77bd f17a bc3d a7a5 54bd 6a4e 77bd
00000050: 7954 0c3e c011 f33d 26ed 353d dc19 943d
00000060: e8e9 c93d 9be8 c1bd 9dac 943d 7e77 2d3e
00000070: dad9 973d e577 a0bd 9801 05be e0f6 b93c
00000080: 1fba 9bbd 54e4 54bc 5dca 223c 7401 5abd
00000090: 3d5a b7bc 5d10 c63c fb72 e2bd 0565 3cbd
000000a0: 316e 753d fa5e dcbd 4dda e0bd db2b c4bd
000000b0: d2b6 543d 3027 883e 7bcc 343e bbcb a1bd
000000c0: 32b0 4cbd aa8f 24be aa1c 183d 2203 35be
000000d0: fffb ae3d 65de 2d3e 7b38 263d 0ca3 2d3e
000000e0: f152 fd3d 104c 5d3c 58d5 88bd 41e4 08be
000000f0: 0dde a7bc 99f4 01bd d1b9 c7bc 2dbf 94bc
00000100: 0207 61bc cdb5 ef3c 9335 2abd 6c3f 293d
00000110: ad13 c83d 761b edbd 57a0 abbc 1c5f 4ebd
00000120: 1cbf 45bc 2262 8a3b a4a8 193d b8ce 523d
00000130: 48fc a3bc 9f24 9fbd 96c0 66bc 0807 35bc
00000140: 6ddc 5dbc af80 aebd 75e6 9dbc 931a 293e
00000150: 2130 033d ae75 0d3e 33ef 85bc ea0f b83d
00000160: 994f b4bc c67c c8bd aaac d13d c109 b33c
00000170: 2b79 adbc ba3e 843e 941a 503d 982c 2ebc
00000180: 604f 203d 5a39 85bd 1f71 233e c015 043e
00000190: 27e3 013c 99f8 1f3c 073b 01be 8dfa 9d3d
000001a0: 83ed 433c f9e9 d0bc 5efe f93c 1926 863d
000001b0: 203b 09be f9fc 283d 4708 50b9 dd7a babb
000001c0: 9363 0f3d 58de 373e e858 71bc 24fc 62bd
000001d0: b8a8 51bd 24f8 303d 2c48 1d3d 762e b4bc
000001e0: d6e7 083e bf75 7e3d 0f24 163c f456 64bd
000001f0: 9b86 13bd e08f b1bd 485f 4b3e d550 6c3e
00000200: 3055 02be 60fb aa3d c50b 693e cca4 17be
00000210: 7228 2c3d 0b04 babd 8a01 843d 9db1 9a3e
00000220: 5b93 8e3e 3b64 543e dc76 223f 6c68 353e
00000230: 42d5 a5be ce0e 93be 3843 f4be 0991 04be
00000240: 1ee4 d6bd 444e d23c 18ed 5e3e ecc9 973d
00000250: 772a b63d 7972 d33c 2c98 edbc 0548 6cbe
00000260: e715 aebe 0095 ae3c 240f 0c3e 8838 bbbd
00000270: fcd8 06be d228 56be 6484 05bd eacb 2dbd
00000280: a779 893e 09c5 813d 894d 52bd 2aea 68bd
00000290: 5907 2e3d 7c9f 1dbd 786c 65bc 536a 203d
000002a0: 554f 9f3d 0b94 053e 8678 573d 4c21 8fbe
000002b0: 6381 87be 6b6a 503d 337a a2be 59f2 abbc
000002c0: 2710 113e 2006 453e 0a83 483e 727f b1bd
000002d0: e778 0c3d 8ea9 5d3d 25ac 8b3d 7b11 503e
000002e0: f3b9 0abe b5e8 4abe 6f8e 353e 6991 973b
000002f0: 6460 99bd d7f2 78bc 655e 3e3c 6663 7dba
00000300: 39d3 e83c 65ef 7bbc 2f42 d53d ae03 be3d
00000310: 8c64 25bd df43 783b 2f0a 87bd 1033 22bc
00000320: 357d f13d 10ca 1dbd f5a1 8a3d 15ab 943d
00000330: c9fd 21bd 0cb0 dd3d 0338 bfbd 68a0 103e
00000340: f5cc c3bc f073 1ebe f91a cabd ba09 79bd
00000350: 63d3 62be 00fb 813d 66cb 18be 63b0 9f3d
00000360: 1f7c 533d 5304 373e f0d8 5abe de76 0c3e
00000370: 18dd 1abe fd88 7fbe 7151 d83e e22a 6e3c
00000380: 4421 f13c 3b47 4e3e 2d76 5c3e ca2c 363e
00000390: ced5 0ebe 8143 acbe 76a4 c5be 4c6e 063e
000003a0: c5b2 71be cbe4 cd3e ed04 34bd d149 823d
000003b0: ec93 5e3e 3916 86be 8839 61be 7eb3 28be
000003c0: ac43 0bbd 48c7 39be 61b6 17be 594c 09bd
000003d0: dc59 86bd 4130 babd 3b15 5c3d c590 3cbd
000003e0: 6275 4f3e 0641 9cbd e73b f13d 91cb 853e
000003f0: 64f7 523d 726d d8bd 4c07 933d aa02 71bc

conv_block_2.0.bias f4 [10]
-0.08951366 0.06231635 0.058223873 0.07895611 0.07151831 0.11887121 0.11258394 -0.09173093
0.02266903 0.33296716
00000000: f052 b7bd 6e3f 7f3d 287c 6e3d beb3 a13d
00000010: 3178 923d c072 f33d 6992 e63d 6ddd bbbd
00000020: 67b4 b93c ac7a aa3e

conv_block_2.2.weight f4 [10, 10, 3, 3]
-0.1149265 -0.0962032 -0.0292302 -0.007557678 0.014778663 0.045611247 0.048700396 -0.053766787
0.02850637 -0.04642445 -0.16764368 -0.1432366 -0.23049624 -0.091654666 0.053197872 -0.45561525
0.15375401 0.31986445 0.14160581 0.07218096 0.08088492 -0.06303211 -0.009281463 -0.080518395
-0.22099414 -0.03240476 0.20349059 0.006650631 0.063313745 -0.066326275 0.34360626 0.12818657
-0.22577135 0.40399674 -0.19213381 -0.31730592 -0.29209423 -0.18898283 -0.39763245 -0.068366274
-0.0065372046 -0.2724516 0.11789342 -0.3332708 -0.26108015 -0.03965016 -0.096061505 0.046101302
0.034789547 0.08810112 0.1571623 -0.08834142 -0.041856263 0.1499017 -0.063432224 0.01616705
-0.21277769 -0.049952693 -0.01079085 -0.13390785 -0.03633758 -0.27919734 -0.3528006 -0.02066679
-0.036685776 -0.07422642 0.016869789 -0.0070481407 -0.05555538 0.012855371 -0.08952995 -0.051307384
0.07313447 -0.02529663 -0.107431136 0.0096619455 -0.077192195 -0.11440438 0.11170897 0.07603092
-0.11196469 -0.058737643 -0.20519616 -0.19748846 -0.34263802 -0.15683348 0.24689218 -0.21950133
0.032582656 -0.028393127 -0.15825512 -0.12651412 -0.038814195 -0.09469689 0.027122697 -0.09503231
-0.07682253 0.13912949 0.07447 0.027375162 0.02899837 -0.013480231 -0.06717191 0.052813057
0.10496511 -0.088852674 -0.20934527 -0.22933038 -0.59490913 -0.46990272 -0.38642603 0.2899374
0.06443696 -0.018934164 0.21723086 0.117962584 0.08204261 -0.1415783 -0.017131755 -0.07660255
-0.20272523 -0.5324076 -0.5674407 0.015613821 0.15024418 0.117935166 -0.14635101 -0.0042496426
0.22513364 0.03905838 0.05755423 0.0034813278 -0.0704725 -0.23315729 -0.15690804 0.21571608
-0.03894146 0.061036713 -0.02136675 -0.099206015 -0.09154764 -0.045506787 0.033875655 0.019138003
0.04231456 -0.05623487 -0.3225642 0.0933966 -0.03396983 0.045705978 -0.009336728 0.24800608
0.0634652 -0.011909559 0.0029063877 -0.08537259 0.04094243 -0.028655836 0.054608718 0.0805436
-0.08847287 -0.07510413 0.07465489 0.05542349 -0.0015292311 -0.057795316 -0.057874538 -0.06721914
-0.031853937 0.03899736 0.010468859 0.47191715 -0.019450562 -0.012773414 -0.24377735 0.1192901
-0.02303803 -0.47650045 -0.37414584 -0.3852142 0.11751748 0.021585776 0.08253344 -0.001971239
-0.11965912 -0.037860114 0.058319595 -0.17734152 -0.11053126 -0.092159174 -0.4069163 0.035957642
-0.09592354 -0.52270716 -0.24282481 -0.18097645 -0.5548493 -0.5228357 0.26350102 -0.34942743
-0.22546606 0.07796538 -0.22179438 -0.20530821 0.10310631 -0.27030602 -0.15523194 -0.2878287
0.15429518 0.124828346 -0.35418096 0.1126861 -0.0999773 -0.016774267 0.022478454 -0.09970336
-0.23396988 0.20746306 -0.21804723 -0.3169818 0.297791 0.00720945 -0.31358996 0.29263273
0.24235882 -0.048303667 -0.05716608 0.049401294 0.05013611 -0.15295276 -0.07220405 -0.012604968
-0.11432448 -0.028534802 -0.0058260467 0.10816508 0.0174617 -0.2433105 0.37917203 0.159885
-0.06721927 0.34286642 0.17576525 -0.106640294 -0.077461526 0.004775711 0.050248194 -0.013206623
0.002445397 0.059803326 0.09728236 -0.02703815 0.026503935 0.034311645 0.0070755207 -0.07563668
00000000: 965e ebbd 2f06 c5bd 2c74 efbc 66a6 f7bb
00000010: 3522 723c dcd2 3a3d 117a 473d 903a 5cbd
00000020: 3186 e93c 9027 3ebd c9aa 2bbe 9eac 12be
00000030: 3507 6cbe 71b5 bbbd 03e6 593d 6746 e9be
00000040: b171 1d3e 46c5 a33e 1d01 113e 9cd3 933d
00000050: fea6 a53d fb16 81bd 4711 18bc d4e6 a4bd
00000060: 4a4c 62be dbba 04bd d65f 503e 89ed d93b
00000070: a3aa 813d 12d6 87bd 29ed af3e 5743 033e
00000080: 9b30 67be a9d8 ce3e babe 44be ec75 a2be
00000090: 608d 95be b784 41be 7b96 cbbe 9e03 8cbd
000000a0: 0c36 d6bb c77e 8bbe 1b72 f13d 78a2 aabe
000000b0: 4cac 85be 3568 22bd e5bb c4bd b8d4 3c3d
000000c0: 7c7f 0e3d 5c6e b43d 27ef 203e 59ec b4bd
000000d0: 7971 2bbd d57f 193e c1e8 81bd c370 843c
000000e0: 65e2 59be 329b 4cbd 1bcc 30bc 241f 09be
000000f0: b7d6 14bd f4f2 8ebe 48a2 b4be 664d a9bc
00000100: d343 16bd 0504 98bd 8332 8a3c 17f4 e6bb
00000110: 0a8e 63bd 569f 523c 7a5b b7bd b127 52bd
00000120: 86c7 953d e13a cfbc db04 dcbd 234d 1e3c
00000130: f116 9ebd d84c eabd acc7 e43d 19b6 9b3d
00000140: be4d e5bd e296 70bd f11e 52be 6a3a 4abe
00000150: 406e afbe f598 20be 4ed1 7c3e f5c4 60be
00000160: 6475 053d b498 e8bc a10d 22be eb8c 01be
00000170: a2fb 1ebd 71f0 c1bd 6b30 de3c 4da0 c2bd
00000180: 2155 9dbd f677 0e3e ba83 983d e041 e03c
00000190: fd8d ed3c 30dc 5cbc 6d91 89bd 8152 583d
000001a0: f3f7 d63d 64f8 b5bd 9b5e 56be 95d5 6abe
000001b0: f74b 18bf 1797 f0be a2d9 c5be ad72 943e
000001c0: 86f7 833d d21b 9bbc c471 5e3e 5e96 f13d
000001d0: f505 a83d e7f9 10be e557 8cbc cce1 9cbd
000001e0: 3497 4fbe dd4b 08bf cb43 11bf 1dd1 7f3c
000001f0: 9cd9 193e fe87 f13d 0add 15be 9640 8bbb
00000200: 6f89 663e aefb 1f3d fcbd 6b3d fd26 643b
00000210: e353 90bd c9c0 6ebe 80ac 20be ade4 5c3e
00000220: 1581 1fbd a201 7a3d 5309 afbc 862c cbbd
00000230: 547d bbbd 5365 3abd 33c1 0a3d 4dc7 9c3c
00000240: 0852 2d3d 8956 66bd 2327 a5be b746 bf3d
00000250: f323 0bbd 3136 3b3d 13f9 18bc 4ef5 7d3e
00000260: 0bfa 813d 5020 43bc 1879 3e3b d3d7 aebd
00000270: 40b3 273d a5bf eabc 64ad 5f3d 0bf4 a43d
00000280: 4431 b5bd 32d0 99bd aae4 983d be03 633d
00000290: 7b70 c8ba c8ba 6cbd da0d 6dbd 30aa 89bd
000002a0: 4679 02bd b2bb 1f3d 9485 2b3c 209f f13e
000002b0: c956 9fbc 9547 51bc c5a0 79be 5e4e f43d
000002c0: 40ba bcbc def7 f3be 0b90 bfbe cc3a c5be
000002d0: 01ad f03d a7d4 b03c 4b07 a93d e72f 01bb
000002e0: d70f f5bd 3513 1bbd 87e0 6e3d 0499 35be
000002f0: 375e e2bd f3bd bcbd 5557 d0be 5248 133d
00000300: 9073 c4bd 23d0 05bf 11a7 78be e451 39be
00000310: 9b0a 0ebf 8fd8 05bf 9be9 863e 27e8 b2be
00000320: 93e0 66be 50ac 9f3d 111e 63be 513c 52be
00000330: 6729 d33d 8d65 8abe 1ff5 1ebe 495e 93be
00000340: 8eff 1d3e 01a6 ff3d 3557 b5be f8c7 e63d
00000350: e6c0 ccbd 306a 89bc bc24 b83c 4631 ccbd
00000360: cd95 6fbe 3271 543e c647 5fbe 704b a2be
00000370: 1078 983e 403d ec3b dd8e a0be f5d3 953e
00000380: e92c 783e 11da 45bd fb26 6abd 0359 4a3d
00000390: 865b 4d3d a69f 1cbe b8df 93bd 1185 4ebc
000003a0: f422 eabd d1c1 e9bc 6ce8 bebb a785 dd3d
000003b0: d70b 8f3c 6326 79be d622 c23e e5b8 233e
000003c0: 42aa 89bd 308c af3e cefb 333e 3a66 dabd
000003d0: 26a4 9ebd 917d 9c3b 0dd1 4d3d 9760 58bc
000003e0: f442 203b 55f4 743d f93b c73d 1c7f ddbc
000003f0: c81e d93c 5e8a 0c3d c5d9 e73b 67e7 9abd

conv_block_2.2.bias f4 [10]
0.020372948 -0.008771659 0.078657165 0.11066378 -0.076852776 -0.07257629 -0.15476578 -0.10116747
0.08921145 -0.15900037
00000000: 2be5 a63c 01b7 0fbc 0217 a13d b1a3 e23d
00000010: fd64 9dbd e1a2 94bd ec7a 1ebe e430 cfbd
00000020: 7eb4 b63d fed0 22be

classifier.1.weight f4 [10, 490]
-0.044405404 -0.06037827 -0.09838435 -0.017245784 -0.04930992 -0.047297988 0.0034775084 -0.04199639
-0.06742864 -0.13723195 -0.1026139 -0.0521292 -0.1396949 -0.03862798 -0.009093595 0.1987427
0.16108291 0.17922303 -0.22991669 -0.09391802 0.08042248 -0.013682999 0.15515251 0.2662271
-0.19632758 0.09204406 0.16738278 0.014577212 -0.054113723 -0.066875905 0.016739797 0.19762109
0.18964158 -0.014346149 0.024938447 -0.01759478 -0.08646499 -0.07259728 -0.0021137602 -0.02841431
-0.024183791 0.020199506 0.018474754 0.018358333 -0.021127643 0.00032320432 -0.017071526 0.022613615
-0.014988791 0.010801789 0.028284058 -0.011644753 0.045012347 0.037125003 -0.0031144228 0.00047320698
0.019300882 -0.049609125 -0.20134185 -0.045181353 -0.052044094 -0.06655441 -0.0054188487 -0.061786164
-0.12560159 -0.11494476 0.1483152 0.17734773 -0.06463552 -0.14123662 -0.025227997 -0.29455295
-0.37490812 -0.24360868 -0.15188494 -0.02948039 -0.07052735 0.07764612 -0.007988256 -0.168028
-0.25788662 -0.12957622 0.03766392 0.088578425 0.028011667 0.11966084 0.18367006 0.13202547
0.019628866 -0.07371792 0.0113557605 0.009360828 0.013747029 0.22972217 0.22548433 -0.008454466
-0.16503572 -0.014636573 -0.011199787 -0.090647854 -0.024523832 0.039125197 0.031480927 0.00974047
0.02471886 -0.044473052 -0.17663282 -0.10932482 0.019209696 0.07588855 -0.001066902 -0.041685436
-0.011077001 0.029395182 -0.10576201 -0.14181575 0.19593634 0.17555933 -0.061282124 0.18634452
0.19978754 -0.020617096 -0.22790334 0.18846373 0.27524477 -0.090654194 0.15797932 0.1541097
0.30937174 -0.06925397 -0.005825443 0.06942748 -0.049211536 0.00021517696 0.12143043 0.15523832
-0.18413994 -0.22282784 -0.024530364 -0.020923572 -0.002418691 -0.051689327 -0.049408898 -0.096807
-0.031907752 -0.04698121 -0.047766145 0.007350653 -0.03348845 -0.14439107 -0.004930173 0.11358108
0.10291305 -0.07999108 -0.054639984 -0.02573367 -0.025230793 0.13160893 0.24750638 0.19428957
0.00013114086 0.050898094 0.055484954 -0.05047711 -0.17676006 0.046907526 -0.02465294 0.055327907
-0.025615692 -0.14422114 -0.20793511 -0.25434905 -0.29724228 -0.26397797 0.013934217 0.03046345
-0.23505878 -0.14376795 0.18040316 0.1771344 -0.12106156 -0.08463106 0.019390762 -0.043411337
0.012356562 0.1602278 -0.016996691 -0.065174386 -0.042509466 -0.014956929 -0.014071139 -0.019036027
4.5290846e-05 0.0403194 -0.018094331 -0.008984827 0.014300136 0.012749261 -0.03956074 -0.04173145
-0.06336183 -0.04687318 -0.005288174 0.026330635 -0.07961887 -0.11451179 -0.07520481 -0.1047835
-0.05455629 -0.0018841285 -0.0053804154 0.04167822 0.09341462 -0.06039806 -0.22490127 0.059812922
0.005517729 -0.0383343 0.090732016 0.20584632 -0.21637139 0.16208585 0.300507 0.02237891
0.019901128 0.03821225 -7.910392e-05 -0.27099308 -0.005495946 0.2129589 -0.022764329 0.029899595
0.04227669 -0.05911494 -0.34239572 -0.3686874 -0.14348963 -0.050084367 0.029096756 -0.023052813
0.048254903 -0.08378153 -0.20688239 -0.046068396 -0.019536 0.009227164 -0.043003973 0.0033099863
-0.020786664 0.0017749743 -0.020472186 0.0047771796 0.020654997 -0.030403616 0.026965015 0.1027901
00000000: 71e2 35bd 344f 77bd bc7d c9bd 0847 8dbc
00000010: 33f9 49bd 89bb 41bd e9e6 633b 6804 2cbd
00000020: 0718 8abd 8886 0cbe 3d27 d2bd 6e85 55bd
00000030: 2e0c 0fbe 5f38 1ebd 4dfd 14bc 3583 4b3e
00000040: ebf2 243e 3e86 373e 486f 6bbe 1758 c0bd
00000050: 8bb4 a43d a82e 60bc 4de0 1e3e eb4e 883e
00000060: 190a 49be 9981 bc3d 6466 2b3e 42d5 6e3c
00000070: 5aa6 5dbd 3cf6 88bd e621 893c 2f5d 4a3e
00000080: 6731 423e 1c0c 6bbc b74b cc3c ee22 90bc
00000090: 8f14 b1bd e2ad 94bd 0387 0abb 21c5 e8bc
000000a0: 161d c6bc 6f79 a53c 5e58 973c 3764 963c
000000b0: e113 adbc c073 a939 96d9 8bbc 3040 b93c
000000c0: 8c93 75bc fdf9 303c f8b3 e73c a2c9 3ebc
000000d0: de5e 383d 6310 183d 581b 4cbb c418 f839
000000e0: e21c 9e3c f032 4bbd 8f2c 4ebe 1510 39bd
000000f0: 302c 55bd ae4d 88bd 9990 b1bb 7d13 7dbd
00000100: b49d 00be 2968 ebbd f1df 173e a59a 353e
00000110: a15f 84bd 55a0 10be f2aa cebc a5cf 96be
00000120: f5f3 bfbe 8e74 79be ba87 1bbe dc80 f1bc
00000130: a570 90bd ee04 9f3d 2de1 02bc 880f 2cbe
00000140: b709 84be a1af 04be 7c45 1a3d 9b68 b53d
00000150: b978 e53c be10 f53d 0114 3c3e af31 073e
00000160: b7cc a03c 6cf9 96bd 830d 3a3c 295e 193c
00000170: 383b 613c 4a3c 6b3e 5de5 663e 9a84 0abc
00000180: 20ff 28be 3dce 6fbc 507f 37bc 95a5 b9bd
00000190: 34e6 c8bc be41 203d 25f2 003d 7e96 1f3c
000001a0: 357f ca3c 6029 36bd 3cdf 34be b1e5 dfbd
000001b0: a75d 9d3c 756b 9b3d 4ad7 8bba 59be 2abd
000001c0: 4f7c 35bc 2ace f03c c199 d8bd 2638 11be
000001d0: 89a3 483e d3c5 333e f702 7bbd 19d1 3e3e
000001e0: 1b95 4c3e 2fe5 a8bc 7e5f 69be a3fc 403e
000001f0: e2ec 8c3e e8a8 b9bd 55c5 213e efce 1d3e
00000200: f965 9e3e 07d5 8dbd 5ce3 bebb ff2f 8e3d
00000210: 0992 49bd 20a1 6139 84b0 f83d cbf6 1e3e
00000220: 2e8f 3cbe fb2c 64be e7f3 c8bc e967 abbc
00000230: e782 1ebb 30b8 53bd fc60 4abd c042 c6bd
00000240: b4b1 02bd 5f6f 40bd 6fa6 43bd bfdd f03b
00000250: 2f2b 09bd 41db 13be 4a8d a1bb 339d e83d
00000260: 14c4 d23d 5dd2 a3bd 2dce 5fbd 6bcf d2bc
00000270: cfb0 cebc 7ec4 063e 5072 7d3e d8f3 463e
00000280: db82 0939 857a 503d 3144 633d 16c1 4ebd
00000290: 9700 35be 1b22 403d f6f4 c9bc 849f 623d
000002a0: 00d8 d1bc b5ae 13be f1ec 54be 0a3a 82be
000002b0: 2430 98be 1f28 87be 584c 643c 7c8e f93c
000002c0: 40b3 70be e837 13be 9bbb 383e b862 353e
000002d0: 20ef f7bd 0d53 adbd 60d9 9e3c 16d0 31bd
000002e0: 2d73 4a3c c212 243e a53c 8bbc 267a 85bd
000002f0: 681e 2ebd e80d 75bc a28a 66bc 71f1 9bbc
00000300: adf6 3d38 f525 253d 903a 94bc 1935 13bc
00000310: 1e4b 6a3c 47e2 503c 710a 22bd 99ee 2abd
00000320: d9c3 81bd 17fe 3fbd 6b48 adbb 58b3 d73c
00000330: 380f a3bd 2885 eabd fb04 9abd bb98 d6bd
00000340: 6b76 5fbd ddf4 f6ba 324e b0bb c8b6 2a3d
00000350: 2a50 bf3d f563 77bd 854c 66be 65fe 743d
00000360: 11ce b43b 6d04 1dbd b5d1 b93d 61c9 523e
00000370: 7690 5dbe d5f9 253e 0edc 993e fa53 b73c
00000380: b107 a33c 7384 1c3d 98e4 a5b8 9bbf 8abe
00000390: 5617 b4bb e611 5a3e 427c babc ffef f43c
000003a0: 532a 2d3d 8222 72bd 7e4e afbe 98c4 bcbe
000003b0: f2ee 12be 4425 4dbd 525c ee3c 41d9 bcbc
000003c0: efa6 453d a795 abbd fad8 53be 37b2 3cbd
000003d0: f609 a0bc 882d 173c ef24 30bd 5bec 583b
000003e0: cb48 aabc 41a6 e83a 49b5 a7bc e389 9c3b
000003f0: ab34 a93c 0111 f9bc bce5 dc3c 9e83 d23d

classifier.1.bias f4 [10]
-0.11625983 0.22222395 0.010927089 0.07236509 -0.04312012 -0.07835741 0.07154113 0.042940326
-0.04927324 0.0101266205
00000000: a219 eebd ad8e 633e 8807 333c 2634 943d
00000010: b99e 30bd da79 a0bd 2884 923d 32e2 2f3d
00000020: bdd2 49bd 20ea 253c
