model_weights/model_epoch_10.pth (torch, 34459 bytes, 10 tensors)

conv_block_1.0.weight f4 [10, 1, 3, 3]
-0.53109384 0.08037191 -0.2400921 -0.23428988 -0.12676513 0.31872287 -0.044722505 -0.10759723
-0.09794252 0.47182167 -1.0054458 -1.0554736 -0.1782291 -0.61131954 -0.57343316 0.666274
0.36331496 0.93891066 -0.08651911 -0.5334274 -0.2887277 -0.22726494 0.06440789 0.56524014
-0.39370334 0.3192122 0.35256898 0.061072353 0.5367043 -0.37475544 0.05001295 -0.23412012
-0.42304555 0.50639373 0.116350815 -0.6705065 0.20614009 0.6159064 -0.59538466 -0.6932953
0.17526247 -0.15034205 -0.106602624 0.18019821 0.5855378 0.34533834 -0.06622481 0.7929797
0.13784789 -0.42260736 -0.45794365 -0.5695659 0.3771896 0.44708472 -0.27149266 -0.30293077
-0.0012032986 -0.31656596 -0.30274603 -0.10600571 -0.28819042 0.25583842 -0.23375762 -0.71503
0.20289436 0.016827676 0.29524752 0.6166969 0.72553104 0.035328083 -0.23941037 0.012431469
0.061322328 -0.29033852 -0.03340565 0.1960143 0.08123783 -0.05354466 -0.0020711601 0.013644069
-0.21211092 -0.19855525 -0.070884995 -0.32326388 -0.27380916 0.26918653 -0.2384722 0.088156946
-0.024416827 -0.1238262
00000000: c4f5 07bf 079a a43d b4da 75be b0e9 6fbe
00000010: b8ce 01be a52f a33e f22e 37bd f05b dcbd
00000020: 1796 c8bd 9c92 f13e 73b2 80bf c219 87bf
00000030: b081 36be 707f 1cbf 84cc 12bf ef90 2a3f
00000040: 6b04 ba3e 735c 703f ee30 b1bd b38e 08bf
00000050: 1ed4 93be 24b8 68be 49e8 833d 94b3 103f
00000060: 7c93 c9be c86f a33e ec83 b43e 0127 7a3d
00000070: 7465 093f f2df bfbe 61da 4c3d 2fbd 6fbe
00000080: 6d99 d8be 05a3 013f 5649 ee3d 50a6 2bbf
00000090: 6316 533e 0bac 1d3f 216b 18bf cd7b 31bf
000000a0: 0178 333e 44f3 19be 7a52 dabd e185 383e
000000b0: cee5 153f 30d0 b03e e0a0 87bd b800 4b3f
000000c0: ff27 0d3e fe5f d8be 9777 eabe 12cf 11bf
000000d0: ff1e c13e 4ae8 e43e 1601 8bbe be19 9bbe
000000e0: 00b8 9dba ef14 a2be 8701 9bbe 8619 d9bd
000000f0: b28d 93be 41fd 823e 285e 6fbe 350c 37bf
00000100: 8ac3 4f3e 32da 893c af2a 973e d9df 1d3f
00000110: 67bc 393f 2eb4 103d fe27 75be 5cad 4b3c
00000120: 1f2d 7b3d 40a7 94be 5dd4 08bd f9b7 483e
00000130: 0560 a63d a551 5bbd 4dbc 07bb 608b 5f3c
00000140: 9b33 59be 1152 4bbe 272c 91bd d882 a5be
00000150: b730 8cbe d1d2 893e 0e32 74be a18b b43d
00000160: cc05 c8bc 9798 fdbd

conv_block_1.0.bias f4 [10]
-0.19277082 0.43704242 0.10886508 -0.18051368 -0.6200345 -0.39255247 -0.26191145 -0.16533357
-0.11012156 -0.14723545
00000000: b765 45be 06c4 df3e a8f4 de3d 94d8 38be
00000010: 95ba 1ebf a3fc c8be 4219 86be 344d 29be
00000020: 6a87 e1bd e4c4 16be

conv_block_1.2.weight f4 [10, 10, 3, 3]
-0.122128405 0.058323305 -0.035408035 -0.014112452 0.038867045 0.016522767 0.1779264 0.06243314
0.047268614 0.037038453 -0.32162791 -0.48490927 0.28320777 -0.24345551 -0.7039168 -0.09368817
-0.4677433 -0.3849204 0.096067674 -0.020406604 -0.036696404 0.031770382 0.34095788 -0.027894415
0.29615825 0.24135116 -0.12552929 -0.31968036 0.06985643 0.075928874 0.038045425 -0.15621868
-0.003150694 -0.08076154 0.10157154 0.03444267 -0.052587204 -0.19872212 0.27699798 -0.10949863
0.10586499 -0.016701333 -0.048596285 -0.04543749 -0.08506057 0.23541725 0.13648255 0.13948561
-0.15379646 0.13117315 0.004748614 0.026179196 -0.18575531 -0.104419045 0.070147894 0.04234708
-0.06456373 0.07135796 -0.06867573 -0.05995236 0.09791245 -0.035724767 -0.028672919 -0.52166057
0.09620342 -0.04040526 -0.06932175 0.21133764 -0.16591147 -0.11645621 0.17006613 0.13500902
-0.07684642 -0.087901026 -0.07379589 0.058070403 0.104545854 0.026441006 0.068176314 0.041622303
-0.006136799 0.041229185 0.070798375 -0.030207556 -0.057853863 -0.042313676 -0.05977586 -0.07633341
-0.09413626 0.016030166 -0.024716271 0.046115935 -0.06998192 0.035982363 0.05667108 0.041550055
-0.12246477 -0.0621456 -0.003944773 -0.49051267 -0.60597384 -0.34024683 -0.5424261 0.055753417
0.12835114 -0.09167678 0.12599815 0.3039368 0.01523819 -0.22199406 0.15541811 -0.047955558
-0.21724063 -0.08260941 -0.110880636 -0.36541304 -0.37516025 0.14237054 -0.09511045 -0.057409853
0.19329618 0.14189138 -0.14086391 -0.056029484 -0.0007094247 -0.05234253 -0.0020130787 0.14645258
-0.07579765 -0.06279958 -0.22828774 -0.30480865 0.15334022 0.24825552 0.08113959 0.18789215
0.13462241 0.12831692 0.12692466 -0.14844437 0.10571623 0.1618788 0.14930616 0.16116114
0.027074598 0.05227942 0.08167564 0.07074148 -0.09053851 -0.006675862 -0.05205846 -0.033549353
-0.0325839 0.20336346 0.46319386 0.13170734 0.042353846 -0.11829171 0.22227956 -0.24947916
-0.4821663 -0.62476426 0.006096121 -0.05561344 -0.10542191 0.07163721 0.05418136 -0.007092306
-0.020194914 -0.03827166 0.0006421549 0.10259072 0.074362315 -0.07508868 -0.058365118 0.059328042
-0.02738278 -0.03152069 0.023087576 -0.056306038 0.008471243 0.040332858 0.09252316 0.055520546
-0.1411464 -0.24784619 -0.19317666 0.08148976 0.089256674 0.34037846 -0.5034328 0.15963703
-0.40415794 -0.652081 -0.42978337 -0.47173098 -0.35318232 -0.35453513 0.16811496 0.14528774
-0.030554343 -0.42010665 -0.11080609 0.050594766 -0.057628516 -0.027994059 0.035171624 -0.05790803
-0.06631226 -0.20489955 -0.0044711623 -0.21857461 -0.21371152 0.048975963 -0.22147515 -0.0062516034
0.15653828 -0.07510385 -0.0004718359 0.049199946 0.010669047 0.021580856 0.018556993 -0.0034235164
0.21621068 -0.2483052 0.36076885 0.11881196 -0.083182976 -0.0457732 0.1320431 -0.037678696
0.2603267 0.07559104 0.0100086555 0.078977086 -0.061957467 0.0034487993 0.07187522 0.093092315
0.08792608 -0.014977865 0.018123187 0.11400584 0.059525292 0.1023053 0.12586077 -0.024754627
0.16262585 -0.3501928 0.037360083 0.30485576 0.03378134 0.020924672 -0.09811488 -0.04808083
00000000: 751e fabd 6be4 6e3d 0408 11bd ea37 67bc
00000010: 0d33 1f3d c15a 873c 5732 363e e4b9 7f3d
00000020: bc9c 413d a2b5 173d 6aac a4be 0746 f8be
00000030: 9c00 913e 674c 79be e433 34bf 95df bfbd
00000040: 0d7c efbe 4914 c5be 21bf c43d c02b a7bc
00000050: f84e 16bd a921 023d 0892 ae3e d482 e4bc
00000060: 0ea2 973e c224 773e c08a 00be 25ad a3be
00000070: e310 8f3d 9980 9b3d 85d5 1b3d caf7 1fbe
00000080: e07b 4ebb 4e66 a5bd bd04 d03d c213 0d3d
00000090: ae65 57bd d07d 4bbe aed2 8d3e d140 e0bd
000000a0: becf d83d 3cd1 88bc e60c 47bd a91c 3abd
000000b0: 3c34 aebd 3811 713e 15c2 0b3e 51d5 0e3e
000000c0: d27c 1dbe 4152 063e 439a 9b3b c175 d63c
000000d0: a436 3ebe a7d9 d5bd b3a9 8f3d 2274 2d3d
000000e0: fd39 84bd 1f24 923d dca5 8cbd 9b90 75bd
000000f0: 5386 c83d 2254 12bd 78e3 eabc 8c8b 05bf
00000100: 4c06 c53d fc7f 25bd 90f8 8dbd e568 583e
00000110: b2e4 29be 9880 eebd d125 2e3e ce3f 0a3e
00000120: a861 9dbd 7405 b4bd 4d22 97bd 3bdb 6d3d
00000130: 231c d63d cf9a d83c 06a0 8b3d 267c 2a3d
00000140: 3417 c9bb efdf 283d bdfe 903d d675 f7bc
00000150: 2cf8 6cbd 1b51 2dbd 88d7 74bd b154 9cbd
00000160: 83ca c0bd b251 833c c779 cabc 10e4 3c3d
00000170: ae52 8fbd 3e62 133d ef1f 683d 6430 2a3d
00000180: cfce fabd 628c 7ebd 2843 81bb 7a24 fbbe
00000190: 1a21 1bbf d534 aebe 70dc 0abf b25d 643d
000001a0: 7b6e 033e 09c1 bbbd a905 013e 9b9d 9b3e
000001b0: 9aa9 793c 6952 63be ed25 1f3e 0c6d 44bd
000001c0: 5474 5ebe 1f2f a9bd 6315 e3bd 6b17 bbbe
000001d0: 0115 c0be 95c9 113e 45c9 c2bd 9826 6bbd
000001e0: 6fef 453e f94b 113e a13e 10be 2c7f 65bd
000001f0: b0f8 39ba 1f65 56bd dbed 03bb aaf7 153e
00000200: cc3b 9bbd 119d 80bd 43c4 69be e10f 9cbe
00000210: 3805 1d3e b236 7e3e 832c a63d cd66 403e
00000220: 75da 093e 8365 033e 8af8 013e cd01 18be
00000230: c081 d83d 8ec3 253e b7e3 183e 6d07 253e
00000240: 8ccb dd3c f222 563d 8f45 a73d e9e0 903d
00000250: 416c b9bd 30c1 dabb 403b 55bd 0c6b 09bd
00000260: b276 05bd 833e 503e bf27 ed3e 4ade 063e
00000270: 3a7b 2d3d ed42 f2bd 419d 633e 7777 7fbe
00000280: 80de f6be 8df0 1fbf f8c1 c73b ebca 63bd
00000290: 71e7 d7bd 88b6 923d 46ed 5d3d 9366 e8bb
000002a0: ce6f a5bc bfc2 1cbd 4956 283a 151b d23d
000002b0: 454b 983d 18c8 99bd 4310 6fbd f601 733d
000002c0: da51 e0bc d71b 01bd 2822 bd3c 29a1 66bd
000002d0: f8ca 0a3c 1134 253d c87c bd3d 8369 633d
000002e0: af88 10be 64cb 7dbe 1ad0 45be 1ae4 a63d
000002f0: 34cc b63d 1646 ae3e f9e0 00bf e477 233e
00000300: caed cebe c8ee 26bf 910c dcbe b986 f1be
00000310: 50d4 b4be a185 b5be 5426 2c3e 4fc6 143e
00000320: 1a4d fabc 3818 d7be 4eee e2bd 753c 4f3d
00000330: e10b 6cbd cc53 e5bc 1f10 103d f830 6dbd
00000340: b9ce 87bd 30d1 51be d482 92bb 06d2 5fbe
00000350: 31d7 5abe 059b 483d 62ca 62be 40da ccbb
00000360: 924b 203e 0cd0 99bd be60 f7b9 e285 493d
00000370: 3acd 2e3c 56ca b03c d604 983c 135d 60bb
00000380: 5566 5d3e b843 7ebe b2b6 b83e af53 f33d
00000390: d65b aabd ae7c 3bbd 4e36 073e fa54 1abd
000003a0: 8b49 853e 7acf 9a3d 58fb 233c bdbe a13d
000003b0: 1dc7 7dbd 4005 623b 5133 933d 2fa7 be3d
000003c0: 9712 b43d b865 75bc 1477 943c e57b e93d
000003d0: cbd0 733d 7185 d13d a5e1 003e 37ca cabc
000003e0: 6487 263e 784c b3be e306 193d 0e16 9c3e
000003f0: 4d5e 0a3d 386a ab3c 74f0 c8bd 68f0 44bd

conv_block_1.2.bias f4 [10]
0.22592385 0.10834448 0.45749334 -0.14904448 -0.15220208 0.01650549 0.21100031 -0.23541462
0.024830855 -0.0881265
00000000: 9558 673e b6e3 dd3d 913c ea3e 1e9f 18be
00000010: ddda 1bbe 8536 873c 7710 583e 8810 71be
00000020: 146a cb3c ab7b b4bd

conv_block_2.0.weight f4 [10, 10, 3, 3]
-0.41655543 -0.22429697 0.5102801 -0.19127509 -0.25847957 -0.002564984 0.24607928 -0.23467839
-0.32837495 -0.11188672 -0.08117001 0.044867203 -0.22168656 -0.14902651 0.284938 0.1585511
-0.14666481 -0.114315115 -0.16021612 -0.06289243 0.4797983 -0.3755095 -0.3059862 0.41212377
0.236996 -0.00035449653 -0.0024304255 0.027449276 -0.13666572 -0.0011229728 0.20689626 -0.0022493098
-0.11910352 0.02951212 -0.11171719 0.07393931 -0.036960393 0.005955251 0.0015702036 0.054970924
0.09236158 0.052564483 0.08359477 0.029083833 0.018503958 -0.14057642 0.0076750526 -0.108012125
-0.16731162 -0.0066406596 -0.09574669 -0.021812199 -0.14130431 -0.1461456 -0.065205604 0.07640127
0.22413705 -0.13862106 0.13307248 0.42825237 -0.049626943 -0.1009279 -0.06694388 0.03960638
-0.27409264 -0.090302184 0.20529822 0.19973697 0.15333658 -0.19682983 -0.056096166 0.13131703
-0.17762254 -0.2645647 -0.19847786 -0.081963696 -0.061200764 -0.094202854 0.29474095 0.08884482
0.018080141 -0.055639904 -0.08533277 0.09522855 -0.0020363783 0.03653351 -0.024753364 0.039568324
-0.07044567 0.05396064 -0.27468815 -0.08691456 -0.04464659 -0.5879007 -0.45554045 0.03014772
-0.008562785 0.16986603 0.22541803 -0.032864533 0.20782788 0.30007276 -0.19459333 -0.14537469
-0.16112016 -0.21025641 0.10063978 -0.008588211 -0.18814985 0.34681278 0.46841007 -0.3222399
-0.45520312 -0.045214497 -0.28716522 0.1658364 0.390731 -0.15276647 0.08182843 0.32708436
0.1582273 0.13652533 -0.042106446 -0.043947272 -0.030156095 -0.23406649 -0.018834025 0.04469919
-0.03455201 -0.0266326 -0.10069552 -0.08302391 0.112564966 0.0131547265 0.048005223 -0.0035313899
-0.18549153 0.08970712 0.1548075 0.066867575 0.040715206 0.041076466 -0.0437512 -0.11540428
0.1379252 0.33746657 0.31861204 -0.14625679 -0.30024043 0.07586087 -0.12598693 -0.04329845
0.22129738 0.1733994 0.08267294 -0.086629204 0.24469724 0.07633883 -0.09653106 0.07451408
-0.24885459 -0.046399295 -0.2738243 -0.104853615 0.11190115 -0.13772167 -0.13513537 -0.11412939
-0.094255924 0.084058575 0.23394674 0.08519987 0.032921858 -0.110854395 -0.0041351723 -0.057773452
0.092689715 0.05991206 -0.0410215 0.0010787722 -0.27320164 -0.003054163 -0.043811515 -0.05111186
0.35955858 -0.016757533 -0.3314922 0.10523653 0.6376087 0.23198996 -0.10495335 -0.24781726
0.24906963 -0.013403637 -0.2050301 0.25662056 -0.16840369 -0.026286043 0.07137701 0.380793
0.2938405 -0.11844032 0.06869138 0.4293706 0.13244964 -0.19225302 -0.086838126 0.21199968
-0.1606646 -0.3615102 0.31903055 0.27469748 -0.6150535 0.40922546 0.34050187 -0.33032048
-0.02481214 -0.063306265 -0.046009075 -0.02925509 0.093574956 -0.1014251 0.029674882 0.012419043
-0.03363333 -0.017064441 -0.13411605 -0.13143414 0.054084964 -0.12698385 0.1572533 -0.0308156
-0.15553093 0.31738916 0.055943094 0.14716414 -0.012038722 -0.12120074 0.043745108 0.2659162
0.07218101 0.123347916 -0.05980756 0.06366292 0.07237847 0.008268873 0.064653404 0.08406527
-0.3272116 -0.10901291 -0.16897266 -0.32527393 0.04901906 0.13296305 0.3335576 -0.13638178
00000000: c146 d5be 1bae 65be b7a1 023f 9edd 43be
00000010: 6f57 84be 4a19 28bb 35fc 7b3e 884f 70be
00000020: c320 a8be dd24 e5bd 763c a6bd acc6 373d
00000030: cd01 63be 689a 18be 65e3 913e 385b 223e
00000040: 4d2f 16be 0b1e eabd b20f 24be bfcd 80bd
00000050: 1fa8 f53e c842 c0be 39aa 9cbe e301 d33e
00000060: 14af 723e b8db b9b9 c647 1fbb 4edd e03c
00000070: 19f2 0bbe b730 93ba 9ddc 533e 2869 13bb
00000080: 8cec f3bd 67c3 f13c fbcb e4bd 7e6d 973d
00000090: c863 17bd 4424 c33b 4acf cd3a 3129 613d
000000a0: 1128 bd3d db4d 573d bc33 ab3d 3841 ee3c
000000b0: 9d95 973c 44f3 0fbe 027f fb3b 7635 ddbd
000000c0: bd53 2bbe e499 d9bb d716 c4bd 7faf b2bc
000000d0: 14b2 10be 31a7 15be 848a 85bd 4578 9c3d
000000e0: 2f84 653e aef2 0dbe 2744 083e e543 db3e
000000f0: 9f45 4bbd 49b3 cebd df19 89bd 4d3a 223d
00000100: df55 8cbe 5af0 b8bd b239 523e d987 4c3e
00000110: 4404 1d3e c28d 49be 18c5 65bd f977 063e
00000120: afe2 35be 0675 87be c83d 4bbe 95dc a7bd
00000130: a7ad 7abd 6ded c0bd 49e8 963e 46f4 b53d
00000140: ce1c 943c abe6 63bd f3c2 aebd 3007 c33d
00000150: c274 05bb 29a4 153d 91c7 cabc 6512 223d
00000160: d245 90bd d505 5d3d eda3 8cbe 4300 b2bd
00000170: 58df 36bd a980 16bf 993c e9be 5af8 f63c
00000180: ec4a 0cbc 5cf1 2d3e fcd3 663e f69c 06bd
00000190: d5d0 543e 23a3 993e 7943 47be 1add 14be
000001a0: affc 24be 754d 57be 3b1c ce3d 91b5 0cbc
000001b0: 5baa 40be 7291 b13e 72d3 ef3e a1fc a4be
000001c0: 6210 e9be d632 39bd 5207 93be 04d1 293e
000001d0: e50d c83e d06e 1cbe aa95 a73d 9a77 a73e
000001e0: 5606 223e 4ccd 0b3e cf77 2cbd 0e02 34bd
000001f0: ea09 f7bc 20af 6fbe d049 9abc 7f16 373d
00000200: 6986 0dbd 9c2c dabc 7439 cebd 7108 aabd
00000210: 7688 e63d ec86 573c 20a1 443d e46e 67bb
00000220: 7ef1 3dbe 5eb8 b73d db85 1e3e def1 883d
00000230: fdc4 263d cc3f 283d 7534 33bd 1459 ecbd
00000240: 433c 0d3e 6bc8 ac3e 1e21 a33e 57c4 15be
00000250: 1db9 99be f25c 9b3d b802 01be b759 31bd
00000260: c89b 623e 9d8f 313e 6e50 a93d a76a b1bd
00000270: ea91 7a3e 8857 9c3d 14b2 c5bd d79a 983d
00000280: bdd3 7ebe 300d 3ebd b332 8cbe 7ebd d6bd
00000290: 6e2c e53d e906 0dbe ed60 0abe abbc e9bd
000002a0: 4009 c1bd e726 ac3d bc8f 6f3e 457d ae3d
000002b0: 12d9 063d a107 e3bd 5780 87bb dba3 6cbd
000002c0: 1bd4 bd3d 5966 753d 2906 28bd 9765 8d3a
000002d0: 16e1 8bbe 5a28 48bb b473 33bd ab5a 51bd
000002e0: 1018 b83e 1847 89bc 58b9 a9be 4086 d73d
000002f0: 533a 233f c78e 6d3e c8f1 d6bd cfc3 7dbe
00000300: 1c0c 7f3e ee9a 5bbc 69f3 51be c563 833e
00000310: 0472 2cbe d455 d7bc 1c2e 923d 4df7 c23e
00000320: 4372 963e d790 f2bd 11ae 8c3d 77d6 db3e
00000330: e1a0 073e fadd 44be 30d8 b1bd 7216 593e
00000340: 4385 24be dd17 b9be f957 a33e 26a5 8c3e
00000350: 2574 1dbf 0086 d13e 4356 ae3e c41f a9be
00000360: d442 cbbc b7a6 81bd 0374 3cbd 5fa8 efbc
00000370: 3aa4 bf3d f6b7 cfbd bd18 f33c 3e79 4b3c
00000380: 1ac3 09bd baca 8bbc b855 09be ac96 06be
00000390: 3288 5d3d 0e08 02be 0207 213e ff70 fcbc
000003a0: 8043 1fbe d580 a23e 9624 653d 32b2 163e
000003b0: 0f3e 45bc 1838 f8bd 122e 333d 2b26 883e
000003c0: a3d3 933d d59d fc3d c6f8 74bd b461 823d
000003d0: 2a3b 943d 2b7a 073c 0169 843d 6a2a ac3d
000003e0: 4788 a7be 2942 dfbd 2b07 2dbe 4e8a a6be
000003f0: 36c8 483d 7727 083e 10c8 aa3e aaa7 0bbe

conv_block_2.0.bias f4 [10]
-0.08923553 -0.3058663 -0.25932077 -0.49649855 0.5261721 -0.016166251 0.28021142 0.3403312
0.4352761 -0.036645286
00000000: 1ec1 b6bd 829a 9cbe b1c5 84be 0f35 febe
00000010: 37b3 063f 166f 84bc df77 8f3e e43f ae3e
00000020: 82dc de3e 5e19 16bd

conv_block_2.2.weight f4 [10, 10, 3, 3]
-0.1300661 -0.101596236 0.17540364 -0.22348735 0.025116106 -0.17150822 -0.15927052 -0.14586733
-0.09588176 0.12651992 0.08879242 -0.36191726 -0.21621694 -0.28522798 -0.17745666 -0.04857376
-0.34697402 -0.06339627 -0.13050635 0.0065716114 -0.4012335 0.054022647 -0.49486676 -0.13182688
-0.15916954 -0.53274775 -0.32967293 -0.5396288 -0.16455102 -0.053581927 -0.49325398 -0.38732165
0.0755946 0.51193374 0.24214755 -0.13911144 -0.19340684 -0.079997085 0.010853581 -0.308292
-0.31476846 -0.32780486 -0.48027593 -0.24505441 0.12888664 -0.030996097 0.2963833 -0.77957743
0.48588347 -0.3954949 -0.15179038 0.12474034 -0.41862878 -0.43850878 -0.25034827 0.021045398
0.4141023 -0.41416776 0.40427256 0.25314817 -0.3774522 -0.22174266 -0.12469637 0.001369263
-0.14119036 -0.07427637 -0.023074206 -0.2448678 -0.098572254 -0.1151788 -0.2377594 -0.02843199
-0.2681819 -0.27603212 0.024999946 -0.24778366 0.008089757 0.4933736 -0.46212947 -0.09600066
0.30486578 -0.018688597 -0.0033412783 0.12527145 0.34563175 0.22954014 -0.042393703 -0.07485036
0.19682406 -0.44532105 0.53951603 0.27672553 -0.11562967 -0.078262 0.092376605 0.026090868
-0.16195928 -0.122150175 -0.09307232 -0.106212005 -0.16119726 -0.064909965 0.2650345 0.1814261
0.16339149 -0.18279283 -0.0014011144 0.31744692 0.14336792 0.12780981 -0.1554287 -0.2999025
-0.026754063 0.5267086 -0.27300635 -0.24515459 -0.45831552 -0.20765467 -0.22852814 -0.07482456
-0.40085635 -0.3443208 0.08923609 0.19625859 0.26882905 0.22715777 0.24017516 0.18617454
-0.39678153 -0.056440182 -0.022531735 -0.089827634 -0.1948307 -0.36902487 -0.19854566 -0.7115677
-0.54490274 -0.033883262 0.0019178696 -0.5552176 -0.591309 0.1997123 0.085410126 0.10324656
0.370662 0.19941543 -0.3035117 -0.3762742 0.038076557 -0.09307838 -0.49277058 -0.4169735
-0.09997797 0.25670165 0.76397187 -0.052298713 -0.24913853 -0.018051758 0.2041201 -0.49088168
-0.43886086 -0.37046897 -0.5005083 -0.36663082 -0.54027116 -0.05307585 -0.22158608 0.3102064
-0.29612556 -0.11378692 0.19507878 -0.38386467 -0.28863645 -0.62190855 -0.3642124 0.25154465
-0.13975714 0.2705573 0.28212842 0.035779547 0.5178323 0.59381306 0.20704004 0.022795996
0.20505762 -0.33637744 -0.16072196 -0.106158316 -0.09180132 0.1793269 -0.1415611 0.21177235
-0.056414742 0.21581657 -0.09920438 -0.07380258 -0.10254021 0.014675772 -0.06708042 0.10216056
-0.31823373 -0.22465546 -0.258878 -0.16994195 -0.15208541 0.026029281 -0.213548 -0.4180749
0.076892234 -0.20854722 -0.18406059 -0.3721816 0.07645612 -0.04460544 0.34723175 0.058216847
0.35863954 0.33035848 0.20396437 0.19268452 0.30728915 -0.3476225 -0.15813884 -0.0993692
-0.2940543 -0.52630633 -0.647217 -0.5938993 0.7009027 0.0047255885 -0.5089624 0.11891749
0.48308608 0.23069926 -0.087453306 -0.13966256 0.48590595 0.14773045 -0.22752097 -0.26840907
-0.28069523 -0.17046203 -0.34150687 -0.029029246 0.52639043 0.15570918 -0.31085977 -0.14796178
0.13526687 -0.022824464 -0.4419139 -0.1525044 -0.40156603 -0.092670836 0.7481766 0.005789805
00000000: 0c30 05be b011 d0bd 039d 333e ded9 64be
00000010: 4bc0 cd3c da9f 2fbe d017 23be 3f5e 15be
00000020: a85d c4bd 708e 013e cdd8 b53d 384d b9be
00000030: f967 5dbe 6709 92be 33b7 35be 47f5 46bd
00000040: 94a6 b1be e7d5 81bd 75a3 05be ac56 d73b
00000050: 7a6e cdbe da46 5d3d 2d5f fdbe a0fd 06be
00000060: 57fd 22be 2862 08bf e4ca a8be 1d25 0abf
00000070: 1080 28be b978 5bbd c98b fcbe 064f c6be
00000080: 57d1 9a3d 170e 033f 87f5 773e 3b73 0ebe
00000090: 710c 46be 83d5 a3bd 38d3 313c 73d8 9dbe
000000a0: 5529 a1be 0ad6 a7be bae6 f5be 8bef 7abe
000000b0: dcfa 033e 87eb fdbc 8dbf 973e 6392 47bf
000000c0: b8c5 f83e 4f7e cabe f06e 1bbe dd77 ff3d
000000d0: 8356 d6be 3984 e0be a62d 80be 6667 ac3c
000000e0: 3705 d43e cc0d d4be d0fc ce3e a39c 813e
000000f0: 6a41 c1be 8210 63be cf60 ffbd d878 b33a
00000100: 3594 10be 361e 98bd 1e06 bdbc a0be 7abe
00000110: 40e0 c9bd dde2 ebbd 3377 73be 34ea e8bc
00000120: 234f 89be 1554 8dbe b0cc cc3c 00bb 7dbe
00000130: e68a 043c 779b fc3e 3c9c ecbe fe9b c4bd
00000140: 5e17 9c3e d418 99bc 59f9 5abb 2947 003e
00000150: a5f6 b03e 920c 6b3e 05a5 2dbd 254b 99bd
00000160: 3f8c 493e 1f01 e4be b91d 0a3f f8ae 8d3e
00000170: 40cf ecbd d447 a0bd f22f bd3d 84bc d53c
00000180: a7d8 25be df29 fabd b39c bebd ae85 d9bd
00000190: e510 25be 84ef 84bd 9ab2 873e c3c7 393e
000001a0: 1950 273e 0b2e 3bbe 99a5 b7ba 6788 a23e
000001b0: 0acf 123e 93e0 023e b328 1fbe d28c 99be
000001c0: 562b dbbc 60d6 063f 7dc7 8bbe ce09 7bbe
000001d0: 55a8 eabe 6da3 54be 4803 6abe 9e3d 99bd
000001e0: 0b3d cdbe d14a b0be 69c1 b63d 03f8 483e
000001f0: f6a3 893e 0c9c 683e 7af0 753e 8aa4 3e3e
00000200: f326 cbbe d22d 67bd 7994 b8bc 8df7 b7bd
00000210: b381 47be d4f0 bcbe 8e4f 4bbe 4d29 36bf
00000220: bf7e 0bbf 2dc9 0abd 0661 fb3a be22 0ebf
00000230: 0760 17bf 6281 4c3e 81eb ae3d ef72 d33d
00000240: 69c7 bd3e 8f33 4c3e e365 9bbe 03a7 c0be
00000250: 2af6 1b3d e19f bebd 6d4c fcbe 8d7d d5be
00000260: 40c1 ccbd 666e 833e a993 433f 2d37 56bd
00000270: 2c1e 7fbe 48e1 93bc dc04 513e d854 fbbe
00000280: 5fb2 e0be 1cae bdbe 5021 00bf 09b7 bbbe
00000290: 364f 0abf 1066 59bd 76e7 62be 60d3 9e3e
000002a0: c59d 97be 1e09 e9bd bbc2 473e e989 c4be
000002b0: 28c8 93be 6635 1fbf 0c7a babe 76ca 803e
000002c0: 7f1c 0fbe 7d86 8a3e 2373 903e 938d 123d
000002d0: a890 043f 2204 183f 4e02 543e abbe ba3c
000002e0: a0fa 513e aa39 acbe 4c94 24be 8869 d9bd
000002f0: 5502 bcbd 79a1 373e 65f5 10be dada 583e
00000300: 2513 67bd 05ff 5c3e aa2b cbbd cf25 97bd
00000310: 9a00 d2bd a672 703c 7661 89bd 8e39 d13d
00000320: 88ef a2be 150c 66be a88b 84be 4305 2ebe
00000330: 47bc 1bbe 5c3b d53c 54ac 5abe ea0d d6be
00000340: ad79 9d3d 678d 55be 617a 3cbe 968e bebe
00000350: 0795 9c3d 32b4 36bd 5cc8 b13e ca74 6e3d
00000360: 9a9f b73e bf24 a93e 09dc 503e 174f 453e
00000370: 0155 9d3e 94fb b1be 26ef 21be 1482 cbbd
00000380: 498e 96be 03bc 06bf 03b0 25bf c909 18bf
00000390: 5c6e 333f 1cd9 9a3b 5c4b 02bf 038b f33d
000003a0: 0f57 f73e 6d3c 6c3e b81a b3bd b403 0fbe
000003b0: aac8 f83e a746 173e 42fb 68be ea6c 89be
000003c0: 49b7 8fbe 998d 2ebe fdd9 aebe bece edbc
000003d0: 86c1 063f 3a72 1f3e 0329 9fbe 4b83 17be
000003e0: 6683 0a3e 5ffa babc 8a42 e2be 1d2a 1cbe
000003f0: 109a cdbe 35ca bdbd 8088 3f3f 68b8 bd3b

conv_block_2.2.bias f4 [10]
0.29198417 0.18657795 -0.16530268 0.19666716 0.097699255 0.03836019 0.21157475 0.060210302
0.21149501 0.017979778
00000000: f37e 953e 4a0e 3f3e 1b45 29be 1e63 493e
00000010: 8c16 c83d 931f 1d3d 0da7 583e 149f 763d
00000020: 2692 583e 544a 933c

classifier.1.weight f4 [10, 490]
-0.021448517 -0.07841703 -0.14075819 -0.102694646 -0.14740399 -0.05086779 -0.013828103 -0.004560681
-0.20001128 -0.092761174 -0.16836415 -0.32415295 -0.118680075 -0.024965806 -0.012353751 0.1666164
-0.21975866 -0.061651725 -0.49485293 -0.06675582 0.0316367 -0.020855764 -0.011019131 0.37776324
-0.31765547 -0.0063830293 -0.04730017 0.006595864 0.010998854 0.30076995 -0.0018045828 -0.031060876
0.303971 0.00077965413 -0.024665626 -0.02030796 -0.0010458766 -0.48081666 -0.0559037 0.0010696646
-0.041168176 0.020520404 -0.015911462 -0.060997833 -0.15869415 -0.1874808 -0.13940066 -0.020677896
-0.025435528 -0.032425463 -0.011517327 -0.07819232 0.03755447 0.034944776 0.06863059 0.001513915
-0.033980504 0.050333492 0.040377047 -0.06561929 0.030084139 0.02062764 0.07426397 -0.022427749
-0.11973829 -0.23418288 -0.11295527 -0.31910262 0.27493665 -0.03528202 -0.07350053 -0.2655709
-0.31601638 0.09476836 0.39469182 0.27323672 -0.11154956 0.06227726 -0.4438902 -0.4457828
0.2457226 0.19559851 0.34800988 -0.04401733 0.023368368 -0.19197442 0.10701899 -0.07241205
0.07373651 0.033544753 -0.04161181 0.31073174 0.15674995 0.33909088 -0.27408063 -0.24817342
-0.10375252 -0.03285306 -0.021894464 -0.063581795 -0.004455114 0.084152795 0.18502797 0.14798167
-0.009412559 -0.02894536 0.2440426 -0.04923155 0.3367237 0.022087421 0.15734786 0.044788502
0.09547623 -0.23904535 -0.17775166 -0.2087169 0.1633638 -0.026463179 0.04973823 -0.262139
-0.54005283 -0.56983256 -0.09158726 -0.042685363 -0.07793929 -0.16192876 -0.3024083 -0.77844894
-0.37411168 0.40967363 0.41936955 -0.015600535 0.022969926 -0.06499357 -0.1183802 0.1521444
0.18616903 0.28787613 0.106796145 0.017930416 0.19976386 0.076132536 0.124528065 -0.2495714
-0.40339282 -0.06532148 -0.029205905 -0.047659785 -0.13705666 0.006529905 -0.113419265 -0.079880305
-0.061677333 -0.041456014 0.00085497374 -0.052575402 -0.08454317 0.07335506 0.067873634 0.37139282
0.06674748 0.0046657124 0.0111777615 0.11938715 0.035502184 0.18586463 0.22921675 0.01203005
0.010526038 0.06709714 0.042884428 0.025402969 -0.42874697 -0.08719114 0.015216124 0.015688628
0.01520634 0.39411983 0.05140797 -0.54146457 -0.21919668 -0.06978349 -0.01790638 0.18030857
0.022728559 -0.13649881 -0.3175411 -0.24574879 -0.078141645 0.052470855 0.049590893 0.096018195
-0.02705476 -0.034151852 -0.08868261 -0.033540927 0.01911885 0.086380705 0.012866112 -0.0007303087
0.027093213 0.023396049 -0.011288867 -0.010484831 -0.057184294 -0.113980524 0.017894134 -0.11877958
-0.28500834 -0.017378552 -0.002966411 -0.2747565 -0.14696823 -0.058721248 -0.057981916 -0.281112
0.11034396 -0.022707524 -0.3203801 0.114045806 -0.09955616 -0.08067462 -0.21593994 -0.03875337
-0.012496339 0.24449618 0.20780453 0.21542051 0.0007227017 0.06530044 0.060378123 0.077001095
0.07711691 0.30949646 0.2585093 -0.16407649 -0.12162319 -0.13076198 -0.038796745 0.14962706
0.034863856 0.118651666 -0.18811108 -0.17502671 0.026744008 -0.050433736 -0.04102983 -0.09142694
0.1323274 0.033522848 0.036688372 -0.03562368 -0.058492124 0.1953983 0.11400277 0.024388338
00000000: cdb4 afbc 1c99 a0bd ea22 10be 9251 d2bd
00000010: 12f1 16be be5a 50bd 458f 62bc c471 95bb
00000020: c2cf 4cbe 92f9 bdbd a767 2cbe 60f7 a5be
00000030: 8a0e f3bd 1785 ccbc 6367 4abc 7d9d 2a3e
00000040: 6a08 61be 8586 7cbd 5d5d fdbe 46b7 88bd
00000050: 7c95 013d b5d9 aabc 9689 34bc 2f6a c13e
00000060: bda3 a2be bb28 d1bb d3bd 41bd 1e22 d83b
00000070: 8a34 343c 85fe 993e c087 ecba 6173 febc
00000080: 16a2 9b3e b461 4c3a 910f cabc e15c a6bc
00000090: cc15 89ba 9a2d f6be 47fb 64bd fd33 8c3a
000000a0: f69f 28bd 681a a83c c158 82bc ddd8 79bd
000000b0: b880 22be f8fa 3fbe 0cbf 0ebe b164 a9bc
000000c0: 2b5e d0bc 90d0 04bd 2cb3 3cbc 4c23 a0bd
000000d0: b7d2 193d 4122 0f3d 328e 8c3d 8f6e c63a
000000e0: 242f 0bbd 7e2a 4e3d 6762 253d 6863 86bd
000000f0: 0373 f63c 4cfb a83c b517 983d 66ba b7bc
00000100: 5939 f5bd a3cd 6fbe 1855 e7bd 6b61 a3be
00000110: 7fc4 8c3e e183 10bd 7287 96bd e9f8 87be
00000120: e6cc a1be ea15 c23d 0c15 ca3e afe5 8b3e
00000130: 1974 e4bd 7116 7f3d 9445 e3be a53d e4be
00000140: b59e 7b3e fa4a 483e 5a2e b23e 844b 34bd
00000150: 056f bf3c f194 44be c62c db3d c54c 94bd
00000160: 2b03 973d 3966 093d 2571 2abd 3b18 9f3e
00000170: 0f83 203e 529d ad3e 4c54 8cbe 2c21 7ebe
00000180: 347c d4bd ee90 06bd 055c b3bc 2c37 82bd
00000190: 34fc 91bb 4d58 ac3d f977 3d3e 8288 173e
000001a0: 2237 1abc d21e edbc 4ee6 793e 06a7 49bd
000001b0: 0c67 ac3e aef0 b43c cc1f 213e 2674 373d
000001c0: 0b89 c33d 4ec8 74be 8804 36be e2b9 55be
000001d0: d748 273e 4fc9 d8bc 50ba 4b3d 1537 86be
000001e0: e740 0abf 8ce0 11bf 1a92 bbbd d9d6 2ebd
000001f0: a29e 9fbd a7d0 25be 43d5 9abe 6e48 47bf
00000200: 918b bfbe bec0 d13e 9bb7 d63e 6399 7fbc
00000210: 6d2b bc3c 591b 85bd 5171 f2bd becb 1b3e
00000220: 18a3 3e3e 8064 933e f0b7 da3d cfe2 923c
00000230: e68e 4c3e 60eb 9b3d 9208 ff3d a58f 7fbe
00000240: 8189 cebe 45c7 85bd 3941 efbc e836 43bd
00000250: 9558 0cbe d0f8 d53b 5c48 e8bd 4998 a3bd
00000260: 5fa1 7cbd c8cd 29bd 5120 603a 4e59 57bd
00000270: f824 adbd 2d3b 963d 5501 8b3d 3327 be3e
00000280: e7b2 883d d5e2 983b ee22 373c 4081 f43d
00000290: bd6a 113d 4c53 3e3e ccb7 6a3e b019 453c
000002a0: 6775 2c3c 3a6a 893d 95a7 2f3d e319 d03c
000002b0: b984 dbbe 4591 b2bd 0d4d 793c 7085 803c
000002c0: 0324 793c 13ca c93e 2a91 523d 6c9d 0abf
000002d0: 1875 60be a5ea 8ebd 67b0 92bc cfa2 383e
000002e0: 3e31 ba3c 58c6 0bbe bf94 a2be 92a5 7bbe
000002f0: ba08 a0bd aeeb 563d d21f 4b3d 30a5 c43d
00000300: f2a1 ddbc d0e2 0bbd 3a9f b5bd 3662 09bd
00000310: 229f 9c3c 5ee8 b03d 63cc 523c 3072 3fba
00000320: 96f2 dd3c 12a9 bf3c f1f4 38bc 92c8 2bbc
00000330: 143a 6abd 9f6e e9bd b896 923c b542 f3bd
00000340: 9dec 91be 775d 8ebc 1e68 42bb e2ac 8cbe
00000350: d77e 16be b185 70bd 727e 6dbd e9ed 8fbe
00000360: 04fc e13d 2105 babc dc08 a4be d990 e93d
00000370: 1ae4 cbbd bc38 a5bd 5c1f 5dbe dbbb 1ebd
00000380: 72bd 4cbc 355d 7a3e b6ca 543e 3297 5c3e
00000390: b173 3d3a 3dbc 853d 0d4f 773d c0b2 9d3d
000003a0: 78ef 9d3d 5276 9e3e 555b 843e ab03 28be
000003b0: 9415 f9bd 78e6 05be 56e9 1ebd d637 193e
000003c0: 67cd 0e3d a5ff f23d 31a0 40be 343a 33be
000003d0: 4016 db3c 9b93 4ebd e50e 28bd 0c3e bbbd
000003e0: d580 073e 414f 093d 8c46 163d 23ea 11bd
000003f0: 7095 6fbd 7e16 483e 497a e93d 0dca c73c

classifier.1.bias f4 [10]
-0.0067715324 0.89126843 0.055442948 -0.18008608 -0.14095385 -0.05022143 -0.12790209 0.19010933
-0.415701 -0.11351619
00000000: bbe3 ddbb 2b2a 643f 2518 633d 7c68 38be
00000010: 3556 10be fcb4 4dbd c4f8 02be 05ac 423e
00000020: c3d6 d4be 2d7b e8bd
