model_weights/model_epoch_3.pth (torch, 34447 bytes, 10 tensors)

conv_block_1.0.weight f4 [10, 1, 3, 3]
0	0xbef58a9c	-0.47957313
1	0x3e568874	0.2095049
2	0xbd9c93e9	-0.07645399
3	0xbe130805	-0.14358528
4	0xbcd325e8	-0.025774911
5	0x3eca919c	0.39564216
6	0x3dd9f76c	0.10642895
7	0x39ea2724	0.0004466112
8	0x3d3bd872	0.045860715
9	0x3e521ab1	0.20517994
10	0xbf135bd8	-0.5756202
11	0xbf61105e	-0.879156
12	0xbc53c85d	-0.012926188
13	0xbeb25e26	-0.34837455
14	0xbf1465ea	-0.5796801
15	0x3f11b6f2	0.5691978
16	0x3dab2552	0.08356728
17	0x3f4154a4	0.75519776
18	0xbd7d99b8	-0.061914176
19	0xbe86ede6	-0.26353377
20	0xbe2f1bcd	-0.17100449
21	0xbe29bac5	-0.16575153
22	0xbd921147	-0.07132202
23	0x3ef18992	0.4717527
24	0xbe3bf647	-0.18355666
25	0x3efee386	0.49782962
26	0x3f084236	0.5322603
27	0x3e06cb3a	0.13163462
28	0x3e7764ae	0.241595
29	0xbbf36327	-0.0074275914
30	0x3d94ba3b	0.07262083
31	0xbe47f0ce	-0.19525453
32	0xbdf8fdb8	-0.12157768
33	0x3e6a51d8	0.22882783
34	0x3eaf10d3	0.34192523
35	0xbed638a0	-0.41840076
36	0x3ed6410d	0.41846505
37	0x3eef5044	0.46740925
38	0xbebfbb59	-0.37447622
39	0xbedd99c4	-0.43281376
40	0x3e950aec	0.29109895
41	0xbe244fd5	-0.16046079
42	0x3d899cd1	0.067193635
43	0x3de13340	0.10996103
44	0x3eeb32ed	0.4593729
45	0x3e9c4547	0.30521604
46	0xbdd50d75	-0.10402957
47	0x3eef3afb	0.46724686
48	0x3e39cb3b	0.18143933
49	0xbdf869d8	-0.12129563
50	0xbea5d44d	-0.32388535
51	0xbe80a49e	-0.25125593
52	0x3eba9e36	0.3644883
53	0x3ea9a447	0.33133146
54	0xbe8b0116	-0.27149266
55	0xbe9b19be	-0.30293077
56	0xba9db800	-0.0012032986
57	0xbea214ef	-0.31656596
58	0xbe9b0187	-0.30274603
59	0xbdd91986	-0.10600571
60	0xbe938db2	-0.28819042
61	0x3e82fd41	0.25583842
62	0xbe6f5e28	-0.23375762
63	0xbed45587	-0.41471502
64	0x3e01c522	0.12672856
65	0xbb96eb05	-0.004605653
66	0x3eb5212c	0.3537687
67	0x3f0a3524	0.53987336
68	0x3f19aeee	0.60032547
69	0xbea83046	-0.3284933
70	0xbe511658	-0.2041868
71	0x3e2faa8b	0.171549
72	0x3d4e0095	0.050293524
73	0xbe92d2c0	-0.28676414
74	0xbca99eee	-0.020705666
75	0x3e232527	0.15932141
76	0x3d83ddfa	0.06438823
77	0xbd1bd3bb	-0.03804372
78	0x3c6df406	0.014523512
79	0x3ba65fed	0.005077353
80	0xbe5b89e9	-0.21439327
81	0xbe4b587d	-0.19857974
82	0xbd85f168	-0.06540185
83	0xbea52995	-0.32258287
84	0xbe8c40b4	-0.27393115
85	0x3e89fc1f	0.26950166
86	0xbe76193f	-0.24033068
87	0x3dba60a5	0.09100465
88	0xbcc0db50	-0.023542076
89	0xbdfd5b43	-0.123709224

conv_block_1.0.bias f4 [10]
0	0x3c8e3659	0.0173599
1	0x3e6a79e8	0.22898066
2	0xbc4bc288	-0.012436517
3	0x3ce72451	0.02821556
4	0xbe9e9bbd	-0.30978194
5	0xbe7d4a30	-0.24735332
6	0xbe861942	-0.26191145
7	0xbcd32ed1	-0.02577916
8	0xbe10bbe6	-0.14134178
9	0xbe11a9c7	-0.14224921

conv_block_1.2.weight f4 [10, 10, 3, 3]
0	0xbdf69437	-0.120399885
1	0x3d011934	0.031518176
2	0xbbba9d96	-0.0056950552
3	0xbbfc7900	-0.007704854
4	0x3dbe5dcc	0.09295234
5	0x3cc13666	0.02358551
6	0x3e4a3798	0.1974777
7	0x3df20e95	0.118191876
8	0x3de0b8a1	0.10972715
9	0xbc1351b0	-0.008991644
10	0xbd61bc4a	-0.055111207
11	0xbe000e55	-0.12505467
12	0x3db0de8e	0.08636199
13	0xbddb13fa	-0.106971696
14	0xbeca7b62	-0.3954726
15	0xbe3462fb	-0.17615883
16	0xbef4ebe5	-0.47836223
17	0xbec09347	-0.37612364
18	0x3d773a16	0.06035813
19	0x3e2629d1	0.16226889
20	0x3becafa8	0.0072230883
21	0x3e59dbe5	0.2127529
22	0x3eb40f83	0.35168085
23	0xbd14c568	-0.036321074
24	0x3ecdd0d8	0.40198398
25	0x3dedd6b7	0.11613219
26	0xbcfa659f	-0.030566035
27	0xbe63a393	-0.22230367
28	0x3e31a3ba	0.17347613
29	0x3e159bfe	0.14610288
30	0x3d9c37c9	0.07627828
31	0xbb2d4341	-0.0026437792
32	0x3d591b28	0.053004414
33	0xbcda71ea	-0.026665647
34	0x3e18b365	0.14912184
35	0x3dd4d183	0.10391524
36	0x3bba3332	0.0056823725
37	0xbdfe656d	-0.12421689
38	0x3df226c8	0.11823803
39	0xbe11a4d0	-0.14223027
40	0x3d47c5fb	0.048772793
41	0x3ddce6a4	0.10786179
42	0xbdf3c83d	-0.11903427
43	0xbd7ee104	-0.06222631
44	0x3d03317a	0.032029606
45	0x3cc46ad0	0.023976713
46	0xbdba2293	-0.09088626
47	0x3cdb5c50	0.026777416
48	0xbde3a396	-0.11115186
49	0x3dcc1fdd	0.09967015
50	0x3e355e9c	0.17711872
51	0x3d38fbf1	0.045162145
52	0xbbd7c529	-0.0065847826
53	0xbdd8200a	-0.10552986
54	0x3d8fa9b3	0.070147894
55	0x3d2d7422	0.04234708
56	0xbd8439fd	-0.06456373
57	0x3d92241f	0.07135796
58	0xbd8ca5dc	-0.06867573
59	0xbd75909b	-0.05995236
60	0x3dc88653	0.09791245
61	0xbd125422	-0.035724767
62	0xbceae378	-0.028672919
63	0xbe3bb0ef	-0.18329214
64	0x3e9488d7	0.2901065
65	0x3e91152d	0.28336468
66	0xbd897063	-0.06710889
67	0x3d8ef30a	0.0697995
68	0xbd81a341	-0.06329966
69	0x3e6ee257	0.2332853
70	0x3e14c0c1	0.14526655
71	0x3ce9cdfe	0.028540608
72	0xbd9bce2d	-0.07607684
73	0xbdb07d97	-0.08617704
74	0xbd7efd96	-0.062253557
75	0x3d7ae632	0.061254688
76	0x3dcda012	0.100402966
77	0x3cf6a144	0.030106194
78	0x3d8cf81a	0.06883259
79	0x3d2fe05f	0.042938586
80	0xbbc47d3f	-0.005996376
81	0x3d29159c	0.041280374
82	0x3d9312d0	0.071813226
83	0xbd05ec58	-0.032696098
84	0xbd6d0a04	-0.05787088
85	0xbd1fc521	-0.039006356
86	0xbd6db647	-0.05803516
87	0xbd9c3483	-0.07627203
88	0xbdc032ed	-0.09384713
89	0x3c7c1542	0.015385928
90	0x3cdbdc8c	0.026838563
91	0x3dbb91db	0.09158679
92	0xbdce2715	-0.10066048
93	0xbc3cb55a	-0.011517847
94	0x3d47703b	0.048691016
95	0xbbed16ce	-0.0072353845
96	0xbdac9f97	-0.08428877
97	0xbd14dfe5	-0.036346335
98	0x3bd8e0e9	0.0066186083
99	0xbe924f08	-0.2857592
100	0xbec69652	-0.3878656
101	0xbe1110b3	-0.14166526
102	0xbe35eaf1	-0.17765404
103	0xbde64970	-0.11244476
104	0x3d95c2b3	0.073125266
105	0xbd06d0a5	-0.032913823
106	0x3db7138f	0.089392774
107	0x3e4a7fad	0.19775267
108	0x3cd8f474	0.026483752
109	0x3cc93d83	0.024565464
110	0x3a7d9c40	0.0009674467
111	0xbbe73da3	-0.007056908
112	0xbe08039c	-0.13282627
113	0xbe1978d1	-0.14987494
114	0xbdd1cb9a	-0.10243912
115	0xbe5159c5	-0.204444
116	0xbeb5acec	-0.3548349
117	0x3df3aa2e	0.118976936
118	0x3d4f74db	0.05064855
119	0x3e1358e3	0.14389376
120	0x3e42649d	0.18983693
121	0x3e520afb	0.20512001
122	0xbcc78a5a	-0.024357963
123	0xbd27b341	-0.040942434
124	0x3d8cc350	0.068731904
125	0x3d00d75f	0.031455394
126	0xbdd5a614	-0.104320675
127	0x3e05036d	0.12989588
128	0xbcab3343	-0.020898467
129	0xbcfc8913	-0.03082708
130	0xbd783bad	-0.060603786
131	0xbd1573b0	-0.03648728
132	0x3d235806	0.039878868
133	0x3e188649	0.14894976
134	0x3dee3202	0.11630632
135	0x3e0b1f33	0.1358612
136	0x3dd59d54	0.104303986
137	0x3dfd8780	0.1237936
138	0x3d6c4cc6	0.057690404
139	0xbdbd01fb	-0.09228893
140	0x3d125a1a	0.03573046
141	0x3beb4bcb	0.007180666
142	0x3b8bec24	0.0042700935
143	0x3c6aaaaf	0.014322921
144	0x3cddcb8c	0.027074598
145	0x3d5622f2	0.05227942
146	0x3da7458f	0.08167564
147	0x3d90e0e9	0.07074148
148	0xbdb96c41	-0.09053851
149	0xbbdac130	-0.006675862
150	0xbd553b40	-0.05205846
151	0xbd096b0c	-0.033549353
152	0xbd0576b2	-0.0325839
153	0x3e44a6e1	0.19204284
154	0x3e997043	0.2996846
155	0x3e709892	0.23495701
156	0xbcc6c6eb	-0.024264773
157	0xbc8b04fb	-0.016970148
158	0x3e3d8467	0.18507539
159	0xbe00ad0e	-0.12566015
160	0xbe829247	-0.25502226
161	0xbe9d5b17	-0.3073356
162	0x3a32133b	0.00067930267
163	0xbd806820	-0.0626986
164	0xbdc738cf	-0.09727632
165	0x3d93236f	0.07184493
166	0x3d81bec0	0.06335211
167	0x3c8fe199	0.017563628
168	0xbc99fe58	-0.018798038
169	0xbca6fbc5	-0.020383725
170	0x3cadadc1	0.021201016
171	0x3dd10c64	0.102074414
172	0x3d983c2e	0.07433353
173	0xbd99a21a	-0.075016215
174	0xbd6f1387	-0.058368232
175	0x3d725164	0.05915965
176	0xbcdfc8c5	-0.027317414
177	0xbd016fbf	-0.03160071
178	0x3cbe9ff6	0.023269635
179	0xbd66ec57	-0.056377735
180	0x3d0025da	0.031286098
181	0x3d88f8e0	0.06688094
182	0x3dcc1e95	0.099667706
183	0x3d061a16	0.03273972
184	0xbdc8319d	-0.09775088
185	0xbe423e3d	-0.18969055
186	0xbe437bc3	-0.1909018
187	0x3d975542	0.073893085
188	0x3d937fbb	0.07202097
189	0x3c8393cd	0.016061688
190	0xbe41d498	-0.18928754
191	0x3dd082ba	0.10181184
192	0xbe8deeea	-0.2772134
193	0xbe9c0524	-0.30472672
194	0x3df0f1f1	0.11764897
195	0xbe9fe55b	-0.31229672
196	0xbe1c98d8	-0.1529268
197	0xbe53a7f9	-0.20669545
198	0x3dcbb06f	0.099457614
199	0x3e68dc55	0.227403
200	0x3b654d1d	0.003498859
201	0xbe4f4d56	-0.20244345
202	0x3bc990c5	0.006151291
203	0x3dc3d002	0.09561159
204	0xbe593551	-0.21211745
205	0xbd95682d	-0.072952606
206	0xbd93149b	-0.071816646
207	0xbcc53f9b	-0.024078181
208	0xbdc6ffee	-0.097167835
209	0x3d31d446	0.04341533
210	0xbccfff4c	-0.02539029
211	0xbdded2cf	-0.10880052
212	0x3ccf71fd	0.025322909
213	0xbd84ba6f	-0.06480872
214	0xbdec0589	-0.11524493
215	0xbc8897fc	-0.016674034
216	0x3e209718	0.15682638
217	0x3df51479	0.119667955
218	0x3d607545	0.054799337
219	0xbd452506	-0.04813101
220	0x3dfd8d12	0.12380423
221	0x3e28267b	0.16420929
222	0x3d2be907	0.04197028
223	0xbbfdee46	-0.0077493517
224	0x3e79e0f9	0.24402227
225	0xbe1e47d7	-0.15457092
226	0x3e0dba88	0.13840687
227	0x3e80bfaf	0.25146243
228	0x3c690538	0.014222436
229	0x3d9166a4	0.07099655
230	0x3da02655	0.07819811
231	0x3da5ac95	0.08089558
232	0xbcd1ca33	-0.025609111
233	0xb9dfa1b8	-0.00042654364
234	0x3c23fb58	0.0100086555
235	0x3da1bebd	0.078977086
236	0xbd7dc71d	-0.061957467
237	0x3b620540	0.0034487993
238	0x3d933351	0.07187522
239	0x3dbea72f	0.093092315
240	0x3db41297	0.08792608
241	0xbc7565b8	-0.014977865
242	0x3c947714	0.018123187
243	0x3e18b708	0.14913571
244	0x3dd6b568	0.10483819
245	0x3bc52715	0.006016622
246	0xbd0309f9	-0.031991933
247	0x3e28f4f6	0.16499695
248	0x3eb42806	0.35186785
249	0xbe9d6d73	-0.30747566
250	0xbdca3256	-0.09872882
251	0x3ee50087	0.44726965
252	0x3d381ce8	0.044949442
253	0x3cff6d7e	0.03118014
254	0xbd36fa55	-0.04467233
255	0xbd4c1cb4	-0.04983206

conv_block_1.2.bias f4 [10]
0	0x3e986602	0.29765326
1	0x3e5ef146	0.21771726
2	0x3e978563	0.29593953
3	0x3e07afbf	0.13250636
4	0xbdd66c65	-0.10469893
5	0xbccb505e	-0.024818595
6	0x3e07bfd0	0.13256764
7	0xbe112603	-0.14174657
8	0xbdc9e70e	-0.09858523
9	0xbdc1b6ca	-0.09458692

conv_block_2.0.weight f4 [10, 10, 3, 3]
0	0xbe8f0cda	-0.27939492
1	0xbe16c984	-0.1472531
2	0x3ed1ef54	0.41002905
3	0xbe132dbe	-0.14372918
4	0xbde4b514	-0.111673504
5	0x3d4ae942	0.04953886
6	0x3e550a73	0.20804767
7	0xbde1ff9e	-0.11035083
8	0xbe51d642	-0.20491889
9	0xbd8436ac	-0.0645574
10	0xbc37627d	-0.011192915
11	0x3c9d032b	0.01916655
12	0xbdb01e35	-0.085995115
13	0xbd9a0b67	-0.07521706
14	0x3e0619fc	0.1309585
15	0xbbd25c75	-0.006419713
16	0xbe2ac219	-0.16675605
17	0xbe0d3be3	-0.13792376
18	0xbdfc4fbd	-0.12319896
19	0xbd5690e7	-0.052384283
20	0x3e9168d6	0.28400296
21	0xbe6c13cb	-0.23054425
22	0xbe4cf7d7	-0.20016418
23	0x3e836317	0.25661537
24	0x3d93000b	0.071777426
25	0xbd6133a3	-0.054980885
26	0xbd5a4ee5	-0.053297896
27	0xbd20b0a9	-0.039230976
28	0x3ba30b5b	0.004975719
29	0x3bc9d9fd	0.0061600194
30	0x3df7ae43	0.12093785
31	0x3cc33230	0.023827642
32	0xbe00b3b6	-0.12568554
33	0xbd5610ed	-0.052262235
34	0xbd0912b5	-0.033465106
35	0x3d2d17e7	0.042259123
36	0xbd0de2fd	-0.0346403
37	0x3c423f4a	0.01185591
38	0x3c08d866	0.008352375
39	0x3d687c54	0.056759194
40	0x3dcbbb97	0.09947889
41	0x3d69941c	0.057026014
42	0x3daec32f	0.08533322
43	0x3d1f3a73	0.0388741
44	0x3d048f24	0.032363072
45	0xbdacd28e	-0.084385976
46	0x39e43f4b	0.00043534706
47	0xbd883773	-0.06651201
48	0xbdd73c47	-0.10509544
49	0x3d2fc4e4	0.04291238
50	0xbaebc595	-0.0017987961
51	0xbd0eb5c3	-0.03484131
52	0xbbef7151	-0.0073072095
53	0xbd805099	-0.06265373
54	0xbc880259	-0.016602682
55	0x3ba36000	0.0049858093
56	0x3e2d1fa9	0.16906609
57	0xbd4ae7c7	-0.049537446
58	0x3d47c420	0.048771024
59	0x3e2fdbd1	0.17173697
60	0x3c25b0b6	0.010112932
61	0x3d2e4f0c	0.042555854
62	0xbd6a7c21	-0.057247285
63	0x3d4400b8	0.047852248
64	0xbdf29e71	-0.118466265
65	0xbd59ba18	-0.05315599
66	0x3dfc6cc1	0.12325431
67	0x3dd8c67a	0.105847314
68	0x3da3a1a3	0.07989814
69	0xbda1481c	-0.07875082
70	0x3de88a4f	0.11354505
71	0x3e23ac10	0.15983605
72	0xbd879f4a	-0.06622179
73	0xbe194063	-0.14965968
74	0x3d5b47b3	0.053535175
75	0xbd7f8b24	-0.062388554
76	0xbcaaf7b8	-0.020870075
77	0xbddcdcd6	-0.107843086
78	0x3dd828f9	0.1055469
79	0xbc2b006e	-0.010437114
80	0xbda5e00e	-0.08099376
81	0xbd429017	-0.047500696
82	0xbd926027	-0.07147246
83	0x3dd280f2	0.102785006
84	0x3c63091d	0.013857153
85	0x3d9844a6	0.07434969
86	0xbbc5b5b5	-0.006033624
87	0x3d4a468a	0.049383678
88	0xbda79c1c	-0.081840724
89	0x3dade352	0.084906235
90	0xbe4536b7	-0.19259153
91	0xbd58dba9	-0.05294386
92	0x3dd3e4c1	0.10346366
93	0xbecaea4d	-0.39631882
94	0xbeaa781d	-0.33294764
95	0x3d2e3618	0.042532057
96	0x3c69fb02	0.014281036
97	0x3e7e64c4	0.24843127
98	0x3e845c5d	0.25851718
99	0xbd955cbb	-0.072930776
100	0x3e002e9c	0.1251778
101	0x3e658fbf	0.22418116
102	0xbe2fafe7	-0.17156945
103	0xbe467780	-0.19381523
104	0xbd72b4d5	-0.059254486
105	0xbdbdfe0b	-0.092769705
106	0x3da955fd	0.08268354
107	0x3c102765	0.008798455
108	0xbe4209e2	-0.18949082
109	0x3e8f65f4	0.28007472
110	0x3eec3ef1	0.4614177
111	0xbe4535e9	-0.19258846
112	0xbe680463	-0.22657923
113	0xbda99ed3	-0.082822464
114	0xbdb0ecee	-0.08638941
115	0x3e31d9b2	0.173682
116	0x3e51ea31	0.20499493
117	0xbd476151	-0.048676793
118	0x3d94863b	0.07252165
119	0x3ca3b282	0.01998258
120	0x3d60fbe2	0.054927714
121	0x3cb7c7ab	0.022434076
122	0xbdd5b3da	-0.104346946
123	0x3dddfed2	0.10839619
124	0x3dc22a99	0.09480781
125	0xbe58a01a	-0.21154824
126	0xbc64e486	-0.0139705
127	0x3d359ad9	0.044337127
128	0xbd0c6a2d	-0.034280945
129	0xbce523c7	-0.027971162
130	0xbdd1b73e	-0.10240029
131	0xbdaeb4a1	-0.08530546
132	0x3dd0c825	0.101944245
133	0x3b953043	0.0045528724
134	0x3d3333ef	0.0437507
135	0xbcf1b2c8	-0.029504195
136	0xbdef6094	-0.11688343
137	0x3dbf7877	0.09349149
138	0x3dae4251	0.085087426
139	0x3dc9ece9	0.0985964
140	0x3db4e1f9	0.08832163
141	0x3d200330	0.03906554
142	0xbbeb408e	-0.0071793264
143	0x3dcf8879	0.10133452
144	0xbd5f95d7	-0.054586258
145	0x3e245e60	0.16051626
146	0x3e20f7f7	0.15719591
147	0xbd86fa20	-0.06590676
148	0xbe26f7ec	-0.16305512
149	0xbcabd8c9	-0.020977395
150	0xbb9c4822	-0.004769341
151	0x3d7b8278	0.06140372
152	0x3de03078	0.10946745
153	0x3d8004ab	0.0625089
154	0x3d530e50	0.05152732
155	0xbd61a484	-0.055088535
156	0x3db8e7c5	0.090285815
157	0x3ce238c6	0.027614962
158	0xbd9ab221	-0.07553507
159	0x3de2a35f	0.11066317
160	0xbd2ca7eb	-0.042152327
161	0x3d15430f	0.036440905
162	0xbe12950d	-0.14314671
163	0xbd650549	-0.055913243
164	0x3c79227a	0.015205974
165	0xbd271b21	-0.040797357
166	0xbe01ba81	-0.12668802
167	0xbe0f80d1	-0.14013983
168	0xbd25996e	-0.040429525
169	0xbbc5dc2e	-0.0060382104
170	0x3d9ceda3	0.07662513
171	0x3dcffd37	0.10155719
172	0x3d337f75	0.043822724
173	0xbdc45388	-0.09586245
174	0xbc159839	-0.009130531
175	0xbd7e647f	-0.06210756
176	0x3dcfd22c	0.10147509
177	0x3d6854ec	0.056721613
178	0xbc77b8b4	-0.01511972
179	0xbb9d979d	-0.0048093335
180	0xbe33b51d	-0.17549558
181	0xbd97db45	-0.07414869
182	0xbcb74c3a	-0.022375215
183	0x3b14f5cb	0.0022729512
184	0x3daa1117	0.08304041
185	0x3e6ef45e	0.23335406
186	0xbde74a32	-0.112934485
187	0xbcb37bd1	-0.021909626
188	0x3f1a5971	0.60292727
189	0x3db56e4a	0.088589266
190	0xbd38be27	-0.04510322
191	0xbdc3edcc	-0.095668405
192	0x3e5e8a73	0.21732502
193	0x3d9a1cbb	0.07525011
194	0x3e0e1dd8	0.13878572
195	0x3db90973	0.090350054
196	0xbe8f9f52	-0.2805124
197	0xbd3505be	-0.04419493
198	0xbe311025	-0.17291315
199	0x3e7e8e74	0.24859029
200	0x3ea05921	0.31318
201	0xbe081f74	-0.13293248
202	0x3ca5a137	0.020218475
203	0x3eea3c25	0.45749012
204	0x3dc478ce	0.09593354
205	0xbeaa91fc	-0.33314502
206	0xbe616631	-0.22011639
207	0x3e17a993	0.14810781
208	0xbe8e2382	-0.27761465
209	0xbe9fc8b8	-0.31207824
210	0x3e541e1e	0.20714614
211	0x3d22b3a0	0.039722085
212	0xbedfb586	-0.4369318
213	0x3ea084e1	0.3135138
214	0x3e84e26f	0.25954005
215	0xbe531357	-0.20612846
216	0xbc679a0a	-0.014135847
217	0xbd572f1c	-0.05253516
218	0xbd1b6162	-0.03793467
219	0xbcb079c5	-0.02154244
220	0x3db1eb88	0.08687502
221	0xbdc7d50e	-0.09757434
222	0x3d0ce91f	0.03440201
223	0x3b6b3b9e	0.003589369
224	0xbd0cbc90	-0.034359515
225	0x3ca129ba	0.019673217
226	0xbc8cc9df	-0.017186103
227	0xbe01e559	-0.12685145
228	0x3d5a5e2f	0.053312477
229	0xbcae9c9c	-0.021314912
230	0x3d4273e6	0.04747381
231	0xbc887adf	-0.016660152
232	0xbdac96c0	-0.08427191
233	0x3e0db0e6	0.13837013
234	0x3d8e071b	0.06934949
235	0x3dd0e6c6	0.102002665
236	0x3d4fe89b	0.05075894
237	0xbe26e08a	-0.16296592
238	0xbb1101a2	-0.0022126217
239	0x3e361d2a	0.17784563
240	0xbbe12f97	-0.006872128
241	0xbdb44f64	-0.08804205
242	0xbdb3ee5f	-0.087857
243	0x3dd62d48	0.104578555
244	0xbcc8ca92	-0.024510656
245	0xbdbb31a7	-0.0914033
246	0x3d5178a5	0.051140446
247	0x3d4ba7bc	0.04972051
248	0xbe9c7c71	-0.3056369
249	0xbd88e82b	-0.066849075
250	0xbc032f48	-0.008006878
251	0xbe4806f5	-0.19533904
252	0xbcb78e19	-0.022406625
253	0xbd83dcca	-0.064385965
254	0x3e8dab57	0.27669784
255	0x3d7856b7	0.060629573

conv_block_2.0.bias f4 [10]
0	0xbd36e707	-0.04465392
1	0xbe4d77cd	-0.20065232
2	0xbe1d3f06	-0.15356073
3	0xbe84a5fe	-0.25907892
4	0x3ec867a6	0.39141577
5	0x3de7846d	0.11304555
6	0x3e832cc0	0.2562008
7	0x3e87200c	0.26391637
8	0x3e89d8f9	0.2692335
9	0x3b8d3f58	0.0043105297

conv_block_2.2.weight f4 [10, 10, 3, 3]
0	0xbd38ea15	-0.045145113
1	0xbd922a3e	-0.07136963
2	0xbd5697b6	-0.052390777
3	0xbe32532e	-0.17414543
4	0xbcfd3eb5	-0.03091369
5	0xbd9753a9	-0.07389004
6	0x3cee4922	0.029087607
7	0x3b88f15b	0.0041791624
8	0xbd3ab59d	-0.045583356
9	0x3d2f0a2c	0.04273431
10	0x3d91f4cd	0.0712677
11	0xbdff4496	-0.124642536
12	0x3cc96460	0.024583995
13	0xbe1499ad	-0.14511748
14	0xbda9ca80	-0.08290577
15	0xbda3d2af	-0.07999169
16	0xbe8095f4	-0.25114405
17	0xbb536a6b	-0.0032259475
18	0xbd9dc22a	-0.077030495
19	0x3d0ff6d7	0.035147514
20	0xbe53a845	-0.20669658
21	0xbd706a65	-0.058695216
22	0xbea67805	-0.32513443
23	0xbdb86124	-0.09002903
24	0xbe35edac	-0.17766446
25	0xbef7263b	-0.48271355
26	0xbe52b99a	-0.20578614
27	0xbed0821b	-0.40724263
28	0xbe25bd6a	-0.16185537
29	0x3d98b658	0.07456654
30	0xbe719b83	-0.2359448
31	0xbe4d6736	-0.20058903
32	0x3e1558d5	0.14584668
33	0x3d71334d	0.058886815
34	0x3e8a0b5a	0.26961786
35	0xbc95c6b5	-0.018283227
36	0xbe2ddfe8	-0.16979945
37	0xbdd4221e	-0.1035807
38	0xbe03cc89	-0.12870993
39	0xbe40d329	-0.18830551
40	0xbe47104f	-0.19439815
41	0xbe3b35be	-0.1828222
42	0xbe706106	-0.23474512
43	0xbe28beca	-0.1647903
44	0xbb98bfc4	-0.004661532
45	0x3dc27894	0.09495655
46	0x3e8c5e53	0.27415714
47	0xbf0292e7	-0.51005405
48	0x3ef24a48	0.47322297
49	0xbe956d27	-0.2918484
50	0xbe4ff902	-0.20309833
51	0x3da41d81	0.0801344
52	0xbeb8b981	-0.36079028
53	0xbea8b4ef	-0.3295054
54	0xbea2518c	-0.3170284
55	0xbe92e487	-0.28689978
56	0xbc3df13c	-0.011593159
57	0xbee0b6eb	-0.43889555
58	0xbd0a72b3	-0.033800792
59	0x3e688959	0.22708644
60	0xbeda2440	-0.42605782
61	0xbe53943e	-0.20662019
62	0x3dbee615	0.093212284
63	0x3df87f0a	0.12133606
64	0xbd7b4ec4	-0.061354414
65	0xbdda5840	-0.106613636
66	0x3dc839b4	0.09776631
67	0xbe327321	-0.1742673
68	0xbe160a50	-0.14652371
69	0xbe41117e	-0.18854329
70	0xbe5fb9ca	-0.21848217
71	0xbd238abe	-0.039927237
72	0xbe7bda8a	-0.24595085
73	0xbe462e0d	-0.19353504
74	0x3d91f514	0.07126823
75	0xbe319174	-0.17340642
76	0xbdc1ceae	-0.09463249
77	0x3ede4f47	0.4341986
78	0xbe98ae93	-0.2982069
79	0xbd6d511d	-0.057938684
80	0x3daf3750	0.08555472
81	0x3c6d2815	0.014474888
82	0x3d2362b9	0.03988907
83	0xbda5b94f	-0.080919854
84	0x3dfd96c9	0.123822756
85	0x3e376de1	0.17913009
86	0xbe0461d6	-0.12927946
87	0xbdce4100	-0.100709915
88	0x3d44256a	0.047887243
89	0xbe362c5e	-0.17790362
90	0x3e3e5a78	0.18589199
91	0x3d1642d0	0.03668481
92	0x3a34a054	0.0006890346
93	0xbde9752d	-0.11399303
94	0x3dfd3d69	0.12365229
95	0x3b893a1e	0.0041878363
96	0xbdd0c4aa	-0.10193761
97	0x3d7a9976	0.061181508
98	0xbd082bc8	-0.033244878
99	0xbdd7abe5	-0.10530833
100	0xbd811aa1	-0.06303907
101	0xbd6e01ac	-0.058107063
102	0x3e24951a	0.16072503
103	0x3e9e999b	0.30976567
104	0x3d7afcda	0.061276294
105	0xbe50a8b9	-0.20376863
106	0x3d80bbd1	0.06285823
107	0x3e81efa0	0.25378132
108	0x3e34148b	0.17585962
109	0x3edf0820	0.43560886
110	0xbd9c3ff4	-0.076293856
111	0xbe6ff21d	-0.23432203
112	0xbd587b3b	-0.052851897
113	0x3e73803b	0.23779385
114	0xbe9b0633	-0.30278167
115	0xbe7d24c3	-0.24721055
116	0xbe93d4e3	-0.28873357
117	0xbdbf6fbf	-0.09347486
118	0xbe3c54cb	-0.18391721
119	0xbcae8879	-0.02130531
120	0xbe8cd44f	-0.2750573
121	0xbe9ca305	-0.30593124
122	0x3dd4176b	0.10356029
123	0x3e0be643	0.13662057
124	0x3de7563d	0.112957455
125	0x3e05b863	0.13058619
126	0x3dff3bea	0.124625996
127	0x3e5049cb	0.2034065
128	0xbe8ede28	-0.27903867
129	0xbe59c7e4	-0.21267658
130	0xbd85a013	-0.06524672
131	0x3bd9529e	0.006632163
132	0xbe1f9064	-0.15582424
133	0xbe8b9cab	-0.27267966
134	0xbdb6787a	-0.08909698
135	0xbf26855a	-0.6504723
136	0xbefecaed	-0.49764195
137	0xbd5b6ecc	-0.05357246
138	0xbdd78430	-0.1052326
139	0xbec75164	-0.38929284
140	0xbeaedc24	-0.3415233
141	0x3e295da0	0.16539621
142	0x3d82a434	0.063789755
143	0x3cc7ff2f	0.024413673
144	0x3eb212e4	0.34780037
145	0x3e235799	0.15951385
146	0xbe92c502	-0.2866593
147	0xbe4b8aeb	-0.19877212
148	0xbd4be56e	-0.049779348
149	0x3d6e41fa	0.05816839
150	0xbee16f5a	-0.44030267
151	0xbe8d9cf5	-0.2765881
152	0xbd973aaf	-0.0738424
153	0xba1a6d66	-0.00058909354
154	0x3eea2d3b	0.45737633
155	0xbc77efe9	-0.015132883
156	0xbe69852c	-0.22804707
157	0x3e48e098	0.19616926
158	0x3e40b051	0.1881726
159	0xbe8a2dcb	-0.26988062
160	0xbe683973	-0.22678165
161	0xbe29bd70	-0.16576171
162	0xbeb34471	-0.35013154
163	0xbebc85f9	-0.36820963
164	0xbe9f3c00	-0.31100464
165	0xbe8ebb3d	-0.27877226
166	0xbe17f316	-0.14838824
167	0x3e550417	0.20802341
168	0xbe7ade2b	-0.24498813
169	0xbd3c83e0	-0.046024203
170	0x3d859f23	0.065244935
171	0xbe6a953b	-0.2290849
172	0xbe783def	-0.24242376
173	0xbe8acad8	-0.27107882
174	0xbe3910a4	-0.18072754
175	0x3e81c6b7	0.2534692
176	0xbd4d8902	-0.05017949
177	0x3e657e03	0.22411351
178	0x3e38f766	0.18063125
179	0x3debd78c	0.11515722
180	0x3e9c9505	0.30582443
181	0x3ed6aa86	0.41926974
182	0x3dc78509	0.09742171
183	0x3e1455be	0.14485833
184	0x3e344377	0.17603861
185	0xbe8a33bf	-0.26992604
186	0xbdf4dc57	-0.11956089
187	0xbdc03114	-0.09384361
188	0xbe0185ff	-0.12648772
189	0x3dec892d	0.11549602
190	0xbd846303	-0.064641975
191	0x388b033e	6.6286404e-05
192	0xbd929a4c	-0.07158336
193	0x3e92e5e0	0.28691006
194	0x3d81ff75	0.06347553
195	0xbe3bcd79	-0.183401
196	0xbdc16240	-0.09442568
197	0xbdfbc0b1	-0.12292612
198	0xbe2aa4e6	-0.16664466
199	0x3e0e88d8	0.13919389
200	0xbcdc1b7d	-0.026868576
201	0xbe3b5bf4	-0.18296796
202	0xbddbe3b9	-0.10736794
203	0xbdf916c3	-0.121625446
204	0xbe0d816b	-0.138189
205	0xbe3048c3	-0.17215256
206	0xbea5785e	-0.32318395
207	0xbe15c68e	-0.14626524
208	0xbd32e216	-0.043672644
209	0xbdbf961c	-0.09354803
210	0xbebcbf46	-0.3686468
211	0xbeb53df5	-0.35398832
212	0x3ce446ef	0.027865855
213	0x3dad9e5f	0.084774725
214	0x3e066269	0.13123478
215	0x3d389518	0.045064062
216	0x3ea9c5b0	0.33158636
217	0x3ee015b0	0.43766546
218	0x3e3a47a2	0.18191388
219	0x3dce3a82	0.10069753
220	0x3e05c0d4	0.1306184
221	0xbdfe12ae	-0.124059066
222	0xbe7c3c8e	-0.24632475
223	0xbdf272c6	-0.118382975
224	0xbe0cfef4	-0.13769132
225	0xbf023836	-0.5086702
226	0xbeed5de1	-0.46360686
227	0xbec2f99b	-0.3808106
228	0x3f43f684	0.7654803
229	0xbcc1f638	-0.023676977
230	0xbf05ef76	-0.52318513
231	0x3e8e9255	0.27846017
232	0x3e86f309	0.26357296
233	0x3e586627	0.21132718
234	0xbe380825	-0.17971857
235	0xbd26eb3e	-0.04075169
236	0x3ea0841c	0.3135079
237	0xbc31ac53	-0.010844308
238	0x3cb18a77	0.02167247
239	0xbdb4057a	-0.08790107
240	0xbe7eed62	-0.24895242
241	0xbe287145	-0.16449459
242	0xbe895a74	-0.26826823
243	0x3db7e27d	0.08978746
244	0x3ea4c60d	0.3218235
245	0x3e165cc2	0.14683822
246	0xbe821d86	-0.2541315
247	0xbc54338c	-0.012951743
248	0xbcc31524	-0.023813792
249	0xbc9c83ff	-0.01910591
250	0xbe402edb	-0.18767874
251	0xbe5c1fed	-0.21496554
252	0xbe9b7054	-0.30359137
253	0xbd6a22de	-0.05716216
254	0x3efdd836	0.49579018
255	0x3c48b4e8	0.012250163

conv_block_2.2.bias f4 [10]
0	0xbd2d7bdc	-0.04235445
1	0x3e15d0fa	0.146305
2	0xbe389987	-0.18027316
3	0x3e646e39	0.22307672
4	0x3e072687	0.13198291
5	0xbd9d572f	-0.076826446
6	0x3e4bb5b8	0.19893539
7	0xbcd831a9	-0.026390867
8	0x3da41db5	0.08013479
9	0xbe0f4a59	-0.13993205

classifier.1.weight f4 [10, 490]
0	0xbcbe3efc	-0.023223393
1	0xbd7faeac	-0.06242244
2	0xbda1b3c6	-0.07895617
3	0xbda4a312	-0.08038916
4	0xbe4f19e5	-0.20224722
5	0xbd819739	-0.063276716
6	0xbc699602	-0.014256956
7	0xbbf9c3da	-0.0076222243
8	0xbde65165	-0.112459935
9	0xbd403b6c	-0.04693167
10	0xbe0ded11	-0.13859965
11	0xbe6837fc	-0.22677606
12	0xbda8006e	-0.08203207
13	0x3883d8e7	6.286968e-05
14	0xbc50c16a	-0.012741426
15	0x3d9aef28	0.07565147
16	0xbd0d9121	-0.034562234
17	0x3d304e2a	0.043043293
18	0xbe9616b0	-0.29314184
19	0xbbc2eab0	-0.005948387
20	0x3d9d84bb	0.07691332
21	0xbc9e8bbc	-0.01935374
22	0x3e09eb11	0.13468577
23	0x3e8c41ac	0.27393854
24	0xbe3c0b92	-0.18363789
25	0xbcd1e6e3	-0.02562279
26	0x3d558071	0.052124444
27	0x3d43c573	0.047795724
28	0x3ca21992	0.019787584
29	0x3e95032f	0.2910399
30	0x3d42695d	0.047463764
31	0xbc1e25c3	-0.009652558
32	0x3e809622	0.25114542
33	0x3de33016	0.11093156
34	0x3bc84e1d	0.0061128275
35	0xbce29d4f	-0.027662901
36	0xbc89b026	-0.016807627
37	0xbea0bec2	-0.31395537
38	0xbae0e3f5	-0.001715778
39	0x3dfac45c	0.12244484
40	0x3d39cdeb	0.045362394
41	0x3c8e7041	0.017387511
42	0xbd0f6cd5	-0.0350159
43	0xbd603fa7	-0.054748204
44	0xbde394a5	-0.11112336
45	0xbdc0f9f4	-0.09422675
46	0xbdb2260b	-0.08698662
47	0xbca0fd0e	-0.019651916
48	0xbcd19161	-0.025582017
49	0xbd09de5f	-0.033659335
50	0x3cad48fd	0.021152968
51	0xbd8b507f	-0.06802463
52	0x3cf750ef	0.03018996
53	0x3c831116	0.015999358
54	0x3d35ea01	0.044412617
55	0x3bbc80ce	0.0057526594
56	0xbd179dc1	-0.03701568
57	0xbc96de1f	-0.018416462
58	0xbb9109a4	-0.004426198
59	0xbc2ecfdb	-0.010669674
60	0x3cf2306e	0.029564109
61	0x3d0730ff	0.03300571
62	0x3d84da96	0.064870045
63	0xbd0c03ab	-0.034183186
64	0xbe3839d3	-0.17990808
65	0xbe2e5e5f	-0.17028187
66	0xbda965f4	-0.08271399
67	0xbe4176f6	-0.18893036
68	0x3e06f841	0.13180639
69	0xbcd8c8e3	-0.026462978
70	0xbdd4eaea	-0.10396369
71	0xbe8b10d8	-0.27161288
72	0xbe6156c9	-0.22005762
73	0x3e7d3986	0.24728975
74	0x3e53eb6a	0.20695272
75	0x3e4814b3	0.19539146
76	0xbd8c1b8a	-0.0684119
77	0xbc1386fa	-0.009004349
78	0xbe4db60b	-0.20088975
79	0xbe9dd4ec	-0.3082651
80	0x3e40ce26	0.1882864
81	0x3e39e1e9	0.18152584
82	0x3e46be0d	0.19408436
83	0xbcdf409f	-0.027252493
84	0x3d067644	0.03282763
85	0xbd441dbd	-0.047879923
86	0x3d34e695	0.044165213
87	0xbd8bdc7d	-0.06829164
88	0x3d3b2a2f	0.045694526
89	0xbae678f0	-0.001758365
90	0xbd2ad178	-0.04170367
91	0x3e36db23	0.17857032
92	0x3e34448c	0.17604274
93	0x3e8767bf	0.2644634
94	0xbe724bbc	-0.23661703
95	0xbe108adf	-0.14115475
96	0xbd800d54	-0.06252542
97	0xbd1a2a17	-0.037637796
98	0xbc5aabb7	-0.013346604
99	0x3cb4af0a	0.022056121
100	0x3c03a8b0	0.008035824
101	0x3dcd6997	0.10029905
102	0x3e2e5454	0.17024356
103	0x3e08db63	0.1336494
104	0xbb4131f1	-0.002947923
105	0xbca03643	-0.019557124
106	0x3e2ebfcd	0.17065354
107	0xbd240ea4	-0.040053025
108	0x3dbb9759	0.09159727
109	0xbd36bd89	-0.04461435
110	0xbc8fd3e1	-0.017557086
111	0x3be9f1be	0.0071394136
112	0x3d0c234b	0.034213345
113	0xbe139697	-0.14412914
114	0xbe3d30e2	-0.18475679
115	0xbe17932e	-0.14802238
116	0x3cd38cf5	0.02582405
117	0xbcb7d865	-0.022442052
118	0xbcffa571	-0.031206818
119	0xbe3ab6b7	-0.18233763
120	0xbf0270fe	-0.5095366
121	0xbeae49a9	-0.34040573
122	0xbd8c00a2	-0.06836058
123	0xbd26f2cc	-0.040758893
124	0xbd55c56f	-0.05219024
125	0xbdb587eb	-0.08863815
126	0xbe2fa030	-0.1715095
127	0xbf168575	-0.5879739
128	0xbe9610f8	-0.2930982
129	0x3e637f7b	0.22216599
130	0x3e963a9f	0.293416
131	0x3d05b0a4	0.03263916
132	0x3d22f074	0.039780095
133	0xbb3c9ce1	-0.002878003
134	0xbdc6b579	-0.09702582
135	0x3dbb665e	0.09150384
136	0x3e1bac53	0.15202455
137	0x3e4209c3	0.18949036
138	0x3dc2d89e	0.09513973
139	0x3c421e0a	0.011847982
140	0x3dfad8cf	0.12248384
141	0x3dd9ab5a	0.10628386
142	0x3e18d5b1	0.14925267
143	0xbdf42505	-0.119211234
144	0xbe440e32	-0.1914604
145	0xbc9c1004	-0.019050606
146	0xbd286586	-0.041112445
147	0xbd189d42	-0.037259348
148	0xbdc24615	-0.09486023
149	0xbc7902d6	-0.01519843
150	0xbd3ae29c	-0.045626268
151	0x3d6821ba	0.05667279
152	0xbc93195a	-0.017956425
153	0xbd3a9a0c	-0.045557067
154	0x3be90567	0.0071112397
155	0xbcfe3156	-0.031029385
156	0xbd332783	-0.043738853
157	0x3d8ebcda	0.06969614
158	0x3e4e5112	0.20148113
159	0x3e843163	0.2581893
160	0x3c0370aa	0.008022467
161	0xbc793c38	-0.015212111
162	0xbd217ebd	-0.039427508
163	0x3d10229f	0.035189267
164	0x3c94ff81	0.01818824
165	0x3d93cb8e	0.07216559
166	0x3e01a602	0.12660983
167	0xbc44677c	-0.011987563
168	0xbc03a93f	-0.008035957
169	0xbd2130cb	-0.039353173
170	0xba7cbd64	-0.00096412585
171	0xbe00a07a	-0.12561217
172	0xbea9da86	-0.33174533
173	0xbd46d04a	-0.048538484
174	0x3d067ca8	0.032833725
175	0xbcad2618	-0.021136329
176	0x3d6a5c4f	0.05721694
177	0x3e83521e	0.25648588
178	0x3cc06fa1	0.023490729
179	0xbe9b4dd8	-0.30332828
180	0xbe3a0ea9	-0.18169655
181	0xbd216298	-0.039400667
182	0xbcc1425a	-0.02359121
183	0x3dd57195	0.10422055
184	0x3daba89c	0.08381769
185	0xbdf752ab	-0.120763145
186	0xbe43be68	-0.19115603
187	0xbe3463a5	-0.17616136
188	0xbd404a45	-0.04694583
189	0x3d0dfa78	0.034662694
190	0x3d2acaae	0.041697197
191	0x3dbfde02	0.093685165
192	0x3a143bb8	0.0005654651
193	0x3be0d64e	0.0068614846
194	0xbd4c8f56	-0.049941383
195	0xbd146e54	-0.03623803
196	0xbc7ed4ee	-0.015553696
197	0x3d09460a	0.03351406
198	0xbb827c9b	-0.0039821393
199	0xbc82d0a2	-0.015968625
200	0x3c90edfa	0.017691601
201	0x3c01649c	0.007897522
202	0xbc4cea04	-0.012506966
203	0xbc1b896f	-0.009493216
204	0xbd24078f	-0.04004627
205	0xbd68ba6e	-0.05681842
206	0x3e22b884	0.158907
207	0xbd90c78c	-0.070693105
208	0xbe8f351a	-0.279702
209	0xbcb87c98	-0.022520348
210	0xbbe35ef5	-0.00693881
211	0xbe3c5f20	-0.18395662
212	0xbd45599c	-0.04818116
213	0x3d1dd0a3	0.03852905
214	0xbd455e1a	-0.048185445
215	0xbe919fe3	-0.28442296
216	0x3d9dcb3b	0.07704779
217	0xbd111116	-0.035416685
218	0xbe3eae54	-0.18621188
219	0xbcf6ce01	-0.030127527
220	0xbe1ac19f	-0.15112923
221	0xbdef0a25	-0.11671857
222	0xbdc03cce	-0.093865976
223	0x3c66e476	0.014092555
224	0x3cc043ae	0.023469772
225	0x3de86fad	0.113494255
226	0x3ded2899	0.11580009
227	0x3df952b5	0.12173978
228	0x3d38a5e3	0.045080077
229	0x3e09a072	0.13440111
230	0x3dc005bc	0.09376094
231	0x3d29e1ee	0.04147523
232	0x3e2e6c09	0.170334
233	0x3e8b9de7	0.27268907
234	0x3e31a61b	0.1734852
235	0xbdc4d553	-0.09611001
236	0x3b9d506e	0.0048008477
237	0xbd42af47	-0.04753044
238	0xbd622240	-0.055208445
239	0x3cf0929c	0.029366784
240	0xbb97c6cb	-0.0046318523
241	0x3d48101f	0.0488435
242	0xbdd79019	-0.10525531
243	0xbe006fa5	-0.12542589
244	0x3cb1c98b	0.021702548
245	0xbd30ca94	-0.043161944
246	0xbd047a32	-0.032343097
247	0x3c4e86e9	0.012605407
248	0xbc36b6be	-0.011151968
249	0xbcf37353	-0.029718077
250	0x3c1a3749	0.009412595
251	0xbd0e02f9	-0.034670804
252	0xbc81b469	-0.015833097
253	0x3e0bb149	0.13641848
254	0x3c8c75d0	0.017146021
255	0x3d11b7b8	0.0355756

classifier.1.bias f4 [10]
0	0xbd1c18d7	-0.038109627
1	0x3f174650	0.59091663
2	0x3ccbd077	0.024879677
3	0xbe0dfce2	-0.13865998
4	0xbdbe2521	-0.092844255
5	0xbde2c880	-0.110733986
6	0xbd908210	-0.070560575
7	0x3e293ab3	0.16526298
8	0xbe585211	-0.21125056
9	0xbc8d06ca	-0.017215151
