model_weights/model_epoch_2.pth (torch, 34447 bytes, 10 tensors)

conv_block_1.0.weight f4 [10, 1, 3, 3]
-0.120628886 0.10620648 -0.2057307 0.20063315 0.3004954 -0.28197664 0.08445383 0.08718792
-0.16240355 -0.379288 -0.37870127 -0.16277252 -0.15933368 0.19723308 0.04684012 0.24435356
0.054637015 0.3647193 0.17910598 -0.73635364 -0.5215189 0.07001031 -0.34637806 -0.06277633
0.3741853 0.3228496 0.57616997 -0.22250205 -0.3456449 0.17631198 -0.41439664 0.047036055
0.20421553 0.06414857 -0.1784962 0.34170508 -0.36204445 -0.18934362 -0.060540713 0.13755405
0.40997213 0.06056324 0.10347158 0.25956225 0.12227629 0.26714197 -0.006541857 0.5381418
0.24547634 -0.31451744 -0.12984057 -0.40746072 -0.5289255 -0.61191183 -0.14239626 -0.17318301
-0.29649597 -0.036049753 -0.24097574 -0.31510788 0.107379556 -0.313523 0.15476242 -0.15762192
0.40419176 -0.22305278 0.05975135 0.3966888 0.480838 -0.34122688 0.033440404 0.3611848
0.343782 0.07671932 -0.1523324 0.25811404 -0.14998752 -0.23495653 -0.11574499 0.43536407
0.0970985 -0.13154636 -0.05967967 0.14061901 -0.22580424 -0.26374102 -0.12389387 -0.061046857
0.28218785 0.0608078
00000000: 470c f7bd c882 d93d 12ab 52be c772 4d3e
00000010: 88da 993e 3e5f 90be 21f6 ac3d 958f b23d
00000020: 1e4d 26be 0932 c2be 22e5 c1be d7ad 26be
00000030: 5e28 23be 78f7 493e 6ddb 3f3d d237 7a3e
00000040: 10cb 5f3d 7dbc ba3e 8f67 373e ac81 3cbf
00000050: 4382 05bf 9161 8f3d 7758 b1be e090 80bd
00000060: 3795 bf3e 8b4c a53e e07f 133f 94d7 63be
00000070: 5ef8 b0be 218b 343e cc2b d4be e1a8 403d
00000080: e01d 513e 5360 833d b5c7 36be f8f3 ae3e
00000090: e45d b9be 4be3 41be 8af9 77bd f8da 0c3e
000000a0: dee7 d13e 2911 783d e8e8 d33d 58e5 843e
000000b0: fe6b fa3d d5c6 883e 135d d6bb a9c3 093f
000000c0: 265e 7b3e 6e08 a1be edf4 04be b19e d0be
000000d0: a967 07bf 41a6 1cbf 53d0 11be e356 31be
000000e0: 52ce 97be e8a8 13bd 58c2 76be d255 a1be
000000f0: d0e9 db3d 1686 a0be 0a7a 1e3e a467 21be
00000100: 39f2 ce3e f367 64be d5bd 743d cb1a cb3e
00000110: 6630 f63e 4ab5 aebe cef8 083d 37ed b83e
00000120: 3204 b03e 051f 9d3d 06fd 1bbe 8627 843e
00000130: 5496 19be 7298 70be b60b edbd 0ae8 de3e
00000140: 94db c63d 17b4 06be ab72 74bd 6efe 0f3e
00000150: 3a39 67be 1009 87be 12bc fdbd 450c 7abd
00000160: ed7a 903e 9a11 793d

conv_block_1.0.bias f4 [10]
0.032199204 -0.3073138 0.25834015 -0.016712977 -0.009321745 0.31524515 -0.3089057 0.01202512
0.0047655567 -0.25871065
00000000: 50e3 033d 3c58 9dbe 2945 843e a7e9 88bc
00000010: 3bba 18bc d067 a13e e328 9ebe 0205 453c
00000020: 6328 9c3b b975 84be

conv_block_1.2.weight f4 [10, 10, 3, 3]
0.05086059 -0.03704186 0.072224475 -0.047640525 -0.06886367 -0.08601587 0.08516157 -0.07480243
-0.04557092 0.048069786 -0.03580956 -0.005917716 -0.090930365 0.06660699 -0.16644563 -0.05905203
-0.1781463 0.036315348 -0.15244672 -0.1871565 -0.02349186 -0.18777071 -0.23478605 -0.17678377
-0.14252144 -0.24831553 -0.04147113 0.029261852 -0.033932567 -0.15798171 -0.0845916 -0.020936979
-0.033000737 -0.15395418 0.020571504 0.07529375 0.0049076634 0.0085814 0.17011374 0.06736839
-0.06739269 0.024318714 0.030504283 -0.081279196 0.039558932 -0.07733791 -0.12155589 -0.0070364345
0.03349384 0.22128777 -0.06828724 -0.10131333 0.06442497 -0.24913332 -0.018032193 -0.05428975
-0.028663248 0.1013258 -0.033726282 0.050389655 -0.03384112 -0.09564183 -0.071805105 0.020630535
0.15751342 0.07172743 -0.06606657 -0.13311793 0.3198771 -0.17678225 -0.10411677 0.23021024
-0.14976193 0.039403617 0.04078471 0.084970735 0.09105708 0.032524265 -0.058406193 -0.04689854
0.014129877 -0.04056676 -0.04713771 0.059449233 0.037181176 0.013087149 -0.054783218 0.034303606
0.095851794 -0.06674589 0.0866502 -0.11379023 -0.16410305 0.19640315 -0.024347505 -0.048118737
0.087874785 -0.09442882 0.02587297 0.07388976 0.039605595 -0.13394673 -0.023129463 -0.079210244
0.115018584 0.077772185 -0.089168705 0.087445594 -0.10798305 -0.07513129 -0.23585054 0.2034947
0.15638278 -0.090219684 0.06288985 0.11537829 0.12827332 -0.032812934 -0.002524683 0.103082515
-0.1439627 0.0066345087 -0.00469527 -0.026017683 -0.051250055 0.08142749 -0.10025961 -0.12977551
-0.10712291 0.060983688 -0.031976834 0.17247696 0.26897308 0.20456043 0.09497622 -0.16580947
-0.13027154 -0.21421881 -0.24389513 0.010355176 -0.028433243 -0.0847477 -0.26543 -0.15299772
-0.039224967 0.09771789 0.04769907 0.022265159 -0.054449372 0.029408626 -0.033630192 0.034511156
-0.059476294 -0.22892822 -0.3299601 -0.10693643 0.011237577 -0.19575629 0.0023434493 0.28582934
0.11707151 0.17667155 0.08513561 0.046998266 -0.13978261 0.049735066 -0.008345008 -0.26037344
0.11019391 0.17452906 -0.0013902211 0.010689053 -0.005891576 0.043969072 0.014138572 -0.07051983
-0.086521566 0.04286325 -0.0009692876 -0.009412927 -0.08816891 0.068937935 -0.06546331 0.08816927
-0.016817508 -0.0856958 0.099898465 0.030404761 0.15100537 -0.2244681 -0.13238448 -0.046195664
-0.036944464 -0.13163312 -0.0982041 0.16615899 -0.127552 -0.039452706 -0.18803 0.11714839
0.13152248 -0.07152434 -0.13418879 -0.0061666113 -0.08439459 -0.1660938 -0.18545656 0.014483106
-0.034578484 0.13040145 0.17729174 0.008766536 0.013359475 0.18367776 0.066768184 -0.025472026
-0.2429205 -0.053938188 0.16196208 0.11827335 0.000463597 0.092474185 0.31738797 0.12399595
0.03271258 -0.44125453 -0.24444547 -0.15061733 -0.1814776 -0.30655688 -0.0036734953 -0.22154646
0.0848805 0.20645492 0.071211345 0.05393537 -0.042317845 -0.030470654 -0.099762194 0.0037763417
-0.085679606 -0.05271398 0.06851158 0.09610296 0.123158075 0.083274 0.049092818 0.20529911
-0.02266519 0.171831 0.18884265 0.119395226 0.029207222 0.14864478 -0.032662883 -0.024969561
00000000: 3253 503d 35b9 17bd 6dea 933d b622 43bd
00000010: 6508 8dbd 1729 b0bd 3069 ae3d 0432 99bd
00000020: 93a8 3abd d3e4 443d 0cad 12bd 66e9 c1bb
00000030: b339 babd 3f69 883d b970 2abe 8be0 71bd
00000040: fc6b 36be 67bf 143d fe1a 1cbe f4a5 3fbe
00000050: 0072 c0bc f746 40be c16b 70be ce06 35be
00000060: 24f1 11be 6d46 7ebe a2dd 29bd 8db6 ef3c
00000070: e0fc 0abd f5c5 21be 5c3e adbd 0784 abbc
00000080: c82b 07bd 2aa6 1dbe 9285 a83c 9c33 9a3d
00000090: 77d0 a03b 0099 0c3c 4c32 2e3e 70f8 893d
000000a0: 2e05 8abd 0a38 c73c 1ee4 f93c b575 a6bd
000000b0: 8c08 223d 5763 9ebd 4bf2 f8bd e491 e6bb
000000c0: d630 093d 4399 623e 2eda 8bbd 5d7d cfbd
000000d0: 3df1 833d ce1c 7fbe 40b8 93bc ee5e 5ebd
000000e0: 30cf eabc e783 cf3d 9224 0abd 6265 4e3d
000000f0: fc9c 0abd dddf c3bd 8e0e 93bd 5e01 a93c
00000100: 334b 213e d5e5 923d e94d 87bd 1150 08be
00000110: eec6 a33e 6806 35be 2c3b d5bd 3cbc 6b3e
00000120: 315b 19be b065 213d de0d 273d 2305 ae3d
00000130: 227c ba3d 2a38 053d 553b 6fbd af18 40bd
00000140: 0081 673c 5529 26bd 7913 41bd 0a81 733d
00000150: 4a4b 183d 7b6b 563c 5e64 60bd f081 0c3d
00000160: f24d c43d 12b2 88bd a975 b13d da0a e9bd
00000170: a10a 28be e81d 493e 6b74 c7bc 2718 45bd
00000180: b2f7 b33d e663 c1bd 8df3 d33c 8453 973d
00000190: 7a39 223d 5529 09be 007a bdbc fb38 a2bd
000001a0: dd8e eb3d 0647 9f3d 159e b6bd ad16 b33d
000001b0: 3826 ddbd 6fde 99bd ce82 71be ea60 503e
000001c0: cf22 203e 19c5 b8bd 65cc 803d 744b ec3d
000001d0: 155a 033e db66 06bd 2775 25bb ed1c d33d
000001e0: f56a 13be 4b66 d93b c8da 99bb 0923 d5bc
000001f0: 94eb 51bd 75c3 a63d e954 cdbd dfe3 04be
00000200: 4263 dbbd 08ca 793d 24fa 02bd cd9d 303e
00000210: d7b6 893e 4a78 513e e482 c23d f5c9 29be
00000220: e765 05be 2d5c 5bbe a5bf 79be c2a8 293c
00000230: d5ec e8bc 3490 adbd 71e6 87be 6fab 1cbe
00000240: 5caa 20bd 5120 c83d 1a60 433d 6c65 b63c
00000250: 4e06 5fbd 5cea f03c d0bf 09bd 925b 0d3d
00000260: 6a9d 73bd 296c 6abe 88f0 a8be 7d01 dbbd
00000270: d01d 383c 5674 48be 8e94 193b 3958 923e
00000280: 30c3 ef3d 63e9 343e 945b ae3d 4181 403d
00000290: 2c23 0fbe ffb6 4b3d 80b9 08bc ab4f 85be
000002a0: 58ad e13d bfb7 323e 1438 b6ba 2321 2f3c
000002b0: 1f0e c1bb ea18 343d 78a5 673c b36c 90bd
000002c0: 3832 b1bd 6091 2f3d ca17 7eba ad38 1abc
000002d0: e791 b4bd 552f 8d3d a111 86bd 1792 b43d
000002e0: dfc4 89bc 4881 afbd 9197 cc3d 6813 f93c
000002f0: 27a1 1a3e f7da 65be cc8f 07be aa37 3dbd
00000300: 1453 17bd d5ca 06be 3b1f c9bd 9525 2a3e
00000310: fe9c 02be 2999 21bd f08a 40be 7feb ef3d
00000320: d4ad 063e 5a7b 92bd c968 09be 4911 cabb
00000330: 12d7 acbd 7e14 2abe 53e8 3dbe 8d4a 6d3c
00000340: 2ba2 0dbd f587 053e f78b 353e 84a1 0f3c
00000350: b3e1 5a3c 0616 3c3e c2bd 883d b6aa d0bc
00000360: 27c0 78be 4aee 5cbd 63d9 253e 4c39 f23d
00000370: f00e f339 1b63 bd3d ad80 a23e 97f1 fd3d
00000380: a0fd 053d 1dec e1be ea4f 7abe 6e3b 1abe
00000390: 44d5 39be 06f5 9cbe 06bf 70bb 13dd 62be
000003a0: d4d5 ad3d eb68 533e 41d7 913d 56eb 5c3d
000003b0: 7a55 2dbd 989d f9bc 1f50 ccbd 807c 773b
000003c0: ca78 afbd 9dea 57bd cd4f 8c3d a1d1 c43d
000003d0: 4d3a fc3d 8f8b aa3d 8d15 493d ee39 523e
000003e0: 59ac b9bc 77f4 2f3e f85f 413e 7c85 f43d
000003f0: fc43 ef3c 5636 183e 84c9 05bd f78c ccbc

conv_block_1.2.bias f4 [10]
0.1572547 -0.098896384 0.43555987 -0.008564037 -0.11899779 0.07182373 -0.016971823 0.110081926
0.19829556 0.00028939848
00000000: 6007 213e 308a cabd b401 df3e 2d50 0cbc
00000010: 1db5 f3bd 5218 933d 7e08 8bbc a272 e13d
00000020: fe0d 4b3e 68ba 9739

conv_block_2.0.weight f4 [10, 10, 3, 3]
-0.019414747 -0.08185927 -0.07630527 -0.035200078 0.011709527 -0.030638099 0.03400128 0.020333543
-0.07024759 -0.05599873 -0.053656325 -0.039340757 0.053583678 -0.049739327 -0.011188564 0.06844852
-0.040017348 0.071992494 0.09302922 -0.12055475 -0.005732091 0.060591906 -0.04611869 -0.15589622
-0.06753855 0.1373726 0.055201508 -0.020508954 -0.052441873 0.0077542365 -0.010031032 0.050923176
-0.10183018 0.08966982 0.034391463 -0.08285387 0.08706496 -0.08156656 0.09439652 0.06946605
0.08264378 -0.030143939 -0.08332924 -0.030337851 0.09783359 -0.013602069 -0.07449916 0.010158486
0.12017002 0.019083299 -0.029031865 -0.024652781 0.020516016 0.17287162 0.084353305 -0.08838035
-0.007523783 -0.12770268 -0.016042033 0.049941152 0.09416424 -0.060005523 -0.10819456 -0.085008
-0.07206969 -0.01271889 0.008696131 -0.059896342 0.08135337 -0.07962314 -0.08325188 0.06609122
-0.08219368 -0.059023615 -0.07659155 -0.11920284 -0.00748109 -0.019186633 -0.06384123 0.10995882
-0.14635958 -0.08064391 -0.0031576424 0.06297358 0.08693014 0.08486294 0.00696792 -0.04608435
0.0118100755 -0.07350909 0.031525 -0.08833976 0.18359987 0.040486615 -0.042618137 0.3367671
-0.1695885 -0.19514692 0.06994728 0.066252865 -0.026987825 -0.076222494 -0.25380445 -0.35975096
-0.3964192 -0.0756161 -0.030368276 0.1520145 0.17494753 0.16335672 0.5462686 0.2077319
-0.15040523 -0.070693664 -0.23006566 -0.7328131 0.15582317 -0.07952739 -0.0979124 -0.035203367
-0.104545824 0.019374862 0.04987483 0.037179586 0.06816765 0.09992568 -0.018558593 0.02080825
0.06585301 -0.035526864 -0.04397995 0.094847016 -0.10045648 -0.05455644 0.06383083 0.25348273
-0.051171992 -0.079105586 -0.02913191 -0.112295344 -0.19313557 0.06309266 0.035571348 -0.104617365
-0.06526221 0.09465169 -0.0323947 0.20676966 0.18430443 0.2801152 -0.13955238 -0.4334936
-0.48578542 -0.07515417 0.089724205 0.07224341 0.22765225 0.21941367 0.13035992 -0.020211516
-0.23101819 -0.19412473 0.07588288 0.039686885 0.5004671 0.06371486 0.03376469 0.25791207
-0.4101449 -0.54446656 0.040994037 -0.06194411 0.017761014 0.090211965 0.11800767 0.08018737
0.12064849 -0.04061248 -0.007421002 -0.10440062 0.008877516 0.15992495 -0.05133482 -0.0527173
-0.0122532165 -0.079357065 0.02160277 -0.12983944 -0.15040848 -0.028846908 -0.16127615 -0.19797434
0.13315861 -0.038543664 -0.27333623 -0.121464044 0.026846299 0.059128717 -0.13643695 0.298582
0.22424515 0.7137236 0.22439152 -0.37220606 0.57927066 -0.35900658 -0.6961194 -0.021548068
0.035982426 0.07812472 0.08842739 -0.05897915 0.10058272 0.09656516 -0.07573015 -0.067323476
0.061927218 -0.04386383 -0.04724676 -0.0013179734 0.052201245 -0.08702414 0.010842162 -0.098524384
0.016478404 -0.0019216738 -0.12748393 -0.052884888 0.1781358 0.07999357 -0.03937981 0.17101686
0.18018225 -0.08305288 -0.23400871 0.0033167677 0.17870876 -0.48069444 -0.1429861 0.01581433
-0.07911056 0.1524814 0.038096525 -0.08069302 -0.16648471 -0.11508974 -0.26595497 -0.14855932
-0.039711714 -0.06654223 -0.08322252 -0.036173627 -0.07804361 0.14906663 0.20258088 0.12632802
00000000: ad0b 9fbc d5a5 a7bd f045 9cbd f52d 10bd
00000010: 51d9 3f3c c0fc fabc ed44 0b3d 8892 a63c
00000020: f8dd 8fbd ed5e 65bd bcc6 5bbd c623 21bd
00000030: 8f7a 5b3d 77bb 4bbd 3d50 37bc bd2e 8c3d
00000040: 3be9 23bd cd70 933d 1b86 be3d 69e5 f6bd
00000050: 44d4 bbbb 382f 783d f4e6 3cbd 42a3 1fbe
00000060: a751 8abd 67ab 0c3e fa1a 623d 6502 a8bc
00000070: 4acd 56bd 4017 fe3b 3359 24bc d294 503d
00000080: 578c d0bd d0a4 b73d 10de 0c3d 4aaf a9bd
00000090: 1d4f b23d 5e0c a7bd f652 c13d 3744 8e3d
000000a0: 2441 a93d 6cf0 f6bc 85a8 aabd 1687 f8bc
000000b0: fa5c c83d 36db 5ebc 0493 98bd c76f 263c
000000c0: b31b f63d 9454 9c3c 3cd4 edbc a1f4 c9bc
000000d0: 3411 a83c 4205 313e 6dc1 ac3d c200 b5bd
000000e0: 118a f6bb 7ec4 02be 956a 83bc 188f 4c3d
000000f0: 2ed9 c03d 5ac8 75bd 1c95 ddbd ad18 aebd
00000100: 4699 93bd e462 50bc 387a 0e3c de55 75bd
00000110: 989c a63d 7511 a3bd f67f aabd d55a 873d
00000120: 2955 a8bd bfc2 71bd 08dc 9cbd 9e20 f4bd
00000130: ee23 f5bb 492d 9dbc 31bf 82bd 1732 e13d
00000140: 49df 15be a228 a5bd 73f0 4ebb 4bf8 803d
00000150: 6e08 b23d 9fcc ad3d 2653 e43b f2c2 3cbd
00000160: 0c7f 413c ef8b 96bd 5c20 013d 7aeb b4bd
00000170: 9b01 3c3e 4bd5 253d 5b90 2ebd bd6c ac3e
00000180: 9ca8 2dbe 98d4 47be 8540 8f3d 95af 873d
00000190: 9215 ddbc 8a1a 9cbd a8f2 81be 4731 b8be
000001a0: 75f7 cabe 9ddc 9abd e4c6 f8bc b0a9 1b3e
000001b0: 7225 333e fc46 273e 42d8 0b3f acb7 543e
000001c0: d403 1abe d7c7 90bd 5596 6bbe a499 3bbf
000001d0: 1c90 1f3e 42df a2bd 4c86 c8bd 6831 10bd
000001e0: 1f1c d6bd 08b8 9e3c 8d49 4c3d 9f49 183d
000001f0: 7b9b 8b3d d6a5 cc3d 3108 98bc 1076 aa3c
00000200: f1dd 863d 9e84 11bd 5224 34bd 273f c23d
00000210: 21bc cdbd 9376 5fbd bdb9 823d 7dc8 813e
00000220: b999 51bd 1c02 a2bd 0ba6 eebc 1afb e5bd
00000230: 55c5 45be b936 813d 43b3 113d a141 d6bd
00000240: 32a8 85bd bfd8 c13d 4eb0 04bd 6dbb 533e
00000250: 4dba 3c3e 426b 8f3e d2e6 0ebe e0f2 ddbe
00000260: deb8 f8be 6eea 99bd 53c1 b73d 5af4 933d
00000270: ac1d 693e faad 603e 127d 053e 9f92 a5bc
00000280: 0890 6cbe a2c8 46be 7c68 9b3d b78e 223d
00000290: 9d1e 003f f07c 823d d84c 0a3d 0d0d 843e
000002a0: 83fe d1be 2962 0bbf 5de9 273d 1bb9 7dbd
000002b0: 8c7f 913c 0dc1 b83d 01ae f13d 4739 a43d
000002c0: 8e16 f73d 4659 26bd e02b f3bb fecf d5bd
000002d0: 0073 113c 5ec3 233e 7644 52bd 18ee 57bd
000002e0: b7c1 48bc f585 a2bd 4bf8 b03c a1f4 04be
000002f0: ae04 1abe 5a50 ecbc 9325 25be c9b9 4abe
00000300: bb5a 083e f6df 1dbd baf2 8bbe 24c2 f8bd
00000310: c5ec db3c f430 723d 21b6 0bbe bddf 983e
00000320: 85a0 653e 97b6 363f e4c6 653e cb91 bebe
00000330: 154b 143f b6cf b7be e234 32bf 9385 b0bc
00000340: 4f62 133d daff 9f3d 6b19 b53d 1f94 71bd
00000350: 50fe cd3d f4c3 c53d 6918 9bbd e4e0 89bd
00000360: 65a7 7d3d 8faa 33bd d285 41bd d9bf acba
00000370: f9d0 553d b639 b2bd 53a3 313c 27c7 c9bd
00000380: b8fd 863c ace0 fbba 268b 02be d39d 58bd
00000390: 3b69 363e abd3 a33d b94c 21bd 0b1f 2f3e
000003a0: b281 383e a117 aabd fb9f 6fbe 215e 593b
000003b0: 6eff 363e 951d f6be f36a 12be 0e8d 813c
000003c0: b804 a2bd 1624 1c3e 1a0b 1c3d 6242 a5bd
000003d0: f87a 2abe 2bb4 ebbd 402b 88be ef1f 18be
000003e0: c0a8 22bd 4b47 88bd 9270 aabd cc2a 14bd
000003f0: 54d5 9fbd eca4 183e 5d71 4f3e 225c 013e

conv_block_2.0.bias f4 [10]
0.19260661 0.19600663 0.039217312 -0.10606179 0.20493534 0.017553719 -0.0010489429 0.10363264
0.2119221 0.004439794
00000000: ab3a 453e f6b5 483e 55a2 203d ec36 d9bd
00000010: 92da 513e d1cc 8f3c af7c 89ba 593d d43d
00000020: 1b02 593e b17b 913b

conv_block_2.2.weight f4 [10, 10, 3, 3]
0.10142228 -0.016515717 -0.03134045 0.1425849 -0.06993172 -0.1040598 0.035670746 -0.059158728
-0.02962409 0.045967538 0.15146531 -0.2628193 -0.25849563 -0.35733128 -0.107610025 -0.50849235
-0.20247789 0.18181244 -0.3686127 -0.13752818 0.0007982184 -0.116023295 -0.03990136 0.28150472
-0.17561707 0.44092014 0.33793756 -0.021608373 -0.096713424 0.04008373 0.05652507 -0.12575686
0.086506255 -0.09843962 -0.0003063873 0.07441522 -0.25213686 -0.41846862 -0.22319216 -0.5928563
-0.6553913 -0.016119512 -0.41767567 0.25566304 0.30684665 0.010173307 -0.041755244 0.060290676
-0.011472774 -0.068814166 -0.0059787324 0.06364227 0.07006388 -0.04839058 0.034322895 0.07226521
-0.005069327 -0.0496087 0.032783825 0.084299475 -0.09160065 0.086281456 -0.02230359 0.10775855
-0.049058236 -0.15567432 -0.15333004 -0.026585221 -0.22762872 -0.09469709 0.00845377 -0.12131214
-0.052554514 -0.019320913 -0.07766687 -0.08706156 0.06664962 0.0884221 -0.035726428 0.088187814
0.024616037 0.0994698 -0.085721545 0.10257751 0.101730675 -0.05368583 0.09429801 -0.03138212
-0.0544297 0.09365784 0.079499304 -0.05752226 -0.06201385 -0.113429666 -0.12190893 0.012673738
0.006461327 0.015863538 0.103831664 -0.4778445 -0.21960701 0.10722867 0.3160872 0.20036243
-0.09251607 -0.029802278 -0.41784936 -0.71926844 0.1498638 0.4814364 0.3584472 -0.38139087
-0.18302499 -0.13042922 0.17360605 0.11658682 0.058583345 -0.17112255 0.025674498 0.0692122
0.048748523 0.027980743 -0.060306847 -0.09362386 -0.014525152 -0.16632257 -0.04027173 0.08772758
0.3370258 0.056654975 0.09292406 -0.29856122 -0.59287655 -0.73044395 -0.404129 -0.043790337
0.0075727506 0.08176275 0.018916696 6.713668e-05 0.13033918 -0.09258143 -0.002014239 -0.025247814
0.055055775 0.050578594 -0.04759034 -0.057151403 -0.001208671 0.14625464 0.12556106 -0.07217786
0.0010637605 0.25506097 -0.05867922 -0.21774659 -0.34781888 -0.3582266 -0.106761865 -0.09334187
-0.13497011 0.11566985 -0.021233585 0.0037411884 0.09955779 -0.036620412 0.053565633 -0.0059640217
0.21246165 0.15794143 -0.020996349 -0.018573565 -0.09972778 -0.09206112 -0.07053864 0.072506756
-0.08166038 -0.061626125 0.0068198503 -0.09710212 -0.05821549 -0.0021985795 0.07983933 0.085837275
-0.024296736 0.05407983 0.019384291 0.051612668 0.06377621 0.08740168 0.15831208 0.3143927
-0.25874493 0.24573621 0.2484921 -0.19477685 -0.4672821 -0.6293107 -0.65118337 -0.18102348
0.0372277 -0.4455083 -0.45228925 -0.38819665 0.38016406 0.09620362 0.09060746 0.04452137
-0.104296595 0.003517243 0.062383194 -0.13464797 -0.104803555 -0.012224859 0.083717324 -0.12724447
-0.31761178 -0.081130266 0.3457961 -0.7864125 -0.6425751 -0.22832985 0.093584836 -0.14958489
0.057988994 -0.078626536 0.078821644 0.099644035 -0.08545201 -0.089996174 0.0061947815 -0.09084565
-0.03698566 -0.031215407 0.021319076 0.12471428 0.064893104 -0.036384877 0.04545414 0.03286141
-0.097404696 0.035304066 0.0676558 -0.393711 -0.23443727 -0.31996948 -0.14292845 -0.29377058
-0.13434502 0.03927493 0.25503373 0.47714052 -0.038979217 0.022756305 -0.05380841 0.13262852
00000000: 7cb6 cf3d f84b 87bc d85e 00bd c701 123e
00000010: 5d38 8fbd 4e1d d5bd 7d1b 123d 6c50 72bd
00000020: 38ae f2bc 7548 3c3d b919 1b3e 4090 86be
00000030: 8a59 84be 20f4 b6be a562 dcbd 8e2c 02bf
00000040: 5d56 4fbe 0a2d 3a3e ceba bcbe 30d4 0cbe
00000050: 883f 513a 9f9d edbd 9c6f 23bd 6321 903e
00000060: f6d4 33be 49c0 e13e 2706 ad3e 0b04 b1bc
00000070: b011 c6bd d62e 243d d586 673d 68c6 00be
00000080: 312a b13d b69a c9bd 9ba2 a0b9 0267 983d
00000090: 1518 81be 8541 d6be 7c8c 64be 6ec5 17bf
000000a0: b9c7 27bf 110d 84bc 96d9 d5be 44e6 823e
000000b0: 011b 9d3e f1ad 263c 8c07 2bbd 5bf3 763d
000000c0: 4df8 3bbc 71ee 8cbd 3ee9 c3bb e156 823d
000000d0: a77d 8f3d 3335 46bd 2a96 0c3d c8ff 933d
000000e0: 991c a6bb 7e32 4bbd 5548 063d 34a5 ac3d
000000f0: 1f99 bbbd 55b4 b03d 05b6 b6bc 84b0 dc3d
00000100: 4af1 48bd 1769 1fbe 8d02 1dbe 40c9 d9bc
00000110: 8117 69be 8cf0 c1bd ae81 0a3c 8072 f8bd
00000120: 6743 57bd e446 9ebc cf0f 9fbd 554d b2bd
00000130: 997f 883d a516 b53d e055 12bd d09b b43d
00000140: 92a7 c93c d3b6 cb3d c78e afbd 2814 d23d
00000150: 2c58 d03d ace5 5bbd 511f c13d 8a8a 00bd
00000160: adf1 5ebd aecf bf3d 88d0 a23d 769c 6bbd
00000170: 3c02 7ebd d04d e8bd 64ab f9bd 83a5 4f3c
00000180: 8ab9 d33b 40f4 813c b2a5 d43d 09a8 f4be
00000190: a9e0 60be b49a db3d 2ed6 a13e cf2b 4d3e
000001a0: 1179 bdbd e823 f4bc 5af0 d5be fa21 38bf
000001b0: e575 193e d57e f63e 6486 b73e aa45 c3be
000001c0: e76a 3bbe 3d8f 05be c9c5 313e 12c5 ee3d
000001d0: 17f5 6f3d c03a 2fbe 5353 d23c 20bf 8d3d
000001e0: 88ac 473d df37 e53c 5004 77bd debd bfbd
000001f0: e7fa 6dbc 7750 2abe f8f3 24bd 84aa b33d
00000200: a58e ac3e 0c0f 683d f84e be3d 04dd 98be
00000210: c2c6 17bf 60fe 3abf ffe9 cebe 7f5d 33bd
00000220: d624 f83b 3b73 a73d 30f7 9a3c bbcb 8c38
00000230: a277 053e 559b bdbd 5301 04bb 81d4 cebc
00000240: 2a82 613d 802b 4f3d 17ee 42bd 9717 6abd
00000250: 456c 9eba c7c3 153e 1493 003e fcd1 93bd
00000260: e16d 8b3a 5a97 823e 9f59 70bd f6f8 5ebe
00000270: 5115 b2be 7a69 b7be f7a5 dabd 062a bfbd
00000280: 9b35 0abe 50e4 ec3d 0ef2 adbc ba2e 753b
00000290: f4e4 cb3d 49ff 15bd a367 5b3d d76d c3bb
000002a0: 8c8f 593e 66bb 213e 8900 acbc 9727 98bc
000002b0: 143e ccbd 8a8a bcbd 9076 90bd 6c7e 943d
000002c0: 8f3d a7bd ad6b 7cbd 0d79 df3b 7add c6bd
000002d0: 5e73 6ebd 0b16 10bb cd82 a33d 74cb af3d
000002e0: f309 c7bc d082 5d3d cecb 9e3c ce67 533d
000002f0: 1a9d 823d a7ff b23d 901c 223e 14f8 a03e
00000300: 377a 84be 46a2 7b3e b774 7e3e 9573 47be
00000310: 993f efbe 821a 21bf f4b3 26bf 385e 39be
00000320: 137c 183d aa19 e4be 7592 e7be b6c1 c6be
00000330: dda4 c23e 6706 c53d 6790 b93d 0a5c 363d
00000340: 7499 d5bd 8c81 663b 8585 7f3d 28e1 09be
00000350: 3fa3 d6bd c64a 48bc fd73 ab3d 604c 02be
00000360: 039e a2be a027 a6bd 300c b13e 5452 49bf
00000370: cd7f 24bf 4dcf 69be 68a9 bf3d c82c 19be
00000380: de85 6d3d f306 a1bd 3e6d a13d 2c12 cc3d
00000390: 7701 afbd ea4f b8bd 98fd ca3b 490d babd
000003a0: 477e 17bd 74b7 ffbc 58a5 ae3c 336a ff3d
000003b0: ade6 843d 4f08 15bd 1f2e 3a3d b099 063d
000003c0: 1d7c c7bd ff9a 103d 208f 8a3d 7d94 c9be
000003d0: 5310 70be 0ad3 a3be d65b 12be 1969 96be
000003e0: be91 09be c0de 203d c893 823e c34b f43e
000003f0: aca8 1fbd 6e6b ba3c 3566 5cbd c5cf 073e

conv_block_2.2.bias f4 [10]
0.1519497 0.17283489 0.34318665 0.06555853 0.22341615 -0.011709659 0.03964045 -0.17601037
-0.076498955 -0.036511566
00000000: b498 1b3e a1fb 303e 29b6 af3e 8d43 863d
00000010: 34c7 643e dfd9 3fbc 065e 223d 103c 34be
00000020: 7cab 9cbd 278d 15bd

classifier.1.weight f4 [10, 490]
0.0021421805 -0.060650285 -0.09132738 -0.045078304 -0.09991713 -0.010283023 0.0017576744 -0.004911726
-0.04375235 -0.10173461 0.036075786 -0.09515031 -0.07095654 -0.03132393 0.029928695 0.045846447
0.100290686 0.02040159 -0.28847176 -0.0014118707 -0.04679667 0.042593636 0.14781417 0.17993188
-0.22833079 0.20150357 0.28327572 -0.073829435 0.018747387 -0.13600251 -0.22058783 0.11207772
-0.018460426 0.0030491706 -0.043574173 -0.033217147 -0.12065907 -0.2625701 -0.19154151 0.020933524
0.04887063 0.038441736 0.00806635 0.056478675 0.016934128 0.03366118 0.06218872 0.0031680288
-0.024865804 -0.025410213 0.0047837747 0.017233822 0.06431368 0.029556042 -0.017268488 -0.019635307
0.026375258 -0.042725697 -0.19542882 -0.15615538 -0.043342102 -0.18590844 -0.044626422 -0.022931244
-0.14858782 -0.12982573 -0.13176328 -0.09272085 -0.16907579 -0.0893756 -0.07129091 -0.26228684
-0.14372058 -0.041393276 -0.43747997 -0.06644302 -0.010997975 0.019998692 -0.15353492 -0.28859907
-0.314306 0.13128427 0.28189012 0.016637549 0.0047514117 0.0023002294 0.077068724 0.25533906
0.2415981 0.14035347 -0.06347233 0.025965841 0.043000657 0.0071516247 0.13561335 0.029261732
-0.05349184 -0.03424031 -0.0017775251 0.050671473 -0.07890203 0.042084042 0.038282257 0.02910882
0.093703665 -0.033227082 0.029889632 0.03359268 -0.040286887 0.06859727 0.028901346 0.03271279
0.0020971512 -0.18658316 -0.27730024 -0.07925856 0.07073338 -0.075183965 -0.12663175 -0.09225619
-0.5363104 -0.45591158 0.021679647 0.23509617 -0.1927756 -0.17311084 0.0014069922 -0.36588386
-0.45176393 -0.2064055 0.004534746 0.002281132 0.082093135 0.10246542 -0.062345166 -0.07833319
0.10654656 0.24038287 0.20648754 0.025717134 0.12568116 0.16600291 0.12541649 0.068374366
0.059398603 0.040017586 -0.030466275 -0.03050601 -0.055494294 0.025546657 -0.015672334 -0.015567043
-0.0410119 -0.045376923 0.015041962 -0.043169424 -0.0657599 -0.06848247 -0.109383546 -0.14476225
-0.08961949 -0.030500684 0.06497684 -0.11494017 -0.071606554 0.027477058 -0.16308425 -0.052035104
0.09527689 -0.0025909636 0.003456026 0.30494928 0.14461417 0.12429727 -0.008685532 0.10506763
0.084427334 -0.056318115 0.108855695 -0.011447625 0.11228688 0.03263215 0.057541102 -0.022999907
-0.13960782 -0.23913898 -0.11090065 -0.09470824 -0.030240275 -0.045533214 0.0236998 -0.013502231
-0.074721605 -0.21610552 -0.092776045 -0.07219572 -0.04500401 -0.099879265 -0.05715846 -0.04945678
0.0012397801 -0.0068395855 0.024216812 -0.03453657 -0.10630763 -0.1801979 -0.1321468 -0.07894197
-0.01030211 0.03379284 -0.062105943 -0.052793004 -0.11989026 -0.1862451 0.27371222 0.21763006
-0.0028608472 0.054795794 0.23527746 0.054510884 -0.21261123 0.22899184 0.32018888 0.001450227
0.14456362 0.05809797 0.20089075 -0.099689275 0.010284475 0.018540999 0.040832613 0.04505922
0.16385184 0.06983483 -0.34042588 -0.3352899 -0.10746643 0.0016574895 -0.023733739 0.025035657
-0.12558076 -0.17972785 -0.07405525 0.022153227 -0.008807425 -0.013805272 -0.075512305 -0.13300282
0.0026750942 -0.062818065 0.039460562 0.009366525 -0.05247066 -0.03551022 -0.115509726 0.01942266
00000000: d363 0c3b 6f6c 78bd d909 bbbd 07a4 38bd
00000010: 5aa1 ccbd 207a 28bc c461 e63a 8bf2 a0bb
00000020: aa35 33bd 3c5a d0bd 34c4 133d 2ade c2bd
00000030: aa51 91bd 854d 00bd 062d f53c 7cc9 3b3d
00000040: 3465 cd3d 3c21 a73c 92b2 93be 850e b9ba
00000050: ddad 3fbd aa76 2e3d 995c 173e 1040 383e
00000060: 8ccf 69be f456 4e3e 8409 913e e333 97bd
00000070: 1f94 993c 3e44 0bbe c7e1 61be 0189 e53d
00000080: 523a 97bc 98d4 473b d57a 32bd b40e 08bd
00000090: 1a1c f7bd 976f 86be 7523 44be c87c ab3c
000000a0: 922c 483d 1575 1d3d b928 043c 2f56 673d
000000b0: 71b9 8a3c 4ee0 093d 99b9 7e3d b49e 4f3b
000000c0: 5fb3 cbbc 1429 d0bc 36c1 9c3b f22d 8d3c
000000d0: e4b6 833d 831f f23c a576 8dbc 39da a0bc
000000e0: ed10 d83c 2401 2fbd 7e1e 48be 32e7 1fbe
000000f0: 7d87 31bd c85e 3ebe 32ca 36bd 4eda bbbc
00000100: 6827 18be 09f1 04be f4ec 06be 6ee4 bdbd
00000110: 3422 2dbe 8e0a b7bd f800 92bd 764a 86be
00000120: 7d2b 13be ff8b 29bd 60fd dfbe 4713 88bd
00000130: da30 34bc 4cd4 a33c 4238 1dbe 42c3 93be
00000140: b7ec a0be 626f 063e e753 903e 784b 883c
00000150: bbb1 9b3b 72bf 163b 35d6 9d3d cdbb 823e
00000160: 7e65 773e d2b8 0f3e c8fd 81bd 51b6 d43c
00000170: 7521 303d 2d58 ea3b 3ade 0a3e 4db6 ef3c
00000180: 421a 5bbd 913f 0cbd d8fb e8ba e48c 4f3d
00000190: 6397 a1bd 5160 2c3d dbcd 1c3d 9f75 ee3c
000001a0: b5e7 bf3d 1f19 08bd 1adb f43c 7a98 093d
000001b0: dd03 25bd ba7c 8c3d 84c2 ec3c d9fd 053d
000001c0: 5c70 093b a80f 3fbe 4cfa 8dbe 5052 a2bd
000001d0: aadc 903d 0dfa 99bd c1ab 01be d0f0 bcbd
000001e0: a34b 09bf 3e6d e9be 8499 b13c 0dbd 703e
000001f0: f866 45be f843 31be d36a b83a 2155 bbbe
00000200: 9a4d e7be f75b 53be 3598 943b 0b7f 153b
00000210: 7220 a83d 64d9 d13d a55d 7fbd 276d a0bd
00000220: 1535 da3d ed26 763e 7871 533e bdac d23c
00000230: 90b2 003e abfc 293e 2e6d 003e dc07 8c3d
00000240: f34b 733d 7be9 233d 6994 f9bc bde7 f9bc
00000250: fc4d 63bd 3947 d13c 4463 80bc e90c 7fbc
00000260: 18fc 27bd 27dd 39bd 9072 763c 6cd2 30bd
00000270: 20ad 86bd 8a40 8cbd 7b04 e0bd 8e3c 14be
00000280: 6c8a b7bd 92dc f9bc 9412 853d c065 ebbd
00000290: 75a6 92bd 9117 e13c 8fff 26be c322 55bd
000002a0: 8820 c33d 28cd 29bb 7f7e 623b 5022 9c3e
000002b0: bd15 143e 918f fe3d c34d 0ebc b32d d73d
000002c0: 3de8 ac3d d3ad 66bd bcef de3d d28e 3bbc
000002d0: aaf6 e53d 4aa9 053d 38b0 6b3d 4d6a bcbc
000002e0: 5af5 0ebe d9e0 74be e11f e3bd 65f6 c1bd
000002f0: 74ba f7bc 0981 3abd 1526 c23c 7638 5dbc
00000300: a407 99bd c44a 5dbe 5e01 bebd 5adb 93bd
00000310: 2056 38bd 808d ccbd fd1e 6abd 3193 4abd
00000320: 1e80 a23a 9a1e e0bb 5662 c63c 3876 0dbd
00000330: d1b7 d9bd cc85 38be 7e51 07be 54ac a1bd
00000340: 2eca 28bc 5c6a 0a3d cd62 7ebd 7a3d 58bd
00000350: 0689 f5bd 09b7 3ebe 0224 8c3e 6ada 5e3e
00000360: 0d7d 3bbb 8e71 603d 93ec 703e ce46 5f3d
00000370: c2b6 59be d67c 6a3e ccef a33e 8b15 be3a
00000380: 7c08 143e 23f8 6d3d 4eb6 4d3e e429 ccbd
00000390: 3780 283c 4be3 973c 1940 273d 0490 383d
000003a0: c7c8 273e 9005 8f3d 4d4c aebe 1eab abbe
000003b0: 5c17 dcbd 1e40 d93a 426d c2bc 9417 cd3c
000003c0: 3e98 00be 940a 38be 47aa 97bd af7a b53c
000003d0: 054d 10bc 822f 62bc 32a6 9abd e431 08be
000003e0: a250 2f3b c2a6 80bd 66a1 213d 0e76 193c
000003f0: 7aeb 56bd 2a73 11bd 5d90 ecbd 451c 9f3c

classifier.1.bias f4 [10]
-0.06217329 0.45431587 0.046013474 -0.19216616 0.05020685 -0.22437233 0.027420118 0.16439271
-0.14036629 -0.051960878
00000000: 6ba9 7ebd 179c e83e a078 3c3d 35c7 44be
00000010: b3a5 4d3d dcc1 65be 28a0 e03c 9056 283e
00000020: 2ebc 0fbe eed4 54bd
