model_weights/model_epoch_10.pth (torch, 34439 bytes, 10 tensors)

conv_block_1.0.weight f4 [10, 1, 3, 3]
0	0xbeddfee8	-0.4335854
1	0xbc3bb22d	-0.011456055
2	0xbe3bcf1d	-0.18340726
3	0xbe712983	-0.23550992
4	0x3ee4bf47	0.44677183
5	0x3f2b875b	0.6700341
6	0xbf135323	-0.5754873
7	0xbd6b9a3c	-0.057520136
8	0x3f1538e7	0.5828995
9	0xbd4bcfc9	-0.049758706
10	0xbd970788	-0.07374483
11	0xbe52fd28	-0.20604384
12	0xbe07990a	-0.13241974
13	0xbc6a356a	-0.0142949615
14	0xbe9477d9	-0.28997687
15	0x3e1e65b3	0.15468483
16	0xbdd4106e	-0.10354696
17	0x3d97e6be	0.074170575
18	0xbeb81118	-0.35950541
19	0xbec1ee6e	-0.3787722
20	0x3dca0f85	0.09866241
21	0x3d185392	0.037189074
22	0x3e9fb041	0.3118916
23	0x3ef566bc	0.47929943
24	0x3e170ec5	0.14751728
25	0xbe1ba79b	-0.15200655
26	0xbf1aa125	-0.6040214
27	0x3ea32ef9	0.31871775
28	0xbc7eb50e	-0.0155460965
29	0x3e636f6b	0.22210471
30	0x3f07154d	0.5276688
31	0xbd6799e7	-0.056543257
32	0xbe232b74	-0.15934545
33	0x3e1cc3f8	0.15309131
34	0xbf1ccbfb	-0.6124875
35	0xbf01c5fd	-0.5069273
36	0xbe6af233	-0.22943954
37	0x3def4dea	0.11684783
38	0xbef0118c	-0.46888387
39	0x3d9131b0	0.07089555
40	0x3ea23676	0.31682175
41	0x3e1d9d60	0.15392065
42	0x3c9fef76	0.019523364
43	0xbcdd3235	-0.02700148
44	0xbe698129	-0.22803177
45	0xbf3c1267	-0.7346558
46	0x3e4d651a	0.20058098
47	0x3def7aae	0.11693321
48	0x3e0913d7	0.13386475
49	0x3f21e5b7	0.6324114
50	0x3c04f0b7	0.0081140315
51	0xbbbc25a1	-0.0057417904
52	0xbdaf7738	-0.08567661
53	0x3e25e86a	0.1620194
54	0x3f026190	0.5093012
55	0x3e6da7d5	0.23208554
56	0xbec38aa9	-0.38191727
57	0xbe2269e7	-0.15860711
58	0xbeff5974	-0.49872935
59	0xbf40f2e7	-0.7537064
60	0xbf17b64a	-0.59262526
61	0xbf4ea959	-0.80727154
62	0x3f07bb9f	0.5302066
63	0x3f053624	0.5203574
64	0xbc13d1e9	-0.009022214
65	0xbf4a5c59	-0.7904716
66	0x3ed329ed	0.41242924
67	0xbefb0144	-0.49024403
68	0xbf4005bc	-0.7500875
69	0x3dab9801	0.08378602
70	0x3f018189	0.5058828
71	0x3f021ad5	0.5082219
72	0xbe921187	-0.28528997
73	0xbe6495cc	-0.22322768
74	0xbe180378	-0.14845073
75	0x3e92d599	0.28678587
76	0x3dae42a4	0.085088044
77	0xbe6a157e	-0.22859761
78	0xbebbb02a	-0.3665784
79	0xbe9815f1	-0.2970424
80	0x3e822de8	0.2542565
81	0xbf838f1b	-1.0278047
82	0xbfb66382	-1.4249117
83	0xbe37cd47	-0.17949401
84	0xbe8e6cd3	-0.278174
85	0xbf043005	-0.5163577
86	0x3e85682f	0.26056048
87	0x3f299db5	0.66256267
88	0x3f110172	0.5664283
89	0x3e0c7aca	0.13718715

conv_block_1.0.bias f4 [10]
0	0xbe514235	-0.20435412
1	0xbe0b235a	-0.13587704
2	0xbded8cf7	-0.115991525
3	0xbe6542e3	-0.22388797
4	0xbec3eb9c	-0.38265693
5	0xbed29ffc	-0.41137683
6	0x3e99dcb3	0.30051193
7	0xbf06fbe1	-0.52728087
8	0x3d00c5f2	0.031438775
9	0x3ebc17cd	0.3673691

conv_block_1.2.weight f4 [10, 10, 3, 3]
0	0xbcd04918	-0.025425479
1	0xbdf020be	-0.11724995
2	0xbd5dc2b6	-0.05414077
3	0xbd8392f3	-0.06424513
4	0x3d9a4ba1	0.07533956
5	0xbc204359	-0.009781682
6	0xbd9c184c	-0.07621822
7	0x3c833ea2	0.016021077
8	0xbd052b2b	-0.03251187
9	0xbd3b0534	-0.04565926
10	0x3da6f1e7	0.08151608
11	0xbd7f8365	-0.062381167
12	0x3ca0f07f	0.019645927
13	0x3da9ece7	0.08297139
14	0xbdb32e94	-0.087491184
15	0x3dc7127f	0.09720325
16	0xbd9a34d3	-0.07529607
17	0x3d60e136	0.054902278
18	0x3be979b6	0.007125105
19	0xbd0bec06	-0.034160636
20	0x3db102ef	0.08643138
21	0x3da5a63d	0.08088348
22	0x3ced540d	0.028970743
23	0xbc9fb9d4	-0.01949779
24	0xbb5c1e59	-0.0033587425
25	0x3dc2fb33	0.09520569
26	0xbdaee0f4	-0.08539
27	0xbd993a39	-0.07481808
28	0xbd9c1b51	-0.07622398
29	0xbda71a6d	-0.08159337
30	0x3cd07114	0.025444545
31	0xbc133641	-0.008985103
32	0x3ca1c09e	0.019745167
33	0xbd516044	-0.051117197
34	0xbc6a7746	-0.014310664
35	0xbc50eb74	-0.012751449
36	0xbcfc99b0	-0.030835003
37	0x3c854bcb	0.016271492
38	0xbcda73bf	-0.02666652
39	0xbddcdaf3	-0.10783949
40	0x3d7626a9	0.060095463
41	0xbdc5196d	-0.0962399
42	0xbd94c637	-0.07264369
43	0xbdb8c881	-0.09022618
44	0x3c59881b	0.013277079
45	0x3d95d421	0.07315851
46	0xbcad45e2	-0.021151487
47	0xbd0c1d7b	-0.034207802
48	0xbd2b3b8a	-0.041804828
49	0x3ce6c64e	0.02817073
50	0xbc961af8	-0.018323407
51	0xbd4ab897	-0.049492445
52	0xbc9c56b2	-0.019084308
53	0xbca0fa5e	-0.019650634
54	0xbdac6879	-0.08418364
55	0xbd678f46	-0.05653312
56	0x3d2becc3	0.04197384
57	0xbdc50fc1	-0.096221454
58	0xbc9db0df	-0.019249378
59	0xbd0555de	-0.032552592
60	0xbdd5e59d	-0.10444186
61	0x3d471cc6	0.048611425
62	0xbd91ac6a	-0.071129635
63	0xbd88e78b	-0.06684788
64	0x3d84e181	0.06488324
65	0x3da020be	0.07818745
66	0xbda45557	-0.0802409
67	0x3d35ca48	0.044382364
68	0xbda9c25e	-0.08289026
69	0xbd08a2e8	-0.033358485
70	0xbd94f7ff	-0.07273864
71	0xbca97b92	-0.020688806
72	0x3d3713bc	0.044696555
73	0xbd76c859	-0.06024966
74	0x3ca8fa85	0.02062727
75	0xbca2b7db	-0.01986306
76	0xbd75f8df	-0.060051795
77	0x3dd1e347	0.10248428
78	0xbb41a4f6	-0.0029547787
79	0xbd93b108	-0.072115004
80	0xbd918239	-0.07104916
81	0xbd04523a	-0.03230498
82	0x3d48bfdc	0.049011096
83	0x3d106067	0.035248186
84	0x3d479283	0.04872371
85	0xbd8c2d8d	-0.068446256
86	0xbdce1b0d	-0.10063753
87	0x3ce99092	0.02851132
88	0x3d99b68b	0.075055204
89	0xbdc57925	-0.09642247
90	0xbe88330c	-0.26601446
91	0xbbb5d413	-0.005548963
92	0x3f02c08c	0.51075053
93	0xbef1c7c9	-0.47222736
94	0xbe7f1a26	-0.24912319
95	0x3ec6600a	0.38745147
96	0xbf0bf761	-0.54674345
97	0xbeeba4dc	-0.46024215
98	0x3ef70f03	0.4825364
99	0xbdb8c6f4	-0.09022322
100	0x3c8e9dc3	0.017409211
101	0x3d1bf637	0.038076606
102	0x3d85defb	0.06536671
103	0x3cef92ec	0.029244862
104	0xbd12c652	-0.035833664
105	0x3d29814f	0.041383084
106	0x3dad4783	0.084609054
107	0xbda84421	-0.082161196
108	0xbe23d9b6	-0.16001019
109	0x3d5bda66	0.053675078
110	0xbdf24520	-0.11829591
111	0x3dc18c74	0.094506174
112	0xbc9ecb73	-0.019384122
113	0x3def47aa	0.11683591
114	0x3d943d5a	0.072382644
115	0xbdf831b7	-0.12118857
116	0xbdc1593c	-0.09440848
117	0xbe4f46e0	-0.2024188
118	0xbe2e9f88	-0.17053044
119	0xbc8e743c	-0.01738941
120	0xbe411579	-0.18855847
121	0xbe505068	-0.20343173
122	0xbce23f7c	-0.027618162
123	0x3c19c40d	0.009385121
124	0xbe0b2f26	-0.13592204
125	0xbbb5ab5c	-0.0055441093
126	0xbe5699e2	-0.20957139
127	0xbe87148a	-0.26382858
128	0xbd79ee0c	-0.061018035
129	0xbdfb5945	-0.12272886
130	0xbe11fc3e	-0.14256379
131	0xbdc44ecb	-0.09585341
132	0xbd3236c0	-0.043509245
133	0xbd83e311	-0.06439794
134	0xbe583fc1	-0.2111807
135	0xbe954914	-0.29157317
136	0xbe51c9f1	-0.20487191
137	0x3ecc5c39	0.3991411
138	0xbe230cde	-0.15922877
139	0xbe71702d	-0.23577948
140	0x3e5e33f9	0.21699513
141	0xbe176abd	-0.14786811
142	0xbe83f311	-0.25771382
143	0x3db0c8f1	0.086320765
144	0xbd39ac11	-0.04533011
145	0xbdfd8b04	-0.12380031
146	0xbe76875e	-0.24075076
147	0xbdb66bb4	-0.089072615
148	0xbe68b01b	-0.22723429
149	0xbe8d3b12	-0.2758413
150	0xbe018c3a	-0.12651148
151	0xbe7bfab8	-0.2460736
152	0xbe0ecaaf	-0.13944505
153	0xbcecf0ee	-0.028923478
154	0xbe32355d	-0.17403169
155	0xbe79998a	-0.24374977
156	0x3e37b733	0.17940979
157	0xbdbf31ad	-0.09335647
158	0xbe2c74bf	-0.1684141
159	0x3e5558f4	0.20834714
160	0xbdbf555f	-0.09342455
161	0xbdf7cd79	-0.12099738
162	0xbd285b00	-0.04110241
163	0xbdeef3bf	-0.11667585
164	0xbe1607c5	-0.14651401
165	0x3c27be77	0.010238281
166	0x3ce77ac3	0.02825678
167	0xbb9226c4	-0.0044601876
168	0x3c1b6386	0.009484177
169	0xbe00ee93	-0.12591009
170	0xbd59916e	-0.05311721
171	0x3debb294	0.115086704
172	0x3d4c50ca	0.049881734
173	0xbe7c98c6	-0.24667653
174	0x3dc6cffb	0.09707638
175	0xbe34f90c	-0.17673129
176	0xbe808661	-0.25102523
177	0x3dfaefec	0.12252793
178	0x3dfd324c	0.12363109
179	0xbe982e59	-0.2972286
180	0xbe0cd0ea	-0.1375157
181	0xbdd88134	-0.105715185
182	0xbed47375	-0.41494337
183	0x3d736078	0.05941817
184	0xbbd3e610	-0.0064666346
185	0xbeb25958	-0.3483379
186	0xbe4f99fa	-0.20273581
187	0x3e8365b8	0.25663543
188	0xbd9d0c91	-0.076684125
189	0x391fdd50	0.00015245867
190	0xbdd40057	-0.10351627
191	0x3c8fbdbd	0.017546529
192	0xbc0dc3cc	-0.008652639
193	0xbd869732	-0.06571807
194	0xbc00f4f1	-0.007870899
195	0x3d0c1102	0.034195907
196	0x3d945ee5	0.07244662
197	0xbda94939	-0.08265919
198	0xbdbbf25c	-0.09177086
199	0xbc23a611	-0.009988324
200	0xbe3b11fa	-0.18268576
201	0x3e8ae119	0.2712486
202	0xbd1b9cb6	-0.037991248
203	0xbc6c82a7	-0.014435447
204	0xbd69e7f4	-0.057105973
205	0xbd946ede	-0.07247709
206	0xbc3be0c4	-0.0114671625
207	0xbe4f53ca	-0.20246807
208	0xbe45ee27	-0.19329129
209	0x3e7b183c	0.24520963
210	0xbeb6ae2d	-0.3567976
211	0x3d3a1597	0.045430746
212	0xbe2d5927	-0.1692854
213	0x3ea57d33	0.32322082
214	0x3ebd0a27	0.36921808
215	0x3d9b47a5	0.075820245
216	0xbd761201	-0.060075764
217	0xbd2da0d8	-0.04238972
218	0xbe9d1eef	-0.30687663
219	0x3e6d3031	0.23162915
220	0x3dae0586	0.08497147
221	0x3d99fa30	0.075184226
222	0x3e5389db	0.20658056
223	0x3da91758	0.082564056
224	0x3d836bf2	0.06417073
225	0xbe6b7319	-0.22993125
226	0xbd357f98	-0.044311136
227	0xbe8788d7	-0.26471588
228	0x3dd44856	0.103653595
229	0x3df21c4e	0.11821805
230	0xbe8e5f59	-0.2780712
231	0x3e3c9145	0.18414791
232	0x3df5e44e	0.12006436
233	0xbe53f2a5	-0.2069803
234	0x3ce3d905	0.027813444
235	0xbd3315df	-0.04372203
236	0x3e341f5b	0.17590086
237	0xbe7ecad0	-0.24882054
238	0xbebe4d13	-0.37168178
239	0x3e5e7723	0.21725135
240	0xbf255a6c	-0.645911
241	0xbebbe7db	-0.3670033
242	0xbe6b2cf7	-0.22966371
243	0xbd0db0f9	-0.034592602
244	0x3dcf0b8d	0.10109625
245	0x3cc13984	0.023586996
246	0xbe18c0ad	-0.1491725
247	0xbe8ecb12	-0.27889305
248	0x3f0058c2	0.50135434
249	0xbc09a3be	-0.008400856
250	0x3d9982bb	0.07495638
251	0x3ec2272f	0.3792052
252	0x3d9c1cd1	0.07622684
253	0xbd3ec563	-0.04657496
254	0x3a947077	0.0011325021
255	0x3dda9374	0.10672656

conv_block_1.2.bias f4 [10]
0	0xbdb628e5	-0.08894519
1	0x3ba7cbd8	0.0051207356
2	0x3f44a771	0.76817995
3	0x3d59e502	0.053196914
4	0x3ec15fb4	0.37768328
5	0xbde0e505	-0.10981182
6	0x3ed4a69d	0.41533366
7	0x3ef564e3	0.47928533
8	0xbda11623	-0.0786555
9	0x3eb77062	0.3582793

conv_block_2.0.weight f4 [10, 10, 3, 3]
0	0x3d39e7f6	0.04538723
1	0xbdaad9d1	-0.083423264
2	0x3d86d46c	0.06583485
3	0x3d1605c1	0.03662658
4	0x3d1238fa	0.03569887
5	0x3cfeaff8	0.031089768
6	0xbdd2126f	-0.10257422
7	0x3d4cd800	0.05001068
8	0xbd80edbc	-0.06295344
9	0x3aeb61b9	0.0017958201
10	0x3d0c3497	0.03422984
11	0xbd7693c1	-0.060199503
12	0x3d6d07b2	0.057868667
13	0xbd9324d4	-0.07184759
14	0xbdb12142	-0.086489215
15	0xbd0d1eeb	-0.034453314
16	0xbcd93f91	-0.026519569
17	0x3d3b5b9d	0.045741666
18	0x3dfbffdf	0.12304663
19	0x3d05ebef	0.032695707
20	0x3d8fab2d	0.07015071
21	0x3d3e1656	0.04640802
22	0xbd725401	-0.059162144
23	0x3cc2c279	0.023774372
24	0xbde53c77	-0.111931734
25	0xbde46072	-0.11151208
26	0x3b88f637	0.0041797417
27	0xbd03487f	-0.03205156
28	0xbd8f9150	-0.07010138
29	0x3da74b0b	0.0816861
30	0x3dcbdba8	0.099540055
31	0xbda77fb2	-0.08178653
32	0x3e2669fb	0.16251366
33	0x3ddf347b	0.10898682
34	0x3dd1e0a1	0.10247923
35	0x3d9be4e2	0.07612015
36	0x3d5a733e	0.05333256
37	0x3d8eb60f	0.06968319
38	0xbda71939	-0.08159108
39	0xbd14890d	-0.036263514
40	0xbd20dfa7	-0.03927579
41	0xbd9cc127	-0.076540284
42	0x3c698d6f	0.014254912
43	0xbd9309c8	-0.071796
44	0xbcbf0e48	-0.02332224
45	0xbd2e56ec	-0.042563364
46	0xbc9e51be	-0.019326087
47	0x3d573ec2	0.052550085
48	0xbcb1ed2f	-0.021719543
49	0x3db6636f	0.08905684
50	0x3ccd432f	0.02505645
51	0x3da08184	0.07837203
52	0xbda4a345	-0.08038954
53	0x3a931103	0.001122028
54	0xbcf9417c	-0.030426733
55	0xbdc523df	-0.096259825
56	0x3cc90d73	0.024542546
57	0xbd1cc53c	-0.038274035
58	0xbd1f2a84	-0.038858905
59	0xbd922a89	-0.07137019
60	0xbd44d4d7	-0.048054542
61	0xbc842eaf	-0.016135542
62	0xbe3c43b7	-0.18385206
63	0xbd3aee89	-0.04563764
64	0x3df46b98	0.119345844
65	0xbdb52f0b	-0.08846863
66	0xbe10e076	-0.14148125
67	0x3e00dfbe	0.12585351
68	0xbdf0fd4e	-0.11767064
69	0xbcee55f6	-0.029093724
70	0x3cf70d73	0.03015778
71	0x3db26805	0.087112464
72	0x3e3b1b01	0.1827202
73	0xbd529372	-0.051410146
74	0x3d04d0e9	0.032425795
75	0x3dc8da75	0.09807292
76	0xbd48efde	-0.04905688
77	0xbcc92d86	-0.02455784
78	0x3c7860ac	0.015159767
79	0xbb9c8afa	-0.0047773095
80	0xbd7b7243	-0.061388265
81	0xbd868aa6	-0.06569414
82	0xbddb6218	-0.10712069
83	0xbde79639	-0.113079496
84	0xbe665456	-0.22493109
85	0x3ca2ab2f	0.019857017
86	0xbd49e6c8	-0.049292356
87	0xbd641ab8	-0.055689543
88	0x3ce36f2a	0.027762968
89	0xbd87bf5e	-0.06628297
90	0x3d1648d7	0.03669056
91	0x3db7d1fd	0.08975599
92	0x3b060d05	0.0020454538
93	0x3cb1bc6b	0.02169629
94	0x3daf1753	0.085493706
95	0x3daae4ab	0.08344396
96	0x3d35f3b5	0.04442187
97	0x3d084187	0.033265617
98	0x3d0710ba	0.032974936
99	0xbd60228d	-0.05472045
100	0x3dfa1f23	0.1221297
101	0x3dc72194	0.097232014
102	0xbdda62d7	-0.106633835
103	0x3dde5ffe	0.10858153
104	0x3e0baf8f	0.13641189
105	0x3cf72f92	0.03017405
106	0x3d380766	0.04492893
107	0x3c82035e	0.015870746
108	0xbe814a7b	-0.25252137
109	0x3eca348e	0.3949322
110	0x3e1a3350	0.15058637
111	0xbdf406d7	-0.11915367
112	0xbd8404cb	-0.06446227
113	0xbdfa7fbb	-0.12231394
114	0x3ef083d9	0.46975592
115	0x3e64617f	0.22302817
116	0xbd247388	-0.04014924
117	0x3c6aa67d	0.01432192
118	0x3d468642	0.048467882
119	0x3e8c8b83	0.2745019
120	0x3e056873	0.13028125
121	0x3c7e629f	0.015526443
122	0x3d357a66	0.04430618
123	0xbe1bdfb1	-0.1522205
124	0xbd7c7874	-0.06163831
125	0x3cccd309	0.025002973
126	0xbd0b39dd	-0.03399073
127	0x3e21ef76	0.15814003
128	0x3dc55b36	0.09636538
129	0x3e343d7e	0.17601582
130	0x3de15c15	0.110038914
131	0xbe0cedaa	-0.13762537
132	0xbe7abb10	-0.24485421
133	0xbe5fc669	-0.21853031
134	0xbeb1f4dd	-0.34757128
135	0xbc95100a	-0.018196125
136	0x3c6d63c9	0.014489123
137	0xbd680d30	-0.0566532
138	0xbdccdd36	-0.1000313
139	0x3da53f17	0.08068674
140	0x3d6320cb	0.055451196
141	0x3ce7baa7	0.028287245
142	0xbd3b65a7	-0.04575124
143	0x3d96dd22	0.073663965
144	0x3e83be18	0.25730968
145	0x3eb05e0f	0.3444676
146	0xbe1e43b6	-0.15455517
147	0x3e8ba581	0.27274707
148	0xbcb444af	-0.022005407
149	0xbebdb52a	-0.3705228
150	0xbcc0c2e6	-0.023530435
151	0xbeba17a2	-0.36346155
152	0xbe60aadb	-0.21940176
153	0xbe1000ef	-0.14062856
154	0x3e02214e	0.12708017
155	0xbe8bbecc	-0.27294004
156	0x3ec94b30	0.39315176
157	0x3caf8518	0.021425769
158	0xbdb5db9c	-0.08879778
159	0x3eee6295	0.46559587
160	0xbe846318	-0.25856853
161	0x3d9dcdb7	0.077052526
162	0xbd244a43	-0.040109884
163	0x3e844304	0.2583238
164	0x3e99ff11	0.30077413
165	0xbe858a55	-0.260821
166	0x3d97ca7c	0.07411668
167	0xbd6aca56	-0.05732187
168	0x3d7c5e08	0.061613113
169	0x3d970910	0.073747754
170	0xbe37010e	-0.17871496
171	0xbf01229a	-0.5044342
172	0xbe9f9ca9	-0.3117421
173	0xbed8e7a2	-0.42364222
174	0x3e64cea1	0.22344448
175	0x3db30771	0.08741654
176	0xbece0135	-0.40235296
177	0x3e97627b	0.29567322
178	0xbe1e7f3c	-0.15478224
179	0x3d03c0f7	0.032166447
180	0x3d08158c	0.033223674
181	0x3cf54cbb	0.029943815
182	0x3d144579	0.036199067
183	0xbd9a76ca	-0.075421885
184	0xbd46e2fb	-0.04855631
185	0x3ca6975c	0.020335846
186	0xbc15ce32	-0.009143399
187	0xbdd71eef	-0.10503947
188	0x3d774c23	0.060375344
189	0x3d9dd4a2	0.07706572
190	0xbe10bfb9	-0.14135636
191	0xbd8e203b	-0.06939741
192	0xbd8caae9	-0.06868536
193	0xbd0f1e37	-0.034940924
194	0xbd43dc90	-0.047817767
195	0xbe30d7e7	-0.1726986
196	0xbd2838fa	-0.041069962
197	0x3b918178	0.0044404827
198	0xbd47f59d	-0.04881822
199	0x3edda4ee	0.43289894
200	0x3e11d9b1	0.14243199
201	0xbd7932cd	-0.060839463
202	0xbe060bc1	-0.13090421
203	0x3e3a412a	0.1818892
204	0xbe07aeca	-0.1325027
205	0xbe9995d6	-0.29997128
206	0x3bb79324	0.0056022573
207	0xbe7e8b41	-0.24857809
208	0xbf0df175	-0.5544656
209	0xbe8f66c5	-0.28008094
210	0xbbe8e92a	-0.0071078734
211	0x3d87409c	0.0660412
212	0x3e8647cf	0.2622666
213	0xbd31c14a	-0.043397225
214	0x3e8f855d	0.28031436
215	0x3e608ba4	0.21928269
216	0x3c97afaa	0.01851638
217	0xbea04080	-0.3129921
218	0x3dd55bbf	0.1041789
219	0x3e00878b	0.12551706
220	0x3e8e2c99	0.277684
221	0x3f028c70	0.5099554
222	0xbea08f6e	-0.31359428
223	0xbe83cf26	-0.2574398
224	0xbe1fe0a5	-0.15613039
225	0x3d9e446b	0.077278934
226	0x3c530039	0.012878471
227	0x3c21af8d	0.009868515
228	0xbcec678e	-0.028857972
229	0x3db314da	0.087442115
230	0x3d319cfc	0.043362603
231	0x3d3a0966	0.04541912
232	0xbd869125	-0.06570653
233	0xbc1c42fd	-0.009537456
234	0x3df8a764	0.12141302
235	0x3e6f6e06	0.23381814
236	0x3ecc9b05	0.3996202
237	0xbe5c5ef0	-0.21520591
238	0x3e5df8a6	0.21676883
239	0x3ef7b8cd	0.4838318
240	0xbef40e50	-0.4766717
241	0xbef4c675	-0.4780766
242	0xbed2e25c	-0.41188323
243	0x3bd73e9a	0.006568742
244	0x3effca3a	0.49958974
245	0x3f0720a7	0.527842
246	0xbe20e45e	-0.15712115
247	0x39ec31f7	0.00045050654
248	0xbe2f9302	-0.17145923
249	0xbe402652	-0.18764618
250	0xbeaff820	-0.34368992
251	0x3d8da1c9	0.06915624
252	0xbeba4ed1	-0.36388257
253	0xbef1f7f4	-0.47259486
254	0xbd79cbb7	-0.060985293
255	0xbd8f1df4	-0.06988135

conv_block_2.0.bias f4 [10]
0	0x3d22b886	0.039726757
1	0xbd3980e2	-0.045288928
2	0xbe8971a5	-0.26844516
3	0x3d2395c2	0.039937742
4	0xbdf4da56	-0.11955707
5	0xbe8001b1	-0.2500129
6	0xbde1aa3c	-0.11018798
7	0xbdaf830d	-0.08569918
8	0x3dcbe756	0.09956233
9	0x3e5a98d3	0.2134736

conv_block_2.2.weight f4 [10, 10, 3, 3]
0	0xbd8dd181	-0.06924725
1	0xbd2ffa72	-0.042963453
2	0xbb9935fb	-0.0046756244
3	0x3dd47096	0.103730366
4	0x3d142598	0.036168665
5	0x3d77a0be	0.06045603
6	0xbd0777d5	-0.033073265
7	0x3d9a4c79	0.07534117
8	0xbdd883a3	-0.10571983
9	0x3ebf9652	0.37419373
10	0xbd98d8b5	-0.074632086
11	0x3d25eb87	0.04050782
12	0x3db4504f	0.0880438
13	0xbdc523bf	-0.09625959
14	0x3ce2cfa6	0.027686905
15	0x3e8dad45	0.27671257
16	0x3d451bd4	0.048122242
17	0xbda56da4	-0.08077553
18	0x3e22aabf	0.15885447
19	0xbeb345ce	-0.35014194
20	0xbebecb25	-0.37264362
21	0x3eac91bb	0.33704934
22	0xbf382516	-0.7193159
23	0xbee15184	-0.44007504
24	0xbcdfcac2	-0.027318362
25	0xbf1b9751	-0.60777766
26	0xbeca38af	-0.3949637
27	0xbdae72e0	-0.085180044
28	0xbe431bc8	-0.19053566
29	0x3e79d145	0.24396236
30	0xbe375775	-0.17904456
31	0xbe13eedf	-0.14446591
32	0x3e43974c	0.19100684
33	0xbcbbc37e	-0.022920366
34	0x3d281df6	0.041044198
35	0x3eb3da44	0.3512746
36	0x3e83a4fb	0.25711808
37	0xbe97bb9e	-0.29635328
38	0xbe922820	-0.28546238
39	0x3d444a93	0.047922682
40	0xbeafb2f1	-0.3431621
41	0xbdf370e9	-0.1188677
42	0xbdd47ab9	-0.1037497
43	0x3df0b8ff	0.11754035
44	0x3ec9b915	0.3939902
45	0x3dcd8b03	0.1003628
46	0xbec0e58f	-0.3767514
47	0xbf3a94f3	-0.7288353
48	0x3e9f4678	0.3110845
49	0xbeae4432	-0.34036404
50	0xbe9b68e2	-0.30353457
51	0xbe826bf7	-0.25472996
52	0xbf2801d7	-0.6562781
53	0x3d187387	0.03721955
54	0xbdfdf4b2	-0.124001876
55	0xbc04bb62	-0.008101316
56	0xbe0fc503	-0.14039998
57	0x3e7bfc36	0.2460793
58	0xbd1a865d	-0.037725795
59	0xbdf1d0fa	-0.11807437
60	0x3e87ae4f	0.26500174
61	0xbb19bbe6	-0.0023457943
62	0x3d1f8199	0.038941953
63	0x3d4e31e3	0.050340544
64	0x3e0489f0	0.12943244
65	0x3cf4c52d	0.029879177
66	0xbcdde6f3	-0.027087664
67	0xbe9c2162	-0.3049422
68	0xbe9456bb	-0.2897242
69	0x3d9d48e0	0.076799154
70	0xbe97c4d9	-0.2964237
71	0xbd962f2f	-0.07333218
72	0xbd393542	-0.045216806
73	0xbe688dd4	-0.22710353
74	0x3d740a51	0.05958015
75	0xbdce1b64	-0.10063818
76	0xbe6198e0	-0.22030973
77	0x3e9f96b0	0.31169653
78	0x3c330066	0.010925388
79	0xbd9e6efa	-0.07736011
80	0x3e9e3b17	0.30904457
81	0xbc7f9099	-0.01559844
82	0x3e4e01be	0.20117852
83	0xbf1671be	-0.58767307
84	0x3ee6383f	0.44964787
85	0x3cd45bb4	0.025922634
86	0xbf25692e	-0.64613616
87	0x3e96e51f	0.2947168
88	0xbe863a78	-0.26216483
89	0xbe987cd4	-0.29782736
90	0x3d3dd4fd	0.0463457
91	0xbded04fc	-0.11573216
92	0xbd468be6	-0.04847326
93	0x3d99de75	0.075131334
94	0x3cc6a52e	0.024248686
95	0xbc9ea751	-0.019366892
96	0x3dd94f29	0.10610802
97	0xbd3a61f3	-0.045503568
98	0xbc4c6101	-0.012474299
99	0xbe236dbe	-0.15959832
100	0xbe8e0b01	-0.2774277
101	0xbee63cb8	-0.449682
102	0x3d3f1a43	0.046655905
103	0xbe3013c6	-0.17195043
104	0xbeb83f95	-0.3598601
105	0x3ca910b6	0.020637851
106	0xbe4560fd	-0.1927528
107	0xbda0fcc5	-0.07860712
108	0x3f4c28d1	0.7974978
109	0xbd39bd08	-0.04534629
110	0x3ecbf108	0.3983233
111	0x3e2dceb7	0.16973387
112	0x3e893720	0.2679987
113	0xbe827b24	-0.25484574
114	0xbeafdc45	-0.3434774
115	0xbe8f6b26	-0.28011435
116	0xbf422e6e	-0.75852096
117	0xbd3a9163	-0.045548808
118	0x3dfae249	0.12250192
119	0x3d87c782	0.0662985
120	0xbe38964e	-0.18026087
121	0xbe7c1aa6	-0.2461954
122	0x3e0ca945	0.13736446
123	0x3dbe7b9a	0.09300919
124	0xbe3db1ec	-0.18524903
125	0x3d6f2304	0.058383003
126	0x3d9a5575	0.07535831
127	0xbe87a7b5	-0.26495138
128	0xbdd6b81e	-0.10484336
129	0xbeb7a698	-0.35869288
130	0xbecf73e1	-0.40518096
131	0x3cd12117	0.025528474
132	0xbf050f91	-0.5197688
133	0x3e1632c7	0.14667808
134	0xbe5bc0ba	-0.21460238
135	0xbf07e1cb	-0.5307891
136	0xbd466292	-0.048433848
137	0x3eff2332	0.4983154
138	0xbf1cddf8	-0.612762
139	0xbf3ce3a4	-0.7378485
140	0xbf525266	-0.8215698
141	0x3e589a8f	0.2115271
142	0x3da44eb7	0.08022826
143	0xbceb3a10	-0.02871421
144	0xbe20bfbd	-0.15698142
145	0xbe2f3d67	-0.17113267
146	0xbea2af7d	-0.31774512
147	0xbdb5c56e	-0.08875547
148	0xbe01a0f1	-0.1265905
149	0xbe977531	-0.29581597
150	0x3d384b46	0.04499366
151	0xbbd90d86	-0.0066239266
152	0xbde8e8e3	-0.113725446
153	0xbe0c38a0	-0.13693476
154	0x3a643a4b	0.0008706196
155	0xbde674cb	-0.11252745
156	0xbf0c4245	-0.5478862
157	0xba9f4b7f	-0.0012153237
158	0xbe55c623	-0.20876364
159	0xbd086148	-0.0332959
160	0x3e9674d1	0.29386
161	0x3e96bda3	0.29441556
162	0x3e03b9bf	0.12863825
163	0xbc8aa4fd	-0.016924376
164	0xbde8b92a	-0.11363442
165	0xbe88c9b7	-0.26716396
166	0xbe04df30	-0.12975764
167	0xbf0f8f7a	-0.560783
168	0x3f2efd26	0.68355024
169	0x3ef20a9c	0.4727372
170	0x3d525b85	0.05135681
171	0x3e24f9a9	0.16110863
172	0x3e381fcc	0.1798088
173	0x3eb0a46d	0.34500447
174	0xbe36d121	-0.17853214
175	0xbc786227	-0.01516012
176	0x3cb6bd04	0.022306927
177	0xbea59fff	-0.3234863
178	0xbee83bc9	-0.45358112
179	0xbf034d6d	-0.5129002
180	0x3da65d8c	0.081233114
181	0x3a4eccf9	0.00078888197
182	0x3dafb13b	0.08578726
183	0x3d7193c5	0.058978815
184	0x3caa1af1	0.0207648
185	0x3d327c96	0.043575846
186	0xbde54999	-0.11195678
187	0x3d083e82	0.033262737
188	0xbdb6f715	-0.08933846
189	0x3e98a155	0.29810587
190	0x3ca50f91	0.020149024
191	0xbdfe97fc	-0.124313325
192	0xba0db308	-0.0005405401
193	0xbe8a28a0	-0.2698412
194	0x3dedc487	0.1160975
195	0xbeab4b74	-0.33456004
196	0xbe1e2e54	-0.1544736
197	0x3e35439a	0.17701569
198	0xbeb86f0c	-0.36022222
199	0xbdaae9f8	-0.08345407
200	0xbdc17a27	-0.09447127
201	0xbed675f2	-0.4188686
202	0xbe150a6e	-0.1455476
203	0xbdddf3de	-0.108375296
204	0x3ed3429b	0.41261753
205	0xbc869d75	-0.016432503
206	0xbd80343d	-0.06259964
207	0x3e22a446	0.15882978
208	0x3e95f672	0.29289585
209	0xbd9fe1c4	-0.07806733
210	0xbd15ccd1	-0.03657228
211	0xbd3427d4	-0.043983296
212	0xbddd4a68	-0.108052075
213	0xbe7211bd	-0.23639579
214	0xbe645682	-0.22298625
215	0xbdaf0f50	-0.085478425
216	0xbe28d0fe	-0.16485974
217	0x3e73875f	0.23782109
218	0xbdb5d61e	-0.0887873
219	0xbec5fe64	-0.38670647
220	0xbdb33327	-0.08749991
221	0xbeaa2c3d	-0.33236876
222	0xbd85a796	-0.06526105
223	0xbded02c5	-0.11572794
224	0xbe63a8bf	-0.2223234
225	0xbcae5a2f	-0.021283237
226	0xbf2347de	-0.63781536
227	0x3da1814c	0.078859895
228	0xbf1f4563	-0.6221525
229	0xbeb0037b	-0.34377655
230	0x3e2cf0a3	0.1688867
231	0x3ef7be4e	0.48387378
232	0x3f3506f4	0.70713735
233	0x3ce71157	0.02820651
234	0x3e8fdb9a	0.2809723
235	0x3eb78197	0.35841057
236	0x3e2a9c5a	0.16661206
237	0xbd35675b	-0.04428802
238	0xbdf1e0d8	-0.11810464
239	0x3d595ec1	0.05306888
240	0xbccb2047	-0.024795664
241	0x3d849d69	0.06475336
242	0x3e3269d6	0.17423186
243	0x3d8183ec	0.0632399
244	0x3cda03b0	0.026613086
245	0x3ed5974c	0.41716993
246	0x3df604e9	0.12012655
247	0xbee3ade1	-0.44468597
248	0x3e4dc8a2	0.20096067
249	0xbeb7ee5c	-0.3592404
250	0xbe118b67	-0.14213334
251	0x3e0f3354	0.13984424
252	0xbe6330da	-0.22186604
253	0xbd252d9c	-0.0403267
254	0xbc1940e0	-0.009353846
255	0xbf12cf8a	-0.5734793

conv_block_2.2.bias f4 [10]
0	0xbe041817	-0.12899815
1	0x3af2c9fa	0.0018523328
2	0x3df045c0	0.11732054
3	0xbe125f2c	-0.14294118
4	0x3d8a8046	0.067627475
5	0xbeee2c2d	-0.46518078
6	0xbe1e4ef3	-0.15459804
7	0x3d3874ce	0.04503327
8	0xbdf00f39	-0.117216535
9	0xbe859863	-0.26092824

classifier.1.weight f4 [10, 490]
0	0xbdf213f1	-0.1182021
1	0xbdf6ef36	-0.120573446
2	0x3d91be69	0.07116396
3	0xbcc6c94a	-0.024265904
4	0xbd0cbab2	-0.034357734
5	0xbd2aacb2	-0.0416686
6	0x3c23cee2	0.009998055
7	0xbcc914a4	-0.024545975
8	0x3c87c92b	0.016575417
9	0x3db10142	0.08642818
10	0xbe877ce8	-0.26462483
11	0xbeaf87bd	-0.34283248
12	0xbf19117b	-0.597923
13	0xbeade900	-0.33966827
14	0x3e8cf109	0.27527645
15	0x3df44784	0.11927703
16	0xbe17c133	-0.14819793
17	0xbde3eec6	-0.11129527
18	0xbe3f60e9	-0.18689312
19	0xbef4f264	-0.4784118
20	0xbe365a97	-0.17807995
21	0x3e7e4bc8	0.24833596
22	0x3ea423b9	0.32058504
23	0xbe21ed0e	-0.15813085
24	0x3e9c02cf	0.30470893
25	0x3e2a2e1d	0.16619153
26	0x3e90f56b	0.2831224
27	0x3d903c9b	0.070428096
28	0x3e23fe1d	0.16014905
29	0xbc22401d	-0.009902981
30	0xbe8565a6	-0.26054114
31	0x3e375023	0.17901663
32	0x3ed1885a	0.4092434
33	0x3eb73a7a	0.35786802
34	0x3ea09a59	0.31367758
35	0x3e0607a8	0.13088858
36	0xbcbcd2a7	-0.023049666
37	0xbe98760c	-0.29777563
38	0xbe768db7	-0.24077497
39	0xbcbb4487	-0.022859825
40	0x3d84282a	0.06452973
41	0xbdde1e18	-0.10845584
42	0xbce32b26	-0.027730536
43	0xbb49cb29	-0.003079126
44	0xbc8a933f	-0.016915916
45	0xbeac3281	-0.3363228
46	0xbedf5ad1	-0.43623975
47	0xbe4f8edd	-0.20269342
48	0xbdd2b202	-0.102878585
49	0xbc9385f5	-0.018008212
50	0xbddf7b46	-0.109121844
51	0xbdab3a77	-0.08360761
52	0xbd3a3506	-0.045460723
53	0x3e6e2138	0.2325486
54	0x3dc26a6e	0.09492956
55	0xbc177fe1	-0.009246797
56	0x3c5a5477	0.013325802
57	0x3dc3704f	0.095429055
58	0xbd33e7af	-0.043922123
59	0x3d520e7b	0.05128334
60	0xbd5d8ddd	-0.05409037
61	0xbdc39df8	-0.095516145
62	0xbcfe1b93	-0.031019008
63	0xbbdcfeb0	-0.0067442283
64	0xbe8d1575	-0.27555433
65	0xbe889220	-0.26673985
66	0xbeba47d2	-0.3638292
67	0xbe7fd65a	-0.24984112
68	0xbd6f4718	-0.05841741
69	0xbd19828c	-0.037478015
70	0xbe135bcf	-0.14390491
71	0xbf22ce87	-0.63596386
72	0xbf5ef83d	-0.8709753
73	0xbe7d5a4d	-0.24741478
74	0x3e2062b9	0.1566266
75	0x3cb265c3	0.02177704
76	0xbdf41827	-0.11918669
77	0xbd20714d	-0.039170552
78	0xbed2ce0b	-0.41172823
79	0xbef8744d	-0.4852623
80	0xbec95c1a	-0.3932808
81	0xbd7578ad	-0.05992954
82	0xbc6bac2d	-0.014384312
83	0x3c70620e	0.014671816
84	0xbd212622	-0.039343007
85	0x3db8ed26	0.090296075
86	0xbd815555	-0.06315104
87	0x3da702bc	0.081548184
88	0x3dc03c68	0.093865216
89	0xbe1e939b	-0.15485995
90	0xbdb174f1	-0.08664883
91	0x3d7ab504	0.061207786
92	0x3e1d270f	0.15346931
93	0x3e70476f	0.2346475
94	0x3e8efbbb	0.2792643
95	0xbde99dad	-0.114070274
96	0xbdef53d6	-0.11685912
97	0x3b95f7a8	0.004576642
98	0x3d1c015d	0.038087238
99	0x3c9dd4e3	0.019266551
100	0xbe03bb78	-0.12864482
101	0xbca7d92b	-0.020489296
102	0xbe0baed7	-0.13640915
103	0x3d3ad426	0.045612477
104	0xbc944f4f	-0.018104224
105	0xbc11db3a	-0.008902365
106	0xbd7163b0	-0.05893296
107	0xbca615b2	-0.020274017
108	0x3dc6227d	0.09674547
109	0x3dcc31ec	0.09970459
110	0xbe285ce3	-0.16441683
111	0xbb85db50	-0.004084982
112	0x3cc2133a	0.023690809
113	0xbd5bca07	-0.053659465
114	0x3d88b718	0.06675547
115	0xbda29727	-0.07938986
116	0xbeed9b19	-0.46407393
117	0xbecacd82	-0.39609915
118	0xbde8d359	-0.11368436
119	0x3c561690	0.013066903
120	0x3c1e6049	0.009666511
121	0xbd8bd6e3	-0.06828096
122	0xbf0e6af7	-0.55631965
123	0xbe0bed2c	-0.13664693
124	0xbe0bde7f	-0.13659094
125	0xbe85e1e9	-0.26148918
126	0xbcd07359	-0.025445627
127	0xbd98c887	-0.074601226
128	0x3d641456	0.055683456
129	0x3e391eb0	0.18078113
130	0x3e99fece	0.30077213
131	0xbce960cc	-0.02848854
132	0xbdc1aa09	-0.0945626
133	0xbaa5ba42	-0.001264401
134	0xbc7d0eb5	-0.015445401
135	0xbda9890a	-0.08278091
136	0x3e8912de	0.26772207
137	0x3e22d835	0.15902789
138	0x3cfdd2ad	0.030984247
139	0xbd67fdfe	-0.05663871
140	0x3d1746c1	0.03693271
141	0x3d30ae56	0.04313501
142	0xbc9e6080	-0.019333124
143	0x3ca4caee	0.020116296
144	0x3d21350c	0.03935723
145	0x3c28e47b	0.01030838
146	0xbbf2a2d2	-0.0074046636
147	0xbcf1f304	-0.029534824
148	0xbd92c944	-0.071672946
149	0x3c880fd9	0.01660912
150	0xbb4a3cb9	-0.0030858947
151	0xbdbf893b	-0.093523465
152	0xbcc40aa1	-0.02393085
153	0x3d26db48	0.040736467
154	0xbdbc078a	-0.091811255
155	0xbe02ed02	-0.12785724
156	0xbe63cd30	-0.22246242
157	0xbc892092	-0.016739164
158	0xbda7a3cf	-0.08185541
159	0x3badd8f2	0.005305403
160	0xbc408001	-0.0117492685
161	0xbde218d9	-0.110398956
162	0xbd66170f	-0.056174334
163	0xbde61c8d	-0.112359144
164	0xbeb7d9ec	-0.3590845
165	0x3d5cc024	0.053894177
166	0x3ea5e5af	0.32401797
167	0x3c5d5d39	0.013510996
168	0xbceab8de	-0.028652605
169	0xbc1a1792	-0.009405034
170	0x3e9fc379	0.3120382
171	0xbe72104d	-0.23639031
172	0x3ea31895	0.31854692
173	0x3eef37e1	0.4672232
174	0x3d33272f	0.04373854
175	0x3cbca970	0.023030013
176	0xbcf1f209	-0.029534357
177	0xbbaa9d85	-0.005206766
178	0xbf006031	-0.50146776
179	0x3d8a7741	0.06761027
180	0x3e55ced5	0.20879681
181	0xbc630071	-0.013855086
182	0x3dbb6f3c	0.09152076
183	0x3e08fb93	0.13377218
184	0x3e745a19	0.23862495
185	0xbe177e25	-0.14794214
186	0xbeac7823	-0.33685407
187	0xbe17a932	-0.14810637
188	0xbce4b773	-0.027919507
189	0x3c52f510	0.01287581
190	0xbbe104cd	-0.0068670274
191	0x3d03caf6	0.03217598
192	0xbe0de500	-0.13856888
193	0xbe91a836	-0.28448647
194	0xbd942e67	-0.07235413
195	0xbd8e2d51	-0.06942237
196	0xba886c05	-0.0010408169
197	0xbd099ebe	-0.033598654
198	0x3d07db3f	0.033168074
199	0xbc8347ae	-0.01602539
200	0x3d87a545	0.066233195
201	0x3da62bbd	0.08113811
202	0x3da8692a	0.082231835
203	0x3cf9b46c	0.03048154
204	0xbdc0e10e	-0.09417926
205	0xbdc12667	-0.09431153
206	0x3d1e0194	0.038575724
207	0x3e90f982	0.2831536
208	0x3d8e7dda	0.06957598
209	0x3d2d8b7f	0.042369362
210	0xbda417b2	-0.08012332
211	0xbe61e168	-0.22058642
212	0xbe63a9e7	-0.22232781
213	0xbcfe9840	-0.031078458
214	0x3e21b104	0.15790182
215	0x3e0fa464	0.14027554
216	0xbd5cdcc4	-0.053921476
217	0xbe684d28	-0.22685683
218	0xbed6a9e8	-0.41926503
219	0xbf031875	-0.51209193
220	0x3e1ca77a	0.15298262
221	0x3e3b50ed	0.1829259
222	0xbdb6f4e4	-0.08933428
223	0xbe541bfd	-0.20713802
224	0x3c65881d	0.014009503
225	0xbc6d46d0	-0.014482215
226	0xbded092d	-0.11574016
227	0x3e8dbf03	0.27684793
228	0x3e6384d3	0.22218637
229	0xbce657c1	-0.028118016
230	0x3d7aff10	0.061278403
231	0x3afbc062	0.0019207115
232	0xbd98f97f	-0.074694626
233	0x3d98520f	0.074375264
234	0xbdb9d30e	-0.090734586
235	0xbe66b734	-0.22530824
236	0xbce3a7a7	-0.027789904
237	0xbd9c559d	-0.07633517
238	0x3d66603b	0.056244116
239	0x3e01d543	0.12679009
240	0x3d56f85a	0.05248294
241	0xbdc46802	-0.095901504
242	0xbed87666	-0.4227783
243	0xbdd915bc	-0.10599849
244	0x3cd8552a	0.026407797
245	0xbcbc8fb3	-0.02301774
246	0xbda62b5f	-0.08113741
247	0xbb69ab6f	-0.003565516
248	0x3dbcac63	0.09212568
249	0xbc9cfa78	-0.019162402
250	0xbc2a30ce	-0.0103876125
251	0xbd1acd95	-0.037793715
252	0xbd885173	-0.0665616
253	0x3c2d56fb	0.01057982
254	0x3d88f57b	0.06687447
255	0xbe4c055a	-0.19923916

classifier.1.bias f4 [10]
0	0xbcc2ef8a	-0.023795862
1	0x3f028255	0.5098012
2	0x3e2a36b7	0.16622435
3	0xbe9563f1	-0.29177812
4	0xbdf5bd5c	-0.11999008
5	0x3aeb341a	0.0017944605
6	0xbdbf695d	-0.09346268
7	0x3e85bbdb	0.26119885
8	0xbe362453	-0.17787294
9	0xbe80b96c	-0.25141466
