model_weights/model_epoch_1.pth (torch, 34447 bytes, 10 tensors)

conv_block_1.0.weight f4 [10, 1, 3, 3]
0	0xbebfa4ed	-0.37430516
1	0x3e8503e2	0.25979525
2	0xbd074d11	-0.03303248
3	0xbdb35d86	-0.087580726
4	0xbc8ebb52	-0.017423306
5	0x3eac9331	0.33706048
6	0x3e64c8e3	0.22342257
7	0x3d3cd2d0	0.046099484
8	0x3c887ed3	0.016662037
9	0x3da71a9a	0.08159371
10	0xbe89ea71	-0.26936677
11	0xbf1f084e	-0.62122047
12	0xbe64ee52	-0.22356537
13	0xbdb869e6	-0.090045735
14	0xbee4f07a	-0.4471472
15	0x3eceee1e	0.40416044
16	0xbdb8e025	-0.09027127
17	0x3f062552	0.52400696
18	0xbd52d75a	-0.051474907
19	0xbe8739b1	-0.26411203
20	0xbe1d811d	-0.15381284
21	0xbb1795b0	-0.0023129992
22	0xbe4de9ee	-0.20108768
23	0x3eacacfb	0.33725724
24	0xbca6f311	-0.020379575
25	0x3ee60b0c	0.44930303
26	0x3ec004ff	0.37503812
27	0x3d97364d	0.07383404
28	0x3df0baf2	0.11754407
29	0x3d6e97bb	0.05825017
30	0x3dd42d18	0.103601635
31	0xbe2a5f4a	-0.16637912
32	0x3de46b52	0.11153282
33	0x3dea83a1	0.114508875
34	0x3eae5a98	0.34053493
35	0xbe5a9159	-0.21344508
36	0x3ea5d947	0.32392332
37	0x3e8d96f7	0.2765424
38	0xbea3c8b1	-0.31989053
39	0xbea1fa4c	-0.31636274
40	0x3e189734	0.1490143
41	0xbe2b732f	-0.16743158
42	0x3e200fa3	0.15630965
43	0xbd398a10	-0.045297682
44	0x3e83f809	0.25775173
45	0x3ebc9447	0.36831877
46	0xbe11d176	-0.1424006
47	0x3e9aee54	0.30259955
48	0x3e3b2c4c	0.18278617
49	0xbe1bb9fc	-0.15207666
50	0xbebbb6af	-0.36662814
51	0xbe724f81	-0.23663141
52	0x3e820a3f	0.25398442
53	0x3e20c2f8	0.15699375
54	0xbe8b0116	-0.27149266
55	0xbe9b19be	-0.30293077
56	0xba9db800	-0.0012032986
57	0xbea214ef	-0.31656596
58	0xbe9b0187	-0.30274603
59	0xbdd91986	-0.10600571
60	0xbe938db2	-0.28819042
61	0x3e82fd41	0.25583842
62	0xbe6f5e28	-0.23375762
63	0xbe8c169e	-0.27361006
64	0x3e207ac4	0.15671831
65	0x3da57485	0.08078865
66	0x3e3ade7e	0.18248937
67	0x3f08f9d7	0.53506225
68	0x3effd89d	0.4996995
69	0xbece1c27	-0.40255854
70	0x3dc51bbe	0.09624432
71	0x3e4a5b32	0.19761351
72	0x3d71a571	0.058995668
73	0xbe95d757	-0.29265854
74	0xbc8bc7da	-0.01706307
75	0x3e206cd2	0.15666512
76	0x3d70a66e	0.05875247
77	0xbce1585d	-0.027507955
78	0x3cbc9908	0.02302219
79	0x3bff5506	0.007792118
80	0xbe54ee00	-0.20793915
81	0xbe4b2c74	-0.19841176
82	0xbd7fd452	-0.062458344
83	0xbea525f4	-0.32255518
84	0xbe8b7996	-0.272412
85	0x3e8c4ffb	0.2740477
86	0xbe76b8e7	-0.24093972
87	0x3dc24f66	0.094878
88	0xbca7393e	-0.020413037
89	0xbdfceb6c	-0.12349591

conv_block_1.0.bias f4 [10]
0	0x3d0cf6ba	0.034414984
1	0x3e3e899f	0.18607186
2	0x3db19403	0.08670809
3	0x3b90cdf0	0.004419081
4	0xbdfacbc5	-0.12245897
5	0xbe1a60e4	-0.15076023
6	0xbe861942	-0.26191145
7	0xbd062e96	-0.03275927
8	0xbe0e56bf	-0.13900279
9	0xbe0a61c5	-0.13513859

conv_block_1.2.weight f4 [10, 10, 3, 3]
0	0xbd99fefd	-0.07519338
1	0xbd01085d	-0.031502116
2	0x3cad0491	0.021120341
3	0x3d8abd5a	0.06774397
4	0x3d9ec51f	0.077524416
5	0x3d63df51	0.055632893
6	0x3e291f7a	0.16515914
7	0x3e2525a9	0.16127647
8	0x3d874fbe	0.066070065
9	0x3c0fd4a4	0.008778725
10	0xbd29135e	-0.041278236
11	0xbe0418d2	-0.12900093
12	0xbd62acd5	-0.055340607
13	0xbe30237b	-0.17201035
14	0xbe2a5ea1	-0.1663766
15	0xbe79256b	-0.2433068
16	0xbe8f4571	-0.27982667
17	0xbdabc365	-0.08386878
18	0xbdad8cd2	-0.08474125
19	0x3e5dae12	0.21648434
20	0x3e07456c	0.13210076
21	0x3e2e3b62	0.1701484
22	0x3e5f042b	0.21778934
23	0xbcba328c	-0.02272918
24	0x3e4d4b38	0.20048225
25	0x3d40dad2	0.047083683
26	0xbcc9d13c	-0.024635904
27	0xbe296ee2	-0.16546205
28	0x3e0e8b6c	0.13920373
29	0x3dce6150	0.10077155
30	0x3d83d94b	0.0643793
31	0x3db4f10d	0.08835039
32	0x3e032cc4	0.12810045
33	0xbdf8e7ff	-0.12153625
34	0x3e25fcb5	0.16209681
35	0x3dea009e	0.11425899
36	0x3b69b7c5	0.0035662514
37	0xbcae12bf	-0.021249173
38	0x3da0ea49	0.07857186
39	0xbded9d10	-0.11602223
40	0x3d9bc574	0.076060206
41	0x3d8a322e	0.06747852
42	0xbd2814d2	-0.04103548
43	0xbc2ee33b	-0.010674293
44	0x3d5bb6c2	0.05364109
45	0xbdc7b4b0	-0.0975126
46	0xbda654d0	-0.081216455
47	0xbc1de2e8	-0.009636618
48	0xbe0c1933	-0.13681488
49	0x3dad6cac	0.08467993
50	0x3e265770	0.16244292
51	0xbd80bce7	-0.0628603
52	0xbc94a549	-0.01814522
53	0xbd10ab0e	-0.03531938
54	0x3d8fa9b3	0.070147894
55	0x3d2d7422	0.04234708
56	0xbd8439fd	-0.06456373
57	0x3d92241f	0.07135796
58	0xbd8ca5dc	-0.06867573
59	0xbd75909b	-0.05995236
60	0x3dc88653	0.09791245
61	0xbd125422	-0.035724767
62	0xbceae378	-0.028672919
63	0xbddd494c	-0.10804996
64	0x3e72c9cb	0.2370979
65	0x3e7f7fe4	0.2495113
66	0xbdec348a	-0.115334585
67	0x3e1b660d	0.15175648
68	0x3dd4bceb	0.10387596
69	0x3d8ab3a1	0.06772543
70	0x3e28aaae	0.16471359
71	0x3d4915b4	0.049092963
72	0xbda31c77	-0.079644136
73	0xbdaa2214	-0.08307281
74	0xbd566371	-0.05234093
75	0x3d8519ac	0.06499037
76	0x3dcdee0b	0.10055169
77	0x3c86e064	0.01646442
78	0x3d8a76e6	0.06760959
79	0x3d2761e6	0.040864848
80	0xb948a500	-0.00019134954
81	0x3d29a754	0.041419342
82	0x3d959819	0.07304401
83	0xbd0a2a50	-0.03373176
84	0xbd6c5d03	-0.05770589
85	0xbd1b6e07	-0.037946727
86	0xbd6e4888	-0.05817464
87	0xbd9c1a5b	-0.076222144
88	0xbdc031fd	-0.093845345
89	0x3c75b2c7	0.014996237
90	0x3dbeb84d	0.09312496
91	0x3e1b69d0	0.15177083
92	0xbdda65ee	-0.10663973
93	0x3cba93a1	0.022775473
94	0x3d2bc9de	0.041940562
95	0xbd5f1beb	-0.054469984
96	0xbdb0ff67	-0.08642464
97	0xbc754e6e	-0.014972312
98	0x3d2d7db9	0.042356227
99	0xbdffa421	-0.12482477
100	0xbe1a40bf	-0.15063761
101	0xbd57bd8f	-0.05267101
102	0xbdd6f9c2	-0.10496856
103	0xbd879f67	-0.066222005
104	0x3d40722d	0.046983887
105	0xbd7b39e7	-0.061334517
106	0xbb2d7f58	-0.0026473608
107	0x3b9a9691	0.004717656
108	0x3d7dd0d3	0.06196673
109	0x3dc30d54	0.095240265
110	0xbda0a5c1	-0.07844115
111	0xbb7f29ca	-0.003893482
112	0xbd65d9e6	-0.056116007
113	0x3bd7463d	0.0065696524
114	0xbdd0c8ca	-0.101945475
115	0xbce888f4	-0.028385617
116	0xbe61ba03	-0.22043614
117	0x3daf063e	0.085461125
118	0x3cbcf97a	0.023068178
119	0x3de95284	0.11392692
120	0x3e07b2b3	0.13251762
121	0x3df9a122	0.12188937
122	0xbd51722b	-0.05113427
123	0xbd2d44f2	-0.04230208
124	0xbc8a05ad	-0.01684841
125	0xbd034936	-0.03205224
126	0xbdd06dfd	-0.101772286
127	0x3dfefd07	0.12450605
128	0x3b944a3d	0.0045254515
129	0xbd6b74ff	-0.057484623
130	0xbd9ee288	-0.07758051
131	0x3d28cd3b	0.041211348
132	0xbd7b2427	-0.061313774
133	0x3d8df85c	0.069321364
134	0x3d9ba8a9	0.07600529
135	0x3d0fab18	0.035075277
136	0xbcf2f478	-0.029657587
137	0x3d84d923	0.06486728
138	0xbda908da	-0.082536414
139	0xbd8f4513	-0.06995597
140	0x3dbcb0fd	0.09213445
141	0xbd98a908	-0.07454115
142	0xbd24585c	-0.04012333
143	0xbd0adf89	-0.033904586
144	0x3cddcb8c	0.027074598
145	0x3d5622f2	0.05227942
146	0x3da7458f	0.08167564
147	0x3d90e0e9	0.07074148
148	0xbdb96c41	-0.09053851
149	0xbbdac130	-0.006675862
150	0xbd553b40	-0.05205846
151	0xbd096b0c	-0.033549353
152	0xbd0576b2	-0.0325839
153	0x3d4b014e	0.04956179
154	0x3ea52dc5	0.32261482
155	0x3e50bcc4	0.20384508
156	0x3d42fd69	0.047604952
157	0x3daae96c	0.08345303
158	0x3ddba5de	0.10724996
159	0xbe281b25	-0.16416605
160	0xbe044743	-0.12917809
161	0xbdc7660e	-0.09736262
162	0xbbcc09a1	-0.006226734
163	0xbd81635a	-0.06317778
164	0xbdccc254	-0.09998003
165	0x3d97bb33	0.07408752
166	0x3d88a5fc	0.06672284
167	0x3c93e660	0.018054187
168	0xbca37c6b	-0.019956788
169	0xbc9968e2	-0.01872677
170	0x3c97d595	0.018534461
171	0x3dd10d48	0.10207611
172	0x3d972653	0.07380357
173	0xbd992418	-0.074775875
174	0xbd6f12ea	-0.058367647
175	0x3d728e1d	0.05921756
176	0xbcdeca80	-0.027196169
177	0xbd008011	-0.031372134
178	0x3cbe0b72	0.023198817
179	0xbd674b78	-0.056468457
180	0x3d3863ef	0.04501718
181	0x3dc26d2c	0.09493479
182	0x3d6a5669	0.057211313
183	0x3dc6c500	0.097055435
184	0xbd2df83d	-0.042473067
185	0xbe1591ab	-0.14606349
186	0xbd9b1415	-0.0757219
187	0x3bee6dfc	0.0072762948
188	0x3d2ff5b0	0.042958915
189	0xbc0b4c3e	-0.008502064
190	0xbc9dfcc3	-0.019285565
191	0x3cc4f3eb	0.02404209
192	0xbe1c43e9	-0.1526028
193	0xbe25b075	-0.16180594
194	0x3d0aa6fe	0.033850662
195	0xbe43efea	-0.19134489
196	0xbe19b130	-0.15008998
197	0xbda9253a	-0.082590535
198	0x3e638636	0.22219166
199	0x3e7b0602	0.2451401
200	0x3d3ac966	0.045602225
201	0xbbda44d3	-0.0066610365
202	0x3d098055	0.033569653
203	0x3dd59dd6	0.104304954
204	0xbe65a308	-0.22425473
205	0xbcf3b630	-0.02974996
206	0xbe11f71b	-0.1425442
207	0xbc3db679	-0.011579149
208	0xbc25d51d	-0.010121611
209	0x3d786b54	0.06064923
210	0xbb2b6dae	-0.0026157903
211	0x3a70b074	0.0009181567
212	0x3def34f6	0.11680023
213	0xbd92cab6	-0.0716757
214	0xbd01cb02	-0.031687744
215	0xbd06eb5a	-0.032939292
216	0x3d68e6fa	0.0568609
217	0xbd5b72ca	-0.05357627
218	0x3dc3b80a	0.09556587
219	0xbd1af259	-0.037828777
220	0x3d6a9a24	0.057275906
221	0x3dea187b	0.114304505
222	0x3c5d2cea	0.013499478
223	0x3c459ee8	0.012061812
224	0x3e1c0997	0.15238033
225	0xbdf5fb99	-0.12010879
226	0xbcb79eae	-0.022414532
227	0x3e0df06e	0.13861248
228	0xbda3ff9e	-0.080077395
229	0x3d8437ef	0.06455981
230	0x3d9cf92d	0.07664714
231	0x3c8ba0ef	0.017044513
232	0xbd6af326	-0.05736079
233	0x3b82845f	0.003983065
234	0x3c23fb58	0.0100086555
235	0x3da1bebd	0.078977086
236	0xbd7dc71d	-0.061957467
237	0x3b620540	0.0034487993
238	0x3d933351	0.07187522
239	0x3dbea72f	0.093092315
240	0x3db41297	0.08792608
241	0xbc7565b8	-0.014977865
242	0x3c947714	0.018123187
243	0x3d8e3de5	0.06945399
244	0x3e2c9aee	0.16855976
245	0xbd2e0f9b	-0.04249535
246	0x3dbc761e	0.092022166
247	0x3e72eba8	0.23722708
248	0x3e9ac6e8	0.30229878
249	0xbe4948b0	-0.19656634
250	0xbe0bb825	-0.13644464
251	0x3e8ae509	0.27127865
252	0x3d1e6cd1	0.038677994
253	0x3d53fd24	0.051755086
254	0xbcfc5a24	-0.030804701
255	0xbd39980c	-0.04531102

conv_block_1.2.bias f4 [10]
0	0x3e21f673	0.15816669
1	0x3d5c3205	0.05375864
2	0x3e081978	0.13290966
3	0x3e4eb438	0.20185935
4	0xbdd047c1	-0.10169936
5	0xbc01e0eb	-0.00792716
6	0x3c87220d	0.016495729
7	0x3d4007f5	0.04688259
8	0xbd37252c	-0.044713184
9	0xbd9a5fdf	-0.07537817

conv_block_2.0.weight f4 [10, 10, 3, 3]
0	0xbe325fb6	-0.17419323
1	0xbe0ad863	-0.13559107
2	0x3e4bc3e6	0.19898948
3	0xbd6ac9c3	-0.05732132
4	0xbdaa82c6	-0.08325724
5	0x3c6279aa	0.013822952
6	0x3decf9ea	0.11571105
7	0xbd8c61ec	-0.068546146
8	0xbdc151d4	-0.094394356
9	0xbc887e42	-0.016661767
10	0x3d856301	0.06513024
11	0x3d1ac33d	0.03778385
12	0xbc515689	-0.012776979
13	0xbca83629	-0.020533638
14	0x3d8b544a	0.06803186
15	0x3cac8b42	0.021062497
16	0xbe1bf6b9	-0.15230836
17	0xbe043623	-0.12911277
18	0xbd5874f3	-0.052845906
19	0xbc7b199d	-0.015325931
20	0x3e46dbdf	0.19419812
21	0xbe4486df	-0.19192074
22	0xbe2ecafa	-0.17069617
23	0x3e19a28b	0.15003411
24	0x3c2424f5	0.010018577
25	0xbdb1bfcf	-0.08679163
26	0xbd71dcf7	-0.05904862
27	0xbcfae69a	-0.030627538
28	0x3dbcc489	0.092171736
29	0x3dc1bec2	0.09460212
30	0x3e2201a7	0.15820943
31	0x3de0475e	0.10951112
32	0xbd73fb10	-0.059565604
33	0xbcd1a6f4	-0.025592305
34	0xbca74fea	-0.020423848
35	0xbca2245d	-0.01979273
36	0xbd0dbdb8	-0.034604758
37	0x3c4315ae	0.011907024
38	0x3c06988a	0.008215079
39	0x3d695036	0.05696126
40	0x3dcb4b62	0.099264875
41	0x3d69d352	0.057086296
42	0x3dae922a	0.08523972
43	0x3d1e2d23	0.038617264
44	0x3d04db37	0.032435622
45	0xbda89d7c	-0.08233163
46	0xba967342	-0.0011478441
47	0xbd88f86f	-0.0668801
48	0xbdbfc2ea	-0.09363349
49	0x3d365ee0	0.044524074
50	0x3b95572d	0.0045575113
51	0xbd14b033	-0.03630085
52	0xbb8eca69	-0.0043576253
53	0xbd827e31	-0.06371725
54	0xbaaa6b56	-0.0013001959
55	0xbad11218	-0.0015950827
56	0x3e01d539	0.12678994
57	0xbd171c0b	-0.03689198
58	0x3d1596ce	0.03652077
59	0x3dfa39ef	0.12218081
60	0x3c235109	0.009968051
61	0x3d346bc3	0.044048082
62	0xbd61c557	-0.05511984
63	0x3d5a04b4	0.05322714
64	0xbda7edc1	-0.08199645
65	0xbbb0555c	-0.0053812694
66	0x3e0a42d3	0.13502054
67	0x3dd50aac	0.10402426
68	0x3dca64c8	0.09882504
69	0xbd838f6e	-0.064238414
70	0x3db788c0	0.0896163
71	0x3dc8cd7b	0.09804817
72	0xbd12363b	-0.03569625
73	0xbdc7264d	-0.09724102
74	0x3d77f4f7	0.06053635
75	0xbd9cdbb0	-0.076590896
76	0xbc01a923	-0.0079138605
77	0xbda4a544	-0.080393344
78	0x3d0db7fa	0.03459928
79	0xbd99e206	-0.07513814
80	0xbdb7d4a1	-0.089761026
81	0xbd418c88	-0.04725316
82	0xbd91b9d7	-0.07115524
83	0x3dd3dec2	0.10345222
84	0x3c6cbb74	0.014448989
85	0x3d996766	0.07490425
86	0xbbd03ae5	-0.006354677
87	0x3d498178	0.049195737
88	0xbda81d8e	-0.08208762
89	0x3dae3a5e	0.085072264
90	0xbdf2777c	-0.11839196
91	0xbcb169ac	-0.021656834
92	0x3e307154	0.17230731
93	0xbea85369	-0.32876137
94	0xbe95a43c	-0.29226863
95	0x3da41f1b	0.080137454
96	0x3c0ec850	0.00871475
97	0x3e649382	0.22321895
98	0x3e2b3743	0.167203
99	0xbddbf9b1	-0.10740984
100	0x3d09922f	0.033586677
101	0x3e014116	0.12622485
102	0xbe042b30	-0.129071
103	0xbe186f3b	-0.14886181
104	0xbc128f21	-0.008945257
105	0xbd483d1b	-0.0488864
106	0x3d82071e	0.06349014
107	0xb9dd970b	-0.0004226494
108	0xbe56709e	-0.20941398
109	0x3dda3a3e	0.1065564
110	0x3ea942cb	0.33058771
111	0xbda8b192	-0.08236994
112	0xbe147987	-0.14499484
113	0xbd4983ff	-0.049198147
114	0xbd29e4db	-0.04147802
115	0x3e04aec1	0.12957288
116	0x3dc6fadc	0.097158164
117	0xbdb1f341	-0.08688975
118	0x3d08735f	0.03331315
119	0xbbccd007	-0.0062503847
120	0xbce84729	-0.028354244
121	0xbd60fb79	-0.054927323
122	0xbdfd0a78	-0.123555124
123	0x3da3f5b9	0.08005852
124	0x3d912117	0.070863895
125	0xbdea7219	-0.11447544
126	0xbc60c9fb	-0.013720031
127	0x3d35fabe	0.04442858
128	0xbd0c8722	-0.03430856
129	0xbce48caf	-0.027899114
130	0xbdd29c7f	-0.102837555
131	0xbdaeda2b	-0.08537706
132	0x3dd108a2	0.10206725
133	0x3b98aa01	0.004658938
134	0x3d3357ca	0.043784894
135	0xbc773073	-0.015087235
136	0xbde01aa9	-0.10942585
137	0x3dbede31	0.093197234
138	0x3d98df94	0.07464519
139	0x3dd6cf76	0.10488789
140	0x3dac9113	0.08426108
141	0x3d0f2363	0.034945857
142	0x3b2f4db8	0.0026749205
143	0x3dd45a0f	0.1036874
144	0xbdbfd4b4	-0.09366742
145	0x3dc1090b	0.09425553
146	0x3dbc8d1b	0.09206601
147	0xbcd4f19b	-0.025994113
148	0xbe137643	-0.14400582
149	0xbcf498d4	-0.02985803
150	0x3c596c9b	0.0132705225
151	0x3d07c45e	0.033146255
152	0x3d8c13d0	0.068397164
153	0x3d64733c	0.05577396
154	0x3d96ef3c	0.07369849
155	0xbd454e41	-0.048170332
156	0x3d79d8e2	0.06099785
157	0x3c4abdd9	0.012374365
158	0xbd256953	-0.040383648
159	0x3da2e546	0.07953887
160	0xbd732612	-0.05936248
161	0x3d8587b4	0.06520024
162	0xbd84bdbf	-0.06481504
163	0xbd608e97	-0.054823484
164	0x3cce266b	0.025164803
165	0x3c79cfee	0.015247328
166	0xbdd38066	-0.103272244
167	0xbd8cb2d7	-0.068700485
168	0x3c99c025	0.01876838
169	0x3ad8b3e1	0.00165331
170	0x3df91318	0.12161845
171	0x3dd2349e	0.10263942
172	0x3d34b7fa	0.044120766
173	0xbdc42ab4	-0.095784575
174	0xbbe9ad72	-0.007131272
175	0xbd7bf5cd	-0.06151371
176	0x3dd15ec3	0.102231525
177	0x3d66049e	0.056156747
178	0xbc6181f2	-0.0137638915
179	0xbbac2425	-0.005253332
180	0xbdf4bba2	-0.119498506
181	0xbd25adad	-0.040448833
182	0x3dee6e0f	0.11642086
183	0xbde902a3	-0.11377456
184	0xbdcb7840	-0.09935045
185	0x3e3c5f46	0.18395719
186	0xbe6eb728	-0.23312056
187	0xbe1f2510	-0.15541482
188	0x3ee1931e	0.44057554
189	0xbc7bcdb2	-0.015368866
190	0xbd15cb18	-0.03657064
191	0x3cbafb43	0.022824889
192	0x3df95cd2	0.12175907
193	0x3dd84ca9	0.10561497
194	0x3e20f4ba	0.15718356
195	0xbd5613f4	-0.052265123
196	0xbe91d95f	-0.28486153
197	0xbce5fb75	-0.028074006
198	0xbdc2589a	-0.09489556
199	0x3e4811fa	0.19538108
200	0x3eb039a0	0.34418964
201	0xbe0121ad	-0.12610503
202	0xbba29fcf	-0.0049628983
203	0x3eab5814	0.33465636
204	0xbd8bd550	-0.068277955
205	0xbe9a92b7	-0.3019006
206	0x3d640409	0.05566791
207	0x3bf749ec	0.007546654
208	0xbe3639fa	-0.17795554
209	0xbe0f9db9	-0.1402501
210	0x3bd652e8	0.006540645
211	0x3b9fffbf	0.004882782
212	0xbe3c4d9c	-0.1838898
213	0x3e106a9d	0.1410317
214	0x3e1b80c6	0.15185842
215	0xbe3dbd85	-0.18529327
216	0xbc5b58fa	-0.013387913
217	0xbd55d9e9	-0.05220977
218	0xbd18bb39	-0.037287924
219	0xbcadb56f	-0.021204678
220	0x3db15f82	0.08660795
221	0xbdc87897	-0.09788626
222	0x3d0e90da	0.03480611
223	0x3b30d1e4	0.0026980573
224	0xbd100ab5	-0.03516646
225	0x3d186c36	0.037212573
226	0x3b74606d	0.003728892
227	0xbdaa15dc	-0.083049506
228	0x3d21ba73	0.039484452
229	0xbb66701d	-0.003516204
230	0x3cea1d61	0.028578462
231	0xbcc48be7	-0.023992492
232	0xbdb59862	-0.08866955
233	0x3d631338	0.05543825
234	0x3d8f3cc3	0.06994011
235	0x3d2f7445	0.042835493
236	0x3d8c247b	0.068428956
237	0xbe0f9a85	-0.14023788
238	0xbcd18a47	-0.025578631
239	0x3e197f15	0.14989884
240	0xbc1c288d	-0.009531152
241	0xbd5af728	-0.053458363
242	0xbbfb1d81	-0.0076634292
243	0xbb883e5b	-0.004157824
244	0xbd350a6d	-0.044199396
245	0xbe078509	-0.13234343
246	0xbd3ad2ad	-0.045611072
247	0x3d161f72	0.036651082
248	0xbe5e02e9	-0.21680798
249	0xbd30475c	-0.043036804
250	0x3c85292d	0.016254986
251	0xbe28915e	-0.16461703
252	0xbc76fc9e	-0.015074877
253	0xbd04c3c4	-0.03241326
254	0x3e2b2818	0.16714513
255	0x3bd81daf	0.0065953354

conv_block_2.0.bias f4 [10]
0	0xbca6c632	-0.020358179
1	0xbe37e919	-0.17960013
2	0xbdbb7a7d	-0.09154222
3	0xbe2101e0	-0.15723372
4	0x3e8f6f8f	0.280148
5	0x3e2594eb	0.16170089
6	0x3e5b9712	0.21444348
7	0x3dcd6720	0.10029435
8	0x3e6960d9	0.2279085
9	0xbd3d0d39	-0.04615519

conv_block_2.2.weight f4 [10, 10, 3, 3]
0	0x3cf330d4	0.029686369
1	0xbd07b199	-0.033128355
2	0xbdb7725c	-0.08957359
3	0xbde04830	-0.10951269
4	0x3cac075e	0.020999607
5	0x3c9788aa	0.018497784
6	0x3d371bb5	0.044704158
7	0x3d03183b	0.03200553
8	0xbc01c631	-0.007920788
9	0x3d89e6e5	0.06733493
10	0x3d83d3af	0.0643686
11	0xbdbe81e3	-0.09302118
12	0x3de223a0	0.11041951
13	0xbdfafaef	-0.12254893
14	0xbd4fc433	-0.05072422
15	0xbd4928fd	-0.049111355
16	0xbe628669	-0.22121586
17	0x3c64f30a	0.013973961
18	0xbda0dfa5	-0.07855157
19	0xbc9fbf20	-0.019500315
20	0xbde3ef98	-0.11129683
21	0xbdc74274	-0.09729472
22	0xbe85b679	-0.26115778
23	0xbdce9084	-0.10086158
24	0xbe3c8a5a	-0.18412152
25	0xbebe1a92	-0.37129647
26	0xbe30f3c3	-0.17280488
27	0xbe8ba657	-0.27275345
28	0xbde58d5f	-0.11208605
29	0x3dad31f8	0.084567964
30	0xbe06d690	-0.13167787
31	0xbe3f9500	-0.18709183
32	0x3df7a75f	0.120924704
33	0x39bc29d0	0.00035889307
34	0x3e768619	0.24074592
35	0xbb6d888a	-0.0036244714
36	0xbe1984c4	-0.14992052
37	0xbdb78422	-0.08960749
38	0xbda0a78e	-0.078444585
39	0xbdfa3e49	-0.12218911
40	0xbe2c64db	-0.16835348
41	0xbe08b9e3	-0.1335216
42	0xbe1f70fb	-0.15570442
43	0xbde7ef53	-0.11324944
44	0x3c18b033	0.009319353
45	0x3e56b7b9	0.20968522
46	0x3e219954	0.15781146
47	0xbeb28bc3	-0.34872255
48	0x3ed605b0	0.41801214
49	0xbeafdbc4	-0.34347355
50	0xbe51ef03	-0.20501332
51	0x3b8c899a	0.0042888643
52	0xbe92009a	-0.28516084
53	0xbeab52ab	-0.33461508
54	0xbe5af5a0	-0.21382761
55	0xbe6cba2e	-0.23117897
56	0xbcc26dcf	-0.023734001
57	0xbeccc81f	-0.3999643
58	0xbd191f0c	-0.037383124
59	0x3ea61929	0.3244107
60	0xbebf0fca	-0.37316734
61	0x3de32196	0.110903904
62	0x3e25f13f	0.1620531
63	0x3d5078a3	0.0508963
64	0xbc22d9dc	-0.009939637
65	0xbdb1bde9	-0.086788006
66	0x3c11b4fa	0.008893246
67	0xbe136e8f	-0.14397644
68	0xbe0cf62a	-0.13765779
69	0xbe602b97	-0.21891628
70	0xbe6190a2	-0.2202783
71	0xbd20de7c	-0.039274678
72	0xbe616b58	-0.22013605
73	0xbe190b78	-0.14945781
74	0x3d1b05d7	0.037847366
75	0xbe20425c	-0.15650314
76	0xbddd6dbc	-0.10811946
77	0x3eec24b3	0.4612175
78	0xbe6b45d0	-0.2297585
79	0x3e074211	0.13208796
80	0x3d445120	0.04792893
81	0xbb266a81	-0.002539307
82	0x3dd017c3	0.10160782
83	0x3d29fa44	0.041498438
84	0x3df169e3	0.117877744
85	0x3e295691	0.16536929
86	0xbdc76754	-0.09736505
87	0x3de3ca0f	0.11122524
88	0xbdab600b	-0.08367928
89	0xbd253a65	-0.040338892
90	0x3e2259e6	0.15854606
91	0xbd2281cd	-0.03967457
92	0x3ce9f599	0.028559493
93	0xbd634790	-0.05548817
94	0x3da52063	0.08062818
95	0x3c19c67e	0.009385703
96	0xbd7456eb	-0.059653204
97	0x3d811843	0.06303456
98	0x3c4de613	0.012567061
99	0xbdb373e2	-0.08762337
100	0x3cd074ba	0.025446285
101	0x3c968998	0.018376157
102	0x3dce4ec2	0.100736156
103	0x3e678584	0.22609526
104	0xbd3dbe06	-0.0463238
105	0xbe062c27	-0.1310278
106	0x3e321def	0.17394231
107	0x3e3838f5	0.17990477
108	0x3e183e9d	0.14867635
109	0x3ea78347	0.32717344
110	0xbdea53bc	-0.11441752
111	0xbe333de0	-0.17504072
112	0x3d2d0c8a	0.042248286
113	0x3df775e4	0.12083033
114	0xbe4548e2	-0.19266084
115	0xbe221d60	-0.15831518
116	0xbe6046cd	-0.21902008
117	0xbd9de284	-0.0770922
118	0xbdc821ab	-0.09772047
119	0xbd2c075a	-0.0419992
120	0xbe22b66e	-0.15889904
121	0xbe5c0f2a	-0.2149016
122	0xbced2f01	-0.028953077
123	0x3e185da1	0.14879467
124	0xbb991920	-0.0046721846
125	0x3e126e94	0.14299995
126	0x3da435e3	0.080180906
127	0x3e1c2161	0.15247108
128	0xbe634975	-0.2219599
129	0xbe650c50	-0.22367978
130	0xbd38c119	-0.045106027
131	0x3c6b548e	0.014363421
132	0xbddbb940	-0.10728693
133	0xbe36854a	-0.17824283
134	0xbc6923e4	-0.014229748
135	0xbf0137aa	-0.5047556
136	0xbecf795e	-0.40522283
137	0xbe149da8	-0.14513266
138	0xbd0de553	-0.03464253
139	0xbe87ce03	-0.26524362
140	0xbe910c05	-0.28329483
141	0x3e8f8270	0.28029203
142	0x3e568a79	0.2095126
143	0xbba27a5f	-0.0049584354
144	0x3e6ec90d	0.23318882
145	0x3df3c6bf	0.11903142
146	0xbe59d455	-0.21272404
147	0xbe398b6d	-0.18119593
148	0x3c9338bb	0.017971387
149	0x3e13eeac	0.14446515
150	0xbea5442e	-0.3227858
151	0xbe41f8b2	-0.18942526
152	0x3db53702	0.088483825
153	0x3d9b2e3b	0.07577177
154	0x3e808aec	0.2510599
155	0x3c8e35cb	0.017359635
156	0xbdfd5667	-0.123699956
157	0x3e4cdb8e	0.20005628
158	0x3d93c58e	0.07215415
159	0xbe25850a	-0.16164032
160	0xbdbc372d	-0.091902114
161	0xbdd149bd	-0.102191426
162	0xbe54a176	-0.20764717
163	0xbe867cc6	-0.2626707
164	0xbe10fa11	-0.14157893
165	0xbe8ff2d9	-0.28114966
166	0xbdf8b679	-0.12144179
167	0x3e4389e7	0.19095574
168	0xbe544d0d	-0.20732518
169	0xbd926e5c	-0.07149956
170	0x3d857855	0.06517092
171	0xbe26d8cc	-0.16293639
172	0xbe1fc86b	-0.15603797
173	0xbdf7480d	-0.120742895
174	0xbde705bf	-0.11280393
175	0x3e1cf770	0.15328765
176	0xbc99bde4	-0.018767305
177	0x3de959ba	0.11394067
178	0x3e16aab9	0.14713563
179	0x3d9157bd	0.07096813
180	0x3e15a604	0.14614111
181	0x3e8d3b33	0.27584228
182	0x3da85db4	0.082209975
183	0x3db4df71	0.088316806
184	0x3ddd17b9	0.1079554
185	0xbe5550a4	-0.20831543
186	0xbdd57844	-0.104233295
187	0xbe03cd4e	-0.12871286
188	0xbe2ef35a	-0.17085019
189	0x3e36c3db	0.1784815
190	0xbc26909c	-0.0101663135
191	0xbca8891b	-0.02057319
192	0xbc40c599	-0.011765861
193	0x3e7f5a2e	0.24936745
194	0x3d8c4eb3	0.06850948
195	0xbdc5ffa3	-0.096678995
196	0xbcda0e4b	-0.026618144
197	0xbdd47751	-0.1037432
198	0xbdde2a2a	-0.10847886
199	0x3e451a8f	0.19248413
200	0x3dd185cd	0.102305986
201	0xbc0e1fc4	-0.008674566
202	0x3bba42b2	0.00568422
203	0xbd1e8c7c	-0.038708195
204	0xbe441f8d	-0.1915266
205	0xbe23e231	-0.16004254
206	0xbe48874b	-0.1958286
207	0xbda2b619	-0.079448886
208	0xbd4eeecb	-0.0505207
209	0xbb02d341	-0.0019962343
210	0xbec97d20	-0.39353275
211	0xbeac3e3c	-0.3364123
212	0xbc4085c6	-0.011750644
213	0x3c6dc5dd	0.014512506
214	0x3d60e41a	0.054905035
215	0xbb732add	-0.0037104406
216	0x3e89b5bf	0.26896474
217	0x3eae1515	0.3400046
218	0x3e753344	0.23945338
219	0x3c260c3b	0.010134752
220	0x3d8caee3	0.068692945
221	0xbdd97c61	-0.106194265
222	0xbe5a8799	-0.21340789
223	0xbdf71cea	-0.12066062
224	0xbdfa9e1b	-0.122371875
225	0xbec0783c	-0.37591732
226	0xbed27d48	-0.41111207
227	0xbeb445ea	-0.3520959
228	0x3f04d18c	0.51882243
229	0xbd188af1	-0.03724188
230	0xbefd7a8a	-0.49507552
231	0x3e51e650	0.20498013
232	0x3e91e1ca	0.28492576
233	0x3e80623e	0.25074953
234	0xbe3de232	-0.18543318
235	0xbca779bf	-0.020443795
236	0x3e0ecea9	0.13946022
237	0xbc9f5c8d	-0.019453311
238	0xbd9f5e4c	-0.077816576
239	0xbdcae2e8	-0.0990656
240	0xbe6f312f	-0.23358606
241	0xbe26519a	-0.16242066
242	0xbe60510d	-0.21905918
243	0x3e0369f7	0.12833391
244	0x3e08ec35	0.13371356
245	0x3d06aed7	0.032881584
246	0xbdd802f8	-0.10547441
247	0x3d264f4a	0.04060296
248	0xbdb3fa0a	-0.087879255
249	0x3c94e722	0.018176619
250	0xbe008b0e	-0.12553045
251	0xbe282875	-0.16421683
252	0xbe6466ec	-0.22304887
253	0xbc136a84	-0.008997563
254	0x3ea0ba09	0.31391934
255	0xbcbc59ae	-0.022991981

conv_block_2.2.bias f4 [10]
0	0xbe0b8581	-0.13625146
1	0x3d817472	0.06321038
2	0xbe594669	-0.21218266
3	0x3d4cc0e1	0.04998863
4	0x3e14557f	0.14485739
5	0xbd37fc9f	-0.044918653
6	0x3e5dceee	0.21660969
7	0xbd5c726a	-0.05382005
8	0xbcb2412f	-0.021759598
9	0xbe1b27ac	-0.15151852

classifier.1.weight f4 [10, 490]
0	0xbcc7995c	-0.02436512
1	0xbd4a788a	-0.04943136
2	0xbccda1ab	-0.025101503
3	0xbda725d5	-0.08161513
4	0xbe2b1849	-0.16708483
5	0xbd5c8366	-0.05383625
6	0xbc70b413	-0.014691371
7	0xbbf9b155	-0.0076200166
8	0xbd205e76	-0.039152585
9	0xbd7941eb	-0.06085388
10	0xbdcacd21	-0.099024065
11	0xbe2bc6a0	-0.16774988
12	0xbd9b971d	-0.07597182
13	0x3befb21a	0.0073149325
14	0xbc388be1	-0.0112638185
15	0x3e1718e3	0.14755587
16	0xbc8a0ed4	-0.016852774
17	0x3e148e58	0.14507425
18	0xbe4a042d	-0.19728155
19	0xbd153c13	-0.036434244
20	0x3d90645e	0.070503935
21	0xbb97a041	-0.004627258
22	0x3e139220	0.14411211
23	0x3e8889ae	0.2666754
24	0xbe0b9570	-0.13631225
25	0xbd896d81	-0.06710339
26	0x3dcce871	0.10005272
27	0x3d3e8452	0.04651291
28	0x3c9e46b9	0.019320833
29	0x3e08384b	0.13302724
30	0xbc92144b	-0.017831942
31	0xbc8eb410	-0.017419845
32	0x3e4fa0ec	0.2027623
33	0x3e41d568	0.18929064
34	0x3c4c7695	0.012479444
35	0xbcebbc31	-0.02877626
36	0xbd431550	-0.047627747
37	0xbe5df847	-0.21676742
38	0x3d5b61dd	0.053560127
39	0x3dffcdb8	0.124904096
40	0x3d9486b0	0.07252252
41	0x3c8088ab	0.015690168
42	0xbd114816	-0.035469137
43	0xbd539d57	-0.051663723
44	0xbdb11e93	-0.0864841
45	0xbd4d1afb	-0.05007456
46	0xbd60af79	-0.054854844
47	0xbc976d96	-0.018484872
48	0xbcd1210b	-0.025528451
49	0xbd056c95	-0.032574255
50	0x3d28587a	0.041100003
51	0xbd5aa35a	-0.05337844
52	0xbcaa4c4e	-0.020788338
53	0x3b93f6e7	0.004515517
54	0x3ced6dcc	0.02898302
55	0x3b984c89	0.0046477956
56	0xbd0fb442	-0.035084017
57	0xbc93be27	-0.018035008
58	0x3b3637ec	0.0027804328
59	0xbba4a12c	-0.005024096
60	0x3d7b2867	0.061317828
61	0x3d529f87	0.05142167
62	0x3d5e621e	0.05429279
63	0xbce73fa3	-0.028228587
64	0xbdfa5fb6	-0.12225287
65	0xbdb39557	-0.08768719
66	0xbd80cd81	-0.06289197
67	0xbda98602	-0.08277513
68	0x3d3f442f	0.046695884
69	0xbd1577ab	-0.036491077
70	0xbda1ec9d	-0.079064585
71	0xbe8bad20	-0.2728052
72	0xbe59bfea	-0.21264616
73	0x3e35274c	0.17690772
74	0x3e25f6da	0.16207448
75	0x3db6b1a0	0.08920598
76	0xbd822787	-0.063551955
77	0xbc16d358	-0.009205662
78	0xbded8fce	-0.11599694
79	0xbe602c57	-0.21891914
80	0x3dc28af5	0.0949916
81	0x3de7a50f	0.11310779
82	0x3dd72556	0.10505168
83	0xbcbbcf9a	-0.02292614
84	0x3d04f2e6	0.03245821
85	0x3cd786ed	0.026309455
86	0x3cace0fc	0.021103375
87	0xbda3334d	-0.07968769
88	0xbc8174f3	-0.015802836
89	0x3c3345bd	0.01094192
90	0xbd2ba5f6	-0.04190632
91	0x3e137ebb	0.14403813
92	0x3e036cbe	0.1283445
93	0x3e27025e	0.16309497
94	0xbe32661c	-0.17421764
95	0xbd4642d4	-0.048403576
96	0xbcb74e4f	-0.022376208
97	0xbd1f7176	-0.038926564
98	0xbc3f1ae3	-0.011664125
99	0x3cd19ccd	0.025587464
100	0xbc50c139	-0.01274138
101	0xba8eff4c	-0.0010909825
102	0x3d080aff	0.03321361
103	0x3d2c3e6a	0.04205171
104	0xbae94f48	-0.0017800117
105	0xbcb5db6c	-0.022199355
106	0x3de060d5	0.10955969
107	0x3d295454	0.041340187
108	0x3d98a18c	0.074526876
109	0xbc2976ad	-0.010343236
110	0xbd58c0f3	-0.052918386
111	0xbca02ae7	-0.019551707
112	0x3d2c77e4	0.042106524
113	0xbd6aa832	-0.05728931
114	0xbdb7bf4b	-0.08972033
115	0xbe2cfdbd	-0.16893668
116	0xbc948929	-0.01813181
117	0x3c890a70	0.01672861
118	0xbd4256e6	-0.047446154
119	0xbdf2512d	-0.11831889
120	0xbec0d4ac	-0.37662256
121	0xbe79f344	-0.24409205
122	0xbdcf4f5b	-0.10122558
123	0xbd377a22	-0.04479421
124	0xbd22b188	-0.03972009
125	0xbd4b9fcf	-0.049712952
126	0xbdd6201f	-0.10455345
127	0xbed5974b	-0.4171699
128	0xbe85279c	-0.26006782
129	0x3d81ebce	0.06343804
130	0x3e366a99	0.17814101
131	0x3d3038a2	0.04302276
132	0x3d3aeda9	0.045636807
133	0xb8818090	-6.175146e-05
134	0xbd6cfb24	-0.057856694
135	0xbbf4fa54	-0.0074761305
136	0x3da76c9e	0.08175014
137	0x3decc4db	0.11560985
138	0x3d96437b	0.0733709
139	0x3c7957bf	0.015218674
140	0x3dcbe5a4	0.0995591
141	0x3dca6ae8	0.09883672
142	0x3e131bbf	0.14366053
143	0xbda11bea	-0.07866652
144	0xbde45743	-0.11149456
145	0x3c9b3860	0.01894778
146	0xbd2c1a73	-0.04201741
147	0xbd11057b	-0.035405617
148	0xbd3029ec	-0.04300873
149	0xbae8e90d	-0.001776965
150	0xbd48b6f3	-0.0490026
151	0x3d0e12f8	0.03468606
152	0xbb33b6ec	-0.0027422262
153	0xbd379367	-0.04481831
154	0x3c074646	0.008256501
155	0xbbc2a7c9	-0.0059404117
156	0xbc518c5d	-0.012789813
157	0x3cc7ce26	0.024390291
158	0x3e0d90da	0.13824788
159	0x3de572e0	0.11203551
160	0xbc9fb696	-0.019496243
161	0xbc90c5ae	-0.017672386
162	0xbc46c372	-0.012131559
163	0x3c237890	0.009977475
164	0xbc0abd75	-0.008468022
165	0xbc18ce7a	-0.009326572
166	0x3d9bc039	0.07605023
167	0xbd0db470	-0.034595907
168	0x3cad45c0	0.021151423
169	0x3cd5571f	0.02604252
170	0x3bb861a6	0.005626875
171	0xbe16477c	-0.14675707
172	0xbe33a56f	-0.17543577
173	0xbb7bdb8f	-0.0038430428
174	0x3d1d86e8	0.038458735
175	0xbccacccc	-0.024755858
176	0x3bf72c2c	0.0075431075
177	0x3dc41933	0.09575119
178	0xbc09b412	-0.0084047485
179	0xbe4bebed	-0.19914217
180	0xbdddf0f2	-0.10836972
181	0xbceb5899	-0.02872877
182	0xbcfaaa2a	-0.030598719
183	0x3cb17ca0	0.021665871
184	0x3ca6eb13	0.020375764
185	0xbdc22f03	-0.09481623
186	0xbd9d9555	-0.076944984
187	0xbdd7fb13	-0.105459355
188	0xbcf52492	-0.029924665
189	0x3d06c460	0.03290212
190	0x3c539f90	0.012916461
191	0x3d765ee2	0.06014908
192	0x3c027d29	0.007964411
193	0x3cff486b	0.031162461
194	0xbc973a35	-0.018460372
195	0xbd0a5dc3	-0.033780824
196	0xbc98b888	-0.018642679
197	0x3c29fdd4	0.010375459
198	0xbbc06865	-0.00587182
199	0xbcaa54aa	-0.020792324
200	0x3c908478	0.017641291
201	0xbbde583f	-0.006785422
202	0xbc81c390	-0.015840322
203	0xbc154553	-0.009110766
204	0xbcf61ba2	-0.030042473
205	0xbcd52aaa	-0.02602132
206	0x3e16678e	0.1468794
207	0xbc8d6f66	-0.017265033
208	0xbe7f7f30	-0.24950862
209	0xbd216b15	-0.039408762
210	0xbbf6c1e1	-0.0075304364
211	0xbe0e212d	-0.13879843
212	0x3b6e827e	0.0036393697
213	0x3dc350c3	0.095368885
214	0x39bc7e60	0.0003595231
215	0xbe8542cb	-0.26027521
216	0x3ba059f2	0.004893535
217	0xbd385188	-0.04499963
218	0xbe0a8a4a	-0.13529316
219	0xbd870e31	-0.06594504
220	0xbe6c02c2	-0.23047927
221	0xbe4afe3a	-0.19823542
222	0x3d001a66	0.031275176
223	0x3da31701	0.07963372
224	0x3d02fdbc	0.03198026
225	0x3d245191	0.04011685
226	0x3d071792	0.032981463
227	0xbb1941b0	-0.00233851
228	0x3d3891c3	0.045060884
229	0x3e022834	0.12710649
230	0x3dc66dc6	0.09688906
231	0x3ccf1bcd	0.025281811
232	0x3e09a15b	0.13440458
233	0x3e995b07	0.2995226
234	0x3e1de967	0.15421067
235	0xbd8b4693	-0.0680057
236	0x3d004cab	0.031323116
237	0xbcd00c23	-0.025396412
238	0xbd59161e	-0.05299961
239	0xbd01ef21	-0.03172219
240	0x3c597b38	0.013274007
241	0x3d8aa703	0.06770136
242	0xbdd68399	-0.10474319
243	0xbdcf9a0c	-0.10136804
244	0x3ce6a73c	0.028155915
245	0xbd1912b0	-0.037371337
246	0xbb1829a6	-0.0023218184
247	0xbccaf53f	-0.024775146
248	0xbd4909b8	-0.049081534
249	0xbd3b1cfb	-0.045681935
250	0xbae3ce23	-0.0017380159
251	0xbd075e40	-0.03304887
252	0xba85340d	-0.0010162607
253	0x3d8485b5	0.06470815
254	0xbc427fd6	-0.011871299
255	0x3cb20f95	0.021735946

classifier.1.bias f4 [10]
0	0xbd706580	-0.058690548
1	0x3ee051cb	0.43812403
2	0x3c895293	0.016763007
3	0xbdc95796	-0.09831159
4	0xbc471e28	-0.012153186
5	0xbdd3c6ac	-0.10340628
6	0xbd9cea07	-0.07661825
7	0x3decbb4e	0.11559163
8	0xbe063852	-0.13107422
9	0x3c3bd8b4	0.01146524
