model_weights/model_epoch_10.pth (torch, 34459 bytes, 10 tensors)

conv_block_1.0.weight f4 [10, 1, 3, 3]
0	0x3e4cf14b	0.20013921
1	0xbf11db08	-0.5697484
2	0xbeded553	-0.43522128
3	0xbebd52c5	-0.3697721
4	0x3ecb0920	0.396554
5	0x3e1974fa	0.1498603
6	0x3e526e7c	0.20549959
7	0x3f2da4b9	0.6782947
8	0x3ea28502	0.31742102
9	0x3d84108e	0.0644847
10	0x3da1105a	0.07864447
11	0xbf08583b	-0.5325963
12	0x3c750e07	0.014956958
13	0x3ef88010	0.48535204
14	0xbd1d3b43	-0.038386595
15	0xbf13a294	-0.5766995
16	0xbe6c1c64	-0.23057705
17	0x3e9b9222	0.30384928
18	0x3f25efc2	0.64818966
19	0xbefba6f4	-0.49150813
20	0xbec018d0	-0.3751893
21	0x3e3772e3	0.1791492
22	0xbf5923e7	-0.8482041
23	0xbea2136c	-0.31655443
24	0x3f2136fa	0.6297451
25	0xbe296986	-0.1654416
26	0x3ee2bd8a	0.44285232
27	0xbeaaf627	-0.33390924
28	0xbe277862	-0.16354516
29	0x3e899b48	0.26876283
30	0xbf0dfe00	-0.554657
31	0xbbfdfce2	-0.0077510932
32	0x3f35b5c6	0.7098049
33	0xbe2f3a6f	-0.17112134
34	0xbe6eea7c	-0.23331636
35	0x3d9f443a	0.07776685
36	0x3f256976	0.64614046
37	0x3e50c6b9	0.20388307
38	0x3f403a38	0.75088835
39	0x3da5d273	0.08096781
40	0xbdfead30	-0.12435377
41	0xbe78d293	-0.24299078
42	0xbebbd935	-0.36689153
43	0xbf84203f	-1.0322341
44	0xbf2775b6	-0.6541399
45	0xbcda7616	-0.026667636
46	0x3ea5b20d	0.32362404
47	0x3e9a4806	0.30133075
48	0xbe47909a	-0.19488755
49	0x3eae22c5	0.34010902
50	0x3f02156f	0.50813955
51	0x3d95780e	0.07298289
52	0x3ef82122	0.48462778
53	0x3e86c2df	0.2632055
54	0x3f349a44	0.7054789
55	0x3eb35949	0.35029057
56	0xbf47d46a	-0.78058493
57	0x3d9aba62	0.07555081
58	0xbe4b8fe2	-0.19879106
59	0xbe97adf3	-0.296249
60	0xbece7b28	-0.40328336
61	0xbd6ea3ce	-0.058261685
62	0xbe2ff496	-0.17183146
63	0xbeac3c1b	-0.33639607
64	0xbd1db6ad	-0.03850429
65	0x3ed61655	0.41813913
66	0xbf301e84	-0.68796563
67	0xbf390314	-0.7227032
68	0xbf0b8dd8	-0.5451331
69	0x3e3570b4	0.17718774
70	0xbeb05518	-0.3443992
71	0xbf510d9d	-0.816614
72	0xbe8a5328	-0.27016568
73	0xbe27aeed	-0.16375323
74	0xbe2a75ff	-0.16646574
75	0x3e47fa64	0.1952911
76	0x3f06c364	0.5264189
77	0xbee3df50	-0.4450631
78	0xbed390f6	-0.41321534
79	0xbdc5a28c	-0.09650144
80	0xbd033e19	-0.032041643
81	0xbdc1f7d0	-0.094710946
82	0xbf5cfa40	-0.8631935
83	0xbed37412	-0.41299492
84	0x3f079eca	0.5297667
85	0x3f32a865	0.697882
86	0xbea27b30	-0.3173461
87	0xbea2daf5	-0.31807676
88	0x3eedbef1	0.4643474
89	0x3e33e7de	0.17568919

conv_block_1.0.bias f4 [10]
0	0xbe6122e8	-0.21985972
1	0xbe8f5e5a	-0.28001672
2	0x3e16ac6d	0.14714213
3	0xbdf5b0ea	-0.11996634
4	0x3e0c9f15	0.1373256
5	0xbfba897b	-1.4573206
6	0x3bcc78e5	0.0062399977
7	0x3ec0b199	0.37635496
8	0x3d5cd1f9	0.053911183
9	0xbeba9918	-0.36444926

conv_block_1.2.weight f4 [10, 10, 3, 3]
0	0xbe89d21d	-0.26918116
1	0x3d4f4ea5	0.05061211
2	0x3cd012f7	0.025399668
3	0x3d9c14ae	0.07621132
4	0xbd97e4a2	-0.07416655
5	0xbeb3e3f5	-0.35134855
6	0x3d996046	0.07489066
7	0x3dd2d38a	0.10294254
8	0x3e3fedd6	0.18743071
9	0x3ce9793a	0.028500188
10	0xbc9d45fd	-0.019198412
11	0x3d187b1f	0.037226792
12	0xbccb92a4	-0.024850197
13	0xbe04b98e	-0.12961408
14	0x3cac07b7	0.020999772
15	0xbcaacd05	-0.020849714
16	0xbdc3891f	-0.09547638
17	0xbe28e6f9	-0.16494359
18	0xbdd87dc8	-0.10570866
19	0xbebf8e30	-0.37413168
20	0xbe0dd7c8	-0.13851845
21	0xbe96c57e	-0.2944755
22	0xbe347fff	-0.17626952
23	0xbda2893a	-0.0793633
24	0xbe9798f5	-0.29608884
25	0xbdd56f6c	-0.10421643
26	0xbd0a16a4	-0.033712998
27	0x3e0457a7	0.12924062
28	0x3e416aa6	0.1888834
29	0xbe9caec1	-0.30602077
30	0x3e52da6b	0.20591132
31	0xbded07a7	-0.11573725
32	0xbea48b0d	-0.32137337
33	0x3dc325dc	0.095287055
34	0xbea64d7c	-0.3248099
35	0xbea94d64	-0.33066857
36	0xbd442752	-0.04788906
37	0xbe87c8e6	-0.2652046
38	0xbe115e76	-0.1419619
39	0xbe81510b	-0.25257143
40	0xbeac9eed	-0.33715
41	0x3e6105af	0.21974824
42	0xbee67464	-0.45010674
43	0xbe237dda	-0.15965977
44	0xbe8a7023	-0.2703868
45	0x3e022cc5	0.1271239
46	0x3e00fa79	0.12595548
47	0x3e249a9b	0.16074602
48	0x3d5caa84	0.053873554
49	0xb928b463	-0.00016088928
50	0xbd6d3096	-0.057907663
51	0x3e065c25	0.13121088
52	0x3d3a7978	0.045525998
53	0xbdc992f8	-0.09842485
54	0xbd2f9b98	-0.042872995
55	0x3db5f069	0.08883745
56	0x3e64d6f9	0.2234763
57	0xbb9dc994	-0.0048152898
58	0xbcbe0ef6	-0.023200493
59	0x3e027b7b	0.12742417
60	0xbe05e0bb	-0.13074009
61	0xbe3b7248	-0.18305314
62	0x3e24ecc5	0.16105945
63	0xbe8e003c	-0.27734554
64	0xbe7dea02	-0.24796298
65	0xbe0c989e	-0.13730094
66	0xbe318aad	-0.17338057
67	0xbe49ca3c	-0.19706053
68	0xbdb382a3	-0.08765151
69	0xbe3556f0	-0.17708945
70	0xbe36ebac	-0.17863339
71	0xbdb3a550	-0.08771765
72	0xbdb4c984	-0.088274986
73	0xbe2f357c	-0.17110246
74	0x3bb54368	0.005531717
75	0xbdfd9f69	-0.12383921
76	0x3c01f818	0.007932685
77	0x3d88f78c	0.06687841
78	0x38f07a27	0.000114668444
79	0x3c5d2673	0.013497937
80	0x3d1a1f4d	0.037627507
81	0xbe717bfc	-0.23582453
82	0xbe11d769	-0.14242329
83	0xbc5267ec	-0.01284216
84	0xbde9cf41	-0.11416484
85	0xbda19551	-0.07889808
86	0xbdc9581f	-0.09831261
87	0xbdeeb0e7	-0.11654835
88	0xbcfeb585	-0.031092415
89	0x3c8b6d9e	0.017020043
90	0x3e98b1b8	0.2982309
91	0x3d882847	0.06648307
92	0xbe10bdcf	-0.14134906
93	0xbe3b2ea9	-0.18279518
94	0xbed896bf	-0.4230251
95	0xbe162efc	-0.1466636
96	0xbdd4a43a	-0.10382886
97	0x3e5c9d3c	0.21544355
98	0x3ee76df9	0.4520109
99	0x3d55cdfd	0.0521984
100	0x3c248969	0.010042527
101	0x3d02d6b3	0.031943034
102	0x3c863007	0.016380323
103	0xbc5470f3	-0.012966382
104	0xbc3a8e02	-0.011386396
105	0xbdbebec8	-0.093137324
106	0xbd23756f	-0.039906915
107	0x3c87fd7b	0.016600361
108	0xbe154c49	-0.14579882
109	0xbe1928b6	-0.14956936
110	0xbe6287db	-0.22122137
111	0xbe0dd5ee	-0.13851139
112	0x3d66471e	0.056220166
113	0xbd126193	-0.035737585
114	0x3d831eea	0.06402381
115	0x3ec5bba1	0.38619712
116	0xbe61567f	-0.22005652
117	0x3e516846	0.20449933
118	0x3c98fe60	0.018675983
119	0xbd8131db	-0.06308337
120	0xbdd30ff9	-0.10305781
121	0xbe3bc15f	-0.18335484
122	0xbdfd8d05	-0.12380413
123	0xbe490f2e	-0.19634697
124	0xbd2a84ea	-0.041630663
125	0x3ea114c9	0.3146117
126	0xbe9cc14b	-0.3061622
127	0xbd1ca8ea	-0.038247027
128	0x3dc13078	0.09433073
129	0x3eda385b	0.4262112
130	0x3e8e1a45	0.27754417
131	0xbef3fe6a	-0.4765504
132	0x3e193d57	0.14964806
133	0xbdf619c7	-0.120166354
134	0xbe920670	-0.28520536
135	0x3e0b1a58	0.13584268
136	0xbdfe8180	-0.12427044
137	0x3d9c9fa3	0.07647636
138	0xbcaf310e	-0.021385696
139	0xbe5c5f6f	-0.2152078
140	0x3e2e3b55	0.17014821
141	0xbe89ca7a	-0.2691229
142	0xbd1372b1	-0.03599805
143	0x3e922b5a	0.285487
144	0xbdf5eb19	-0.12007732
145	0xbd50cf50	-0.05097896
146	0x3dc615dc	0.09672138
147	0xbd38628b	-0.045015853
148	0x3e155511	0.14583232
149	0xbd8b7726	-0.06809835
150	0x3e735d9d	0.2376618
151	0xbe28a74d	-0.1647007
152	0xbd93aa10	-0.07210171
153	0xbe999220	-0.29994297
154	0xbe2e04a8	-0.16993964
155	0xbd8c387f	-0.06846713
156	0xbe26a7cd	-0.16274948
157	0xbdac376b	-0.08409008
158	0xbe3cb871	-0.18429734
159	0xbe6f7aa5	-0.23386629
160	0xbe44ee7e	-0.19231603
161	0xbe8c0aa1	-0.2735186
162	0xbd6d57c1	-0.057945017
163	0xbe2ad1c2	-0.16681579
164	0xbdca2b8c	-0.09871587
165	0x3d1b8a80	0.03797388
166	0x3d9f96c0	0.07792425
167	0xbda6d9fa	-0.081470445
168	0x3cdbb3f1	0.026819201
169	0xbcf4c9c1	-0.02988136
170	0xbe0da654	-0.1383298
171	0x3d452d3c	0.048138842
172	0xbd517db2	-0.051145263
173	0x3e1025b3	0.14076881
174	0x3dabaf7a	0.08383079
175	0xbd91385c	-0.07090828
176	0xbc3f5ca3	-0.011679801
177	0xbd809469	-0.06278307
178	0xbd3214c5	-0.04347684
179	0xbe2fc01f	-0.17163132
180	0x3e9677ae	0.29388183
181	0xbc5f7af3	-0.013640153
182	0xbee72e0a	-0.45152313
183	0xbe4f06b5	-0.20217402
184	0xbe88f21b	-0.26747212
185	0xbea3ba8e	-0.31978267
186	0xbed8b294	-0.42323744
187	0xbe9e9b53	-0.30977878
188	0xbd3c61fb	-0.04599188
189	0x3e094bb0	0.13407779
190	0xbda43e43	-0.08019688
191	0xbe1941ba	-0.14966479
192	0x3d1eb626	0.03874793
193	0x3d9a965c	0.0754821
194	0xbd84e25c	-0.06488487
195	0x3d5c964b	0.053854268
196	0xbcfd62f7	-0.03093098
197	0x3c5c4e72	0.013446437
198	0xbe1b336e	-0.15156338
199	0x3cd1d763	0.0256154
200	0x3e47bc3c	0.195054
201	0xbd862181	-0.06549359
202	0xbdbde1de	-0.09271596
203	0x3e578377	0.21046244
204	0x3d0a4981	0.033761505
205	0x3d761c83	0.060085785
206	0xbbb6b57b	-0.0055758334
207	0x3e620bef	0.22074865
208	0xbe5c62c0	-0.21522045
209	0xbe831146	-0.25599116
210	0x3a961785	0.0011451101
211	0xbe7ed7ee	-0.24887058
212	0xbead38e9	-0.33832482
213	0xbeb174d6	-0.3465945
214	0xbe393eb3	-0.18090324
215	0xbcad5df1	-0.021162959
216	0x3df12a4e	0.11775647
217	0x3d047777	0.032340493
218	0x3eda4334	0.42629397
219	0x3c4d5cb2	0.012534307
220	0x3e78d54e	0.2430012
221	0xbe6d5b37	-0.23179327
222	0x3edcd46c	0.43130815
223	0xbe64466b	-0.22292487
224	0xbe92d307	-0.28676626
225	0x3e182f05	0.14861687
226	0xbd0e8af7	-0.034800496
227	0xbe1c0062	-0.15234521
228	0xbd8cb777	-0.06870931
229	0xbd30c5f6	-0.04315754
230	0xbe523298	-0.20527112
231	0xbe19eb0a	-0.15031067
232	0xbdf8db06	-0.121511504
233	0xbe513cf9	-0.20433415
234	0x3c1ee8d5	0.009699066
235	0x3d941661	0.07230831
236	0x3e1ea7aa	0.15493646
237	0x3db1db26	0.08684377
238	0xb9bb5ab8	-0.0003573501
239	0x3ec0209a	0.37524873
240	0x3e905fc5	0.28198066
241	0x3e20d385	0.15705688
242	0xbe1ec36e	-0.15504238
243	0xbdcf4ec4	-0.10122445
244	0xbd902abf	-0.07039403
245	0xbe3a71b7	-0.18207441
246	0x3d24579b	0.04012261
247	0x3c106ea5	0.008815442
248	0xbdd74537	-0.105112486
249	0xbc14902d	-0.009067577
250	0x3da258b0	0.07927072
251	0x3e8e0221	0.27736
252	0xbd61ccea	-0.055127062
253	0xbd856335	-0.06513063
254	0xbcb2eb43	-0.021840697
255	0x3d83275f	0.06403994

conv_block_1.2.bias f4 [10]
0	0x3f09096b	0.53529996
1	0x3c8db1bd	0.017296666
2	0xbe51228f	-0.2042334
3	0x3dcebd8a	0.100947455
4	0x3e087c4d	0.13328667
5	0x3f23d8ad	0.64002496
6	0x3d8e4911	0.0694753
7	0x3e846fa9	0.2586644
8	0x3cf29b1c	0.029614978
9	0xbe00f038	-0.12591636

conv_block_2.0.weight f4 [10, 10, 3, 3]
0	0xbd1bec06	-0.038066886
1	0xbc3b1dcf	-0.011420681
2	0x3dd124af	0.10212075
3	0x3daa47da	0.08314486
4	0xbe3a0fa4	-0.18170029
5	0x3e1de3a5	0.15418871
6	0xbc30fa95	-0.010801931
7	0xbdf56612	-0.11982359
8	0x3db35609	0.08756644
9	0xbdaa8e34	-0.08327904
10	0xbd4f6fe4	-0.050643817
11	0x3e31eab8	0.17374694
12	0xbd4abbb7	-0.049495425
13	0x3efdc615	0.49565187
14	0x3e7788b5	0.24173243
15	0x3da07caf	0.078362815
16	0x3d5cee4d	0.0539382
17	0x3e1bd16e	0.1521661
18	0xbd4e275d	-0.05033051
19	0xbd973b05	-0.07384304
20	0x3d95e363	0.07318761
21	0x3e923288	0.28554177
22	0x3d97639d	0.073920466
23	0xbe0feec0	-0.1405592
24	0x3dc2f043	0.095184825
25	0xbe4bec45	-0.19914348
26	0xbdb04266	-0.086064145
27	0x3f0baec3	0.5456354
28	0x3cbc56c3	0.02299059
29	0xbea5cc6a	-0.32382518
30	0xbeabeae8	-0.33577657
31	0xbeddff0e	-0.43358654
32	0xbebe5866	-0.37176818
33	0xbe1ca7c4	-0.15298373
34	0xbe88cf62	-0.2672072
35	0xbe5cdcbc	-0.21568578
36	0x3e8b90b5	0.2725884
37	0xbdbe7e60	-0.09301448
38	0xbea1ab17	-0.31575844
39	0xbe30bb8e	-0.17259046
40	0xbe8c3c71	-0.27389863
41	0xbe567c62	-0.20945886
42	0xbed8bb26	-0.42330283
43	0xbeb36d06	-0.35044116
44	0xbcc896bc	-0.024485938
45	0x3e475fa5	0.19470079
46	0x3e93a4b8	0.28836608
47	0x3d6680f1	0.05627531
48	0x3cd3d335	0.025857547
49	0xbd67685e	-0.056496017
50	0x3e828d01	0.25498202
51	0xbe75a2fb	-0.23987953
52	0x3e1b8d85	0.15190704
53	0x3dda3694	0.10654941
54	0x3d0d8c22	0.03455747
55	0x3eb7bdd3	0.35887012
56	0x3e55b055	0.20868047
57	0x3df6fc9e	0.12059902
58	0x3dd749d2	0.10512127
59	0xbdef4386	-0.11682801
60	0x3dda0329	0.10645134
61	0x3cec8ea6	0.028876614
62	0xbc87e99c	-0.016590886
63	0x3e55419d	0.2082581
64	0x3e755858	0.23959482
65	0x3de8b256	0.1136214
66	0x3d6168a2	0.055031426
67	0x3e982bea	0.29721004
68	0x3e45e75b	0.19326536
69	0xbe710806	-0.23538217
70	0xbe1c42a9	-0.15259804
71	0xbea09141	-0.3136082
72	0x3e1ee543	0.15517144
73	0x3bac4dc9	0.005258296
74	0x3d05f893	0.032707762
75	0xbce64d83	-0.028113132
76	0xbe33955c	-0.17537445
77	0xbd869c3d	-0.06572769
78	0xbda4c339	-0.08045048
79	0xbde2b14e	-0.110689744
80	0xbd1f3258	-0.03886637
81	0x3dbb9832	0.09159888
82	0xbccb641c	-0.02482801
83	0x3c32f3ea	0.010922411
84	0x3e7fb19b	0.24970095
85	0x3e840e76	0.25792283
86	0xbe6275af	-0.22115205
87	0xbdce2a61	-0.10066677
88	0xbe30261b	-0.17202036
89	0xbe16c9c3	-0.14725403
90	0x3ee8329c	0.45351112
91	0x3d57880c	0.05261998
92	0xbc079d4f	-0.008277251
93	0x3f16c4d3	0.5889408
94	0x3e4f7a95	0.20261605
95	0xbdf6729c	-0.12033579
96	0xbdafc018	-0.08581561
97	0xbed08f83	-0.4073449
98	0xbd8878bd	-0.06663654
99	0x3eccd5a5	0.40006748
100	0x3d31cd02	0.0434084
101	0xbe8cb2e1	-0.27480224
102	0xbeb97b1f	-0.36226746
103	0x3e09fbec	0.13475007
104	0x3c0f8c63	0.008761498
105	0x3c1b5cad	0.009482545
106	0x3eb2ae5f	0.3489866
107	0x3d663821	0.056205872
108	0xbe61aa1d	-0.2203755
109	0x3d7c0da8	0.06153646
110	0x3e810158	0.25196338
111	0x3e165bd6	0.1468347
112	0xbc6514f8	-0.01398205
113	0x3e919863	0.28436574
114	0x3db1caf1	0.08681286
115	0xbd942245	-0.07233099
116	0xbe16f0c2	-0.1474028
117	0xbdd2a413	-0.10285201
118	0xbda9012e	-0.08252178
119	0x3e9bc0fd	0.30420676
120	0xbe13e5ab	-0.1444308
121	0x3de57baa	0.11205228
122	0x3d87ee07	0.06637197
123	0xbd6e2559	-0.058141086
124	0xbd0800bf	-0.033203837
125	0xbd88994a	-0.066698626
126	0x3f00430c	0.50102305
127	0xbd1541da	-0.036439754
128	0x3dbdfa75	0.092762865
129	0xbde0ffaa	-0.10986264
130	0x3e7600db	0.24023764
131	0xbe587266	-0.2113739
132	0x3e67b711	0.22628428
133	0xbe518a67	-0.20462953
134	0xbe3f1c84	-0.18663222
135	0x3e96ef13	0.29479274
136	0x3e6ef97d	0.2333736
137	0x3e2a9677	0.1665896
138	0x3f4d2c77	0.8014597
139	0x3e52fdbc	0.20604604
140	0xbf15d3ab	-0.58526105
141	0xbf2c5d5c	-0.67329955
142	0xbe8d3f46	-0.27587336
143	0xbea0ee6f	-0.3143191
144	0xbdd898be	-0.10576008
145	0x3e099e78	0.13439357
146	0x3eb1a3f1	0.3469539
147	0xbd80139a	-0.06253739
148	0x3d1c7a94	0.038202837
149	0xbda2feb0	-0.07958734
150	0x3cfa5dd7	0.030562324
151	0xbde76c84	-0.112999946
152	0xbe78c8fe	-0.24295422
153	0x3e3f4605	0.18679054
154	0x3dbf845c	0.093514174
155	0xbe8f0faf	-0.27941653
156	0xbf161705	-0.58628875
157	0xbeb789e9	-0.35847405
158	0xbe0a606a	-0.13513342
159	0xbeebb68f	-0.4603772
160	0x3f13011d	0.57423574
161	0xbcbbe9ac	-0.022938572
162	0x3e051e5a	0.1299986
163	0xbd8db3b7	-0.069190435
164	0x3d0db5d4	0.034597233
165	0xbe77b695	-0.24190743
166	0xbddcc497	-0.10779684
167	0x3e057648	0.13033402
168	0x3e9194ed	0.28433934
169	0x3e4a957b	0.19783585
170	0x3bb913c1	0.005648107
171	0xbebf32d1	-0.37343457
172	0xbf1fd108	-0.6242833
173	0xbd137ba7	-0.036006596
174	0xbf57caad	-0.84293634
175	0x3e104fc9	0.14092936
176	0x3ec6979b	0.3878754
177	0x3ea13acc	0.3149017
178	0x3e117cf8	0.14207828
179	0xbe36ab67	-0.17838822
180	0x3e5e29cf	0.21695636
181	0x3d7bded2	0.061491795
182	0x3e59d778	0.21273601
183	0x3ea77ef9	0.3271406
184	0xbea51714	-0.3224417
185	0x3caffb38	0.021482095
186	0x3ea7f8b2	0.32806927
187	0xbe75b120	-0.23993349
188	0xbc601b5c	-0.013678398
189	0xbebad666	-0.36491698
190	0xbe7838af	-0.24240373
191	0xbcf37657	-0.029719515
192	0xbe12c8a8	-0.14334357
193	0x3d07a6df	0.033118125
194	0x3e87f73d	0.26555815
195	0x3dcd9903	0.1003895
196	0x3d3dca7e	0.04633569
197	0x3d0f0779	0.034919236
198	0xbd1a9252	-0.0377372
199	0x3dcc3915	0.09971825
200	0x3f0929da	0.53579485
201	0xbaee2a9c	-0.0018170658
202	0x3db78e12	0.08962645
203	0x3e320116	0.17383227
204	0xbd8c01cf	-0.068362825
205	0x3dd5b83b	0.1043553
206	0xbeb3b78f	-0.35100982
207	0x3e205718	0.15658224
208	0x3d05eada	0.032694675
209	0xbeddb252	-0.4330011
210	0xbe59a021	-0.2125249
211	0xbdcc9211	-0.099887975
212	0xbe4b9ab7	-0.19883238
213	0xbe66357b	-0.22481339
214	0xbeb20806	-0.34771746
215	0x3e258b82	0.161665
216	0xbd40ed6a	-0.047101416
217	0x3ea8c5ac	0.32963312
218	0xbf0cd6d4	-0.550153
219	0xbd289b89	-0.041163955
220	0xbe80a710	-0.2512746
221	0xbf0b79eb	-0.5448291
222	0x3f2e830b	0.68168706
223	0xbe9419fb	-0.28926072
224	0x3e196a61	0.14981987
225	0x3e906154	0.28199255
226	0x3da86486	0.08222298
227	0xbcf7b354	-0.030236878
228	0xbda069ed	-0.07832704
229	0xbf03fe47	-0.5155987
230	0xbe51d781	-0.20492364
231	0x3e2c2689	0.16811575
232	0xbec3589b	-0.38153538
233	0x3ee2d851	0.4430566
234	0xbc0c3957	-0.008558593
235	0x3e43201b	0.19055216
236	0x3e67bb6c	0.2263009
237	0xbeb67b1f	-0.3564081
238	0xbe77036f	-0.24122404
239	0xbe503d66	-0.20335922
240	0xbecc662a	-0.39921695
241	0xbea09754	-0.31365454
242	0x3db91684	0.09037498
243	0xbe018179	-0.12647046
244	0xbe8c21b8	-0.27369475
245	0xbe7bdbc5	-0.24595554
246	0xbdd3ba50	-0.10338271
247	0xbd6a127c	-0.057146534
248	0x3e74cde8	0.23906672
249	0xbd90ee77	-0.070767336
250	0x3cc1b49d	0.023645693
251	0x3e8f9380	0.2804222
252	0x3d37f436	0.044910632
253	0xbe10f223	-0.14154868
254	0x3cd20bc7	0.025640382
255	0xbc498040	-0.012298644

conv_block_2.0.bias f4 [10]
0	0xbd69baff	-0.0570631
1	0xbe3b7462	-0.18306115
2	0x3f08fd77	0.53511757
3	0x3d9c9379	0.07645316
4	0xbe6dd50e	-0.23225805
5	0x3eb39d26	0.35080832
6	0x3eed6b6b	0.46371016
7	0xbda5ddc9	-0.08098943
8	0x3d9fd72c	0.07804713
9	0xbeac939d	-0.3370637

conv_block_2.2.weight f4 [10, 10, 3, 3]
0	0xbec60e88	-0.3868296
1	0x3cadeb9c	0.021230511
2	0xbda9c123	-0.08288791
3	0xbdb1035b	-0.08643218
4	0x3c70a1c2	0.014687004
5	0xbe034c03	-0.12821965
6	0x3cb82bcd	0.022481823
7	0xbe27f2a5	-0.16401155
8	0x3da66ef2	0.0812663
9	0xbe670e1c	-0.22563976
10	0xbe64c61f	-0.22341202
11	0xbe986880	-0.29767227
12	0xbea7c19d	-0.32764903
13	0xbe6e65da	-0.23281041
14	0x3e846190	0.25855684
15	0xbedadc27	-0.42746088
16	0x3e810bf6	0.25204438
17	0x3ea0ad3b	0.31382164
18	0x3ebf48d7	0.3736026
19	0xbe317735	-0.1733063
20	0xbe8d08f2	-0.27545887
21	0xbe64f8c1	-0.22360517
22	0xbdaf7f66	-0.08569221
23	0xbe3d887b	-0.18509094
24	0xbec52f28	-0.3851254
25	0xbe00abe8	-0.12565577
26	0x3e4e3e94	0.20141059
27	0x3ca30241	0.019898536
28	0x3eb40567	0.35160372
29	0x3da5c70e	0.08094607
30	0x3eb3e75d	0.35137454
31	0xbe0a2dfe	-0.13494107
32	0xbeec65b9	-0.46171358
33	0x3eee4246	0.46534938
34	0xbe8eb205	-0.27870193
35	0xbefacc83	-0.48984155
36	0xbf0204f9	-0.5078884
37	0xbe9b5705	-0.30339828
38	0xbf155c03	-0.58343524
39	0xbed16044	-0.40893757
40	0x3cfdfa24	0.031003065
41	0xbf014d0d	-0.50508195
42	0x3e233db7	0.15941511
43	0xbe90a140	-0.28248024
44	0xbe932fbe	-0.28747362
45	0xbce9260e	-0.028460529
46	0xbe4bf631	-0.19918133
47	0x3cd5b633	0.026087856
48	0x3b3014b2	0.0026867804
49	0x3d778995	0.060433943
50	0x3e94168e	0.28923458
51	0xbe270d5a	-0.16313687
52	0xbe00dba7	-0.1258379
53	0x3eb8baa6	0.360799
54	0x3e0b4df0	0.1360395
55	0xbbd32ade	-0.006444319
56	0xbed524d2	-0.41629654
57	0x3e2c5dbb	0.1683263
58	0x3e4b2b3e	0.19840714
59	0xbe2aa10b	-0.16662996
60	0xbe0ca89b	-0.13736193
61	0xbf308fbb	-0.68969315
62	0xbf0f83cd	-0.5606049
63	0xbcac7aba	-0.021054614
64	0xbd1af2e8	-0.03782931
65	0xbd992bae	-0.07479034
66	0x3c80362b	0.01565083
67	0xb9f96fef	-0.00047576378
68	0xbd3e62a4	-0.04648079
69	0x3c538782	0.012910726
70	0xbdae8438	-0.085213125
71	0xbd5ab4c3	-0.053395044
72	0x3c3c5284	0.011494283
73	0x3b67b62a	0.003535638
74	0xbd06edba	-0.032941557
75	0x3e277e74	0.16356832
76	0x3da08a06	0.07838826
77	0xbddee455	-0.10883395
78	0x3e8b0506	0.2715227
79	0x3c4be976	0.012445798
80	0xbe7d14af	-0.24714921
81	0x3da3190c	0.07963762
82	0xbe7836a6	-0.24239597
83	0xbe9ebc07	-0.31002828
84	0xbed44aae	-0.41463226
85	0xbee8b6f5	-0.45452085
86	0xbc1a4258	-0.009415232
87	0xbeacb7b0	-0.33733892
88	0x3dbea19e	0.0930817
89	0x3e4a685b	0.19766371
90	0xbed63187	-0.4183466
91	0xbe428f71	-0.19000031
92	0x3c59c7cc	0.013292264
93	0xbdae1e68	-0.08501893
94	0x3dd9897b	0.106219254
95	0x3e8d5565	0.27604213
96	0xbeb99f72	-0.3625446
97	0x3ecaddef	0.39622447
98	0x3e9b0908	0.30280328
99	0x3e77f124	0.24213082
100	0xbd7afc11	-0.061275546
101	0xbe097b7c	-0.13426012
102	0x3e3d8714	0.1850856
103	0x3d31fd82	0.043454655
104	0x3ba8f2db	0.0051559038
105	0x3e18ebfb	0.1493377
106	0xbf12abd0	-0.57293415
107	0x3e1a976b	0.15096824
108	0xbf9317c4	-1.1491628
109	0xbf510143	-0.8164255
110	0xbf21abd3	-0.6315281
111	0x3eb4faa8	0.35347486
112	0x3c84c792	0.016208444
113	0xbe8c8f49	-0.27453068
114	0x3e378c9a	0.17924729
115	0xbd8fe94e	-0.07026921
116	0x3eb0b89f	0.34515855
117	0xbed3cbf2	-0.41366535
118	0xbe071520	-0.13191652
119	0x3e7dcf44	0.24786097
120	0xbe623c19	-0.22093238
121	0xbf37c5b4	-0.71786046
122	0xbf0db4e1	-0.55354124
123	0x3d6938e4	0.05693902
124	0xbd2b56c0	-0.041830778
125	0x3dcac5f9	0.099010415
126	0x3de4c96c	0.11171231
127	0xbe6b27fb	-0.2296447
128	0x3efbf216	0.49208134
129	0xbe7d9ee9	-0.2476765
130	0xbd3aa6a8	-0.045569092
131	0xbe5a9b3c	-0.2134828
132	0xbecaf64a	-0.3964103
133	0xbea96863	-0.33087453
134	0xbea6b8d0	-0.32562876
135	0x3f0c9a43	0.54922885
136	0x3e473dcc	0.19457167
137	0x3d02aba1	0.03190196
138	0xbe5fbef0	-0.2185018
139	0xbe207b30	-0.15671992
140	0x3e0c6f9e	0.13714454
141	0x3c3c6c07	0.011500365
142	0xbd826230	-0.06366384
143	0x3d821df3	0.063533686
144	0x3ebfcac7	0.37459394
145	0x3d1a4c8a	0.03767065
146	0xbf06a6ad	-0.5259808
147	0x3c2a2ab3	0.010386157
148	0xbe02a2b1	-0.12757374
149	0x3e3bf219	0.18354072
150	0xbd1f78a0	-0.038933396
151	0x3e96a3e4	0.29421914
152	0x3e5dbbc5	0.2165366
153	0xbc7940f3	-0.015213239
154	0xbbb03470	-0.005377345
155	0xbdbd7016	-0.09249894
156	0x3d255a50	0.04036933
157	0xbd1019ca	-0.035180844
158	0x3d64a13f	0.05581784
159	0x3dafc8d1	0.085832246
160	0xbdc00785	-0.09376434
161	0xbd9b0306	-0.07568936
162	0x3e11ce87	0.1423894
163	0x3d1ea397	0.03873023
164	0xbcd1e96d	-0.025624001
165	0xbd574d54	-0.05256398
166	0xbd41abc4	-0.04728295
167	0xbd644dd4	-0.055738285
168	0x3de77067	0.11300736
169	0x3d9b2bee	0.07576738
170	0x3ca24cec	0.01981207
171	0x3f04c8ea	0.5186907
172	0xbdd5ab04	-0.10433009
173	0x3d9d995b	0.07695266
174	0x3bfa68dc	0.0076418947
175	0x3e510929	0.2041365
176	0xbe361ef4	-0.17785245
177	0xbf014f68	-0.5051179
178	0xbedd323e	-0.43202394
179	0xbf23afe7	-0.6394028
180	0x3ebeb1d2	0.3724504
181	0x3aef7d48	0.001827159
182	0x3cf98bd6	0.030462187
183	0xbe6d4456	-0.231706
184	0xbec848fb	-0.3911818
185	0xbdfeb8b2	-0.124375716
186	0xbddd8535	-0.10816423
187	0xbe2f2de1	-0.17107345
188	0xbe030d75	-0.12798102
189	0xbe521a70	-0.20517898
190	0xbeaa8c06	-0.33309954
191	0x3d2dd592	0.042440005
192	0xbf10ed7b	-0.56612366
193	0xbf54224a	-0.8286482
194	0xbe913149	-0.28357914
195	0xbe40ba1c	-0.18820995
196	0xbf205b5f	-0.6263942
197	0xbf097ffe	-0.53710926
198	0x3eee4e01	0.46543887
199	0xbf27eff0	-0.6560049
200	0xbea72d44	-0.32651722
201	0x3e9af242	0.30262953
202	0xbe782b19	-0.2423519
203	0xbe861648	-0.26188874
204	0x3d12f534	0.035878375
205	0xbe0a68c2	-0.13516524
206	0xbe8d8b46	-0.2764532
207	0xbedd2e34	-0.43199313
208	0x3ec4fd9f	0.38474748
209	0x3c88716f	0.016655652
210	0xbf06c649	-0.5264631
211	0xbce3cc10	-0.027807266
212	0xbeb756f3	-0.35808524
213	0xbea1d605	-0.31608596
214	0xbd8eb1de	-0.06967519
215	0xbeafa94c	-0.3430885
216	0xbe7890d1	-0.24273993
217	0x3bf5d768	0.007502485
218	0xbecae601	-0.39628604
219	0xbec42119	-0.38306502
220	0x3d935663	0.07194211
221	0x3eb61c20	0.35568333
222	0xbebda60d	-0.3704075
223	0x3eda6130	0.42652273
224	0x3e9d4d60	0.30723095
225	0xbd908df3	-0.07058325
226	0xbeaaeffb	-0.33386216
227	0xbe46d521	-0.1941724
228	0x3e03a50c	0.12855929
229	0xbe6249d6	-0.22098479
230	0xbe8fa007	-0.2805178
231	0x3e800815	0.25006166
232	0xbcc2eb08	-0.023793712
233	0xbe9ce744	-0.30645192
234	0x3e704471	0.23463608
235	0xbc5d592b	-0.013510029
236	0xbe15ce7f	-0.14629553
237	0xbecdf980	-0.40229416
238	0x3ea62c1e	0.32455534
239	0x3e85d99f	0.26142594
240	0xbea5b046	-0.32361048
241	0x3eb1ff22	0.34764963
242	0xbc0ebc9a	-0.008711958
243	0xbdde4929	-0.10853798
244	0xbd9ae762	-0.07563664
245	0x3bde7829	0.0067892266
246	0x3d58634e	0.05282908
247	0xbc115e4f	-0.008872583
248	0xbaf1f6a5	-0.0018460347
249	0x3d7137ec	0.058891222
250	0x3dbcbdc4	0.092158824
251	0xbcdec938	-0.027195558
252	0xbbf165f2	-0.007366889
253	0x3d3e7022	0.046493657
254	0x3d8299b6	0.06376974
255	0xbdb71683	-0.08939841

conv_block_2.2.bias f4 [10]
0	0x3e50f26a	0.20404974
1	0x3ece50f0	0.40296125
2	0x3e97464a	0.29545814
3	0x3efa42e1	0.4887915
4	0x3e893845	0.26800743
5	0xbdafeac8	-0.08589703
6	0xbe1f8945	-0.15579708
7	0x3e173df6	0.1476973
8	0x3eb7ae9d	0.35875407
9	0xbe82705f	-0.25476357

classifier.1.weight f4 [10, 490]
0	0xbd2ee8b1	-0.04270238
1	0xbe0bc31f	-0.13648652
2	0xbe4ad6be	-0.1980848
3	0x3dc9a94e	0.098467454
4	0xbea12aa9	-0.3147786
5	0xbe4de674	-0.20107442
6	0xbbac5861	-0.005259559
7	0xbd2d99af	-0.042382892
8	0xbd12b3bb	-0.035815936
9	0xbe53aca0	-0.2067132
10	0xbd8cb95e	-0.068712935
11	0xbda9341f	-0.082618944
12	0xbe7b2988	-0.24527562
13	0xbd6ee379	-0.058322404
14	0xbc37b2b7	-0.0112120425
15	0x3e456ed5	0.1928056
16	0x3e20efc6	0.15716466
17	0x3ebf0ba2	0.37313563
18	0xbee1a17d	-0.44068518
19	0xbe5c18c7	-0.21493827
20	0x3d324900	0.04352665
21	0x3a1ac457	0.00059038907
22	0x3d8e36d9	0.06944055
23	0x3ec14788	0.37749887
24	0xbe1f9aea	-0.15586439
25	0x3e987436	0.29776162
26	0x3ea48074	0.32129252
27	0xbc9a9fd6	-0.018875044
28	0xbd81bb3a	-0.06334539
29	0x3db31ea9	0.08746082
30	0x3d26bb56	0.040706
31	0x3ea817d7	0.32830688
32	0x3e74ce55	0.23906834
33	0xbdeba231	-0.11505545
34	0x3ac0c64d	0.0014707536
35	0xbc8f7cfc	-0.017515652
36	0xbdddfee3	-0.108396314
37	0xbe72f6fc	-0.2372703
38	0xbd49a6b9	-0.049231265
39	0x3d700c12	0.05860526
40	0xbce6f1de	-0.028191503
41	0x3c84f968	0.016232207
42	0x3c979406	0.0185032
43	0xbbcc7813	-0.0062399
44	0xbd7b704a	-0.061386384
45	0xbc6ba074	-0.014381517
46	0xbd20ed92	-0.039289065
47	0xbbb368bd	-0.0054751323
48	0xbd01d3a4	-0.031695977
49	0x3cf04a4c	0.029332303
50	0x3daa9a5c	0.08330223
51	0xbc254ca5	-0.010089074
52	0x3dd8f40c	0.10593423
53	0x3d9e3d3d	0.07726524
54	0x3ca93f66	0.020660114
55	0x3d269431	0.04066867
56	0x3d1e42e7	0.03863802
57	0xbe285ee2	-0.16442445
58	0xbeac81e4	-0.3369285
59	0xbda9df71	-0.08294571
60	0xbea74c40	-0.32675362
61	0xbe202c9f	-0.15642022
62	0x3d590fa6	0.05299344
63	0xbe1fcbcc	-0.15605086
64	0xbe81fe19	-0.25389174
65	0x3d4be52e	0.04977911
66	0xbc62c344	-0.0138405
67	0xbd917d77	-0.07104009
68	0x3d089097	0.033341017
69	0x3db53987	0.08848863
70	0xbd3ddfec	-0.046356127
71	0xbefae4b9	-0.49002627
72	0xbedd5209	-0.4322665
73	0xbebb724a	-0.36610633
74	0x3d822ac7	0.063558154
75	0xbdaf2e4e	-0.08553754
76	0xbe66f13e	-0.22552964
77	0x3da2010f	0.07910358
78	0x3e4ce41a	0.20008889
79	0xbdbff742	-0.093733326
80	0xbe53d815	-0.20687898
81	0xbd1e2be5	-0.03861608
82	0xbd97469c	-0.073865145
83	0x3d2c0e1b	0.04200564
84	0x3db59efd	0.08868215
85	0x3e4794c4	0.19490343
86	0x3e2341f7	0.15943132
87	0x3ea6d24c	0.3258232
88	0xbc47bd8a	-0.012191186
89	0xbec0e088	-0.37671304
90	0xbda8c74a	-0.08241136
91	0x3d4c51b5	0.04988261
92	0xbc001b97	-0.007819078
93	0x3e93508a	0.28772384
94	0x3e6ce2fe	0.23133466
95	0xbe202fd4	-0.15643245
96	0xbeb2c654	-0.34916937
97	0xbd68a543	-0.05679823
98	0xbd94930b	-0.07254609
99	0xbe1a4592	-0.15065601
100	0x3a833929	0.0010011542
101	0x3d3e7689	0.046499763
102	0xbc8205ca	-0.015871901
103	0xbcd53337	-0.026025398
104	0x3d347913	0.044060778
105	0xbe33aa16	-0.17545351
106	0xbd280ea4	-0.041029587
107	0xbe4d201c	-0.2003178
108	0xb7e5069a	-2.7302001e-05
109	0x3cbf6c52	0.02336708
110	0xbc4abdd5	-0.012374361
111	0xbd0b831b	-0.03406058
112	0xbc7af3d5	-0.015316923
113	0x3e3454a4	0.17610413
114	0x3c07e343	0.0082939295
115	0xbd6ab4e2	-0.05730141
116	0x3e25c5d1	0.16188742
117	0x3ed3f605	0.41398636
118	0xbd7a80f4	-0.061158136
119	0x3e3afdfc	0.1826095
120	0x3e4fb4c9	0.20283808
121	0x3d83abde	0.064292654
122	0x3d505d86	0.05087044
123	0x3e9eed42	0.31040388
124	0x3ec6f401	0.38858035
125	0xbe29ab53	-0.16569261
126	0x3e2b65a0	0.16737986
127	0x3db46cd3	0.08809819
128	0x3eae09fd	0.33991995
129	0xbe59952c	-0.21248311
130	0x3e07831a	0.13233605
131	0x3d81f8c3	0.06346276
132	0xbe040783	-0.1289349
133	0x3d93427b	0.071904145
134	0x3e894faf	0.26818606
135	0x3e542c1f	0.20719956
136	0xbe95010d	-0.29102364
137	0xbed2c9a5	-0.41169468
138	0xbdc372f3	-0.09543409
139	0xbd19a580	-0.03751135
140	0xbb990b1a	-0.004670513
141	0xbd8ba8e9	-0.068193264
142	0xbd75d9fe	-0.060022347
143	0xbe34513b	-0.17609112
144	0xbdb7fd81	-0.08983899
145	0xbd543b72	-0.051814504
146	0xbd5bfb24	-0.053706303
147	0x3c9775f6	0.018488865
148	0xbdb6b226	-0.08920698
149	0xbe2d7314	-0.1693843
150	0xbe10adad	-0.14128752
151	0x3dc119e4	0.09428766
152	0x3e40b1c2	0.18817809
153	0xbdc98720	-0.09840226
154	0xbd0aaca6	-0.033856057
155	0xbd39031d	-0.045168985
156	0x3dcf4c1e	0.1012194
157	0x3ea375f6	0.31925935
158	0x3ee0ecdf	0.43930718
159	0x3e8e211d	0.27759638
160	0x3e5eb813	0.21749906
161	0x3d904da7	0.07046061
162	0xbc53b6e3	-0.012922022
163	0xbd71cd4a	-0.05903367
164	0xbdb83fb8	-0.089965284
165	0x3e04c7f5	0.12966903
166	0x3e63250e	0.22182104
167	0x3e04fe9d	0.12987752
168	0xbd75cc26	-0.060009144
169	0xbebef77a	-0.37298185
170	0xbea0662b	-0.31327948
171	0xbe40961a	-0.18807259
172	0xbef37ed7	-0.4755771
173	0xbea1dd3b	-0.31614098
174	0xbd404c33	-0.04694767
175	0xb9e1c2e9	-0.00043060564
176	0xbeb82a0e	-0.35969585
177	0xbe9f81db	-0.3115376
178	0x3ece294e	0.40265888
179	0x3e0a17ee	0.13485691
180	0xbecd99d7	-0.40156433
181	0xbf02bfb2	-0.51073754
182	0x3cb3d37c	0.02195143
183	0xbd262ade	-0.040568225
184	0x3da5cea8	0.08096057
185	0x3ec02d5d	0.3753461
186	0xbe232edd	-0.15935846
187	0xbe89edf1	-0.26939347
188	0xbdd17bfb	-0.102287255
189	0xbc800f75	-0.01563237
190	0x3c23178e	0.009954346
191	0x3c5b2604	0.013375763
192	0x3c45f096	0.012081286
193	0x3d8388fd	0.06422613
194	0x3cdf60ae	0.02726778
195	0x3cdc486c	0.026890002
196	0x3c0b59b4	0.008505274
197	0x3c1d1da8	0.00958959
198	0xbcfd5c53	-0.030927813
199	0xbd7e49e3	-0.062082183
200	0xbe111a0e	-0.14170095
201	0xbd9134f6	-0.070901796
202	0xbc07a83f	-0.008279859
203	0x3cf14856	0.029453438
204	0xbe4cc83c	-0.19998258
205	0xbdd360e7	-0.10321217
206	0xbdcf0192	-0.101077214
207	0xbf1aa2dc	-0.60404754
208	0xbdb5e78b	-0.08882054
209	0xbbdef0f4	-0.006803626
210	0xbc16e8f4	-0.009210814
211	0x3d51764c	0.051138207
212	0x3e2b375f	0.16720341
213	0xbc94799d	-0.018124396
214	0xbe572a61	-0.2101226
215	0x3ed28306	0.41115588
216	0x3e0b92b0	0.13630176
217	0xbd2df95e	-0.042474143
218	0x3de1853f	0.11011743
219	0x3ed419be	0.4142589
220	0xbe683d45	-0.22679622
221	0x3eeaf83a	0.45892507
222	0x3e9e6291	0.30934575
223	0x3d9a7c80	0.07543278
224	0x3c0c5c8e	0.008566989
225	0xbd3af36c	-0.0456423
226	0xbdf1fd43	-0.11815884
227	0xbe39b56e	-0.18135616
228	0xbe0eda24	-0.13950402
229	0x3ec8845d	0.39163485
230	0xbc44abf9	-0.012003892
231	0x3d0705cb	0.03296451
232	0x3d7ba14a	0.061433114
233	0xbe62396c	-0.22092217
234	0xbf3ff80a	-0.7498785
235	0xbf40191d	-0.7503832
236	0xbed39d2c	-0.4133085
237	0xbdb9df53	-0.09075799
238	0x3d0267aa	0.031837143
239	0xbd1ecb4d	-0.0387681
240	0x3d12934a	0.035784997
241	0xbe6f8ce7	-0.23393594
242	0xbec3e2f3	-0.38259086
243	0xbdaca621	-0.08430124
244	0xbc973108	-0.018455997
245	0x3c172d88	0.009227164
246	0xbd3024ef	-0.043003973
247	0x3b58df5b	0.0033092115
248	0xbcaa48cd	-0.020786667
249	0x3ae8a630	0.0017749723
250	0xbca7b553	-0.020472204
251	0x3b9c87c5	0.004776927
252	0x3ca8dbb0	0.020612568
253	0xbcfb9e72	-0.030715201
254	0x3cdcd76e	0.026958194
255	0x3dd05345	0.101721324

classifier.1.bias f4 [10]
0	0xbced8500	-0.028994083
1	0x3f346177	0.7046122
2	0x3d6fff2f	0.05859297
3	0xbd4de5ab	-0.050267857
4	0xbdf8936d	-0.12137494
5	0xbd0d20df	-0.034455176
6	0x3d6b5cbf	0.057461496
7	0x3dc7c7af	0.097548835
8	0xbea0861e	-0.31352323
9	0xbe67f2f2	-0.2265127
