model_weights/model_epoch_9.pth (torch, 34439 bytes, 10 tensors)

conv_block_1.0.weight f4 [10, 1, 3, 3]
-0.35432294 0.038846966 -0.28141278 -0.17794634 0.41822577 0.6066491 -0.6211189 -0.14577785
0.58075005 -0.0497938 -0.07374483 -0.20604388 -0.13241094 -0.014294686 -0.28997976 0.15531299
-0.10346281 0.07424026 -0.3792551 -0.41643193 0.056764178 -0.00052074797 0.2536814 0.45862675
0.105656885 -0.21762432 -0.57978547 0.37132642 0.14807093 0.24652147 0.57232904 -0.0567432
-0.19448501 0.24709128 -0.55746377 -0.39422226 -0.2298064 0.124699265 -0.47044164 0.06619507
0.32292014 0.14327984 0.02878412 -0.0100281555 -0.22646183 -0.7000942 0.31480446 0.1176065
0.14564954 0.59029543 -0.066395886 0.019761303 -0.15788293 0.19467053 0.5483897 0.21252863
-0.31542847 -0.15538394 -0.48656687 -0.71317273 -0.56702316 -0.76002455 0.45986396 0.58752954
0.07718822 -0.6718249 0.46607667 -0.43315744 -0.67781574 0.11610084 0.5309389 0.5952559
-0.27717197 -0.21899101 -0.135425 0.30985746 0.09889531 -0.22053921 -0.3563041 -0.28878734
0.27300304 -0.91863614 -1.3817614 -0.23579562 -0.2136046 -0.50934 0.15994877 0.74627453
0.6740966 0.097346365
00000000: d169 b5be ff1d 1f3d 5615 90be 9137 36be
00000010: b021 d63e 5b4d 1b3f a601 1fbf ca46 15be
00000020: 09ac 143f 95f4 4bbd 8807 97bd 2bfd 52be
00000030: bc96 07be 4234 6abc 3a78 94be 5e0a 1f3e
00000040: 4fe4 d3bd 470b 983d b92d c2be 9136 d5be
00000050: 8e81 683d ce82 08ba 87e2 813e 20d1 ea3e
00000060: a362 d83d e9d8 5ebe d26c 14bf 7f1e be3e
00000070: e89f 173e 2070 7c3e 2884 123f 8f6b 68bd
00000080: 1427 47be 7f05 7d3e f2b5 0ebf 80d7 c9be
00000090: 5e52 6bbe 5462 ff3d badd f0be 4891 873d
000000a0: ca55 a53e f3b7 123e adcc eb3c 224d 24bc
000000b0: 9ce5 67be 6039 33bf 0d2e a13e addb f03d
000000c0: 2725 153e 9a1d 173f 91fa 87bd 75e2 a13c
000000d0: 10ac 21be b657 473e 4463 0c3f 1ba1 593e
000000e0: d77f a1be f81c 1fbe 4b1f f9be 7d92 36bf
000000f0: 6e28 11bf f890 42bf 4a73 eb3e 5668 163f
00000100: dc14 9e3d b7fc 2bbf 9aa1 ee3e d0c6 ddbe
00000110: 5585 2dbf 47c6 ed3d 9deb 073f b162 183f
00000120: 7ce9 8dbe 2e3f 60be daac 0abe a3a5 9e3e
00000130: a089 ca3d 08d5 61be 7e6d b6be efdb 93be
00000140: 0ec7 8b3e bd2b 6bbf 8fdd b0bf 6874 71be
00000150: 2abb 5abe 1b64 02bf 9cc9 233e d90b 3f3f
00000160: 9891 2c3f 885d c73d

conv_block_1.0.bias f4 [10]
-0.22384296 -0.13517493 -0.10722522 -0.13718522 -0.37558648 -0.32150465 0.32116136 -0.35800096
0.04074512 0.5351073
00000000: 1737 65be 4c6b 0abe e598 dbbd 487a 0cbe
00000010: df4c c0be 429c a4be 436f a43e e74b b7be
00000020: 5be4 263d cbfc 083f

conv_block_1.2.weight f4 [10, 10, 3, 3]
-0.029494662 -0.11846599 -0.05444062 -0.06714223 0.071894825 -0.012801697 -0.07670378 0.015524851
-0.032502394 -0.04565926 0.08151608 -0.062381167 0.019645927 0.08297139 -0.087491184 0.09720325
-0.07529607 0.054902278 0.006989677 -0.034197148 0.086123325 0.07929582 0.02798682 -0.020283872
-0.0034758458 0.09506243 -0.085516825 -0.074817196 -0.07617456 -0.08162791 0.026361326 -0.008413164
0.019793624 -0.04803419 -0.012551732 -0.013357142 -0.030835068 0.016271492 -0.026666554 -0.10789676
0.059860814 -0.09640177 -0.07264369 -0.09022618 0.01327708 0.07276088 -0.022231057 -0.03453893
-0.043077502 0.027239503 -0.018896831 -0.051269233 -0.02078189 -0.021130575 -0.08442849 -0.056381803
0.042184927 -0.096260555 -0.019203117 -0.032490466 -0.10295209 0.048220843 -0.071861185 -0.06831032
0.06247243 0.074816085 -0.080212176 0.043053962 -0.08284067 -0.03433091 -0.072770335 -0.020322988
0.044714514 -0.060181405 0.020624299 -0.019845607 -0.06008327 0.10250822 -0.0029543077 -0.072115004
-0.07104916 -0.037632503 0.040553346 0.024171622 0.047501303 -0.06874761 -0.10166733 0.026884256
0.07424315 -0.09645033 -0.24100539 0.016242115 0.50835073 -0.4376798 -0.24803007 0.39386076
-0.48874682 -0.45958868 0.4715041 -0.09020248 0.017409625 0.038076606 0.06545205 0.029255303
-0.035833664 0.041368693 0.08463163 -0.08212536 -0.14170249 0.06954111 -0.12512802 0.117937475
-0.0057574227 0.113241285 0.07293076 -0.112527914 -0.08990937 -0.21110581 -0.17589067 -0.013229435
-0.14904703 -0.15582976 -0.012075383 0.031246092 -0.14072709 -0.013812483 -0.20898528 -0.26302803
-0.061248586 -0.12262236 -0.14256383 -0.09582107 -0.042581193 -0.064397804 -0.21137814 -0.26938903
-0.17742327 0.42235965 -0.1294495 -0.23359399 0.21820673 -0.14738575 -0.23985814 0.07204528
-0.056443907 -0.14084803 -0.22787735 -0.12611215 -0.23881242 -0.26307568 -0.16031086 -0.21240406
-0.11540152 -0.059347007 -0.1696701 -0.24038197 0.14477937 -0.099127725 -0.16545008 0.19965452
-0.093127 -0.12142277 -0.041397125 -0.12584086 -0.1442263 0.01064032 0.024995567 -0.0052896864
0.0018937711 -0.122365855 -0.05277445 0.10914966 0.0002086906 -0.2222317 0.08409177 -0.15381147
-0.24606812 0.17444767 0.14198248 -0.29112417 -0.07010966 -0.1936235 -0.42768234 0.06524291
-0.040110067 -0.33850622 -0.1654747 0.22836907 -0.06927536 0.00015267947 -0.10350049 0.017584162
-0.008664567 -0.06571808 -0.007871706 0.034195706 0.07244662 -0.08265887 -0.08485805 -0.014233986
-0.15785392 0.2364084 -0.044781074 -0.014453234 -0.075916655 -0.08013151 -0.0021395464 -0.17432934
-0.1963438 0.26301625 -0.31402653 0.032041524 -0.11246799 0.2732077 0.36018124 0.077048026
-0.059883047 -0.042418838 -0.30590966 0.23188749 0.08501115 0.07540762 0.20652588 0.08269939
0.06419357 -0.15390405 -0.049842693 -0.30237 0.09740212 0.13198695 -0.29264307 0.25066638
0.19470198 -0.23488528 0.03116718 -0.082739726 0.15078987 -0.24027748 -0.34208572 0.264275
-0.64085615 -0.4002049 -0.24664001 -0.059328973 0.050579824 0.05197136 -0.14045647 -0.2781829
0.48315087 0.008552499 0.13868366 0.41348422 0.084071085 -0.045334145 0.008596354 0.10813287
00000000: ca9e f1bc 4c9e f2bd 21fd 5ebd de81 89bd
00000010: 983d 933d 35be 51bc df16 9dbd f25b 7e3c
00000020: 3b21 05bd 3405 3bbd e7f1 a63d 6583 7fbd
00000030: 7ff0 a03c e7ec a93d 942e b3bd 7f12 c73d
00000040: d334 9abd 36e1 603d a909 e53b 4f12 0cbd
00000050: 6d61 b03d d965 a23d 9e44 e53c 5d2a a6bc
00000060: 04cb 63bb 17b0 c23d 7223 afbd c239 99bd
00000070: 6801 9cbd 892c a7bd b5f3 d73c 5ed7 09bc
00000080: 3d26 a23c 80bf 44bd c8a5 4dbc ead7 5abc
00000090: d399 fcbc cb4b 853c d173 dabc faf8 dcbd
000000a0: 9d30 753d 4b6e c5bd 37c6 94bd 81c8 b8bd
000000b0: 1c88 593c a803 953d e81d b6bc b178 0dbd
000000c0: 0972 30bd 6125 df3c 87cd 9abc b0ff 51bd
000000d0: c83e aabc 071a adbc d8e8 acbd 9bf0 66bd
000000e0: 1aca 2c3d 4124 c5bd db4f 9dbc b914 05bd
000000f0: 8cd8 d2bd 3883 453d f52b 93bd 48e6 8bbd
00000100: 17e3 7f3d 2d39 993d 4846 a4bd 5a59 303d
00000110: 5fa8 a9bd 919e 0cbd 9d08 95bd 657c a6bc
00000120: 9126 373d c780 76bd 4af4 a83c 4193 a2bc
00000130: e019 76bd d4ef d13d 0f9d 41bb 08b1 93bd
00000140: 3982 91bd 8a24 1abd 441b 263d 9103 c63c
00000150: ba90 423d 8ccb 8cbd f636 d0bd 5f3c dc3c
00000160: cb0c 983d c087 c5bd 1eca 76be 2f0e 853c
00000170: 4623 023f 9117 e0be 98fb 7dbe 1ea8 c93e
00000180: 063d fabe 354f ebbe fc68 f13e 14bc b8bd
00000190: a19e 8e3c 37f6 1b3d b90b 863d d1a8 ef3c
000001a0: 52c6 12bd 3872 293d 5953 ad3d 5731 a8bd
000001b0: 751a 11be 926b 8e3d 8f21 00be 3489 f13d
000001c0: c3a8 bcbb 0ceb e73d b95c 953d 0975 e6bd
000001d0: 6722 b8bd 1f2c 58be af1c 34be 46c0 58bc
000001e0: c99f 18be d691 1fbe d4d7 45bc cef7 ff3c
000001f0: c31a 10be c14d 62bc 3d00 56be 9cab 86be
00000200: ccdf 7abd 6f21 fbbd 41fc 11be d63d c4bd
00000210: 9e69 2ebd ffe2 83bd 8373 58be 5ced 89be
00000220: 72ae 35be 863f d83e 698e 04be 4333 6fbe
00000230: 9671 5f3e 4aec 16be 5f9d 75be 7a8c 933d
00000240: ba31 67bd 773a 10be ae58 69be 8b23 01be
00000250: 3e8b 74be dbb1 86be 8828 24be 7380 59be
00000260: a257 ecbd d915 73bd 00be 2dbe b126 76be
00000270: 0b41 143e 7a03 cbbd bf6b 29be 3c72 4c3e
00000280: 5eb9 bebd 80ac f8bd 0890 29bd 6ddc 00be
00000290: 0fb0 13be bd54 2e3c 81c3 cc3c 1b55 adbb
000002a0: 6a38 f83a f39a fabd 062a 58bd db89 df3d
000002b0: f5d3 5a39 b590 63be 4e38 ac3d c180 1dbe
000002c0: 48f9 7bbe 69a2 323e db63 113e 3a0e 95be
000002d0: a795 8fbd 3d45 46be 2ef9 dabe 139e 853d
000002e0: 744a 24bd b050 adbe 3372 29be 95d9 693e
000002f0: 3de0 8dbd 9518 2039 11f8 d3bd a90c 903c
00000300: d4f5 0dbc 3397 86bd 54f8 00bc cc10 0c3d
00000310: e55e 943d 0e49 a9bd 0fca adbd aa35 69bc
00000320: 75a4 21be 0b15 723e 5c6c 37bd 42cd 6cbc
00000330: 317a 9bbd fd1b a4bd a237 0cbb 6483 32be
00000340: 590e 49be 11aa 863e 16c8 a0be f93d 033d
00000350: 9e55 e6bd e1e1 8b3e ad69 b83e 5bcb 9d3d
00000360: ed47 75bd 60bf 2dbd 31a0 9cbe ea73 6d3e
00000370: 531a ae3d 4f6f 9a3d 857b 533e 4c5e a93d
00000380: eb77 833d 0699 1dbe da27 4cbd 3ed0 9abe
00000390: c37a c73d 9627 073e 50d5 95be 5857 803e
000003a0: f55f 473e c485 70be 5052 ff3c 7273 a9bd
000003b0: a968 1a3e 4d0b 76be dc25 afbe 0e4f 873e
000003c0: 260f 24bf a8e7 ccbe 338f 7cbe f002 73bd
000003d0: ca2c 4f3d ecdf 543d d2d3 0fbe fd6d 8ebe
000003e0: 8d5f f73e c81f 0c3c 1703 0e3e 34b4 d33e
000003f0: 762d ac3d 4cb0 39bd b9d7 0c3c c474 dd3d

conv_block_1.2.bias f4 [10]
-0.09416756 -0.057581 0.7234339 -0.058570575 0.40300897 -0.110534996 0.48914856 0.41644418
-0.07653926 0.37733394
00000000: ecda c0bd 0eda 6bbd f732 393f b3e7 6fbd
00000010: 3157 ce3e 2c60 e2bd ae71 fa3e 2c38 d53e
00000020: 9ec0 9cbd ea31 c13e

conv_block_2.0.weight f4 [10, 10, 3, 3]
0.045389123 -0.08342764 0.065832764 0.03663209 0.035698354 0.031120619 -0.102592126 0.05000205
-0.06289814 0.014076397 0.020327987 -0.047467947 0.07068957 -0.06561498 -0.07006876 -0.02951354
-0.025502576 0.063057065 0.10729682 0.04134712 0.074544966 0.029535156 -0.04807647 0.03746319
-0.11436699 -0.102907136 0.0073683797 -0.037886087 -0.07509487 0.06953038 0.09924427 -0.08266593
0.16430645 0.116385475 0.12531641 0.081471294 0.06268503 0.061348677 -0.07986311 -0.041844238
-0.036556188 -0.075447895 0.015972152 -0.064274095 -0.021867957 -0.042541187 -0.019325223 0.05254934
-0.021719472 0.089056976 0.025056314 0.078372225 -0.08038097 0.0011215 -0.02211042 -0.08463248
0.038666952 -0.03444441 -0.023336751 -0.064033106 -0.037997406 -0.0040929657 -0.18281406 -0.04125248
0.124356836 -0.08752693 -0.13275272 0.12561345 -0.11355388 -0.017821444 0.030694041 0.07008873
0.15625754 -0.05298301 0.02386657 0.07464759 -0.033397116 -0.035258316 0.031192442 0.0084353695
-0.05895138 -0.047566243 -0.09166375 -0.11576016 -0.21193169 0.033014867 -0.04712005 -0.08864878
0.01784885 -0.070992514 0.036633924 0.08978643 0.0018896575 0.022010379 0.08554619 0.083413064
0.043860275 0.03291298 0.032858904 -0.017765664 0.1508073 0.061835192 -0.07505377 0.11479204
0.13202149 0.0011469297 0.04007555 0.057739045 -0.22260478 0.37720686 0.14030646 -0.08744284
-0.08362419 -0.15122165 0.4282613 0.1466511 -0.071509704 -0.0016308997 0.06520393 0.3512947
0.104782 0.03963803 0.060571928 -0.14288957 -0.01851191 0.06297911 -0.022410711 0.18083963
0.09677779 0.159692 0.08515388 -0.1783125 -0.25348505 -0.24241282 -0.35921434 -0.018241594
0.014438811 -0.05662963 -0.09994868 0.08073436 0.055442464 0.028261196 -0.04574386 0.07364914
0.2476891 0.33793062 -0.10779297 0.2692871 -0.037013713 -0.32740158 -0.064179026 -0.3671698
-0.17150338 -0.12023875 0.13904145 -0.25753638 0.35591412 0.013346646 -0.08399282 0.413031
-0.24340244 0.056690603 0.01766719 0.29657453 0.36126342 -0.22017124 0.028120069 -0.06863166
0.057967514 0.023959734 -0.13627456 -0.46149653 -0.30224073 -0.41336626 0.25400823 0.11707441
-0.33789703 0.24905626 -0.21586958 -0.058057792 0.031579375 0.029389203 0.035610374 -0.0761032
-0.0482025 0.019833248 -0.009337567 -0.10513842 0.060969863 0.04321636 -0.16919702 -0.022342738
-0.09622656 -0.09583762 -0.018894544 -0.13503729 -0.07307322 -0.015622602 -0.10047778 0.3012261
0.021998977 -0.10062973 -0.19610125 0.06849832 -0.1907496 -0.33287793 -0.06521068 -0.157392
-0.45183 -0.28679454 0.0014515435 -0.01642506 0.1631134 -0.050623164 0.2636475 0.18214513
0.14173792 -0.23012888 0.15569948 0.1797581 0.28234607 0.48085374 -0.27415106 -0.22576019
-0.13509019 0.07729912 0.012874159 0.009889941 -0.028864358 0.08746098 0.043343704 0.045407433
-0.06573531 -0.009566979 0.22217163 0.29452917 0.50080603 -0.20363167 0.29151133 0.5074292
-0.4516338 -0.49657914 -0.4527594 0.00078432466 0.3929358 0.50670826 -0.18764333 0.025331795
-0.17442444 -0.28471416 -0.34932724 -0.020744 -0.31947598 -0.4538659 -0.12842557 -0.09415983
00000000: f2e9 393d 1cdc aabd 54d3 863d 880b 163d
00000010: 7038 123d abf0 fe3c d21b d2bd f3ce 4c3d
00000020: bdd0 80bd b0a0 663c e186 a63c c06d 42bd
00000030: b1c5 903d 2661 86bd 3680 8fbd 61c6 f1bc
00000040: c7ea d0bc 1024 813d 6fbe db3d 995b 293d
00000050: 08ab 983d b6f3 f13c d5eb 44bd 0073 193d
00000060: 3e39 eabd fac0 d2bd 7372 f13b 712e 1bbd
00000070: 57cb 99bd f265 8e3d 9440 cb3d c14c a9bd
00000080: f33f 283e 825b ee3d f252 003e 6cda a63d
00000090: 0261 803d c048 7b3d 458f a3bd dd64 2bbd
000000a0: f1bb 15bd 6d84 9abd 08d8 823c 23a2 83bd
000000b0: 6e24 b3bc ab3f 2ebd ee4f 9ebc fa3d 573d
000000c0: 09ed b1bc 8163 b63d e642 cd3c 9e81 a03d
000000d0: c79e a4bd 4cff 923a e920 b5bc cb53 adbd
000000e0: 3d61 1e3d 9515 0dbd b72c bfbc ca23 83bd
000000f0: 2ba3 1bbd 491e 86bb 9c33 3bbe 5cf8 28bd
00000100: ccae fe3d 5241 b3bd 54f0 07be d0a0 003e
00000110: f08e e8bd 47fe 91bc 1272 fb3c ae8a 8f3d
00000120: fa01 203e b604 59bd d383 c33c d6e0 983d
00000130: 6acb 08bd 066b 10bd 4b87 ff3c 8134 0a3c
00000140: 0177 71bd d2d4 42bd 34ba bbbd aa13 edbd
00000150: 9f04 59be 993a 073d f400 41bd 7e8d b5bd
00000160: c037 923c 8664 91bd 740d 163d f3e1 b73d
00000170: 62ae f73a 1c4f b43c d732 af3d 78d4 aa3d
00000180: d5a6 333d c3cf 063d 0f97 063d 4c89 91bc
00000190: 3b6d 1a3e e646 7d3d cab5 99bd 1718 eb3d
000001a0: a430 073e 9354 963a 4326 243d c77f 6c3d
000001b0: 82f2 63be 4221 c13e 7fac 0f3e 3b15 b3bd
000001c0: 2943 abbd d9d9 1abe 1145 db3e b52b 163e
000001d0: ae73 92bd eac3 d5ba a389 853d e6dc b33e
000001e0: f297 d63d 7d5b 223d 451a 783d a551 12be
000001f0: 4aa6 97bc 31fb 803d ab96 b7bc 062e 393e
00000200: 6f33 c63d 4d86 233e 2865 ae3d 8d97 36be
00000210: cbc8 81be 113b 78be f1ea b7be 656f 95bc
00000220: c390 6c3c 79f4 67bd e5b1 ccbd 0e58 a53d
00000230: a317 633d 0684 e73c ea5d 3bbd 5cd5 963d
00000240: 36a2 7d3e 3e05 ad3e 90c2 dcbd 00e0 893e
00000250: b19b 17bd 2ea1 a7be 4b70 83bd aefd bbbe
00000260: 959e 2fbe bc3f f6bd e260 0e3e cfdb 83be
00000270: 603a b63e e4ab 5a3c 6d04 acbd cd78 d33e
00000280: 7d3e 79be 6834 683d c8ba 903c 9ed8 973e
00000290: 85f7 b83e 9274 61be 0f5c e63c c18e 8cbd
000002a0: 586f 6d3d 3447 c43c 8f8b 0bbe 4649 ecbe
000002b0: 4cbf 9abe bea4 d3be 5e0d 823e b5c4 ef3d
000002c0: d700 adbe 9b08 7f3e ea0c 5dbe 02ce 6dbd
000002d0: 6059 013d a0c1 f03c 2fdc 113d ffdb 9bbd
000002e0: fc6f 45bd 5679 a23c 98fc 18bc d052 d7bd
000002f0: 89bb 793d a303 313d fc41 2dbe 1e08 b7bc
00000300: 6e12 c5bd 8446 c4bd bbc8 9abc 3747 0abe
00000310: 6aa7 95bd f1f5 7fbc 4bc7 cdbd 4f3a 9a3e
00000320: 3337 b43c f616 cebd c4ce 48be d948 8c3d
00000330: dd53 43be fa6e aabe 2d8d 85bd 5e2b 21be
00000340: 4356 e7be bcd6 92be b841 be3a d98d 86bc
00000350: 3307 273e 3c5a 4fbd cefc 863e 4184 3a3e
00000360: bf23 113e e8a6 6bbe af6f 1f3e 8212 383e
00000370: aa8f 903e 7632 f63e 875d 8cbe ae2d 67be
00000380: 1555 0abe 004f 9e3d 23ee 523c 6b09 223c
00000390: f274 ecbc be1e b33d 2b89 313d 25fd 393d
000003a0: 3ca0 86bd d1be 1cbc f680 633e 87cc 963e
000003b0: d334 003f d284 50be f940 953e e1e6 013f
000003c0: 8c3c e7be 9f3f febe 14d0 e7be 239b 4d3a
000003d0: e22e c93e a2b7 013f 9325 40be a084 cf3c
000003e0: 529c 32be 0ec6 91be 05db b2be 52ef a9bc
000003f0: 5b92 a3be 1c61 e8be fe81 03be ded6 c0bd

conv_block_2.0.bias f4 [10]
0.03564259 -0.024343181 -0.127462 0.17860374 -0.14228489 -0.056030493 -0.12642445 -0.22523971
0.24427366 0.26027605
00000000: f7fd 113d 5a6b c7bc 6685 02be e6e3 363e
00000010: 21b3 11be 3b80 65bd 6975 01be 3da5 66be
00000020: e022 7a3e e742 853e

conv_block_2.2.weight f4 [10, 10, 3, 3]
-0.077610254 -0.028669793 0.0069313296 0.09445587 0.021803878 0.05569933 -0.018637752 0.076244034
-0.10664073 0.38807863 -0.16694474 0.013883955 0.026191311 -0.1350498 0.002802241 0.26175803
0.043045465 -0.09887596 0.11335833 -0.37620336 -0.49027225 0.32003886 -0.72429 -0.44920442
-0.06874147 -0.6167187 -0.36906496 -0.105795085 -0.16559468 0.25041845 -0.17775202 -0.11449553
0.17638011 -0.024141144 0.09534401 0.3842577 0.25822735 -0.28257585 -0.2666716 0.037171826
-0.29728046 -0.099179186 -0.094075374 0.13957767 0.36116332 -0.0707601 -0.33720702 -0.7166711
0.28263548 -0.38874048 -0.3325273 -0.2273522 -0.6218678 0.1004983 -0.13006887 -0.020820415
-0.22644193 0.16450422 -0.110140614 -0.12925842 0.22126836 0.03080145 0.05352513 0.10774391
0.108196 0.010438025 -0.050465025 -0.36199605 -0.22907287 0.057345033 -0.33287135 -0.0954119
-0.042615727 -0.19829696 0.21314459 -0.12627906 -0.09759259 0.4139041 0.074997924 0.08724196
0.2806049 -0.14512308 0.17213413 -0.5850666 0.3724565 0.067448944 -0.611399 0.29539105
-0.28920913 -0.3377758 0.049377583 -0.12089748 -0.06507635 0.07621419 0.023635695 -0.03654591
0.09768087 -0.061435733 -0.016512886 -0.14668204 -0.2737529 -0.4419187 -0.029377006 -0.19486989
-0.4183393 -0.02495653 -0.17359723 -0.10808511 0.72860855 -0.112585336 0.26224935 0.23386787
0.33984694 -0.14212196 -0.3430165 -0.28879926 -0.7143 -0.052734185 0.15227495 0.08742082
-0.20989425 -0.22683068 0.1878247 0.0717224 -0.1279535 0.067037396 0.11448884 -0.19684616
0.0019925986 -0.30629593 -0.33712265 0.17395806 -0.4770384 0.18125044 -0.17607911 -0.59681904
0.020042837 0.50357217 -0.60850626 -0.6918482 -0.74202645 0.17207824 0.07931272 -0.07479331
-0.16562514 -0.17632762 -0.31901324 -0.055806596 -0.13282926 -0.33494708 0.057732824 -0.0026265467
-0.105646536 -0.11441249 0.028765406 -0.079330854 -0.5894891 -0.07872315 -0.22085941 -0.051417906
0.34728158 0.3116161 0.111586705 0.04466269 -0.08807622 -0.26693195 -0.17090347 -0.53337675
0.6754237 0.47680718 0.040490087 0.091326274 0.09351002 0.22487196 -0.1753079 -0.0076424815
-0.00044692928 -0.32245356 -0.46309018 -0.56288934 0.061514 0.006060411 0.095272526 0.04660717
0.025385931 0.047596745 -0.10518215 0.034291558 -0.093864284 0.3017617 0.014446079 -0.077226214
-0.05279102 -0.26536074 0.078907005 -0.2796655 -0.116503984 0.0913234 -0.42788935 -0.11253019
-0.096563295 -0.41133028 -0.10379125 -0.11124372 0.4272251 0.009857094 -0.059610996 0.19280276
0.27187502 -0.076038525 -0.040667307 -0.045201216 -0.09696536 -0.21735384 -0.20560448 -0.08861435
-0.1594437 0.2590771 -0.07965514 -0.39719933 -0.10280994 -0.32976118 -0.106251076 -0.09564169
-0.2147689 -0.033352576 -0.60630864 0.063001335 -0.5685305 -0.27383074 0.061434954 0.60283715
0.6276677 0.040673405 0.21031825 0.3264364 0.16600288 -0.046059616 -0.11374048 0.05789439
-0.031731218 0.071148075 0.16327736 0.008791349 -0.022284236 0.43626857 0.038944826 -0.38918683
0.23375575 -0.41031727 -0.1980026 0.03958582 -0.17516242 -0.07464874 -0.030094871 -0.5981766
00000000: 20f2 9ebd eadc eabc 3520 e33b 1472 c13d
00000010: 0c9e b23c fb24 643d 33ae 98bc d525 9c3d
00000020: 7466 dabd 3eb2 c63e 90f3 2abe 8779 633c
00000030: 298f d63c 7f4a 0abe cda5 373b 2605 863e
00000040: 7150 303d 7b7f cabd 6a28 e83d ba9d c0be
00000050: f704 fbbe 22dc a33e 126b 39bf 1ffe e5be
00000060: 54c8 8cbd 47e1 1dbf 15f6 bcbe 18ab d8bd
00000070: a791 29be d936 803e a004 36be a27c eabd
00000080: fd9c 343e a6c3 c5bc b843 c33d 6dbd c43e
00000090: 6036 843e c8ad 90be 2e89 88be 7c41 183d
000000a0: 2535 98be 751e cbbd 97aa c0bd 73ed 0e3e
000000b0: 66ea b83e acea 90bd 66a6 acbe c277 37bf
000000c0: 99b5 903e fe08 c7be 0541 aabe 04cf 68be
000000d0: ba32 1fbf 0dd2 cd3d c630 05be 938f aabc
000000e0: 65e0 67be cb73 283e 6791 e1bd 525c 04be
000000f0: 2c94 623e 5353 fc3c 2b3d 5b3d d7a8 dc3d
00000100: dd95 dd3d 4004 2b3c 6ab4 4ebd 8c57 b9be
00000110: 1492 6abe a0e2 6a3d 1d6e aabe 5067 c3bd
00000120: d48d 2ebd 5c0e 4bbe 9342 5a3e 4c4f 01be
00000130: a0de c7bd 3deb d33e 8398 993d eaab b23d
00000140: 72ab 8f3e 259b 14be ee43 303e edc6 15bf
00000150: 9eb2 be3e ac22 8a3d a584 1cbf 7f3d 973e
00000160: 3813 94be f3f0 acbe 2640 4a3d 1999 f7bd
00000170: c046 85bd 2f16 9c3d a59f c13c 2ab1 15bd
00000180: e80c c83d 09a4 7bbd 0846 87bc d133 16be
00000190: 5729 8cbe 2b43 e2be 0ca8 f0bc f98b 47be
000001a0: 9230 d6be a371 ccbc 79c3 31be ba5b ddbd
000001b0: 1786 3a3f 2493 e6bd 8c45 863e 0f7b 6f3e
000001c0: 6b00 ae3e 6b88 11be dc9f afbe 7fdd 93be
000001d0: 5ddc 36bf cdff 57bd f7ed 1b3e b009 b33d
000001e0: 85ee 56be 4d46 68be 1e55 403e 32e3 923d
000001f0: 3e06 03be e74a 893d 2079 ea3d 0a92 49be
00000200: 4296 023b d2d2 9cbe 579b acbe 1022 323e
00000210: 613e f4be b799 393e 154e 34be 22c9 18bf
00000220: e030 a43c 1bea 003f 11c7 1bbf f71c 31bf
00000230: 72f5 3dbf 4735 303e b56e a23d 3c2d 99bd
00000240: a399 29be 3a8f 34be b455 a3be 7595 64bd
00000250: 6504 08be 2f7e abbe 4179 6c3d 2422 2cbb
00000260: 365d d8bd 1851 eabd 6ea5 eb3c 3778 a2bd
00000270: c2e8 16bf 9a39 a1bd f828 62be 959b 52bd
00000280: e4ce b13e 258c 9f3e 9287 e43d 3af0 363d
00000290: 4e61 b4bd 4eab 88be 5201 2fbe 618b 08bf
000002a0: 91e8 2c3f 1220 f43e efd8 253d 4509 bb3d
000002b0: 2e82 bf3d d644 663e ea83 33be c86d fabb
000002c0: d551 eab9 a218 a5be 281a edbe 8419 10bf
000002d0: 1bf6 7b3d 6a96 c63b 3e1e c33d 29e7 3e3d
000002e0: 28f6 cf3c cef4 423d bd69 d7bd 4e75 0c3d
000002f0: eb3b c0bd 8280 9a3e 3faf 6c3c c728 9ebd
00000300: 663b 58bd 5ddd 87be ff99 a13d 5130 8fbe
00000310: a499 eebd c307 bb3d 5014 dbbe 3a76 e6bd
00000320: fac2 c5bd e299 d2be 8290 d4bd bfd3 e3bd
00000330: 40bd da3e a67f 213c a92a 74bd 166e 453e
00000340: 3433 8b3e 16ba 9bbd c392 26bd e924 39bd
00000350: c695 c6bd 0192 5ebe fb89 52be 717b b5bd
00000360: 3645 23be c1a5 843e 3c22 a3bd b65d cbbe
00000370: 058e d2bd 75d6 a8be 2a9a d9bd cadf c3bd
00000380: 61ec 5bbe b69c 08bd 0b37 1bbf d806 813d
00000390: 378b 11bf 8b33 8cbe 38a3 7b3d 8953 1a3f
000003a0: d5ae 203f 2899 263d ab5d 573e ac22 a73e
000003b0: a9fc 293e 02a9 3cbd c5f0 e8bd ab22 6d3d
000003c0: 98f8 01bd 15b6 913d 2e32 273e 9709 103c
000003d0: 6e8d b6bc 985e df3e 9c84 1f3d 7f43 c7be
000003e0: ab5d 6f3e 1b15 d2be 32c1 4abe be24 223d
000003f0: c75d 33be 70e1 98bd 8589 f6bc 1a22 19bf

conv_block_2.2.bias f4 [10]
-0.14520325 -0.006283599 0.09694536 -0.14589794 0.059485883 -0.42914036 -0.16611852 -0.0078353165
-0.1530312 -0.2878644
00000000: 29b0 14be a6e6 cdbb 4a8b c63d 4566 15be
00000010: 78a7 733d 49b8 dbbe f91a 2abe b35f 00bc
00000020: 36b4 1cbe f662 93be

classifier.1.weight f4 [10, 490]
-0.117390245 -0.11959612 0.048606478 -0.028332986 -0.042670004 -0.045911815 0.0129429605 -0.015756004
-0.007290636 0.058376767 -0.24378464 -0.35130063 -0.61063445 -0.3280296 0.29056877 0.10309899
-0.12250308 -0.13937578 -0.18841337 -0.47149304 -0.170614 0.2422415 0.30249304 -0.17515194
0.26945528 0.13475809 0.23855525 0.025173064 0.11567366 0.0018696612 -0.3086733 0.15516865
0.4142503 0.3064398 0.27030826 0.13036612 -0.04232234 -0.31774026 -0.24037413 -0.002990654
-0.008560748 -0.089330934 -0.027459322 -0.0087163495 -0.015116206 -0.33594435 -0.42749244 -0.20161864
-0.09638639 -0.019242797 -0.0903076 -0.033162583 -0.024686199 0.20431629 0.0835485 -0.005512037
0.013944171 0.09014375 -0.038608566 0.0655983 -0.04937285 -0.08861408 -0.025912121 0.0025151253
-0.26088154 -0.25754622 -0.3068452 -0.21454933 -0.029618006 -0.02844387 -0.12725176 -0.6182534
-0.8547055 -0.23368773 0.18887195 0.032580446 -0.121339925 -0.034453124 -0.3936057 -0.45159426
-0.40771148 -0.0689533 -0.016906593 0.01303661 -0.023538888 0.07290513 -0.016713222 0.13085617
0.13681449 -0.11939714 -0.059515554 0.054362122 0.13867995 0.26227623 0.3244771 -0.09542195
-0.102061175 0.0064871064 0.038096767 0.019503796 -0.1348623 -0.02349083 -0.1513409 0.06234017
-0.012097582 -0.007610156 -0.059521362 -0.012714638 0.09043405 0.12492675 -0.13578382 0.007139173
0.023781044 -0.050277535 0.05738961 -0.07414306 -0.47746712 -0.39236745 -0.113096476 0.01341506
0.015821975 -0.038060542 -0.54065764 -0.14242995 -0.13007091 -0.2611185 -0.026426204 -0.065635584
0.0560153 0.21551706 0.30312803 -0.03580957 -0.09467928 -0.00046036046 -0.014882669 -0.10426617
0.24064548 0.17814878 0.042533923 -0.0584926 0.042019278 0.043145392 -0.017457029 0.02196353
0.042556863 0.008474368 -0.002864732 -0.027720056 -0.069604605 -0.02524225 -0.0049408474 -0.07064358
-0.024804376 0.04024647 -0.09232597 -0.11101595 -0.23744233 -0.010660929 -0.052687746 0.0024537414
-0.012406693 -0.11734549 -0.05486299 -0.1402533 -0.34761795 0.13378118 0.2964483 0.013269052
-0.017077051 0.07154013 0.29514658 -0.22337525 0.37403265 0.51542753 0.044334024 0.027915236
0.012894351 0.004091424 -0.46802333 0.044565637 0.2234358 -0.01387881 0.08307909 0.16951698
0.23568147 -0.14443815 -0.32978436 -0.14108688 -0.026840044 0.020099929 -0.0071466533 0.030939601
-0.1356569 -0.2740261 -0.06902319 -0.06609338 -0.002302187 -0.03525553 0.03989273 -0.0018578196
0.10999069 0.079704106 0.080089964 0.03241428 -0.09574464 -0.07925651 0.037980907 0.26879773
0.100411765 0.04714308 -0.07703915 -0.18485339 -0.2069739 -0.0330441 0.14967364 0.14031878
-0.04412238 -0.22745582 -0.39910227 -0.49817073 0.1597179 0.17917661 -0.07618656 -0.18664101
0.026377067 -0.019029194 -0.093110494 0.27695212 0.2157005 -0.028774891 0.056443114 -0.021273132
-0.08883691 0.12123457 -0.08990677 -0.20323765 -0.005488753 -0.07680264 0.049400456 0.113721125
0.03065921 -0.0876808 -0.39658475 -0.08952201 0.014585433 -0.023062818 -0.08577844 -0.005405593
0.077606186 -0.014171752 -0.0112199895 -0.037793506 -0.064144626 0.038272113 0.032394513 -0.19438681
00000000: 4c6a f0bd d0ee f4bd 9617 473d 941a e8bc
00000010: bec6 2ebd 070e 3cbd b60e 543c bc12 81bc
00000020: 4ae6 eebb 7a1c 6f3d aea2 79be addd b3be
00000030: 8a52 1cbf 7ff3 a7be 6ec5 943e 9025 d33d
00000040: e5e2 fabd 86b8 0ebe 6fef 40be 8967 f1be
00000050: 70b5 2ebe 280e 783e 5ee0 9a3e 085b 33be
00000060: 0bf6 893e 06fe 093e d447 743e be37 ce3c
00000070: 50e6 ec3d 6b0f f53a 6d0a 9ebe 88e4 1e3e
00000080: 9e18 d43e ade5 9c3e d865 8a3e b27e 053e
00000090: 315a 2dbd daae a2be a324 76be d9fe 43bb
000000a0: 6142 0cbc 23f3 b6bd 5ff2 e0bc 05cf 0ebc
000000b0: f7a9 77bc e600 acbe 4ae0 dabe 1e75 4ebe
000000c0: 3a66 c5bd 12a3 9dbc 31f3 b8bd 7dd5 07bd
000000d0: b63a cabc 4a38 513e 7a1b ab3d 519e b4bb
000000e0: 1876 643c 499d b83d 0424 1ebd 6758 863d
000000f0: 303b 4abd 4c7b b5bd a845 d4bc cdd4 243b
00000100: 4492 85be 19dd 83be d01a 9dbe d2b2 5bbe
00000110: 76a1 f2bc 1e03 e9bc 494e 02be db45 1ebf
00000120: fbcd 5abf d64b 6fbe a667 413e 1373 053d
00000130: 1181 f8bd b81e 0dbd b086 c9be 5d37 e7be
00000140: 8fbf d0be 6337 8dbd b27f 8abc 8197 553c
00000150: a0d4 c0bc 494f 953d 2bea 88bc 29ff 053e
00000160: 1919 0c3e 7d86 f4bd 95c6 73bd d1aa 5e3d
00000170: 1e02 0e3e 1249 863e dd21 a63e 956c c3bd
00000180: 7305 d1bd cb91 d43b 5b0b 1c3d 6dc6 9f3c
00000190: 5819 0abe d76f c0bc 1cf9 1abe 6858 7f3d
000001a0: f034 46bc 9e5e f9bb accc 73bd 0f51 50bc
000001b0: 7d35 b93d 99d9 ff3d ea0a 0bbe b9ef e93b
000001c0: 77d0 c23c d1ef 4dbd 5e11 6b3d 51d8 97bd
000001d0: 9276 f4be 63e4 c8be 209f e7bd d7ca 5b3c
000001e0: 169d 813c 5fe5 1bbd 8a68 0abf 28d9 11be
000001f0: 4f31 05be 53b1 85be c47b d8bc f36b 86bd
00000200: 4d70 653d 81b0 5c3e 9933 9b3e 0ead 12bd
00000210: 36e7 c1bd 895c f1b9 70d6 73bc 8089 d5bd
00000220: c56b 763e a26c 363e 0d38 2e3d f095 6fbd
00000230: 681c 2c3d 39b9 303d 0b02 8fbc dcec b33c
00000240: 1b50 2e3d 13d8 0a3c 3abe 3bbb 2c15 e3bc
00000250: dc8c 8ebd d6c8 cebc d5e6 a1bb 95ad 90bd
00000260: 8c32 cbbc 7cd9 243d 6615 bdbd 555c e3bd
00000270: 1524 73be 2dab 2ebc 1bcf 57bd f3ce 203b
00000280: 7145 4bbc d552 f0bd 04b8 60bd 909e 0fbe
00000290: fbfa b1be effd 083e 12c8 973e 7066 593c
000002a0: 2ce5 8bbc a283 923d 741d 973e 7bbc 64be
000002b0: 3581 bf3e 0ff3 033f 9897 353d 7eae e43c
000002c0: d442 533c 5a11 863b c1a0 efbe 758a 363d
000002d0: 5bcc 643e f363 63bc 5f25 aa3d dc95 2d3e
000002e0: 7c56 713e 98e7 13be 7fd9 a8be 1479 10be
000002f0: a7df dbbc 9ba8 a43c 792e eabb 0c75 fd3c
00000300: a4e9 0abe 264d 8cbe 085c 8dbd f75b 87bd
00000310: 4ae0 16bb 1a68 10bd 8f66 233d 1582 f3ba
00000320: cd42 e13d e83b a33d 3506 a43d d6c4 043d
00000330: c415 c4bd 3d51 a2bd de91 1b3d db9f 893e
00000340: afa4 cd3d 1a19 413d b4c6 9dbd 354a 3dbe
00000350: f7f0 53be 4059 07bd 0c44 193e baaf 0f3e
00000360: abb9 34bd 2eea 68be 2257 ccbe 3c10 ffbe
00000370: 178d 233e 137a 373e b307 9cbd d21e 3fbe
00000380: b814 d83c 1de3 9bbc b7b0 bebd abcc 8d3e
00000390: 98e0 5c3e 52b9 ebbc e530 673d fe44 aebc
000003a0: 20f0 b5bd d549 f83d 0a21 b8bd 881d 50be
000003b0: ffda b3bb b44a 9dbd 2258 4a3d 9fe6 e83d
000003c0: 0629 fb3c fe91 b3bd 280d cbbe 5157 b7bd
000003d0: bdf7 6e3c 3cee bcbc 9bac afbd 6721 b1bb
000003e0: feef 9e3d a330 68bc 0cd4 37bc 5dcd 1abd
000003f0: 425e 83bd 38c3 1c3d 1cb0 043d 560d 47be

classifier.1.bias f4 [10]
-0.02189184 0.49083585 0.17856503 -0.29362714 -0.12345208 0.010856133 -0.10093694 0.22875865
-0.15941781 -0.22898147
00000000: 8456 b3bc d64e fb3e c0d9 363e 4c56 96be
00000010: 72d4 fcbd ecdd 313c 07b8 cebd b53f 6a3e
00000020: 6c3e 23be 1e7a 6abe
