model_weights/model_epoch_8.pth (torch, 34447 bytes, 10 tensors)

conv_block_1.0.weight f4 [10, 1, 3, 3]
0	0xbf07e37b	-0.5308148
1	0x3db19f86	0.08673005
2	0xbe6d4f8b	-0.23174874
3	0xbe6fd218	-0.23419988
4	0xbe01a261	-0.12659599
5	0x3eaba7e3	0.33526525
6	0xbd36803f	-0.0445559
7	0xbddd35cd	-0.10801277
8	0xbdc5bd50	-0.09655249
9	0x3eb92111	0.3615804
10	0xbf72c774	-0.9483559
11	0xbf8e5717	-1.1120328
12	0xbd4567c5	-0.048194665
13	0xbedde90c	-0.43341863
14	0xbef1c9ee	-0.47224373
15	0x3f387c19	0.7206436
16	0x3eff74fb	0.49893937
17	0x3f5cbc7e	0.86225116
18	0xbcc72178	-0.024307951
19	0xbee5cd0e	-0.44883007
20	0xbe94397d	-0.2895011
21	0xbeac9f35	-0.33715215
22	0x3c3bb836	0.0114574935
23	0x3f14fac8	0.5819516
24	0xbea09980	-0.3136711
25	0x3ed06708	0.40703607
26	0x3eb1d90d	0.3473591
27	0x3d2b8426	0.041874073
28	0x3ee00946	0.43757075
29	0xbe9900f6	-0.29883546
30	0x3c3e125d	0.011601058
31	0xbe4c45d2	-0.1994851
32	0xbe9cdaa2	-0.30635554
33	0x3f0538dd	0.5203989
34	0x3e674379	0.22584333
35	0xbf1d3a9a	-0.61417544
36	0x3ea8d265	0.32973018
37	0x3f3c09f1	0.7345267
38	0xbee334e3	-0.44376287
39	0xbf2c8927	-0.6739678
40	0x3e6a4128	0.22876418
41	0xbe1ddfa4	-0.15417343
42	0xbcc2d11e	-0.023781355
43	0x3e677d1e	0.22606322
44	0x3f07fd46	0.5312084
45	0x3e9798bc	0.29608715
46	0xbd4909eb	-0.049081724
47	0x3f432664	0.76230454
48	0x3e83dafc	0.2575301
49	0xbe780b13	-0.24222974
50	0xbeb8d13d	-0.36097136
51	0xbee5930b	-0.44838747
52	0x3eb1e86f	0.34747645
53	0x3ecb384f	0.39691398
54	0xbe8b0116	-0.27149266
55	0xbe9b19be	-0.30293077
56	0xba9db800	-0.0012032986
57	0xbea214ef	-0.31656596
58	0xbe9b0187	-0.30274603
59	0xbdd91986	-0.10600571
60	0xbe938db2	-0.28819042
61	0x3e82fd41	0.25583842
62	0xbe6f5e28	-0.23375762
63	0xbf131d91	-0.5746699
64	0x3d6b9b16	0.05752095
65	0x3ad0a9b8	0.0015919721
66	0x3ed460f5	0.41480222
67	0x3f1be552	0.6089679
68	0x3f3e4456	0.7432302
69	0xbcbd9c19	-0.023145722
70	0xbe75cdfe	-0.24004361
71	0x3bf3102c	0.0074176993
72	0x3d6d7b14	0.057978705
73	0xbe92cc46	-0.28671473
74	0xbd047c35	-0.032345016
75	0x3e3cd108	0.18439114
76	0x3d9d1e31	0.07671774
77	0xbd59e4fb	-0.05319689
78	0xbadec3f6	-0.0016995657
79	0x3c6e2d02	0.014537098
80	0xbe5b89e8	-0.21439326
81	0xbe4b5d24	-0.19859749
82	0xbd8ca9e3	-0.06868341
83	0xbea5647d	-0.3230323
84	0xbe8c3331	-0.27382806
85	0x3e8abf76	0.27099198
86	0xbe74ce30	-0.2390678
87	0x3db85450	0.09000456
88	0xbcb0951c	-0.021555476
89	0xbdfc5c33	-0.12322273

conv_block_1.0.bias f4 [10]
0	0xbe323d45	-0.17406185
1	0x3ee259f7	0.44209263
2	0xbd0f43ec	-0.034976885
3	0xbdacdd46	-0.08440642
4	0xbf004e66	-0.50119627
5	0xbee5ac1c	-0.44857872
6	0xbe861942	-0.26191145
7	0xbe478970	-0.19486022
8	0xbdec7916	-0.11546533
9	0xbe1222a7	-0.14271031

conv_block_1.2.weight f4 [10, 10, 3, 3]
0	0xbdf8516b	-0.12124904
1	0x3d6a1837	0.057152
2	0xbd1062de	-0.035250537
3	0xbc7ba11a	-0.015358234
4	0x3d1ec64e	0.038763337
5	0x3c8167ea	0.01579662
6	0x3e375f4a	0.17907444
7	0x3d80fb92	0.06297983
8	0x3d41d5f9	0.0473232
9	0x3e29bf6d	0.1657693
10	0xbe22ce25	-0.1589895
11	0xbeb4d924	-0.35321915
12	0x3eabb3d9	0.3353565
13	0xbe303e44	-0.17211252
14	0xbf1d15cd	-0.6136139
15	0xbda55322	-0.08072497
16	0xbee6c15b	-0.45069394
17	0xbeec352c	-0.46134317
18	0x3e0f4f37	0.13995062
19	0x3b0ec942	0.002178744
20	0x3d88cbf1	0.06679524
21	0x3e16647d	0.1468677
22	0x3e8d2f6b	0.2757524
23	0xbba8527e	-0.005136787
24	0x3ecf6648	0.40507722
25	0x3d4dce02	0.050245292
26	0x3b0aa362	0.0021154513
27	0xbea4aa81	-0.32161334
28	0x3dcc0fb1	0.099639304
29	0x3dc6b073	0.09701624
30	0xbbc2e4a3	-0.005947666
31	0xbd96f817	-0.07371538
32	0x3bd0f75c	0.006377144
33	0xbe1a0d95	-0.15044244
34	0x3e4a502e	0.19757149
35	0x3d88004f	0.06640684
36	0x3b9b176d	0.004733017
37	0xbe6ad6d0	-0.22933507
38	0x3e7802f7	0.24219881
39	0xbdc977c3	-0.09837296
40	0x3d8e1f9d	0.069396235
41	0xbc95197d	-0.01820063
42	0xbd4c712c	-0.049912617
43	0xbdd6eb79	-0.104941316
44	0xbd83579c	-0.064131945
45	0x3e029c7f	0.12755011
46	0x3da6927e	0.0813341
47	0x3ddf6828	0.10908538
48	0xbdda759f	-0.10666966
49	0x3dcbeabd	0.09956882
50	0x3d954a23	0.07289531
51	0x3bf3526c	0.007425597
52	0xbda35655	-0.07975451
53	0x3dcb3f3d	0.09924171
54	0x3d8fa9b3	0.070147894
55	0x3d2d7422	0.04234708
56	0xbd8439fd	-0.06456373
57	0x3d92241f	0.07135796
58	0xbd8ca5dc	-0.06867573
59	0xbd75909b	-0.05995236
60	0x3dc88653	0.09791245
61	0xbd125422	-0.035724767
62	0xbceae378	-0.028672919
63	0xbee3245a	-0.44363672
64	0x3d48dbe1	0.049037818
65	0xbd5f6719	-0.05454168
66	0x3d09ff27	0.033690598
67	0x3e1c994e	0.15292856
68	0xbd1bebbe	-0.03806662
69	0x3ddf2c23	0.1089709
70	0x3e6e7f9d	0.23290868
71	0x3e38fde9	0.18065609
72	0xbd9b91df	-0.07596182
73	0xbdb35a8c	-0.08757505
74	0xbd871573	-0.06595888
75	0x3d6ebcd2	0.05828554
76	0x3dd08bd5	0.10182921
77	0x3d05449d	0.032536138
78	0x3d871748	0.065962374
79	0x3d2ea54a	0.0426381
80	0xbbbfd81c	-0.0058546197
81	0x3d2918f7	0.041283574
82	0x3d91cc36	0.07119028
83	0xbcf2a6d3	-0.029620564
84	0xbd6cf369	-0.05784932
85	0xbd281dd6	-0.04104408
86	0xbd720e94	-0.059095934
87	0xbd9c40f4	-0.07629576
88	0xbdc11ae4	-0.09428957
89	0x3c809cb9	0.015699731
90	0xbcc22e34	-0.023703672
91	0x3d3dde3d	0.04635452
92	0xbd8f37f6	-0.069930956
93	0x3d13f0c1	0.036118273
94	0x3d680176	0.05664202
95	0x3d2a86d2	0.04163248
96	0xbdfab926	-0.122423455
97	0xbd7e5349	-0.062091146
98	0xbb8142e0	-0.0039447397
99	0xbede74a7	-0.43448374
100	0xbf22d9f0	-0.63613796
101	0xbe86feff	-0.26366422
102	0xbedc7049	-0.43054417
103	0x3cb919f2	0.02259538
104	0x3e146790	0.14492631
105	0xbde44944	-0.11146787
106	0x3e095188	0.13410008
107	0x3eb347fe	0.35015863
108	0x3e0df2f6	0.13862213
109	0xbe1be036	-0.15222248
110	0x3dfdf255	0.12399737
111	0xbd98bd7f	-0.074580185
112	0xbe74fef3	-0.2392538
113	0xbdd57477	-0.104226045
114	0xbe613e46	-0.21996412
115	0xbe96b764	-0.2943679
116	0xbea58f73	-0.32336006
117	0x3e21267b	0.15737335
118	0xbbf859fa	-0.0075790854
119	0xba76d7cc	-0.00094163115
120	0x3e473bc8	0.19456398
121	0x3e34d835	0.17660601
122	0xbe2cb0ec	-0.16864365
123	0xbda2f943	-0.07957699
124	0x3dc031e3	0.09384515
125	0xbd3980f5	-0.045289
126	0xbbc64c96	-0.00605161
127	0x3e337a64	0.17527157
128	0xbd2b4cbc	-0.041821226
129	0xbd46d78c	-0.048545405
130	0xbe6aa4be	-0.22914407
131	0xbe81e72c	-0.25371683
132	0x3de84e04	0.11343005
133	0x3e42001c	0.18945354
134	0x3dd4441b	0.103645526
135	0x3e24d48d	0.16096707
136	0x3e26ed17	0.1630138
137	0x3e28d286	0.16486558
138	0x3d6865a7	0.05673757
139	0xbe253ea4	-0.16137177
140	0x3db2532e	0.087072715
141	0x3dadd90d	0.08488665
142	0x3de6b13e	0.11264275
143	0x3e135be9	0.1439053
144	0x3cddcb8c	0.027074598
145	0x3d5622f2	0.05227942
146	0x3da7458f	0.08167564
147	0x3d90e0e9	0.07074148
148	0xbdb96c41	-0.09053851
149	0xbbdac130	-0.006675862
150	0xbd553b40	-0.05205846
151	0xbd096b0c	-0.033549353
152	0xbd0576b2	-0.0325839
153	0x3e7b829c	0.24561542
154	0x3ecc22bd	0.39870253
155	0x3e83fae6	0.25777358
156	0x3c29b847	0.010358877
157	0xbdb8f7d5	-0.09031645
158	0x3e8c7495	0.27432695
159	0xbe0eb968	-0.13937914
160	0xbeeae311	-0.45876363
161	0xbf0d4e4d	-0.551976
162	0x3b22cc0d	0.0024840862
163	0xbd8e4eae	-0.06948601
164	0xbdddc925	-0.10829381
165	0x3d92177f	0.07133388
166	0x3d675e36	0.05648633
167	0x3bceb691	0.0063083847
168	0xbc990266	-0.018677901
169	0xbd03e265	-0.03219833
170	0x3c39bb93	0.011336225
171	0x3dd1ac13	0.10237899
172	0x3d973e37	0.073849134
173	0xbd99c754	-0.07508722
174	0xbd6f7038	-0.05845663
175	0x3d72de7f	0.05929422
176	0xbce051da	-0.02738278
177	0xbd0143f7	-0.031558957
178	0x3cbd4b27	0.023107124
179	0xbd66a198	-0.05630645
180	0x3bb224d4	0.005436519
181	0x3d230870	0.03980297
182	0x3dbdb7c2	0.09263565
183	0x3d658d7d	0.056043137
184	0xbe0feb9e	-0.14054725
185	0xbe7fc999	-0.24979247
186	0xbe45a0ca	-0.19299617
187	0x3da73a6d	0.08165441
188	0x3db79729	0.089643784
189	0x3d954a5f	0.07289576
190	0xbefbcfe3	-0.49182042
191	0x3e44fb1f	0.1923642
192	0xbec6bc1b	-0.38815388
193	0xbf07508b	-0.52857274
194	0xbe8a00d0	-0.26953745
195	0xbea7b71f	-0.32756898
196	0xbe4d5d3d	-0.20055099
197	0xbe43d0a0	-0.19122553
198	0x3e0f6057	0.14001594
199	0x3db16a67	0.08662873
200	0xbcedb456	-0.029016655
201	0xbead326e	-0.33827537
202	0xbe280196	-0.16406855
203	0x3df5b053	0.11996522
204	0xbdb1bbd0	-0.086784005
205	0xbd9c5aed	-0.0763453
206	0x3c2fa27e	0.0107198935
207	0xbd139126	-0.036027096
208	0xbdb0aa32	-0.08626212
209	0xbdecebac	-0.11568388
210	0x3ba55cad	0.005046448
211	0xbe11602e	-0.14196846
212	0xbe00f705	-0.1259423
213	0xbc229fc0	-0.009925783
214	0xbe48ee3f	-0.19622134
215	0x3d914d1a	0.07094784
216	0x3e8648d1	0.2622743
217	0xbd4ca1d2	-0.04995901
218	0x3d8e955b	0.06962081
219	0x3d4cd70d	0.050009776
220	0x3d99e500	0.075143814
221	0x3d96f0c9	0.07370145
222	0x3da9c733	0.08289947
223	0x3d19b8af	0.037529644
224	0x3e5e4f71	0.21709992
225	0xbe7033dc	-0.23457283
226	0x3e8bb8b2	0.2728935
227	0x3e8d652e	0.27616256
228	0xbd352caa	-0.044232048
229	0xbd463dbe	-0.048398726
230	0x3d8dc018	0.069214046
231	0xbdb64586	-0.08899979
232	0x3e1d2069	0.15344395
233	0x3cb7e779	0.022449242
234	0x3c23fb58	0.0100086555
235	0x3da1bebd	0.078977086
236	0xbd7dc71d	-0.061957467
237	0x3b620540	0.0034487993
238	0x3d933351	0.07187522
239	0x3dbea72f	0.093092315
240	0x3db41297	0.08792608
241	0xbc7565b8	-0.014977865
242	0x3c947714	0.018123187
243	0x3e3a6932	0.18204191
244	0x3e0feef8	0.14056003
245	0x3dd37485	0.10324959
246	0x3d24c122	0.04022325
247	0x3c86b706	0.016444694
248	0x3e76657e	0.24062154
249	0xbe446992	-0.19180897
250	0x3d3c4469	0.04596368
251	0x3ea9db1c	0.3317498
252	0x3d128913	0.035775255
253	0x3cd2a45b	0.025713136
254	0xbda2d717	-0.079511814
255	0xbd50caef	-0.050974783

conv_block_1.2.bias f4 [10]
0	0x3e081325	0.13288553
1	0x3e03642e	0.12831184
2	0x3e9548c2	0.29157072
3	0xbda93b35	-0.08263246
4	0xbde2fd62	-0.11083485
5	0x3b0fa192	0.0021916372
6	0x3e11e9cd	0.14249344
7	0xbe72249f	-0.23646782
8	0x3c9e70d0	0.019340903
9	0xbd935554	-0.071940094

conv_block_2.0.weight f4 [10, 10, 3, 3]
0	0xbeae89a8	-0.34089398
1	0xbe88eea9	-0.26744583
2	0x3ee2021f	0.44142243
3	0xbe43f83a	-0.1913766
4	0xbe69a0f0	-0.22815299
5	0xbd1e1711	-0.038596217
6	0x3e92546d	0.28580037
7	0xbe648581	-0.22316553
8	0xbeb43883	-0.35199365
9	0xbdc732a6	-0.09726457
10	0xbd3a9e89	-0.045561347
11	0x3d81caca	0.06337507
12	0xbe281a66	-0.1641632
13	0xbdfda95c	-0.12385818
14	0x3e8cd0f1	0.2750316
15	0x3e0332c0	0.12812328
16	0xbe171ac8	-0.1475631
17	0xbdca5e2c	-0.09881243
18	0xbdeb6b15	-0.11495034
19	0xbd99b381	-0.07504941
20	0x3eb9948d	0.36246148
21	0xbe89ce48	-0.26915193
22	0xbe8f6822	-0.28009135
23	0x3ebd20d8	0.3693912
24	0x3e25e3fd	0.16200252
25	0x3ccafa33	0.024777507
26	0xbc007e60	-0.00784263
27	0xbcf29379	-0.029611336
28	0xbdc3559e	-0.095378146
29	0xbcefa6f8	-0.029254422
30	0x3e435e75	0.19079001
31	0xbd7ae6e0	-0.061255336
32	0xbe140614	-0.14455444
33	0xbcb36298	-0.0218976
34	0xbddf9100	-0.109163284
35	0x3dd2c575	0.10291568
36	0xbd0e77e9	-0.034782324
37	0x3c41033b	0.011780555
38	0x3c094980	0.00837934
39	0x3d670d05	0.0564089
40	0x3dcbfbc6	0.09960131
41	0x3d6a0dc0	0.05714202
42	0x3daf1968	0.08549768
43	0x3d1f174e	0.038840584
44	0x3d04fd83	0.03246833
45	0xbdefe515	-0.11713616
46	0x3c42a54a	0.011880228
47	0xbdc65aff	-0.09685325
48	0xbe18bb8c	-0.14915293
49	0x3c80161c	0.015635543
50	0xbd95bc2f	-0.07311284
51	0xbcdb9642	-0.026805047
52	0xbdb041d7	-0.08606308
53	0xbdda435b	-0.10657378
54	0xbd190f36	-0.037368022
55	0x3cae9d7a	0.021315325
56	0x3e238303	0.15967946
57	0xbd9d3afb	-0.07677265
58	0x3dddc2e3	0.10828187
59	0x3e9a1de8	0.30100942
60	0xba3897b8	-0.0007041651
61	0xbc4235bd	-0.0118536325
62	0xbdb7c22d	-0.08972583
63	0x3d1fed83	0.03904487
64	0xbe5e2968	-0.21695483
65	0xbd8e0def	-0.06936251
66	0x3e018f19	0.12652244
67	0x3e0b6a7e	0.13614842
68	0x3dd4fef8	0.10400194
69	0xbe49c15d	-0.19702668
70	0x3c0c8f8d	0.008579147
71	0x3de751f5	0.11294929
72	0xbdd3f30d	-0.10349093
73	0xbe810f8a	-0.25207168
74	0xbe23e319	-0.160046
75	0xbdbc6da3	-0.09200599
76	0xbd3f1e90	-0.046660006
77	0xbdb09eb6	-0.08624022
78	0x3e574b6b	0.21024863
79	0x3d045440	0.03230691
80	0xbc66d080	-0.014087796
81	0xbd482db6	-0.04887172
82	0xbda19d7e	-0.078913674
83	0x3dc5eefb	0.096647225
84	0x3caadb50	0.02085653
85	0x3d81f47e	0.06345461
86	0xbbf4e91a	-0.007474077
87	0x3d5378f3	0.051629018
88	0xbdb222fe	-0.086980805
89	0x3d9e04f3	0.07715788
90	0xbe96635b	-0.29372677
91	0xbdd2d4f9	-0.102945276
92	0xbd9df293	-0.07712283
93	0xbeff05a2	-0.49808985
94	0xbedcbf3a	-0.43114644
95	0x3cfba0b2	0.030716274
96	0x3bd8ef68	0.0066203363
97	0x3e1ec2e5	0.15504034
98	0x3e911208	0.2833407
99	0xbd16f001	-0.03684998
100	0x3e8e0961	0.2774153
101	0x3e9f59c8	0.31123185
102	0xbe38ab1d	-0.18034025
103	0xbe35d796	-0.17758021
104	0xbe0fb4e8	-0.14033854
105	0xbe44ad21	-0.19206668
106	0x3de9386c	0.11387715
107	0x3d60449c	0.05475293
108	0xbe36b8fa	-0.17844
109	0x3e9339cc	0.28755033
110	0x3ee4305d	0.44568148
111	0xbe82a5fa	-0.25517255
112	0xbec60fb4	-0.38683856
113	0xbc1c0905	-0.009523635
114	0xbe9016cb	-0.2814239
115	0x3e00214f	0.12512706
116	0x3ecc8ed9	0.39952734
117	0xbdf842f8	-0.12122148
118	0x3e157197	0.14594112
119	0x3ea9bd1c	0.33152092
120	0x3e480428	0.19532835
121	0x3e200439	0.15626611
122	0xbcb36f93	-0.021903789
123	0x3d827459	0.06369848
124	0x3dc15e0c	0.09441766
125	0xbe239796	-0.15975794
126	0xbc608340	-0.013703167
127	0x3d370852	0.04468567
128	0xbd0d0457	-0.034427967
129	0xbce4ca34	-0.02792845
130	0xbdd11c21	-0.10210443
131	0xbdae3857	-0.0850684
132	0x3dd0a1e3	0.101871274
133	0x3b9be05d	0.004756971
134	0x3d33089f	0.043709394
135	0xbd01da53	-0.03170235
136	0xbe271762	-0.16317514
137	0x3dc14a11	0.09437955
138	0x3e1314ea	0.14363447
139	0x3dc0f5e0	0.09421897
140	0x3d66faf1	0.05639166
141	0x3d5ae529	0.0534412
142	0xbcde7b2e	-0.027158346
143	0xbcc100cf	-0.023559956
144	0x3d6045ee	0.05475419
145	0x3e6d5388	0.23176396
146	0x3e7d91e5	0.24762686
147	0xbddcc75c	-0.10780212
148	0xbe9d5a27	-0.30732843
149	0x3d1439d5	0.036187965
150	0xbe06236f	-0.13099454
151	0x3c047260	0.00808391
152	0x3e67ee23	0.22649436
153	0x3df9c587	0.121958785
154	0x3e064d1d	0.13115354
155	0xbd7457b9	-0.05965397
156	0x3e1d16b1	0.15340687
157	0x3da474e9	0.08030111
158	0xbd563f9e	-0.052306764
159	0x3d831135	0.06399766
160	0xbe39da15	-0.18149598
161	0xbcc106c4	-0.023562796
162	0xbe285808	-0.16439831
163	0xbdcc0758	-0.09962338
164	0x3d0a6933	0.033791732
165	0xbe1d43a9	-0.15357842
166	0xbe03f17e	-0.1288509
167	0xbe4a6ecc	-0.19768828
168	0xbdb7a792	-0.089675084
169	0x3c645117	0.013935349
170	0x3dd50778	0.10401815
171	0x3dc9a81e	0.09846519
172	0x3d189d23	0.037259232
173	0xbdca718b	-0.09884938
174	0xbc0fc737	-0.008775524
175	0xbd764239	-0.06012175
176	0x3dbd6e20	0.0924952
177	0x3d45bd65	0.048276324
178	0xbcfaf0a6	-0.030632328
179	0xbbc46914	-0.0059939716
180	0xbeb599b2	-0.35468823
181	0xbd05ca68	-0.032663733
182	0xbdbbde94	-0.09173313
183	0xbcd0bfa9	-0.025482016
184	0x3eb7b254	0.3587824
185	0xbc8d5341	-0.017251613
186	0xbe80763e	-0.25090212
187	0x3d94672b	0.0724624
188	0x3f13aec6	0.5768856
189	0x3e6a8b59	0.2290472
190	0xbdd4e6e5	-0.10395602
191	0xbe7943a1	-0.24342205
192	0x3e66f9d8	0.22556245
193	0x3bae26c1	0.0053146784
194	0xbde13053	-0.10995545
195	0x3e3db710	0.18526864
196	0xbe6ab89a	-0.22921982
197	0x3afebdea	0.0019435261
198	0xbe039058	-0.12848032
199	0x3ebee299	0.37282255
200	0x3e8585f9	0.26078776
201	0xbd7cc837	-0.061714377
202	0x3dc64652	0.09681381
203	0x3ee8ce68	0.45469975
204	0x3df9c5fa	0.12195964
205	0xbe6236c3	-0.22091202
206	0xbe206e99	-0.1566719
207	0x3e676126	0.22595653
208	0xbe8dd364	-0.2770034
209	0xbed668a4	-0.4187671
210	0x3e5d100a	0.2158815
211	0x3e5dbdba	0.21654406
212	0xbf0aa9e2	-0.5416547
213	0x3edf71e4	0.4364158
214	0x3ebd277e	0.36944193
215	0xbe849f93	-0.25902995
216	0xbc65aea9	-0.014018693
217	0xbd55dd2e	-0.052212887
218	0xbd1a90df	-0.037735816
219	0xbcb262cc	-0.021775626
220	0x3db267f1	0.087112315
221	0xbdc74c31	-0.09731329
222	0x3d0af5c5	0.03392579
223	0x3b96e9b6	0.0046054972
224	0xbd0a0cae	-0.0337035
225	0x3c1471f6	0.0090603735
226	0xbdc6a377	-0.09699147
227	0xbe07f8ad	-0.13278456
228	0x3d96dd89	0.07366473
229	0xbdacdf91	-0.084410794
230	0x3ddb6f7c	0.10714623
231	0x3c8fe7ae	0.017566528
232	0xbe09b89b	-0.13449328
233	0x3e8e815a	0.27833062
234	0x3ddc340c	0.10752115
235	0x3df28031	0.11840857
236	0xbd9faa67	-0.077961735
237	0xbdfa914e	-0.12234746
238	0x3d0aed1f	0.033917543
239	0x3e92835a	0.28615838
240	0x3e0594c6	0.13045034
241	0x3dbb65d3	0.09150281
242	0xbe0183e8	-0.12647974
243	0x3de30cd7	0.110864334
244	0x3d7418fa	0.059594132
245	0xbb09c1ab	-0.0021019976
246	0x3c2da760	0.010598987
247	0x3b406acf	0.0029360538
248	0xbeb5782f	-0.35443255
249	0xbe01006d	-0.12597819
250	0xbe1fcd3c	-0.15605634
251	0xbe9dfdb4	-0.30857623
252	0x3d29580f	0.041343745
253	0x3e0ed980	0.13950157
254	0x3e6a9ea6	0.22912082
255	0x3c2a48d4	0.01039334

conv_block_2.0.bias f4 [10]
0	0xbe33c033	-0.17553787
1	0xbe81df20	-0.25365543
2	0xbe912530	-0.28348684
3	0xbeeb1115	-0.4591147
4	0x3f0ce7e0	0.55041313
5	0x3d2f0448	0.042728692
6	0x3e918694	0.28422987
7	0x3e49f1c3	0.19721131
8	0x3eb2d99e	0.34931654
9	0x3d2eb3dd	0.042652

conv_block_2.2.weight f4 [10, 10, 3, 3]
0	0xbd7e1471	-0.062031213
1	0xbda2adaf	-0.07943284
2	0x3e1f4783	0.15554623
3	0xbe44b8ce	-0.19211122
4	0x3be232b8	0.006903019
5	0xbdf8df2e	-0.12151943
6	0xbd88daf9	-0.06682391
7	0xbdca960a	-0.09891899
8	0xbda2a6db	-0.079419814
9	0x3e070b05	0.13187797
10	0x3cf17892	0.029476438
11	0xbe9840c4	-0.29736912
12	0xbe3351f8	-0.17511737
13	0xbe82f47f	-0.2557716
14	0xbdec0025	-0.11523465
15	0x3cce6566	0.025194835
16	0xbea2eb20	-0.3182001
17	0xbda8a2a4	-0.08234146
18	0xbd5486c4	-0.051886335
19	0x3d60a9f5	0.054849584
20	0xbeb4cb71	-0.35311463
21	0x3dd6e3e5	0.10492686
22	0xbeb9baa9	-0.36275223
23	0xbdf357c3	-0.118819736
24	0xbd464b9b	-0.048411947
25	0xbf008b42	-0.5021249
26	0xbe9e5600	-0.30924988
27	0xbef85361	-0.48501113
28	0xbd9ecd06	-0.07753949
29	0x3c144d1c	0.009051587
30	0xbefe5b61	-0.49679092
31	0xbeb9e2f0	-0.36305952
32	0x3ded98e0	0.11601424
33	0x3eca452c	0.395059
34	0x3e53a6fa	0.20669165
35	0xbd966f8c	-0.07345495
36	0xbe2a93ae	-0.16657898
37	0xbd1d56be	-0.038412802
38	0x3ca4489a	0.02005415
39	0xbe88628d	-0.26637688
40	0xbe8acd7a	-0.2710989
41	0xbe9d5254	-0.30726874
42	0xbee8e242	-0.4548512
43	0xbe695796	-0.22787318
44	0x3ddfed22	0.10933901
45	0x3d8a2837	0.067459516
46	0x3eb6bc80	0.3569069
47	0xbf3cf0c7	-0.738049
48	0x3effa0f1	0.49927476
49	0xbeac9abf	-0.33711812
50	0xbe2cea13	-0.16886167
51	0x3e3253d4	0.1741479
52	0xbec067fd	-0.37579337
53	0xbee0fd53	-0.4394327
54	0xbe8e4fb9	-0.277952
55	0xbd8328d1	-0.064042695
56	0x3ec24050	0.37939692
57	0xbef2e7ec	-0.47442567
58	0x3e0e0d30	0.13872218
59	0x3e6aee12	0.22942379
60	0xbed9c7bf	-0.42535207
61	0xbe9147d8	-0.28375125
62	0xbd62fb45	-0.05541541
63	0x3da72cd3	0.081628464
64	0xbded8292	-0.1159717
65	0xbd94a40b	-0.07257851
66	0x3dc8f0ec	0.09811577
67	0xbe65d9f4	-0.22446424
68	0xbddd465d	-0.10804436
69	0xbbb42a90	-0.005498238
70	0xbe7854a4	-0.24251038
71	0xbc60da1e	-0.013723878
72	0xbe900b5d	-0.2813367
73	0xbe855461	-0.26040938
74	0x3dbde319	0.09271831
75	0xbe84e3d3	-0.25955066
76	0xbe089c33	-0.13340835
77	0x3ef8a73d	0.48565093
78	0xbee2d3b4	-0.44302142
79	0xbd51bae7	-0.051203635
80	0x3e91042f	0.28323504
81	0xbcf809ce	-0.030278113
82	0x3d5b7c30	0.05358523
83	0x3d8a4d1c	0.06752989
84	0x3ecb86f0	0.39751387
85	0x3e75d6e0	0.2400775
86	0xbe0bdfb2	-0.13659552
87	0xbda8db50	-0.082449555
88	0x3e352e87	0.1769353
89	0xbedc13a7	-0.42983744
90	0x3ec2e209	0.38063076
91	0x3e3b5b6c	0.18296593
92	0xbe10ef6f	-0.14153837
93	0xbe30b6f9	-0.17257299
94	0x3d28bd20	0.04119599
95	0xbce23c31	-0.027616592
96	0xbe11a50c	-0.14223117
97	0xbd19841f	-0.037479516
98	0xbd9fe5f1	-0.0780753
99	0xbdcd33da	-0.100196555
100	0xbde49f63	-0.11163213
101	0xbd0c7cab	-0.03429858
102	0x3e223a10	0.15842462
103	0x3e567b13	0.20945387
104	0x3e072c17	0.13200413
105	0xbe2e14c3	-0.17000107
106	0x3cade7fe	0.021228787
107	0x3e767015	0.24066193
108	0x3e547582	0.2074795
109	0x3e5c39a5	0.21506365
110	0xbd907794	-0.07054058
111	0xbe81c5db	-0.25346264
112	0xbd1f1dd4	-0.038846806
113	0x3ec7c681	0.39018634
114	0xbe7c1942	-0.2461901
115	0xbe83b213	-0.25721797
116	0xbed4e060	-0.41577435
117	0xbe032f32	-0.12810972
118	0xbe60348a	-0.21895042
119	0xbdbcc451	-0.09217132
120	0xbe93c89e	-0.28863996
121	0xbede8bfe	-0.4346618
122	0x3df0ae27	0.11751967
123	0x3e86f019	0.26355055
124	0x3e0e760c	0.13912219
125	0x3e466aba	0.1937665
126	0x3e505cbb	0.20347874
127	0x3e4fa50e	0.20277807
128	0xbede3af3	-0.4340435
129	0xbd8fb5ca	-0.070170954
130	0xbc3e1137	-0.011600784
131	0xbc49cb93	-0.012316602
132	0xbe4ac9a2	-0.1980348
133	0xbeb6af68	-0.356807
134	0xbe51951a	-0.20467034
135	0xbf3cba56	-0.73721826
136	0xbf0b930e	-0.5452126
137	0xbd84ae42	-0.064785495
138	0xbe04f4b6	-0.12983975
139	0xbf004159	-0.5009971
140	0xbf0b6a84	-0.54459405
141	0x3e7a0db2	0.24419287
142	0x3e25fa5e	0.16208789
143	0x3d9627f0	0.07331836
144	0x3ead5a8a	0.33858138
145	0x3e32b75a	0.17452756
146	0xbe8e9def	-0.2785487
147	0xbebff2d9	-0.37489966
148	0xbd03b3a3	-0.032153737
149	0xbda558e0	-0.08073592
150	0xbef8df4b	-0.4860786
151	0xbeca9745	-0.39568534
152	0xbe53141e	-0.20613143
153	0x3e21bb85	0.1579419
154	0x3f33ecb4	0.70283055
155	0xbdd88abd	-0.10573337
156	0xbe793488	-0.24336445
157	0x3dc5aff1	0.09652699
158	0x3e5d7076	0.21624932
159	0xbee1a346	-0.4406988
160	0xbec97706	-0.3934862
161	0xbec73b6c	-0.38912523
162	0xbee4e748	-0.44707704
163	0xbebe2275	-0.37135664
164	0xbf04eb98	-0.5192199
165	0xbdcdcfee	-0.10049425
166	0xbe550687	-0.20803271
167	0x3e448d6b	0.19194572
168	0xbe9e5a28	-0.3092816
169	0xbde08d4a	-0.10964449
170	0x3e1884f6	0.1489447
171	0xbea7acfb	-0.3274916
172	0xbe922ab8	-0.28548217
173	0xbf1fdcba	-0.62446177
174	0xbebcdd87	-0.36887762
175	0x3e2a39cb	0.16623609
176	0xbe2c66b0	-0.16836047
177	0x3e644a4c	0.22293967
178	0x3e7f6100	0.24939346
179	0x3d6850c1	0.056717638
180	0x3ef07e83	0.4697152
181	0x3f06a49c	0.52594924
182	0x3e5151b4	0.20441324
183	0x3d5fd76d	0.054648805
184	0x3e42d712	0.19027355
185	0xbebea569	-0.37235573
186	0xbe24ec6b	-0.16105811
187	0xbdd7539e	-0.105139956
188	0xbd8febdd	-0.07027409
189	0x3e421f4f	0.18957256
190	0xbe174c35	-0.14775164
191	0x3ddb4987	0.107073836
192	0xbb8e37b9	-0.0043401388
193	0x3e947ddf	0.29002282
194	0x3d80d56e	0.062907085
195	0xbe0a30ec	-0.13495225
196	0xbe1824c2	-0.14857772
197	0xbd045031	-0.03230304
198	0xbe00f11c	-0.12591976
199	0x3e3a6cda	0.18205586
200	0xbea3c618	-0.3198707
201	0xbe45aa48	-0.19303238
202	0xbe45c88b	-0.19314782
203	0xbdde1f4b	-0.108458124
204	0xbe2bfe09	-0.16796125
205	0x3c7232b3	0.014782595
206	0xbe5d93c7	-0.21638404
207	0xbeb00b69	-0.34383705
208	0x3d20c033	0.039245795
209	0xbe20b3bd	-0.15693565
210	0xbe0aaaf4	-0.13541776
211	0xbec33267	-0.3812439
212	0x3d79c06b	0.06097452
213	0xbc842893	-0.016132629
214	0x3ea6f0fb	0.32605729
215	0x3e0859d2	0.13315514
216	0x3ea50c0d	0.32235757
217	0x3ebc0ad1	0.36727002
218	0x3e61c241	0.22046758
219	0x3e0ff3eb	0.14057891
220	0x3e956410	0.29177904
221	0xbe96b333	-0.29433593
222	0xbdf9b5e9	-0.121929
223	0xbde6e7a3	-0.1127465
224	0xbe887957	-0.26655075
225	0xbf069f34	-0.52586675
226	0xbf18f0a9	-0.5974222
227	0xbf053ae5	-0.5204299
228	0x3f4a0f25	0.7892936
229	0x3a50ec20	0.00079697557
230	0xbecdf2ca	-0.40224296
231	0x3e34192b	0.17587726
232	0x3eea79d7	0.4579608
233	0x3e46863d	0.19387145
234	0xbe578dbd	-0.21050163
235	0xbe059328	-0.13044417
236	0x3ea681b4	0.3252083
237	0x3e08f1b7	0.13373457
238	0xbe2a803c	-0.1665048
239	0xbe456e09	-0.19280256
240	0xbe6a0c86	-0.2285634
241	0xbe28ef70	-0.16497588
242	0xbeb3b0b3	-0.35095748
243	0xbc9b6952	-0.01897112
244	0x3ef655c6	0.48112315
245	0x3e79e487	0.24403583
246	0xbe96941f	-0.29409882
247	0xbe4f3206	-0.20233926
248	0x3dbc9e5d	0.09209893
249	0x3c82fa9a	0.015988637
250	0xbeb62055	-0.35571542
251	0xbe018225	-0.12647302
252	0xbed1b1d0	-0.40955973
253	0xbe089589	-0.13338293
254	0x3f29d0b9	0.6633411
255	0xbcc5bdb9	-0.024138318

conv_block_2.2.bias f4 [10]
0	0x3e92c46e	0.2866549
1	0x3e1e321d	0.15448804
2	0xbe362ed4	-0.17791301
3	0x3e51f449	0.20503344
4	0x3e2f1ce5	0.17100866
5	0xbb58f3dd	-0.0033104338
6	0x3e3f8f7e	0.18707082
7	0x3d89694a	0.067095354
8	0x3e89c568	0.26908422
9	0xbbe329fa	-0.006932494

classifier.1.weight f4 [10, 490]
0	0xbca6e958	-0.020374939
1	0xbd8e7b13	-0.06957068
2	0xbe03146c	-0.12800759
3	0xbd6c2121	-0.05764878
4	0xbe1ded53	-0.15422563
5	0xbd6ebd93	-0.05828626
6	0xbc68ae5a	-0.014201725
7	0xbbc345a4	-0.0059592295
8	0xbe2c5562	-0.16829446
9	0xbd1c853e	-0.038213007
10	0xbe0bfc3e	-0.13670442
11	0xbe9b38b0	-0.30316687
12	0xbdf14b9c	-0.117819995
13	0xbcaf5c5b	-0.021406343
14	0xbc3f055c	-0.011658993
15	0x3e0fe904	0.14053732
16	0xbdc900ad	-0.09814582
17	0xbd41a692	-0.047277994
18	0xbefcf161	-0.49402907
19	0xbd928963	-0.07155111
20	0x3d82eea6	0.06393175
21	0xbcb22c68	-0.02174969
22	0x3d3c3677	0.04595038
23	0x3ec564e7	0.38553545
24	0xbe8ec047	-0.2788107
25	0xbb32fa4a	-0.0027309828
26	0xbc51feb3	-0.012817073
27	0x3cfc9a67	0.030835344
28	0x3c0bcf91	0.008533374
29	0x3e900f04	0.28136456
30	0xbb573b87	-0.0032841878
31	0x3bc047d7	0.005867939
32	0x3e9bc94a	0.3042701
33	0x3dc0846e	0.09400259
34	0xbc4e540f	-0.012593283
35	0xbcc52015	-0.02406315
36	0xbc885dcd	-0.01664629
37	0xbee25016	-0.44201726
38	0xbda320c9	-0.07965238
39	0x3da0d594	0.07853237
40	0xbd8379a5	-0.06419686
41	0x3ca7a8a7	0.020466162
42	0xbc173509	-0.009228953
43	0xbd802351	-0.06256736
44	0xbe2076eb	-0.15670364
45	0xbe31760e	-0.1733019
46	0xbe054d73	-0.13017826
47	0xbca9e88d	-0.020740772
48	0xbccf2ab1	-0.025288912
49	0xbd050516	-0.032475553
50	0xbbb96519	-0.0056578037
51	0xbdbef437	-0.09323924
52	0x3d585694	0.052816942
53	0x3cd7bea4	0.026336022
54	0x3d8269da	0.06367846
55	0x3ae1bd4c	0.0017222553
56	0xbd02db81	-0.031947616
57	0x3cdc904c	0.026924275
58	0x3d5e7b60	0.05431688
59	0xbd0cf6e7	-0.034415152
60	0x3d4b9f05	0.0497122
61	0x3d13bf67	0.036071207
62	0x3d9c7ddf	0.076411955
63	0xbc710e64	-0.014712904
64	0xbe160e8d	-0.14653988
65	0xbe652b32	-0.22379759
66	0xbe2281be	-0.15869805
67	0xbe980e82	-0.2969857
68	0x3e773123	0.24139838
69	0xbc711858	-0.014715277
70	0xbd7507d9	-0.059821937
71	0xbe92631a	-0.28591233
72	0xbeab8123	-0.3349696
73	0x3e1230d9	0.14276446
74	0x3eaabee4	0.33348763
75	0x3ea37a4e	0.3192925
76	0xbdc43130	-0.09579694
77	0x3d623e56	0.05523523
78	0xbec68cd7	-0.38779327
79	0xbebde983	-0.37092218
80	0x3e78d00a	0.2429811
81	0x3e19c670	0.15017104
82	0x3e98d604	0.2985078
83	0xbd2315cb	-0.039815705
84	0x3d39a149	0.04531983
85	0xbe114673	-0.1418703
86	0x3dd00967	0.10158043
87	0xbd221023	-0.03956617
88	0x3d725923	0.05916704
89	0x3cdeac6f	0.027181832
90	0xbd2d31bf	-0.04228377
91	0x3e804af7	0.25057194
92	0x3e19611d	0.14978452
93	0x3ea9f685	0.33195892
94	0xbe93a3ce	-0.2883591
95	0xbe756061	-0.23962547
96	0xbdc56bde	-0.09639715
97	0xbd26c19a	-0.040711977
98	0xbc8572a5	-0.016290018
99	0xbd2e7c9f	-0.042599317
100	0x3c28f830	0.010313079
101	0x3dc7692f	0.09736859
102	0x3e3608d6	0.17776808
103	0x3e092693	0.13393621
104	0xbc08eeca	-0.008357713
105	0xbcf5356c	-0.0299327
106	0x3e73015e	0.2373099
107	0xbccb71ab	-0.024834475
108	0x3e983e95	0.29735246
109	0x3c2102b0	0.009827301
110	0x3df85c11	0.12126935
111	0x3d9353a7	0.0719369
112	0x3d95085f	0.07276987
113	0xbe620bf3	-0.22074871
114	0xbe3d7134	-0.18500215
115	0xbe60578d	-0.21908398
116	0x3e2e46c6	0.17019185
117	0xbcfcfd03	-0.030882364
118	0x3c9a7fe5	0.018859813
119	0xbe6e1044	-0.23248392
120	0xbf02ab68	-0.51042795
121	0xbef49a7d	-0.47774115
122	0xbda6dda3	-0.081477426
123	0xbcad119b	-0.021126559
124	0xbdc9f398	-0.09860915
125	0xbe1a4068	-0.15063632
126	0xbe9ad043	-0.30237016
127	0xbf3ca530	-0.73689556
128	0xbea8b535	-0.3295075
129	0x3e9d8588	0.3076594
130	0x3ed2c12c	0.41163003
131	0xba1ea32d	-0.0006051537
132	0x3cd52b90	0.026021749
133	0xbdcd045a	-0.100105956
134	0xbdd70263	-0.10498502
135	0x3e13dc47	0.14439498
136	0x3e1258be	0.14291665
137	0x3e7688fb	0.24075691
138	0x3dc7c2c2	0.09753944
139	0x3c96ecec	0.01842352
140	0x3e3fadc7	0.18718635
141	0x3dc61818	0.09672564
142	0x3e14d029	0.14532532
143	0xbe4749f8	-0.1946181
144	0xbeabe53d	-0.33573332
145	0xbd599459	-0.05311999
146	0xbd21c41c	-0.039493665
147	0xbd358800	-0.044319153
148	0xbdfb79a6	-0.12279062
149	0xbc442d89	-0.011973747
150	0xbdcd2033	-0.10015907
151	0xbd3264e3	-0.043553244
152	0xbd6955dc	-0.056966648
153	0xbd33359c	-0.043752298
154	0x39ce7494	0.0003937824
155	0xbcb94b6c	-0.022618972
156	0xbd2fbd9c	-0.042905435
157	0x3d5c6aec	0.053812906
158	0x3ddb3572	0.10703553
159	0x3e9b90bf	0.3038387
160	0x3d8c8af8	0.06862444
161	0xbb06ddd3	-0.0020578995
162	0xbc508432	-0.01272683
163	0x3de2b637	0.11069911
164	0x3c51853b	0.012788112
165	0x3e203a8f	0.15647338
166	0x3e7a366f	0.24434827
167	0x3d1a6cbe	0.03770136
168	0x3cbc5108	0.022987857
169	0x3d6d53d4	0.057941273
170	0x3d714735	0.0589058
171	0x3cc8cfbd	0.02451312
172	0xbed6ff5a	-0.41991693
173	0xbdc29dd4	-0.095027596
174	0x3ce8f6f7	0.028438075
175	0x3b8c2465	0.0042767995
176	0x3dd1cde8	0.102443516
177	0x3ecfaa73	0.4055973
178	0x3cf407a6	0.029788803
179	0xbee87bec	-0.45407045
180	0xbe6e0840	-0.23245335
181	0xbd42739d	-0.04747354
182	0xbc7d7c55	-0.015471538
183	0x3e14b662	0.14522699
184	0x3d3ab116	0.04557904
185	0xbe1f7b4c	-0.15574378
186	0xbe97c487	-0.29642126
187	0xbe642946	-0.2228137
188	0xbd94cba4	-0.07265404
189	0x3d45cb08	0.04828933
190	0x3d5aa2f8	0.053378075
191	0x3dd6758f	0.10471641
192	0xbc3cf75d	-0.011533585
193	0xbcb696c7	-0.022288693
194	0xbd92b981	-0.07164288
195	0xbd1db267	-0.038500216
196	0x3ca40fcc	0.020027064
197	0x3dc89b5e	0.09795259
198	0x3ce0f7e1	0.027461948
199	0x3c650fbd	0.013980803
200	0x3d0986b1	0.033575717
201	0x3cce11c0	0.025154948
202	0xbb10b71e	-0.0022081803
203	0xbc11c03c	-0.00889593
204	0xbd5478b9	-0.051872943
205	0xbdce617f	-0.1007719
206	0x3d29e92a	0.04148213
207	0xbdf56c70	-0.119835734
208	0xbe853c34	-0.26022494
209	0xbc37ad87	-0.011210806
210	0xbb3d19ee	-0.0028854567
211	0xbe76b3c6	-0.24092016
212	0xbdcbafc5	-0.09945635
213	0xbd09b52c	-0.033620045
214	0x3920a71f	0.00015321047
215	0xbe90b760	-0.28264904
216	0x3e0201d0	0.12696004
217	0xbcb73863	-0.022365754
218	0xbe9e9e37	-0.30980083
219	0x3dd3a8ed	0.103349544
220	0xbdeeed08	-0.11666304
221	0xbdd68923	-0.104753755
222	0xbe11a8b1	-0.14224507
223	0x3b804257	0.0039141583
224	0xbc6fb73c	-0.014631089
225	0x3e70202c	0.23449773
226	0x3e7b0f20	0.24517488
227	0x3e5e924f	0.217355
228	0x3c608f4a	0.013706038
229	0x3d92236f	0.07135665
230	0x3d4fa7ea	0.050697245
231	0x3d822dae	0.06356369
232	0x3db17c0a	0.08666237
233	0x3eb65d67	0.35618135
234	0x3e8d04c7	0.27542707
235	0xbe1d819f	-0.15381478
236	0xbda2d1ad	-0.07950149
237	0xbddb5326	-0.10709219
238	0xbd1c32ee	-0.038134508
239	0x3e13c2fa	0.14429846
240	0xbc19ead5	-0.009394367
241	0x3d37f5f6	0.0449123
242	0xbe3c2edb	-0.18377249
243	0xbe22fb89	-0.15916266
244	0x3cff0e06	0.031134617
245	0xbd40dbc8	-0.0470846
246	0xbc877f86	-0.0165403
247	0xbc74f08b	-0.014949928
248	0x3db92c13	0.090416096
249	0x3bdd8202	0.006759883
250	0x3d0a8572	0.03381867
251	0xbd10fe14	-0.035398558
252	0xbd32d7df	-0.043662902
253	0x3e1fc5c9	0.15602793
254	0x3dbc0c5e	0.09182046
255	0x3d91d6cf	0.071210496

classifier.1.bias f4 [10]
0	0x3b59c437	0.0033228525
1	0x3f554013	0.83300894
2	0x3d36f2b9	0.044665072
3	0xbe274777	-0.16335855
4	0xbddea278	-0.10870832
5	0xbdafa126	-0.085756585
6	0xbe00f712	-0.1259425
7	0x3e3aa7cb	0.1822807
8	0xbec53037	-0.38513348
9	0xbdbdddc5	-0.09270815
