model_weights/model_epoch_2.pth (torch, 34447 bytes, 10 tensors)

conv_block_1.0.weight f4 [10, 1, 3, 3]
-0.018873261 -0.32252008 -0.23629645 -0.15805094 0.18201254 0.03256051 0.17795214 0.48613366
0.25469387 -0.08766501 0.11096709 -0.29349008 0.07520288 0.36580873 -0.10106068 -0.44327247
-0.19650252 0.26170737 0.36227462 -0.38121283 -0.23291956 0.1391602 -0.43948403 -0.155817
0.3839341 -0.19772929 0.39201403 -0.08732365 -0.21565394 0.1982224 -0.2689743 0.17013367
0.526318 -0.10019734 -0.11684927 0.3066442 0.32338926 0.24427599 0.54275763 0.22156869
-0.27353933 -0.13902773 -0.3593501 -0.7298175 -0.421739 -0.15049468 0.13530405 0.25925514
-0.1977815 0.21090688 0.17477335 0.04419123 0.30838782 0.15585463 0.29696444 0.2937454
-0.37838858 0.104827836 -0.10265674 0.11446674 -0.1668425 -0.055894442 -0.19536321 -0.14642067
0.016184062 0.3212562 -0.4433861 -0.26019576 -0.2801683 -0.097691745 -0.310099 -0.42201987
-0.2012206 -0.12687002 -0.12354502 0.12666184 0.38348597 -0.25973126 -0.26094934 -0.14535135
0.011226512 0.14391035 -0.44021937 -0.35558566 0.33585167 0.28538617 -0.18091989 -0.28575185
0.29966593 0.10781651
00000000: 199c 9abc 5a21 a5be b2f7 71be 1bd8 21be
00000010: 7f61 3a3e 2b5e 053d 1639 363e 83e6 f83e
00000020: 3c67 823e b689 b3bd b742 e33d 5544 96be
00000030: f803 9a3d 484b bb3e e7f8 cebd 9cf4 e2be
00000040: f537 49be 82fe 853e 0f7c b93e 542e c3be
00000050: 7782 6ebe 0380 0e3e 0d04 e1be 7e8e 1fbe
00000060: 0393 c43e 8c79 4abe 10b6 c83e bed6 b2bd
00000070: 63d4 5cbe d0fa 4a3e 00b7 89be 8537 2e3e
00000080: c7bc 063f 4334 cdbd ac4e efbd 7800 9d3e
00000090: 4793 a53e 7c23 7a3e 2af2 0a3f e7e2 623e
000000a0: 590d 8cbe 495d 0ebe bcfc b7be 52d5 3abf
000000b0: 2dee d7be 471b 1abe 258d 0a3e 17bd 843e
000000c0: 3c87 4abe f9f7 573e c9f7 323e dd01 353d
000000d0: 02e5 9d3e 5b98 1f3e b90b 983e cc65 963e
000000e0: 26bc c1be faaf d63d b23d d2bd 8a6d ea3d
000000f0: c3d8 2abe 92f1 64bd 4b0d 48be 4def 15be
00000100: 7094 843c b17b a43e 8103 e3be 6138 85be
00000110: 3872 8fbe 9c12 c8bd 4cc5 9ebe fd12 d8be
00000120: c60c 4ebe 37ea 01be 2c05 fdbd a4b3 013e
00000130: 4658 c43e 7ffb 84be 279b 85be fcd6 14be
00000140: 67ef 373c 3c5d 133e 6f64 e1be 530f b6be
00000150: c0f4 ab3e 231e 923e 1043 39be 114e 92be
00000160: d06d 993e e7ce dc3d

conv_block_1.0.bias f4 [10]
-0.14094862 -0.17771652 0.04818425 -0.06973428 0.11619149 -0.43792892 -0.088453956 0.36298376
0.09080547 -0.05371391
00000000: d654 10be 52fb 35be d95c 453d d9d0 8ebd
00000010: cef5 ed3d 3838 e0be 5927 b5bd 02d9 b93e
00000020: 38f8 b93d 1e03 5cbd

conv_block_1.2.weight f4 [10, 10, 3, 3]
0.0026219 0.07255413 -0.024189418 0.08519884 0.02096748 -0.26077282 -0.04622017 0.12509403
-0.029641487 0.07286941 -0.019135242 0.03610711 0.03144078 -0.08331159 0.031188525 0.0074933297
-0.020198867 -0.15794769 0.0454458 -0.058839805 -0.044115186 -0.14016613 0.009233141 0.0114234295
-0.15470381 -0.0111835515 0.0073040593 0.034650367 0.09957238 -0.0690273 0.16367258 0.0062517445
-0.18241234 0.23142892 -0.12820886 -0.22465332 -0.055000927 -0.036391962 0.04349742 -0.17950305
-0.104924165 0.08808878 -0.22769901 -0.03522123 -0.12695135 0.18695477 0.09653978 0.07923006
0.14720044 -0.05463353 0.05043463 0.14239143 0.012798202 0.078921825 0.051731933 0.14127459
0.09433991 0.058570117 0.10968593 0.14472431 -0.04518313 0.015128618 0.14475647 -0.13493976
-0.15700448 -0.035042875 -0.14187567 -0.18704548 -0.0324794 -0.100838706 -0.14754386 -0.04945025
-0.06027657 -0.10681394 -0.0071796663 -0.062052093 0.09571622 0.057020575 -0.011421539 -0.01989823
0.051319677 -0.08686188 0.005902637 -0.085888065 -0.10844399 0.04968938 -0.06996861 -0.03689828
0.020755734 -0.07368684 -0.01573646 0.024064241 -0.17733961 -0.08064478 -0.15209575 0.048884135
-0.016834717 0.10932844 0.18383092 0.058137946 0.01595404 0.014703765 0.00026994204 -0.035532806
-0.06404568 -0.08813602 -0.04756683 0.026513064 -0.05674542 -0.02147212 -0.075293116 0.05646383
0.039013263 0.07123171 -0.010854109 0.098988675 0.02142722 0.109116025 0.027826212 -0.03873379
0.010728456 -0.026939873 -0.09122134 -0.050373454 -0.050926566 0.0817215 0.07525623 -0.065370135
-0.042989995 0.15643689 0.038716614 -0.092437536 0.07335251 0.027068552 -0.13541125 -0.025048176
-0.1012588 0.062475294 0.093937494 -0.09619012 0.041239683 -0.11778448 -0.04803917 0.09309824
-0.05188266 0.0036283915 0.09969921 0.016990883 0.060074307 -0.04632686 0.12731625 -0.08886494
-0.0035095299 -0.04164911 0.009948738 0.117836565 -0.019096255 0.0011987578 -0.007628782 -0.11086027
-0.08852911 -0.08430898 -0.007979136 -0.10423358 -0.03347323 0.03734756 0.08869046 -0.041952353
0.028810147 -0.012874712 -0.11753686 0.025468703 0.0038585793 0.070907086 0.09568306 -0.03505863
0.036037 -0.035567965 0.021739908 -0.11759394 0.039132196 0.05074124 -0.17460486 -0.09433299
-0.10151757 -0.2340282 -0.23524511 -0.19327377 -0.102273 0.098995514 -0.096063025 -0.13087815
0.03835627 0.06055571 -0.06880481 0.037077352 -0.021392241 0.017348243 -0.009249793 0.033813063
0.12211567 0.019605542 0.038919725 0.1367483 0.06393323 0.106504425 0.058121134 0.08340142
-0.1577214 -0.13237584 -0.02345075 -0.19432072 -0.11951262 -0.27131045 -0.05389515 0.117300384
0.047632307 0.04056172 0.16252196 0.15426736 0.17148507 -0.061187983 0.123731054 -0.07186871
-0.048118677 0.12431015 0.018847395 -0.03863591 0.0504022 0.025929516 -0.12020331 -0.042419128
-0.063113526 -0.084236346 0.13860366 0.17034745 0.08995592 0.14446175 0.009118459 0.07275776
0.18341173 0.040366054 -0.092774436 -0.14208572 -0.022561962 -0.1456964 0.010396346 0.008139431
-0.08082584 -0.0038434714 0.014878059 0.048299402 -0.03835288 -0.12475341 -0.047612462 0.056746885
00000000: 2fd4 2b3b 4297 943d e328 c6bc bb7c ae3d
00000010: fec3 ab3c 0484 85be 5c51 3dbd a618 003e
00000020: b4d2 f2bc 8f3c 953d 83c1 9cbc 0de5 133d
00000030: 0cc8 003d 449f aabd 147f ff3c 9b8a f53b
00000040: 1878 a5bc 0abd 21be 6025 3a3d 0202 71bd
00000050: 20b2 34bd b687 0fbe 9a46 173c 5629 3b3c
00000060: ad6a 1ebe 373b 37bc e456 ef3b 8bed 0d3d
00000070: 9bec cb3d 2f5e 8dbd c999 273e 6fdb cc3b
00000080: 4dca 3abe b4fb 6c3e 2f49 03be 850b 66be
00000090: a748 61bd bd0f 15bd 5a2a 323d a6cf 37be
000000a0: 7be2 d6bd e467 b43d ee29 69be 2344 10bd
000000b0: 89ff 01be 1271 3f3e a6b6 c53d 5f43 a23d
000000c0: b6bb 163e 69c7 5fbd 8b94 4e3d 0fcf 113e
000000d0: 8daf 513c c4a1 a13d dde4 533d 49aa 103e
000000e0: 4835 c13d 38e7 6f3d 04a3 e03d 9c32 143e
000000f0: f211 39bd 06de 773c 0a3b 143e a62d 0abe
00000100: c8c5 20be 1e89 0fbd db47 11be da88 3fbe
00000110: 1f09 05bd 8684 cebd bd15 17be 588c 4abd
00000120: 91e4 76bd 44c1 dabd 6843 ebbb 562a 7ebd
00000130: de06 c43d 688e 693d 6821 3bbc 9d01 a3bc
00000140: 9534 523d a4e4 b1bd e86a c13b 15e6 afbd
00000150: e217 debd 1787 4b3d b44b 8fbd a722 17bd
00000160: ee07 aa3c 20e9 96bd c0e9 80bc 5f22 c53c
00000170: 8498 35be 1729 a5bd fdbe 1bbe bb3a 483d
00000180: f6e8 89bc 97e7 df3d 2c3e 3c3e 0e22 6e3d
00000190: 0cb2 823c 0fe8 703c 0287 8d39 d98a 11bd
000001a0: 622a 83bd a880 b4bd 70d5 42bd ed31 d93c
000001b0: e36d 68bd 4de6 afbc 4733 9abd 9e46 673d
000001c0: 5fcc 1f3d eee1 913d 6fd5 31bc 93ba ca3d
000001d0: 2388 af3c 3978 df3d ccf3 e33c 53a7 1ebd
000001e0: 68c6 2f3c 02b1 dcbc 41d2 babd 6554 4ebd
000001f0: 6098 50bd 9a5d a73d f01f 9a3d c7e0 85bd
00000200: 4716 30bd fe30 203e 5095 1e3d e44f bdbd
00000210: d739 963d debe dd3c 3fa9 0abe d531 cdbc
00000220: c660 cfbd 18e6 7f3d 4d62 c03d 53ff c4bd
00000230: f1ea 283d fd38 f1bd b9c4 44bd 4aaa be3d
00000240: e982 54bd 4fca 6d3b 192f cc3d 7730 8b3c
00000250: 7a10 763d 3cc1 3dbd 315f 023e d2fe b5bd
00000260: 2400 66bb 4298 2abd 0800 233c 4c54 f13d
00000270: c06f 9cbc a31f 9d3a ddfa f9bb b60a e3bd
00000280: c04e b5bd 30aa acbd ecba 02bc 6a78 d5bd
00000290: 3a1b 09bd c1f9 183d 58a3 b53d 3bd6 2bbd
000002a0: 4203 ec3c 75f0 52bc 2ab7 f0bd bea3 d03c
000002b0: 38e0 7c3b bc37 913d 7bf5 c33d a399 0fbd
000002c0: 899b 133d b7af 11bd e417 b23c 17d5 f0bd
000002d0: 1549 203d 0cd6 4f3d 9ecb 32be a831 c1bd
000002e0: 72e8 cfbd 17a5 6fbe 18e4 70be 8fe9 45be
000002f0: 8274 d1bd 29be ca3d b1bc c4bd ec04 06be
00000300: 771b 1d3d 4409 783d 89e9 8cbd 6cde 173d
00000310: c83e afbc e71d 8e3c 728c 17bc 917f 0a3d
00000320: c817 fa3d cd9b a03c 4a6a 1f3d bf07 0c3e
00000330: 6def 823d fe1e da3d 6d10 6e3d 5dce aa3d
00000340: b881 21be 888d 07be ca1b c0bc 03fc 46be
00000350: 08c3 f4bd 34e9 8abe 29c1 5cbd 2f3b f03d
00000360: 181a 433d 0c24 263d 286c 263e 43f8 1d3e
00000370: c899 2f3e 40a0 7abd b566 fd3d e72f 93bd
00000380: 1718 45bd 5296 fe3d da65 9a3c b040 1ebd
00000390: 8a72 4e3d 236a d43c 272d f6bd aebf 2dbd
000003a0: aa41 81bd 1b84 acbd 1eee 0d3e 906f 2e3e
000003b0: cf3a b83d c8ed 133e 9765 153c 0502 953d
000003c0: 49d0 3b3e e056 253d 8600 bebd eb7e 11be
000003d0: ddd3 b8bc 7031 15be 7055 2a3c 3f5b 053c
000003e0: 0588 a5bd c0e2 7bbb 1ac3 733c 98d5 453d
000003f0: e917 1dbd b77e ffbd 4905 43bd 6c6f 683d

conv_block_1.2.bias f4 [10]
0.18540624 -0.08326441 -0.101781294 -0.08649907 0.17087989 0.41681758 -0.0488299 0.14743386
-0.016149988 -0.057326917
00000000: 22db 3d3e 8886 aabd b672 d0bd 6d26 b1bd
00000010: 23fb 2e3e 1d69 d53e dc01 48bd e7f8 163e
00000020: fb4c 84bc a1cf 6abd

conv_block_2.0.weight f4 [10, 10, 3, 3]
0.090261586 0.09676026 -0.05154394 0.0073746284 -0.039600078 0.087017514 0.018145626 -0.15493317
0.03015607 0.08171502 -0.07678664 -0.009566288 -0.055834316 0.07501325 0.020530516 -0.04496894
-0.074251465 0.08088621 -0.03963042 -0.04268314 0.15083668 0.14580508 0.07383411 0.05121431
0.12776199 -0.09808313 0.04886238 0.18122382 0.04563007 -0.10488893 -0.17656213 -0.05420868
-0.079380974 -0.060015295 -0.018319057 -0.013524276 0.00797131 0.03902921 -0.121447705 -0.092535615
-0.02057208 -0.15057671 -0.20660092 -0.2089984 0.016448831 0.25920874 0.23642719 -0.04568349
0.0060485406 -0.13818765 0.09050058 -0.29083702 0.026940558 0.20299567 0.06367036 0.17779037
0.11907226 0.03399154 -0.029067546 -0.16384634 -0.025243567 -0.04647066 -0.011783254 0.024816083
0.007965208 -0.00023603825 -0.06697923 0.024236884 0.098412536 -0.15227382 -0.037755497 -0.059650786
-0.0014415183 0.0062017525 0.038631905 0.040961545 -0.03209928 -0.052235723 -0.02870582 -0.021072447
0.007686556 -0.05517893 -0.0034936955 0.19754845 0.065434314 0.13359012 -0.11584702 0.08533819
-0.04947215 -0.17063431 0.16680175 -0.037037022 -0.0349258 0.31373706 0.060952816 0.0057776566
0.032061655 -0.09573378 0.07294504 0.17604958 0.04326279 -0.04253783 -0.16284811 0.047772557
0.010135891 -0.019582985 0.0356905 0.058208592 -0.12865113 0.06355307 0.06166409 0.014662964
0.009600025 0.20018883 -0.031910606 -0.11120048 -0.070667855 0.04850473 -0.013524047 0.029049424
0.06267087 0.022281623 0.08578367 -0.010720268 0.0015085998 -0.065091155 0.21553619 0.17850056
-0.063169494 0.014719277 0.1308782 -0.2096808 -0.01543306 -0.099843 0.009654505 0.25796834
0.22734559 0.18229441 0.6659172 0.24838008 -0.37546235 -0.3574935 -0.4923969 -0.2767576
-0.07051113 0.00991621 0.18841729 0.05347983 0.122130625 0.08441007 0.032959793 -0.18816566
-0.34618443 -0.009206706 0.17737514 -0.18236792 -0.21073061 -0.28186148 -0.15401448 -0.13936311
0.2814801 -0.022612365 -0.06725767 -0.11266508 0.050405648 -0.06501354 -0.074955024 0.06731947
0.13934156 0.14038016 0.07164468 -0.3119468 -0.25359637 0.051676214 -0.41019303 -0.057383776
0.20985337 0.17547831 0.26017815 -0.14300956 0.0978131 0.15128449 0.09451195 0.26541814
-0.12288381 -0.15739816 0.24562785 -0.039313 -0.058463566 -0.06514897 -0.0013283947 0.052379213
-0.025833825 -0.031446345 0.108998805 0.08085055 -0.02343936 0.018415406 -0.08484668 0.040865105
0.24619648 -0.04182292 0.12234478 0.10329691 -0.025309049 0.15578215 -0.13147621 0.15571913
-0.025988039 -0.32986644 -0.11864173 -0.075299546 -0.24049427 -0.024968574 -0.22089581 0.052426573
0.08108511 0.25925645 -0.2814469 0.12097862 -0.17617838 -0.3705756 0.48910815 -0.047304668
-0.007067869 0.20710413 0.16540107 0.077036455 -0.14403586 -0.39266735 -0.36063346 0.08824233
-0.35781267 0.39814517 -0.011895124 0.0645409 0.17890447 -0.28940022 -0.2662488 -0.24756543
-0.117186986 -0.23695844 -0.15623724 -0.06373352 -0.10148253 -0.06393928 -0.0063262503 -0.098842196
0.20295107 -0.09451606 0.106122404 0.2886014 0.08642989 -0.09465278 0.049458187 -0.009172226
00000000: 11db b83d 3e2a c63d bd1f 53bd dea6 f13b
00000010: b133 22bd 3d36 b23d 23a6 943c cda6 1ebe
00000020: dd09 f73c 345a a73d 5042 9dbd ecbb 1cbc
00000030: 86b2 64bd 8ca0 993d 9d2f a83c 5a31 38bd
00000040: 2711 98bd aba7 a53d 8253 22bd 84d4 2ebd
00000050: ee74 1a3e ed4d 153e 5636 973d 19c6 513d
00000060: 0ad4 023e cfdf c8bd eb23 483d bd92 393e
00000070: 99e6 3a3d 02d0 d6bd b4cc 34be ec09 5ebd
00000080: 7e92 a2bd 99d2 75bd d911 96bc ed94 5dbc
00000090: 199a 023c 18dd 1f3d 93b9 f8bd 5083 bdbd
000000a0: c786 a8bc c830 1abe 318f 53be ad03 56be
000000b0: b3bf 863c 02b7 843e f819 723e 9c1e 3bbd
000000c0: d632 c63b 1081 0dbe 5e58 b93d 97e8 94be
000000d0: 72b2 dc3c 19de 4f3e 9b65 823d ae0e 363e
000000e0: 28dc f33d b73a 0b3d 101f eebc 56c7 27be
000000f0: 99cb cebc 0558 3ebd 8d0e 41bc 194b cb3c
00000100: 8180 023c 0981 77b9 682c 89bd 6e8c c63c
00000110: 838c c93d abed 1bbe 82a5 1abd 6254 74bd
00000120: 54f1 bcba 1238 cb3b 7d3c 1e3d 4bc7 273d
00000130: 897a 03bd 20f5 55bd 7828 ebbc 20a0 acbc
00000140: 81df fb3b 4d03 62bd 7cf6 64bb 244a 4a3e
00000150: 6d02 863d d9cb 083e 3441 edbd cac5 ae3d
00000160: 4fa3 4abd c3ba 2ebe 14ce 2a3e 22b4 17bd
00000170: 5b0e 0fbd 25a2 a03e a9a9 793d 7f52 bd3b
00000180: 1553 033d 1210 c4bd 3664 953d 5746 343e
00000190: 5334 313d 263c 2ebd a8c1 26be 28ad 433d
000001a0: 0211 263c 7f6c a0bc 3430 123d 226c 6e3d
000001b0: 1fbd 03be 1d28 823d 7c93 7c3d ee3c 703c
000001c0: 6c49 1d3c 4dfe 4c3e b2b4 02bd 14bd e3bd
000001d0: 4fba 90bd e5ac 463d f793 5dbc 0ff9 ed3c
000001e0: 9659 803d f387 b63c 59af af3d 10a4 2fbc
000001f0: 36bc c53a 834e 85bd 85b5 5c3e dac8 363e
00000200: 025f 81bd 1f29 713c ef04 063e 90b6 56be
00000210: f2da 7cbc 7d7a ccbd ee2d 1e3c 6d14 843e
00000220: 48cd 683e 63ab 3a3e 8d79 2a3f 5957 7e3e
00000230: 9a3c c0be 6309 b7be 721b fcbe 2cb3 8dbe
00000240: 2468 90bd 9977 223c 76f0 403e ab0d 5b3d
00000250: 9f1f fa3d 30df ac3d d900 073d 80ae 40be
00000260: 163f b1be b9d7 16bc d4a1 353e a8be 3abe
00000270: c4c9 57be 2650 90be f9b5 1dbe 34b5 0ebe
00000280: 291e 903e 913d b9bc 64be 89bd f3bc e6bd
00000290: 2776 4e3d d225 85bd 0582 99bd cade 893d
000002a0: 8eaf 0e3e d1bf 0f3e 72ba 923d 7eb7 9fbe
000002b0: 62d7 81be 70aa 533d d204 d2be 400b 6bbd
000002c0: cde3 563e 96b0 333e 1236 853e 1971 12be
000002d0: 3c52 c83d 52ea 1a3e 7b8f c13d e3e4 873e
000002e0: 82aa fbbd fc2c 21be de85 7b3e ab06 21bd
000002f0: 7e77 6fbd d36c 85bd 881d aeba 968b 563d
00000300: 75a1 d3bc e2cd 00bd c43a df3d f994 a53d
00000310: e703 c0bc e8db 963c 19c4 adbd 2b62 273d
00000320: ee1a 7c3e 834e 2bbd e68f fa3d 558d d33d
00000330: ec54 cfbc 5b85 1f3e b3a1 06be d674 1f3e
00000340: dee4 d4bc 41e4 a8be 6ffa f2bd a636 9abd
00000350: 2144 76be e58a ccbc 8332 62be 3fbd 563d
00000360: f30f a63d 43bd 843e cf19 90be a4c3 f73d
00000370: 1b68 34be 16bc bdbe 626c fa3e 8ac2 41bd
00000380: 9599 e7bb 1b13 543e e65e 293e 4ac5 9d3d
00000390: 237e 13be b20b c9be f3a4 b8be 65b8 b43d
000003a0: 3933 b7be afd9 cb3e c4e3 42bc 052e 843d
000003b0: bc32 373e 442c 94be c351 88be cb81 7dbe
000003c0: bbff efbd 3ca5 72be a8fc 1fbe b886 82bd
000003d0: 13d6 cfbd 99f2 82bd 6f4c cfbb c76d cabd
000003e0: 68d2 4f3e a391 c1bd b456 d93d 90c3 933e
000003f0: 2702 b13d 51d9 c1bd ab94 4a3d 1b47 16bc

conv_block_2.0.bias f4 [10]
-0.118400596 -0.079964146 0.1312444 0.0073666326 0.11028702 0.11162844 0.15772572 -0.098105215
0.031304676 0.20171702
00000000: 037c f2bd 3ec4 a3bd ef64 063e cb63 f13b
00000010: 29de e13d 749d e43d da82 213e 63eb c8bd
00000020: 5539 003d e88e 4e3e

conv_block_2.2.weight f4 [10, 10, 3, 3]
-0.10611062 -0.07106373 -0.05552296 -0.028814044 0.0021201659 0.032972682 0.05327363 -0.052553676
8.077745e-05 -0.0510018 -0.19251113 -0.13129483 -0.22879039 -0.084400415 0.11564281 -0.38708654
0.21477236 0.34338626 0.24170434 0.022293635 -0.06032406 -0.06879335 -0.06402146 -0.1277849
-0.2745686 -0.032652587 0.22877246 -0.021742139 0.21917439 0.0017630982 0.3786829 0.14628457
-0.31135955 0.4384774 -0.19747302 -0.37088102 -0.34101307 -0.2713607 -0.481497 -0.13389027
0.024562897 -0.20491488 0.18852274 -0.37198347 -0.30218217 -0.05145155 -0.1081328 0.038225457
0.0068960595 0.040430468 0.15817283 -0.055740334 -0.038021248 0.1714514 -0.059896823 -0.011201147
-0.23604895 -0.054395664 -0.003667049 -0.1477745 0.0064331824 -0.28797007 -0.39221993 -0.02060582
-0.036695354 -0.07415983 0.016889602 -0.0072411136 -0.05608452 0.011901997 -0.08892116 -0.051254854
0.075247906 -0.012058663 -0.090422876 0.01279385 -0.06968942 -0.11510193 0.12237828 0.077176504
-0.115126625 -0.04385684 -0.18886241 -0.17864099 -0.282898 -0.20483577 0.2683793 -0.1482709
0.05424685 -0.0033159233 -0.19672948 -0.122356184 -0.11747334 -0.097246215 0.07761212 -0.01289707
-0.07812318 0.24021788 0.12343994 0.01041668 0.025887804 -0.015854895 0.0393202 0.047452204
0.10221316 -0.012651759 -0.24115132 -0.10225384 -0.727555 -0.61850786 -0.60041416 0.27854317
0.044914722 -0.12820095 0.27514508 0.11002161 0.11379449 -0.22073945 0.029814867 0.11221679
-0.20210919 -0.56260175 -0.58589995 0.088102914 0.20434178 0.14045466 -0.123285435 0.035288893
0.36122552 -0.008988037 0.009583612 -0.13413541 -0.13982534 -0.3389715 -0.19544695 0.28536114
-0.0323127 0.10134543 -0.023978254 -0.13564187 -0.08752318 -0.0032962682 0.0468738 0.016077368
0.13327873 -0.09319173 -0.35073385 0.10875028 -0.035078835 0.15328838 -0.0701465 0.20823933
-0.0048276857 -0.013029276 0.0029635236 -0.08595225 0.041267164 -0.028380938 0.054832675 0.08079362
-0.08843853 -0.07485556 0.07364226 0.044737473 0.00020409786 -0.05789024 -0.055879947 -0.05960841
-0.028101945 0.042809855 0.014279818 0.50841635 0.11968803 -0.06262218 -0.1822486 0.079301015
-0.16225576 -0.44890285 -0.42498 -0.4647472 0.121618085 -0.028320195 0.06467539 -0.02070519
-0.20059346 -0.07144601 0.016777104 -0.22406404 -0.15700942 -0.13912234 -0.39529926 0.056520008
-0.15318435 -0.61235094 -0.24578641 -0.18594615 -0.6561831 -0.5470906 0.29483452 -0.42061377
-0.2870485 0.07835428 -0.2614846 -0.21695429 0.040736493 -0.25353315 -0.17233354 -0.37583986
0.19118616 0.13199863 -0.4480444 0.09519046 -0.17858294 -0.10812711 -0.087630644 -0.18097384
-0.2111208 0.19547608 -0.17573604 -0.35935998 0.23250206 0.12482587 -0.3006441 0.23030631
0.28295892 -0.065045856 -0.100131415 0.050461613 0.06559077 -0.14756222 -0.07262572 0.03859308
-0.11493608 -0.06835691 0.018585222 0.06429487 0.043666758 -0.23757315 0.32335666 0.19304799
-0.1225988 0.30628607 0.16418494 -0.10730138 -0.077737376 0.0047617326 0.049914394 -0.013552435
0.0023923034 0.059838027 0.096175924 -0.027395304 0.022994932 0.027056644 0.015547239 -0.07805635
00000000: 8650 d9bd dc89 91bd 0b6c 63bd 6e0b ecbc
00000010: 7bf2 0a3b 5d0e 073d 7335 5a3d 8642 57bd
00000020: 1067 a938 43e7 50bd a321 45be 2772 06be
00000030: 0748 6abe 20da acbd 23d6 ec3d 3530 c6be
00000040: 49ed 5b3e 53d0 af3e 5881 773e 24a1 b63c
00000050: 5d16 77bd 87e3 8cbd af1d 83bd 0bda 02be
00000060: 4194 8cbe b8be 05bd 5443 6a3e 921c b2bc
00000070: 406f 603e c217 e73a bae2 c13e 9fcb 153e
00000080: 856a 9fbe 1c80 e03e 5e36 4abe 1ee4 bdbe
00000090: 4499 aebe caef 8abe c686 f6be 881a 09be
000000a0: 2138 c93c 35d5 51be 1b0c 413e 9e74 bebe
000000b0: 9fb7 9abe dcbe 52bd bb74 ddbd 4c92 1c3d
000000c0: 57f8 e13b 6b9a 253d 0ff8 213e fa4f 64bd
000000d0: 2bbc 1bbd f590 2f3e 5f56 75bd 0485 37bc
000000e0: d1b6 71be fdcd 5ebd e052 70bb 3352 17be
000000f0: 72cd d23b d070 93be 0dd1 c8be 89cd a8bc
00000100: de4d 16bd 1ce1 97bd 105c 8a3c dd46 edbb
00000110: e2b8 65bd 9800 433c 4c1c b6bd 9cf0 51bd
00000120: 931b 9a3d b391 45bc a12f b9bd 4c9d 513c
00000130: 54b9 8ebd 90ba ebbd 77a1 fa3d b70e 9e3d
00000140: 82c7 ebbd 3ba3 33bd 2665 41be aaed 36be
00000150: 02d8 90be 78c0 51be 0369 893e 54d4 17be
00000160: f231 5e3d f64f 59bb 7473 49be e195 fabd
00000170: dd95 f0bd 0629 c7bd 1af3 9e3d 3b4e 53bc
00000180: 0cff 9fbd adfb 753e 14ce fc3d b9aa 2a3c
00000190: a912 d43c 20e2 81bc 380e 213d 3e5d 423d
000001a0: 2255 d13d 5349 4fbc 5ff0 76be 766a d1bd
000001b0: 0b41 3abf 8856 1ebf beb4 19bf 369d 8e3e
000001c0: 80f8 373d 1c47 03be d1df 8c3e 0353 e13d
000001d0: 160d e93d 8609 62be 4f3e f43c ebd1 e53d
000001e0: b6f5 4ebe ab06 10bf 8afd 15bf 4d6f b43d
000001f0: f93e 513e 59d3 0f3e 137d fcbd 168b 103d
00000200: 8df2 b83e 8f42 13bc 9504 1d3c cb5a 09be
00000210: 602e 0fbe ac8d adbe 3f23 48be db1a 923e
00000220: 525a 04bd 318e cf3d 0b6e c4bc b4e5 0abe
00000230: 5a3f b3bd 3406 58bb befe 3f3d afb4 833c
00000240: 387a 083e 4edb bebd 6393 b3be 78b8 de3d
00000250: d3ae 0fbd a1f7 1c3e f8a8 8fbd b13c 553e
00000260: 9031 9ebb bf78 55bc ad37 423b bc07 b0bd
00000270: c207 293d 247f e8bc 3a98 603d 2077 a53d
00000280: 431f b5bd df4d 99bd c1d1 963d a43e 373d
00000290: 1a03 5639 511e 6dbd 5fe2 64bd f327 74bd
000002a0: 0d36 e6bc 6359 2f3d e6f5 693c 9327 023f
000002b0: ff1e f53d 0f40 80bd 619f 3abe 9268 a23d
000002c0: 6026 26be 98d6 e5be fb96 d9be 58f3 edbe
000002d0: e712 f93d c1ff e7bc 8874 843d ee9d a9bc
000002e0: 5f68 4dbe 4952 92bd 2370 893c 0b71 65be
000002f0: 14c7 20be 1676 0ebe aa64 cabe 8681 673d
00000300: 5cdc 1cbe 08c3 1cbf 6faf 7bbe ab68 3ebe
00000310: 9efb 27bf 210e 0cbf 8df4 963e b05a d7be
00000320: 05f8 92be 3578 a03d 4fe1 85be 4429 5ebe
00000330: 4fdb 263d 19cf 81be 3478 30be 156e c0be
00000340: 4ec6 433e a62a 073e 1366 e5be 37f3 c23d
00000350: 72de 36be bf71 ddbd b277 b3bd 3551 39be
00000360: 0d30 58be e22a 483e 26f4 33be 08fe b7be
00000370: 0515 6e3e b5a4 ff3d 06ee 99be 6bd5 6b3e
00000380: fedf 903e c336 85bd b311 cdbd d6b0 4e3d
00000390: 7454 863d 8d1a 17be cbbc 94bd c713 1e3d
000003a0: 9c63 ebbd b5fe 8bbd 0940 983c 07ad 833d
000003b0: eadb 323d 6046 73be 018f a53e 5fae 453e
000003c0: 1415 fbbd 87d1 9c3e 1920 283e d3c0 dbbd
000003d0: c634 9fbd 4f08 9c3b 0973 4c3d 080b 5ebc
000003e0: 31c8 1c3b b818 753d e2f7 c43d 1e6c e0bc
000003f0: de5f bc3c e5a5 dd3c d9b9 7e3c 02dc 9fbd

conv_block_2.2.bias f4 [10]
0.011047289 0.1271033 0.16200687 0.1599999 0.019669153 -0.07918712 -0.10997819 -0.054488022
0.13194093 -0.19918506
00000000: b0ff 343c 5e27 023e 21e5 253e 04d7 233e
00000010: 3421 a13c db2c a2bd 3f3c e1bd d52e 5fbd
00000020: 861b 073e 2bf7 4bbe

classifier.1.weight f4 [10, 490]
-0.045048032 -0.079932645 -0.1444772 0.027807454 -0.13243063 -0.05992215 0.0047789607 -0.04385298
-0.036176674 -0.17063057 -0.06382414 -0.084447056 -0.17973098 -0.046574395 -0.010214273 0.23891927
0.21354234 0.2411646 -0.24923952 -0.12239894 0.07417484 -0.014482393 0.18597639 0.35337454
-0.15773511 0.17605357 0.22399211 -0.0019124744 -0.054102067 -0.037819635 0.0044253143 0.24706638
0.18619029 -0.022822099 0.012505117 -0.017883316 -0.08263529 -0.10078719 -0.021631315 -0.009398077
-0.023905326 0.016069233 0.014685266 0.009086146 -0.030341305 0.002071584 -0.021132546 0.012650755
-0.019727658 0.021386249 0.044317644 -0.002421719 0.08330527 0.063777305 0.014364212 0.015116985
0.012423119 -0.08831309 -0.21860482 0.02392497 -0.04727984 -0.083551995 0.009797404 -0.0830868
-0.16657491 -0.090960674 0.12154299 0.12610975 -0.03932694 -0.11712378 -0.024823776 -0.35437807
-0.38087997 -0.19574748 -0.10598712 0.000116911106 -0.08812209 0.07619375 0.07295515 -0.12529287
-0.23098715 -0.09582409 0.02285961 0.07846602 0.046542794 0.19174524 0.23110406 0.22561392
0.0057486403 -0.14062297 -0.022218691 0.012980266 0.010020811 0.20121714 0.1820027 -0.034848463
-0.21760266 -0.027483162 -0.021690056 -0.12584455 -0.0035065606 0.051625628 0.014523171 0.0062449262
0.02763812 -0.0739769 -0.16857064 -0.14386293 0.031791773 0.07989506 0.0016857708 -0.035420414
0.0014616005 0.11428635 -0.11152931 -0.066041216 0.26684207 0.2548111 -0.0582918 0.2636068
0.279033 1.2260369e-05 -0.19509952 0.2450851 0.2724995 -0.09146083 0.19444984 0.12499037
0.35105452 -0.09317744 -0.014040047 0.082101695 -0.041590355 0.0012804866 0.13384606 0.23560664
-0.21863934 -0.26630116 -0.029961815 -0.020616217 -0.0024588094 -0.058472335 -0.049440835 -0.1032151
-0.039874353 -0.05061813 -0.047967017 0.009830996 -0.056786552 -0.17854208 -0.013682449 0.12326204
0.1336552 -0.09424323 -0.05372801 -0.020753702 0.00045146875 0.19665764 0.3303195 0.2490313
0.046329133 0.049946375 0.045641903 -0.060174257 -0.13888866 0.08205892 0.021841574 0.07794476
-0.025945619 -0.18252634 -0.21938324 -0.23586126 -0.30283806 -0.27225363 -0.013206185 0.027227834
-0.278551 -0.16823371 0.16104633 0.12731095 -0.18519653 -0.18254666 0.021436853 -0.052444365
-0.012265245 0.22772484 -0.06313402 -0.1122485 -0.055882435 -0.020015223 -0.023351792 -0.0317935
-0.003373007 0.038217887 -0.017989822 -0.0074522966 0.014271302 0.011403458 -0.043607295 -0.043668628
-0.08370112 -0.04697964 -0.0064570657 0.025389584 -0.094838016 -0.086139135 -0.068138994 -0.20904289
-0.07611873 -0.003983524 -0.0093497 0.07882268 0.13980426 -0.055315904 -0.23968348 0.18756671
0.024608137 -0.04014874 0.12460522 0.2581551 -0.2382534 0.2652132 0.35722545 0.039039593
0.016526515 0.053978346 0.03230957 -0.22913353 0.057326533 0.24011557 -0.027281487 0.030366067
0.057070263 -0.12955864 -0.4325188 -0.39346573 -0.19568437 -0.05264765 0.029358106 -0.031189531
0.049010765 -0.11615525 -0.23770611 -0.0522857 -0.019528482 0.009227164 -0.043003973 0.0033099377
-0.020786664 0.0017749743 -0.020472186 0.0047771796 0.02062165 -0.030709691 0.026979025 0.10279196
00000000: 4984 38bd bab3 a3bd d5f1 13be 75cc e33c
00000010: e59b 07be ee70 75bd d498 9c3b 2f9f 33bd
00000020: fe2d 14bd c8b9 2ebe 3bb6 82bd 94f2 acbd
00000030: 660b 38be cbc4 3ebd c459 27bc 41a7 743e
00000040: d8aa 5a3e daf3 763e a538 7fbe 4cac fabd
00000050: fae8 973d 8f47 6dbc 9870 3e3e 82ed b43e
00000060: 5085 21be 6347 343e 305e 653e feab faba
00000070: 219a 5dbd c3e8 1abd 3a02 913b f8fe 7c3e
00000080: aba8 3e3e 69f5 babc 43e2 4c3c 0880 92bc
00000090: b13c a9bd 8469 cebd 2834 b1bc 64fa 19bc
000000a0: 1ad5 c3bc a0a3 833c 789a 703c 0fde 143c
000000b0: 548e f8bc 6ac3 073b 291e adbc 1d45 4f3c
000000c0: e69b a1bc 3732 af3c 6b86 353d b4b5 1ebb
000000d0: f49b aa3d ad9d 823d df57 6b3c 3bad 773c
000000e0: 568a 4b3c 7edd b4bd f1d9 5fbe 4cfe c33c
000000f0: 81a8 41bd 4f1d abbd 4a85 203c 6a29 aabd
00000100: 9d92 2abe 9749 babd 88eb f83d ea22 013e
00000110: 4915 21bd 98de efbd 3b5b cbbc 0b71 b5be
00000120: b302 c3be 0772 48be c60f d9bd 2c2e f538
00000130: 5b79 b4bd 780b 9c3d 8269 953d c64c 00be
00000140: e587 6cbe 6c3f c4bd 1444 bb3c cbb2 a03d
00000150: a8a3 3e3d dd58 443e 8ba6 6c3e 5607 673e
00000160: 175f bc3b 78ff 0fbe f903 b6bc 2eab 543c
00000170: 542e 243c de0b 4e3e ea5e 3a3e 43bd 0ebd
00000180: 3bd3 5ebe 5e24 e1bc 58af b1bc 65dd 00be
00000190: 53ce 65bb 6575 533d 98f2 6d3c 3da2 cc3b
000001a0: 5769 e23c 3381 97bd c89d 2cbe ce50 13be
000001b0: 1738 023d 05a0 a33d 15f5 dc3a ff14 11bd
000001c0: 2d93 bf3a f60e ea3d 7b69 e4bd 9e40 87bd
000001d0: 869f 883e 9a76 823e 62c3 6ebd 78f7 863e
000001e0: 6add 8e3e e2b1 4d37 2bc8 47be 97f7 7a3e
000001f0: 0e85 8b3e d14f bbbd dc1d 473e f3fa ff3d
00000200: 6bbd b33e d0d3 bebd 3a08 66bc ef24 a83d
00000210: a65a 2abd 00d6 a73a f10e 093e de42 713e
00000220: fee2 5fbe a058 88be 7b72 f5bc 57e3 a8bc
00000230: fa23 21bb b080 6fbd 7982 4abd 7062 d3bd
00000240: 4a53 23bd f554 4fbd 1079 44bd 3012 213c
00000250: 0499 68bd bcd3 36be 5a2c 60bc cf70 fc3d
00000260: e9dc 083e 9802 c1bd e711 5cbd ab03 aabc
00000270: 1cb3 ec39 9f60 493e a31f a93e 1002 7f3e
00000280: 9ec3 3d3d 9294 4c3d 01f3 3a3d 4879 76bd
00000290: d438 0ebe 820e a83d 1aed b23c 81a1 9f3d
000002a0: e88b d4bc 2fe8 3abe 00a6 60be 9d85 71be
000002b0: 970d 9bbe d464 8bbe c15e 58bc e80c df3c
000002c0: 3d9e 8ebe 7545 2cbe 54e9 243e cd5d 023e
000002d0: 29a4 3dbe 83ed 3abe 579c af3c e7cf 56bd
000002e0: 2bf4 48bc b330 693e 694c 81bd 8be2 e5bd
000002f0: fbe4 64bd f7f6 a3bc 424c bfbc e739 02bd
00000300: ab0d 5dbb 5c8a 1c3d 645f 93bc 6532 f4bb
00000310: 2ed2 693c 92d5 3a3c 909d 32bd e0dd 32bd
00000320: 7e6b abbd b96d 40bd cb95 d3bb d1fd cf3c
00000330: 6f3a c2bd b769 b0bd 758c 8bbd 570f 56be
00000340: 23e4 9bbd 3988 82bb 7c2f 19bc c96d a13d
00000350: d928 0f3e ee92 62bd 966f 75be 7d11 403e
00000360: 0197 c93c 0173 24bd 0631 ff3d e82c 843e
00000370: b3f8 73be 06ca 873e 41e6 b63e fbe7 1f3d
00000380: 9d62 873c 6618 5d3d 0a57 043d fba1 6abe
00000390: 3acf 6a3d dbe0 753e 6d7d dfbc 42c2 f83c
000003a0: 82c2 693d 05ab 04be 1b73 ddbe 5774 c9be
000003b0: 7c61 48be 10a5 57bd 6980 f03c 3081 ffbc
000003c0: 83bf 483d cee2 edbd 3b69 73be 8829 56bd
000003d0: 32fa 9fbc 882d 173c ef24 30bd 8aeb 583b
000003e0: cb48 aabc 41a6 e83a 49b5 a7bc e389 9c3b
000003f0: bcee a83c e492 fbbc 1e03 dd3c 9784 d23d

classifier.1.bias f4 [10]
-0.09138715 0.34569383 0.0067476714 0.054395564 -0.05451659 -0.05900611 0.052653592 0.054459594
-0.13633503 -0.02959425
00000000: 3029 bbbd c8fe b03e 921b dd3b e2cd 5e3d
00000010: ca4c 5fbd 64b0 71bd 4bab 573d 0611 5f3d
00000020: 699b 0bbe a46f f2bc
