model_weights/model_epoch_3.pth (torch, 34439 bytes, 10 tensors)

conv_block_1.0.weight f4 [10, 1, 3, 3]
-0.4823411 0.09305263 -0.18622962 -0.019398008 0.44134545 0.5488157 -0.30910754 -0.008392933
0.31257525 -0.049704 -0.07374483 -0.2060442 -0.13211565 -0.014288618 -0.2900195 0.15954149
-0.10342574 0.0749502 -0.2786085 -0.37962985 -0.07821201 0.0006914621 0.16115615 0.33959088
0.094757326 -0.2018006 -0.37364575 0.14736243 0.12309147 0.1323731 0.54691416 0.09321321
-0.20328553 0.25768375 -0.42103913 -0.10964342 -0.15066221 0.11200737 -0.29159904 0.213799
0.26270238 0.082337335 0.13434526 0.059501722 -0.07117192 -0.6069622 0.21252905 0.10439453
0.21075237 0.4694538 -0.16573769 0.09440456 0.02175696 0.2063823 0.43404248 0.20933004
-0.16348702 -0.20231985 -0.48398232 -0.47960442 -0.45216724 -0.5345454 0.3253435 0.33730057
0.06589592 -0.64189976 0.45603788 -0.35943112 -0.38128784 0.023485862 0.3399314 0.51125365
-0.24668767 -0.21357466 -0.10178233 0.31014743 0.053704347 -0.25054047 -0.3222032 -0.27483365
0.21473365 -0.7762212 -1.0800682 -0.45638338 -0.11349119 -0.4925069 0.3464286 0.76991445
0.64738774 0.4812646
00000000: 6af5 f6be 6192 be3d fab2 3ebe 92e8 9ebc
00000010: 08f8 e13e 307f 0c3f 5843 9ebe 8382 09bc
00000020: dd09 a03e 6c96 4bbd 8807 97bd 40fd 52be
00000030: 5349 07be cf1a 6abc 707d 94be d85e 233e
00000040: e0d0 d3bd 7e7f 993d c6a5 8ebe d85e c2be
00000050: 9e2d a0bd 3c43 353a 1e06 253e dbde ad3e
00000060: 2110 c23d d1a4 4ebe 7f4e bfbe 2de6 163e
00000070: 6117 fc3d d08c 073e 9102 0c3f 91e6 be3d
00000080: 152a 50be 20ef 833e 7192 d7be bb8c e0bd
00000090: 3247 1abe 1f64 e53d 784c 95be 20ee 5a3e
000000a0: ed80 863e 7aa0 a83d ce91 093e 14b8 733d
000000b0: 95c2 91bd e061 1bbf 37a1 593e cdcc d53d
000000c0: 78cf 573e 405c f03e 24b7 29be 2e57 c13d
000000d0: a73b b23c e255 533e d13a de3e 9d5a 563e
000000e0: 2469 27be ef2c 4fbe 88cc f7be b68e f5be
000000f0: 7782 e7be f8d7 08bf 6c93 a63e a9b2 ac3e
00000100: 71f4 863d 8b53 24bf cc7d e93e 5b07 b8be
00000110: 2938 c3be 6c65 c03c 7d0b ae3e 85e1 023f
00000120: b19b 7cbe 51b3 5abe 4173 d0bd a5cb 9e3e
00000130: 17f9 5b3d d746 80be d1f7 a4be ffb6 8cbe
00000140: 23e3 5b3e 6fb6 46bf ad3f 8abf 15ab e9be
00000150: 126e e8bd dd29 fcbe 175f b13e 1d19 453f
00000160: 34bb 253f 5068 f63e

conv_block_1.0.bias f4 [10]
-0.08726905 -0.12978365 -0.022932557 -0.073882945 -0.02284504 -0.09090828 0.2692247 -0.0689682
0.08029944 0.3173547
00000000: 1eba b2bd 01e6 04be 0fdd bbbc f14f 97bd
00000010: 8525 bbbc 1f2e babd d2d7 893e 333f 8dbd
00000020: 0874 a43d 517c a23e

conv_block_1.2.weight f4 [10, 10, 3, 3]
-0.030702807 -0.117496975 -0.051498037 -0.064840205 0.07604293 -0.01052617 -0.07674999 0.019225638
-0.031878095 -0.04565898 0.08151607 -0.0623808 0.019645935 0.08297139 -0.087491184 0.09720325
-0.075296976 0.054902278 0.007111763 -0.03415124 0.08671948 0.08131844 0.02864352 -0.02150182
-0.003837533 0.09437938 -0.08546911 -0.0746591 -0.07665461 -0.08112807 0.030408695 -0.0055397437
0.020816417 -0.041586608 -0.00778729 -0.013122099 -0.027322091 0.018173248 -0.023698237 -0.10358078
0.061290488 -0.09813048 -0.07246559 -0.090170816 0.0128461085 0.079263955 -0.014896114 -0.030661672
-0.0381397 0.035304736 -0.012020959 -0.04911099 -0.016552102 -0.018000329 -0.08786607 -0.057259507
0.04191291 -0.096236214 -0.019188102 -0.03262882 -0.09808805 0.05441065 -0.06871303 -0.058397338
0.074388154 0.08102607 -0.08003825 0.043797653 -0.07660584 -0.034810584 -0.0728404 -0.018465893
0.043447327 -0.059325814 0.020583728 -0.019509604 -0.06005493 0.10282321 -0.0029869562 -0.07210999
-0.07104988 -0.03148693 0.054782417 0.04449959 0.045622937 -0.07067375 -0.10357603 0.028917627
0.074015506 -0.09610799 -0.103321515 0.05857259 0.42788714 -0.25333744 -0.103996955 0.27786273
-0.2599337 -0.19629812 0.3526154 -0.090236954 0.017410716 0.038076606 0.065561704 0.029242136
-0.035833664 0.0414059 0.08466405 -0.082102925 -0.09173384 0.079214394 -0.05475636 0.11392584
-0.037056316 0.07914571 0.041200627 -0.080581225 -0.067072414 -0.13933271 -0.13136804 -0.010519892
-0.05643645 -0.094535396 -0.005387572 0.07795009 -0.13271336 0.04811721 -0.093730845 -0.16213498
-0.043661773 -0.084938906 -0.10285279 -0.13236783 -0.09789149 -0.048262686 -0.15658431 -0.15718621
-0.12968461 0.2470443 -0.076014206 -0.15363118 0.18823929 -0.13319026 -0.09823577 0.021830443
-0.017928729 -0.13420066 -0.15523279 -0.013824839 -0.10179287 -0.21085262 -0.008645979 -0.082141005
-0.06324201 -0.011657747 -0.112927176 -0.22802706 0.07692228 -0.05832915 -0.14108536 0.06648299
-0.04586112 -0.08519457 -0.027599614 -0.11687118 -0.10343417 0.028439706 0.030817349 0.0012364037
0.02658303 -0.073031045 -0.046761706 0.030313928 0.02760711 -0.18617275 0.03244323 -0.07237167
-0.10489835 -0.0115042385 0.07405301 -0.05122171 0.04049577 -0.07549172 -0.3624129 0.21716602
-0.059161253 -0.3702766 -0.0273261 0.10125417 -0.18934427 0.00016961092 -0.103630856 0.018071292
-0.008579806 -0.06597271 -0.007955332 0.034185816 0.072486445 -0.0828304 -0.010502007 0.069005705
-0.06087974 0.18848248 -0.026672423 -0.019437836 -0.047201827 -0.09254816 0.023888525 0.025997996
-0.09714337 0.189883 -0.06952096 0.008942117 0.034210157 0.16742493 0.2700016 0.098265864
-0.03543976 0.08749806 -0.1648088 0.13151209 0.03524314 0.011599703 0.17827646 0.14093724
0.07965829 -0.07400812 -0.0070739444 -0.16607977 0.08618424 0.21275575 -0.274157 0.22469081
0.11566301 -0.33735925 0.021446018 -0.10413468 0.05844971 -0.16222562 -0.10395738 0.16619931
-0.34012362 -0.34317803 -0.15971372 -0.06398915 -0.007965531 0.09550426 -0.13927014 -0.15353303
0.28113756 0.13152832 0.13995591 0.28205818 0.094544135 -0.04093065 0.020016635 0.09898972
00000000: 7484 fbbc 41a2 f0bd 9bef 52bd f1ca 84bd
00000010: 65bc 9b3d f575 2cbc 192f 9dbd 167f 9d3c
00000020: 9b92 02bd e904 3bbd e6f1 a63d 0283 7fbd
00000030: 83f0 a03c e7ec a93d 942e b3bd 7f12 c73d
00000040: 4d35 9abd 36e1 603d cb09 e93b 2ce2 0bbd
00000050: fc99 b13d 488a a63d d1a5 ea3c 9624 b0bc
00000060: 1f7f 7bbb fa49 c13d 6e0a afbd dfe6 98bd
00000070: 18fd 9cbd 7926 a6bd a81b f93c bd86 b5bb
00000080: 3187 aa3c b856 2abd 862c ffbb 13fe 56bc
00000090: 94d2 dfbc 10e0 943c ce22 c2bc 2922 d4bd
000000a0: bc0b 7b3d a2f8 c8bd d768 94bd 7aab b8bd
000000b0: 7c78 523c 2455 a23d d50e 74bc 302e fbbc
000000c0: 6038 1cbd b39b 103d 8ef3 44bc 9b28 49bd
000000d0: 4698 87bc 6d75 93bc 20f3 b3bd f288 6abd
000000e0: dfac 2b3d 7e17 c5bd 5e30 9dbc cca5 05bd
000000f0: 63e2 c8bd b4dd 5e3d 6bb9 8cbd 0c32 6fbd
00000100: d158 983d fff0 a53d 18eb a3bd 2b65 333d
00000110: 86e3 9cbd 8b95 0ebd 592d 95bd c945 97bc
00000120: d3f5 313d a0ff 72bd 359f a83c 9bd2 9fbc
00000130: 29fc 75bd fa94 d23d cfc0 43bb 67ae 93bd
00000140: 9982 91bd 70f8 00bd 8763 603d 3445 363d
00000150: 1edf 3a3d 66bd 90bd ab1f d4bd a9e4 ec3c
00000160: 7195 973d 44d4 c4bd 3b9a d3bd d0e9 6f3d
00000170: 0614 db3e 72b5 81be 5bfc d4bd 0644 8e3e
00000180: 0816 85be 6002 49be 018a b43e 27ce b8bd
00000190: eba0 8e3c 37f6 1b3d 3745 863d 348d ef3c
000001a0: 52c6 12bd 3c99 293d 5864 ad3d 9425 a8bd
000001b0: f4de bbbd 283b a23d 3448 60bd f351 e93d
000001c0: 5dc8 17bd 2517 a23d fdc1 283d c507 a5bd
000001d0: 435d 89bd 3cad 0ebe 5885 06be a05b 2cbc
000001e0: e829 67bd c69b c1bd 3b8a b0bb 4ca4 9f3d
000001f0: 03e6 07be 8d16 453d f5f5 bfbd b606 26be
00000200: b0d6 32bd 73f4 adbd 7ca4 d2bd 6f8b 07be
00000210: 557b c8bd 18af 45bd a357 20be 6cf5 20be
00000220: 0bcc 04be 2ef9 7c3e 56ad 9bbd 7e51 1dbe
00000230: cdc1 403e 0763 08be d62f c9bd c2d5 b23c
00000240: 45df 92bc e66b 09be 58f5 1ebe 9481 62bc
00000250: c878 d0bd c0e9 57be dda7 0dbc 8b39 a8bd
00000260: 0785 81bd 2300 3fbc 5d46 e7bd ed7f 69be
00000270: 6e89 9d3d 8cea 6ebd ae78 10be 3c28 883d
00000280: dfd8 3bbd 7e7a aebd 9618 e2bc 285a efbd
00000290: 4bd5 d3bd 63fa e83c aa74 fc3c d30e a23a
000002a0: a8c4 d93c 4d91 95bd 3489 3fbd ea54 f83c
000002b0: 4e28 e23c 12a4 3ebe 31e3 043d 9937 94bd
000002c0: f2d4 d6bd 467c 3cbc 1ba9 973d dbcd 51bd
000002d0: e4de 253d 679b 9abd 2f8e b9be c560 5e3e
000002e0: 1253 72bd e594 bdbe fcda dfbc 595e cf3d
000002f0: 77e3 41be 96d9 3139 6a3c d4bd 3f0a 943c
00000300: 5192 0cbc b31c 87bd 1557 02bc 6d06 0c3d
00000310: c673 943d fca2 a9bd 9c10 2cbc dd52 8d3d
00000320: 095d 79bd 8d01 413e 2080 dabc 193c 9fbc
00000330: b456 41bd e489 bdbd deb1 c33c c0f9 d43c
00000340: 1af3 c6bd b070 423e 0161 8ebd f581 123c
00000350: f31f 0c3d 7171 2b3e a63d 8a3e 9d3f c93d
00000360: 4829 11bd 2f32 b33d a3c3 28be 1bab 063e
00000370: 1c5b 103d ae0c 3e3c 1b8e 363e da51 103e
00000380: e323 a33d 9291 97bd 8ccc e7bb d110 2abe
00000390: 5d81 b03d a5dc 593e 4e5e 8cbe 5915 663e
000003a0: bae0 ec3d 5aba acbe 8faf af3c 9044 d5bd
000003b0: f768 6f3d 791e 26be 9be7 d4bd 2730 2a3e
000003c0: af24 aebe 08b5 afbe fe8b 23be be0c 83bd
000003d0: dc81 02bc bd97 c33d d59c 0ebe c337 1dbe
000003e0: 43f1 8f3e 5caf 063e 9a50 0f3e ee69 903e
000003f0: 5ba0 c13d e6a6 27bd edf9 a33c 1fbb ca3d

conv_block_1.2.bias f4 [10]
-0.08057203 -0.019224415 0.48265257 0.075825125 0.2015761 -0.10176385 0.45385775 0.17991355
-0.061425373 0.39987352
00000000: f302 a5bd 857c 9dbc 3d1e f73e 344a 9b3d
00000010: f769 4e3e 9169 d0bd 0b60 e83e 423b 383e
00000020: 2c99 7bbd 39bc cc3e

conv_block_2.0.weight f4 [10, 10, 3, 3]
0.045376472 -0.0834312 0.06587209 0.036617436 0.035793357 0.031135395 -0.10252333 0.050066352
-0.06289776 0.0014728808 -0.005905763 -0.045094226 0.067284636 -0.046925534 -0.051690172 -0.02266625
-0.016584825 0.07560246 0.07084182 0.029217485 0.044472285 0.03985044 -0.0708621 0.026775636
-0.10278832 -0.11125046 0.00026282488 -0.04586457 -0.05599439 0.04551973 0.12553748 -0.071535535
0.09996465 0.094290115 0.08177017 0.04187666 0.058694504 0.06395468 -0.105686665 -0.068495736
-0.047610097 -0.09905235 0.052016158 -0.04089045 -0.010681654 -0.04248953 -0.019295404 0.052547194
-0.021706097 0.089052565 0.025062181 0.078372605 -0.08037701 0.0010934466 0.01043684 -0.07723455
0.051166542 -0.01837878 -0.023369167 -0.04849306 -0.00037768492 0.017734336 -0.12691428 -0.013320949
0.07590764 -0.08732205 -0.1185795 0.104306385 -0.0831793 -0.014040507 0.025809137 0.080047056
0.08846663 -0.03399771 -0.026186313 0.04123241 -0.03214153 -0.048306752 0.055224705 0.002511631
-0.07685567 0.028000047 -0.08483662 -0.0991562 -0.16248739 0.030950122 -0.045993228 -0.06514834
0.04996514 -0.04494011 0.03691492 0.090158924 0.0029174117 0.022032304 0.08550726 0.08347518
0.044994205 0.03424134 0.03342032 -0.03703511 0.11591192 0.04714583 -0.073354565 0.05988671
0.08299997 0.051187254 0.022099275 0.03401873 -0.06073678 0.30949986 0.1415617 0.04609539
0.014480247 -0.06124667 0.2920137 0.16612393 -0.059861224 -0.053674426 -0.01829557 0.19123906
0.12159904 -0.004855045 0.16695388 -0.04695313 0.0042991433 0.086684495 -0.016230803 0.05529888
0.05429032 0.07810933 0.02213499 -0.031341434 -0.15366334 -0.119636 -0.23848182 -0.018377347
0.0142306285 -0.056541204 -0.0997591 0.080627315 0.055529017 0.028195603 -0.045749586 0.0735838
0.19311458 0.13326526 0.07922498 0.2002158 -0.067855485 -0.23842679 0.021029802 -0.21583317
-0.111004286 0.06732856 0.029417671 -0.07093303 0.1294058 -0.043263033 -0.0738145 0.20418961
-0.17116357 -0.073149845 -0.03014269 0.16797706 0.20933104 -0.19306605 -0.00861563 -0.018396666
0.015031194 0.017911231 0.014703485 -0.2975417 -0.21936952 -0.1682475 0.036135584 -0.05047121
-0.22821377 0.2152241 -0.06173859 0.002845444 0.034421787 0.028922884 0.034560766 -0.07686247
-0.04632804 0.021780908 -0.01020277 -0.10497961 0.06093474 0.053321227 -0.11088979 -0.059348032
0.0017196209 -0.11381259 -0.090691425 0.0021654863 0.010703851 -0.07136275 -0.07516061 0.07653811
0.16079755 -0.17522687 -0.16526696 -0.0157027 -0.2894041 -0.2711319 -0.07660778 -0.09532782
-0.3499205 -0.2778232 0.005788492 -0.036842927 0.051479068 -0.05545229 0.25162643 0.12001909
0.12507075 -0.2980008 0.10356132 0.025376638 0.16828814 0.382524 -0.14095536 -0.0714307
-0.07276915 0.077245556 0.01249617 0.010005172 -0.028693203 0.08758304 0.042644195 0.045408715
-0.06585823 -0.009854657 0.14518242 0.21770988 0.50132453 -0.0458426 0.27898988 0.3437841
-0.39617985 -0.3350552 -0.35804737 -0.02654379 0.18877985 0.31264505 -0.19947748 0.133162
-0.017976517 -0.31257617 -0.16548035 -0.06535498 -0.2801166 -0.33749732 -0.10182601 -0.11344642
00000000: aedc 393d fadd aabd f2e7 863d 2afc 153d
00000010: 0e9c 123d a80f ff3c c0f7 d1bd 6012 4d3d
00000020: 8ad0 80bd ae0d c13a 2185 c1bb b9b4 38bd
00000030: 87cc 893d fd34 40bd 13b9 53bd 92ae b9bc
00000040: e6dc 87bc 76d5 9a3d 8415 913d 8259 ef3c
00000050: 9228 363d 373a 233d 2620 91bd 9458 db3c
00000060: af82 d2bd 48d7 e3bd c2cb 8939 7ddc 3bbd
00000070: 605a 65bd e572 3a3d e68c 003e 3981 92bd
00000080: 44ba cc3d 2d1b c13d 1e77 a73d dc86 2b3d
00000090: a669 703d acfa 823d 4072 d8bd 7e47 8cbd
000000a0: ce02 43bd f5db cabd e50e 553d bf7c 27bd
000000b0: 1b02 2fbc 8009 2ebd 6511 9ebc ba3b 573d
000000c0: fcd0 b1bc 3161 b63d 344f cd3c d181 a03d
000000d0: b49c a4bd fb51 8f3a 48ff 2a3c 262d 9ebd
000000e0: 0294 513d 188f 96bc b270 bfbc a9a0 46bd
000000f0: 0304 c6b9 9947 913c d1f5 01be 1c40 5abc
00000100: 7775 9b3d e7d5 b2bd cfd9 f2bd 969e d53d
00000110: e959 aabd 280a 66bc af6d d33c b6ef a33d
00000120: fe2d b53d 2f41 0bbd ae84 d6bc 51e3 283d
00000130: d6a6 03bd 4ddd 45bd 4d33 623d 2d9a 243b
00000140: 8166 9dbd 5b60 e53c d2be adbd 6812 cbbd
00000150: 1863 26be 1c8b fd3c 6563 3cbd 7e6c 85bd
00000160: 3fa8 4c3d 1f13 38bd 1934 173d 3ea5 b83d
00000170: 0c32 3f3b 177d b43c 6e1e af3d 09f5 aa3d
00000180: d84b 383d a640 0c3d bfe3 083d 21b2 17bd
00000190: 3b63 ed3d fc1b 413d eb3a 96bd c44b 753d
000001a0: e3fb a93d baa9 513d 8a09 b53c 3957 0b3d
000001b0: 21c7 78bd c476 9e3e 8df5 103e 85ce 3c3d
000001c0: 8f3e 6d3c cadd 7abd d282 953e 641c 2a3e
000001d0: 0b31 75bd b7d9 5bbd 97e0 95bc 2cd4 433e
000001e0: eb08 f93d 1217 9fbb f5f5 2a3e ed51 40bd
000001f0: d4df 8c3b a487 b13d 76f6 84bc 1481 623d
00000200: 875f 5e3d c9f7 9f3d 7054 b53c e05f 00bd
00000210: ec59 1dbe b803 f5bd 9434 74be 178c 96bc
00000220: 9527 693c c097 67bd 804e ccbd ef1f a53d
00000230: 6572 633d 77fa e63c eb63 3bbd 1ab3 963d
00000240: d4bf 453e b076 083e b540 a23d 5f05 4d3e
00000250: d1f7 8abd 2726 74be b146 ac3c 5f03 5dbe
00000260: 3756 e3bd 8ee3 893d 54fd f03c 5645 91bd
00000270: f482 043e 9434 31bd 0e2c 97bd 1517 513e
00000280: 8145 2fbe 96cf 95bd cded f6bc 2e02 2c3e
00000290: e05a 563e 1bb3 45be 9228 0dbc 9bb4 96bc
000002a0: 6645 763c 93ba 923c e3e6 703c 6357 98be
000002b0: 67a2 60be 1349 2cbe e802 143d e6ba 4ebd
000002c0: dfb0 69be b563 5c3e 9be1 7cbd a17a 3a3b
000002d0: dcfd 0c3d afef ec3c 978f 0d3d 126a 9dbd
000002e0: 79c2 3dbd e06d b23c 8529 27bc 8dff d6bd
000002f0: b596 793d 5c67 5a3d 301a e3bd ec16 73bd
00000300: e764 e13a 9316 e9bd 6dbc b9bd d5ea 0d3b
00000310: 345f 2f3c a226 92bd ceed 99bd 03c0 9c3d
00000320: 1da8 243e ac6e 33be be3b 29be f3a2 80bc
00000330: c62c 94be cdd1 8abe 8ae4 9cbd 3b3b c3bd
00000340: c828 b3be d83e 8ebe 64ad bd3b 9ce8 16bd
00000350: b7db 523d f121 63bd 2ed5 803e 92cc f53d
00000360: 8c12 003e 9093 98be f517 d43d abe2 cf3c
00000370: ba53 2c3e 30da c33e 9a56 10be 424a 92bd
00000380: fe07 95bd eb32 9e3d bcbc 4c3c bcec 233c
00000390: 020e ebbc bd5e b33d aeab 2e3d 7dfe 393d
000003a0: aee0 86bd 6d75 21bc b3aa 143e 57ef 5e3e
000003b0: ce56 003f 73c5 3bbd c3d7 8e3e 7804 b03e
000003c0: 16d8 cabe 5b8c abbe fc51 b7be 5d72 d9bc
000003d0: 814f 413e 0313 a03e d343 4cbe 9f5b 083e
000003e0: 7d43 93bc fc09 a0be ae73 29be d5d8 85bd
000003f0: 716b 8fbe 73cc acbe 288a d0bd 9956 e8bd

conv_block_2.0.bias f4 [10]
-0.054199874 0.023900699 -0.06411444 0.11604981 -0.012233911 0.08553619 -0.08336652 -0.005460687
0.18737501 0.13360053
00000000: b000 5ebd 66cb c33c 6e4e 83bd 86ab ed3d
00000010: be70 48bc 992d af3d 11bc aabd 90ef b2bb
00000020: 3cdf 3f3e 94ce 083e

conv_block_2.2.weight f4 [10, 10, 3, 3]
-0.09627081 -0.040106587 0.0038869826 0.062881485 0.02780748 0.07010518 -0.020569636 0.073278084
-0.10556388 0.21517767 -0.0057316013 -0.09501739 0.012849159 -0.0504311 -0.094169766 0.043732755
0.043317094 -0.080284424 0.099046305 -0.19787404 -0.30817187 0.23791534 -0.45822623 -0.32673812
-0.10425663 -0.46264416 -0.21843843 -0.03321123 -0.1306149 0.13198352 -0.111451745 -0.13354313
0.14266089 -0.0068106996 0.08363894 0.28344178 0.16409464 -0.25841248 -0.091132686 0.042477842
-0.29571918 -0.06705191 -0.0515518 0.06459275 0.27758852 0.118531585 -0.12924103 -0.5962367
0.16141137 -0.35043892 -0.29081455 -0.21820597 -0.5986828 0.027881397 -0.08647382 -0.013467887
-0.12164993 0.0855431 0.031538457 -0.11826955 0.20160343 0.05601228 0.07172155 0.052469045
0.16976964 0.013657535 0.06492892 -0.11337491 -0.061646994 0.07951663 -0.2910533 -0.079146646
-0.085901864 -0.11051136 0.2801356 -0.036914602 -0.09003692 0.4324689 0.02699497 0.08721074
0.26986876 -0.17666554 0.1386966 -0.47164866 0.4112378 0.15409456 -0.55270857 0.31630096
-0.17988102 -0.2918681 0.057387173 -0.09689206 -0.07612939 0.049070794 0.012283407 -0.079884894
0.040823124 -0.05875852 -0.047460373 -0.10731113 -0.28723013 -0.28768015 -0.18770583 -0.20482337
-0.15953328 -0.00020414748 0.033852015 0.09272187 0.42798632 -0.07017185 0.29794598 0.15765017
0.20728186 -0.04036684 -0.2792717 -0.3227503 -0.6283621 -0.07539676 -0.060239606 -0.04183831
-0.05675579 -0.19739585 0.13208216 0.06054976 -0.079910964 0.13900456 0.041510098 -0.16263823
0.019594181 -0.2004275 -0.20578341 0.017253676 -0.27152482 -0.037727084 -0.1106028 -0.6334313
0.082338564 0.30427068 -0.57669026 -0.5523238 -0.6059297 0.17151378 0.10542654 0.14917955
-0.08115029 -0.13421811 -0.25597388 -0.07097268 -0.15882313 -0.19489387 0.030085372 0.013184194
-0.09324898 -0.19020155 -0.091301605 -0.25160065 -0.5615159 -0.14168394 -0.2890824 -0.026099585
0.32488486 0.4386565 0.14525603 0.07091887 -0.09871661 -0.19377108 -0.23476195 -0.42131397
0.4939442 0.17607269 0.16892566 0.22211523 0.14338623 0.1467544 -0.24100052 -0.066869095
-0.11874184 -0.28785312 -0.3418681 -0.4629031 0.054055143 0.039244264 0.09493367 0.06040985
0.049503345 0.06212894 -0.08688889 0.03651686 -0.08850595 0.12890024 -0.120779686 0.016374975
-0.009293464 -0.15724963 0.05321983 -0.017988535 -0.22273886 -0.012841521 -0.3262288 -0.09386852
0.025551008 -0.12748168 -0.0092621315 -0.10912741 0.07673494 -0.11362803 0.03903681 -0.045319475
0.18473661 0.010409562 -0.020133652 -0.047735102 -0.04564705 -0.033600148 -0.091714 -0.078167185
-0.15729143 0.23364876 0.079642646 -0.031963203 0.0208704 -0.25928128 -0.06815823 -0.14643183
-0.20111029 -0.20852093 -0.49980995 0.023597358 -0.3189975 -0.043297052 0.0930226 0.50757515
0.43544832 0.0024744864 0.11973707 0.15983279 0.040226027 0.0034784535 -0.05177221 0.04552855
0.051857445 0.0868561 0.03858873 0.0125157 0.038857345 0.2961091 0.09392698 -0.13067567
0.13598606 -0.29836562 -0.04907849 0.16147535 -0.13713236 -0.07552419 -0.14071344 -0.33045068
00000000: a129 c5bd ce46 24bd bfbc 7e3b 02c8 803d
00000010: 83cc e33c 4e93 8f3d a781 a8bc d212 963d
00000020: e031 d8bd 8957 5c3e 28d0 bbbb 7a98 c2bd
00000030: 4785 523c d790 4ebd 14dc c0bd 1e21 333d
00000040: 446d 313d 296c a4bd cad8 ca3d 7e9f 4abe
00000050: b4c8 9dbe 14a0 733e a19c eabe 384a a7be
00000060: 8084 d5bd b2df ecbe 53ae 5fbe 8008 08bd
00000070: eabf 05be b026 073e d040 e4bd 88bf 08be
00000080: b215 123e 4a2c dfbb e44a ab3d 481f 913e
00000090: 6d08 283e a44e 84be c6a3 babd 3ffd 2d3d
000000a0: 8168 97be 8352 89bd fb27 53bd 3449 843d
000000b0: 1520 8e3e b0c0 f23d c357 04be f8a2 18bf
000000c0: 0649 253e bb6c b3be a5e5 94be 6371 5fbe
000000d0: 4743 19bf 8767 e43c 3019 b1bd 6aa8 5cbc
000000e0: 9923 f9bd 3931 af3d 782e 013d 4e37 f2bd
000000f0: 2171 4e3e 226d 653d bfe2 923d c8e9 563d
00000100: 18d8 2d3e dbc3 5f3c 74f9 843d 1b31 e8bd
00000110: 8f81 7cbd 9dd9 a23d f004 95be a317 a2bd
00000120: 51ed afbd c853 e2bd ef6d 8f3e c433 17bd
00000130: 4765 b8bd 906c dd3e 8e24 dd3c 8b9b b23d
00000140: 3d2c 8a3e d0e7 34be 7b06 0e3e ef7b f1be
00000150: c38d d23e f7ca 1d3e 4f7e 0dbf 33f2 a13e
00000160: bb32 38be bc6f 95be d00e 6b3d 586f c6bd
00000170: bae9 9bbd 75fe 483d 5840 493c b19a a3bd
00000180: 2636 273d c6ac 70bd cf65 42bd f0c5 dbbd
00000190: d40f 93be d04a 93be f535 40be 38bd 51be
000001a0: b15c 23be 6c10 56b9 69a8 0a3d f7e4 bd3d
000001b0: 0621 db3e 42b6 8fbd 608c 983e 0c6f 213e
000001c0: b241 543e b357 25bd b3fc 8ebe 873f a5be
000001d0: 57dc 20bf 9e69 9abd cebd 76bd a65e 2bbd
000001e0: c278 68bd 2322 4abe 8c40 073e 0603 783d
000001f0: 5ca8 a3bd 3657 0e3e 7e06 2a3d a38a 26be
00000200: fa83 a03c de3c 4dbe e3b8 52be 9557 8d3c
00000210: 4d05 8bbe b787 1abd b983 e2bd 8e28 22bf
00000220: 1fa1 a83d 5ec9 9b3e f9a1 13bf 1865 0dbf
00000230: 351e 1bbf 4fa1 2f3e dfe9 d73d 86c2 183e
00000240: 2032 a6bd 7970 09be 020f 83be 205a 91bd
00000250: 88a2 22be 4292 47be 9975 f63c 8502 583c
00000260: 52f9 bebd 32c4 42be 56fc babd cdd1 80be
00000270: 82bf 0fbf 9815 11be 9c02 94be ccce d5bc
00000280: 4f57 a63e 9697 e03e ffbd 143e ea3d 913d
00000290: ef2b cabd ed6b 46be 7065 70be 77b6 d7be
000002a0: 41e6 fc3e 664c 343e d9fa 2c3e 2d72 633e
000002b0: d7d3 123e c946 163e d7c8 76be aaf2 88bd
000002c0: ec2e f3bd 7c61 93be 5609 afbe a301 edbe
000002d0: ed68 5d3d 98be 203d 956c c23d 5270 773d
000002e0: 05c4 4a3d ea7a 7e3d cdf2 b1bd b492 153d
000002f0: 9c42 b5bd 6dfe 033e 575b f7bd d024 863c
00000300: 9d43 18bc 0c06 21be 09fd 593d b15c 93bc
00000310: a815 64be 3e65 52bc 7607 a7be 233e c0bd
00000320: 5950 d13c 8f8a 02be 32c0 17bc 317e dfbd
00000330: 3527 9d3d d0b5 e8bd 10e5 1f3d eaa0 39bd
00000340: 982b 3d3e de8c 2a3c 54ef a4bc e285 43bd
00000350: 67f8 3abd 4fa0 09bd 8dd4 bbbd 1e16 a0bd
00000360: 0111 21be 9f41 6f3e af1b a33d d9eb 02bd
00000370: 67f8 aa3c 84c0 84be 8b96 8bbd 3af2 15be
00000380: dbef 4dbe 8386 55be 17e7 ffbe 3f4f c13c
00000390: a453 a3be 4058 31bd a282 be3d 72f0 013f
000003a0: 15f3 de3e fe2a 223b b538 f53d 35ab 233e
000003b0: 0cc4 243d c4f6 633b 190f 54bd 257c 3a3d
000003c0: 7968 543d 9ce1 b13d 370f 1e3d a70e 4d3c
000003d0: e128 1f3d 9d9b 973e ca5c c03d d8cf 05be
000003e0: ee3f 0b3e 61c3 98be 8706 49bd cb59 253e
000003f0: 6d6c 0cbe 6dac 9abd 2f17 10be d530 a9be

conv_block_2.2.bias f4 [10]
-0.104563385 -0.00895591 -0.0074030827 -0.05163383 0.08275027 -0.32960117 0.018496469 -0.057561193
-0.047289725 -0.1084072
00000000: 5425 d6bd cfbb 12bc 8f95 f2bb ff7d 53bd
00000010: f978 a93d 7cc1 a8be e885 973c 49c5 6bbd
00000020: dfb2 41bd 9804 debd

classifier.1.weight f4 [10, 490]
-0.09205638 -0.10340254 0.010472238 -0.050927006 -0.03632854 -0.0289548 0.01118152 -0.04422355
-0.017706266 0.011965906 -0.15346737 -0.2769568 -0.4094873 -0.19500671 0.23133247 0.07349816
-0.0053684697 -0.053238995 -0.116132036 -0.36395726 -0.1052762 0.13717876 0.18939178 0.028813649
0.22516976 0.08611743 0.19648713 0.108930066 0.113484256 0.061655242 -0.13486338 0.1223305
0.29262114 0.33368447 0.23695426 0.068427615 -0.027992804 -0.2540206 -0.18646078 0.0060838624
-0.074667744 -0.03059432 -0.026094833 -0.0057649333 -0.033170655 -0.22459649 -0.21634553 -0.104261875
-0.07882645 -0.013620029 -0.063785836 -0.014135852 0.01985451 0.019360378 -0.006898379 0.011339237
0.01074399 0.007758566 -0.071858056 -0.043636106 0.009491016 -0.021148017 -0.028159946 0.010350998
-0.14994103 -0.19853333 -0.14126849 -0.16383052 -0.038199354 -0.034920584 -0.079277866 -0.4732714
-0.64928806 -0.20711468 0.16661301 0.07983683 -0.09558898 -0.014323282 -0.2931453 -0.46789125
-0.34985995 -0.09088846 -0.0223278 0.021058688 0.017706119 0.016106725 -0.041256398 0.09425069
0.19430912 -0.063608006 -0.0067664008 0.030108877 0.09793729 0.2387077 0.30842555 0.011158604
-0.07497179 0.016248422 0.034206793 0.028930236 -0.1456117 -0.007127321 -0.03619833 0.065131135
0.023734968 -0.008816651 -0.07967213 0.069298446 0.10660278 0.087752014 -0.12357588 -0.013141402
0.022022136 0.0013275441 0.057165656 -0.056912422 -0.3222453 -0.26968253 -0.109177686 0.009711121
-0.035526592 -0.08958109 -0.3833859 -0.12671599 -0.07648042 -0.15892799 -0.031057063 -0.040936742
-0.07119996 0.10480248 0.26753846 0.05517258 -0.061631996 -0.009820825 -0.007942764 -0.09881065
0.13642201 0.2207659 0.02015302 -0.047201417 0.019073786 0.019541025 -0.0066724936 -0.015954686
0.024054952 -0.034599543 -0.00036653757 -0.0024654125 -0.065220736 -0.089111716 -0.030609546 -0.023116998
-0.030687014 0.037678745 -0.051778074 -0.13554564 -0.12562433 -0.05837128 -0.05550185 -0.034690995
-0.011610552 -0.070207365 -0.043399207 -0.08746096 -0.18848892 0.117737435 0.16353796 0.019921083
-0.024307858 0.041416395 0.21155237 -0.23911713 0.21061671 0.3836751 0.051184945 -0.012313022
0.101973355 0.031432323 -0.30136868 0.07484563 0.22014399 -0.015740586 0.041205898 0.07691139
0.21706927 -0.103820294 -0.24850246 -0.10563184 -0.0073245903 0.02410216 -0.031050455 0.010460948
-0.09996573 -0.1428686 -0.036417764 -0.044426657 -0.008263057 -0.016210152 0.017375458 0.028266901
-0.008588784 -0.01211778 0.04135345 0.031303886 -0.096309505 -0.057099897 0.03719664 0.16455258
0.0501993 0.0018718428 -0.06331155 -0.14080532 -0.140015 -0.05531107 0.01800021 0.00056713616
0.024544422 -0.114745796 -0.26146054 -0.36721364 0.047103297 0.11217527 -0.060605157 -0.07821845
-0.0039015284 -0.1319653 -0.08045152 0.16865124 0.10685658 -0.009662626 0.04068411 0.005041115
0.06001433 0.12971555 -0.016602779 -0.10899741 -0.009097334 -0.031510055 0.02847262 0.018833477
0.083061725 -0.05968479 -0.18305631 -0.028216764 0.011550251 -0.023421569 -0.09277207 0.00061875064
0.054676387 0.0052731624 -0.0048912875 -0.037722845 -0.06044587 0.029383706 0.015386561 -0.09254006
00000000: 0e88 bcbd b6c4 d3bd c093 2b3c d698 50bd
00000010: 3ccd 14bd 9e32 edbc b232 373c c123 35bd
00000020: bb0c 91bc a60c 443c 8d26 1dbe 48cd 8dbe
00000030: 52a8 d1be d7af 47be 6be2 6c3e 3486 963d
00000040: fde9 afbb 2211 5abd a2d6 edbd 9b58 babe
00000050: 0c9b d7bd 9778 0c3e ebef 413e 9a0a ec3c
00000060: e792 663e 565e b03d ec33 493e ba16 df3d
00000070: 6f6a e83d 358a 7c3d a019 0abe 6a88 fa3d
00000080: 70d2 953e b1d8 aa3e 23a4 723e c723 8c3d
00000090: 2a51 e5bc fd0e 82be 93ef 3ebe 235b c73b
000000a0: 67eb 98bd f0a0 fabc d5c4 d5bc c4e7 bcbb
000000b0: f4dd 07bd 9ffc 65be af89 5dbe 4087 d5bd
000000c0: c36f a1bd 8b26 5fbc 26a2 82bd 109a 67bc
000000d0: eda5 a23c a899 9e3c cc0b e2bb 35c8 393c
000000e0: 8f07 303c 923b fe3b 512a 93bd c6bb 32bd
000000f0: 3580 1b3c 9b3e adbc b0af e6bc 3b97 293c
00000100: 248a 19be 524c 4bbe b0a8 10be 30c3 27be
00000110: ed76 1cbd e308 0fbd 6f5c a2bd a150 f2be
00000120: be37 26bf df15 54be 9a9c 2a3e 7e81 a33d
00000130: 28c4 c3bd 33ac 6abc 2417 96be 718f efbe
00000140: d820 b3be bb23 babd cae8 b6bc 4583 ac3c
00000150: 6c0c 913c 40f2 833c 78fc 28bd 8106 c13d
00000160: f8f8 463e ea44 82bd afb8 ddbb e4a6 f63c
00000170: 5993 c83d cb6f 743e f4e9 9d3e 94d2 363c
00000180: cf8a 99bd 691b 853c 6c1c 0c3d 1aff ec3c
00000190: 3c1b 15be 4d8c e9bb b344 14bd 7963 853d
000001a0: d66f c23c b773 10bc 242b a3bd 58ec 8d3d
000001b0: 8f52 da3d 54b7 b33d 5a15 fdbd 094f 57bc
000001c0: c467 b43c fd00 ae3a 8926 6a3d 001d 69bd
000001d0: 56fd a4be d413 8abe 8d98 dfbd 651b 1f3c
000001e0: 5584 11bd 4a76 b7bd 284b c4be d6c1 01be
000001f0: c4a1 9cbd 05be 22be 626b febc 49ad 27bd
00000200: 49d1 91bd afa2 d63d cdfa 883e a5fc 613d
00000210: d571 7cbd 87e7 20bc 5e22 02bc 3d5d cabd
00000220: 36b2 0b3e 7510 623e f217 a53c 4656 41bd
00000230: a140 9c3c 8014 a03c efa4 dabb 67b3 82bc
00000240: e40e c53c 40b8 0dbd d72b c0b9 c292 21bb
00000250: 7392 85bd 3480 b6bd dfc0 fabc dc5f bdbc
00000260: 5563 fbbc 0755 1a3d 3f15 54bd 7acc 0abe
00000270: aaa3 00be b916 6fbd e855 63bd 2518 0ebd
00000280: 2f3a 3ebc e1c8 8fbd 5ec3 31bd bb1e b3bd
00000290: 3d03 41be 5320 f13d 7f76 273e 8a31 a33c
000002a0: 4621 c7bc 3da4 293d 2fa1 583e 1fdb 74be
000002b0: e8ab 573e 1071 c43e 4ea7 513d 8fbc 49bc
000002c0: 68d7 d03d 2ebf 003d ff4c 9abe aa48 993d
000002d0: 6d6d 613e 67f2 80bc 84c7 283d b883 9d3d
000002e0: 6847 5e3e bc9f d4bd 6e77 7ebe 8255 d8bd
000002f0: 1e03 f0bb e571 c53c 865d febc 6564 2b3c
00000300: d5ba ccbd 254c 12be cb2a 15bd baf8 35bd
00000310: c661 07bc 27cb 84bc fa56 8e3c fd8f e73c
00000320: f9b7 0cbc a789 46bc 3c62 293d 8138 003d
00000330: eb3d c5bd 95e1 69bd 815b 183d 7980 283e
00000340: c89d 4d3d 9f58 f53a 7ca9 81bd 452f 10be
00000350: 1860 0fbe dc8d 62bd 2d75 933c ddab 143a
00000360: 6211 c93c d8ff eabd 28de 85be 6d03 bcbe
00000370: 63ef 403d 26bc e53d 1d3d 78bd ff30 a0bd
00000380: c9b0 7fbb e921 07be c4c3 a4bd e9b2 2c3e
00000390: 9fd7 da3d fe4f 1ebc 62a4 263d f02f a53b
000003a0: 96d1 753d 27d4 043e 8d02 88bc 093a dfbd
000003b0: fc0c 15bc b010 01bd 693f e93c aa48 9a3c
000003c0: 441c aa3d 0a78 74bd 1d73 3bbe d826 e7bc
000003d0: 443d 3d3c 97de bfbc 48ff bdbd a733 223a
000003e0: 59f4 5f3d 7eca ac3b 1847 a0bb 4583 1abd
000003f0: 1796 77bd 19b6 f03c ea17 7c3c a585 bdbd

classifier.1.bias f4 [10]
-0.053618144 0.23850824 0.14647837 -0.15241925 -0.07573941 0.035736017 -0.10977468 0.10762164
-0.007639076 -0.1484176
00000000: b39e 5bbd 813b 743e 6dfe 153e cb13 1cbe
00000010: 441d 9bbd ee5f 123d 8cd1 e0bd bc68 dc3d
00000020: 3751 fabb c9fa 17be
