model_weights/model_epoch_3.pth (torch, 34447 bytes, 10 tensors)

conv_block_1.0.weight f4 [10, 1, 3, 3]
-0.005661267 -0.2778206 -0.31278652 -0.1657316 0.30450425 0.09180219 0.19602339 0.5663529
0.22614807 -0.055551935 0.1437793 -0.30605835 0.035247173 0.35516512 -0.106310494 -0.4630362
-0.20506412 0.26171836 0.49194878 -0.40486112 -0.20796967 0.24234177 -0.47337705 -0.14397475
0.46139443 -0.17835218 0.3774108 -0.20044269 -0.29485643 0.06663254 -0.3012603 0.044735488
0.39512596 -0.24129507 -0.16494049 0.19833636 0.36960304 0.19653109 0.6036991 0.15922484
-0.37467158 -0.13690527 -0.35663015 -0.8322279 -0.39558735 -0.13799205 0.15187487 0.23738796
-0.15705584 0.24061203 0.25037515 0.015565234 0.4231549 0.25239912 0.39019635 0.28092086
-0.5664489 0.090461545 -0.14123642 -0.0016333068 -0.18916868 0.006348735 -0.15165073 -0.29420522
0.0013394213 0.2998796 -0.53895617 -0.31468287 -0.31238374 -0.047223765 -0.33186477 -0.5440185
-0.22968353 -0.10778708 -0.08404219 0.1483526 0.42781934 -0.25328064 -0.28213882 -0.112060145
0.0022274917 0.14113322 -0.48056936 -0.37685463 0.37915698 0.40428278 -0.13779011 -0.2892544
0.31798688 0.08440519
00000000: 2682 b9bb 803e 8ebe 8e25 a0be 8bb5 29be
00000010: fbe7 9b3e c902 bc3d 5bba 483e 81fc 103f
00000020: 5c93 673e 6d8a 63bd e13a 133e aeb3 9cbe
00000030: 575f 103d 34d8 b53e 51b9 d9bd 1513 edbe
00000040: 54fc 51be f3ff 853e b6e0 fb3e f549 cfbe
00000050: 00f6 54be 7128 783e 7a5e f2be 1e6e 13be
00000060: e43b ec3e f4a1 36be fd3b c13e d940 4dbe
00000070: 6cf7 96be a476 883d ca3e 9abe 8f3c 373d
00000080: f34d ca3e 0e16 77be 29e6 28be b018 4b3e
00000090: 9c3c bd3e 723f 493e 068c 1a3f d60b 233e
000000a0: f4d4 bfbe e530 0cbe 3a98 b6be e30c 55bf
000000b0: 6d8a cabe ca4d 0dbe 1685 1b3e d415 733e
000000c0: 3fd3 20be 0063 763e 2c31 803e 5305 7f3c
000000d0: c2a7 d83e 753a 813e d1c7 c73e dcd4 8f3e
000000e0: cc02 11bf e743 b93d 48a0 10be af14 d6ba
000000f0: 6fb5 41be 0d09 d03b 544a 1bbe 11a2 96be
00000100: 858f af3a d289 993e 08f9 09bf 1d1e a1be
00000110: c3f0 9fbe b56d 41bd 2eea a9be cc44 0bbf
00000120: 2932 6bbe 79bf dcbd 501e acbd bee9 173e
00000130: 230b db3e 00ae 81be 8074 90be ca7f e5bd
00000140: 1cfb 113b 3a85 103e 300d f6be 17f3 c0be
00000150: dd20 c23e 27fe ce3e da18 0dbe 2719 94be
00000160: 2dcf a23e a1dc ac3d

conv_block_1.0.bias f4 [10]
-0.09501885 -0.19803129 0.07798912 -0.15757515 0.21072938 -0.57094675 -0.012179076 0.37851134
0.11182986 -0.100925446
00000000: 3e99 c2bd b7c8 4abe c2b8 9f3d 615b 21be
00000010: 71c9 573e 9129 12bf bf8a 47bc 3dcc c13e
00000020: 0e07 e53d 00b2 cebd

conv_block_1.2.weight f4 [10, 10, 3, 3]
0.0075260196 0.13976516 0.03531679 0.09385193 -0.0015722995 -0.30532393 -0.049163505 0.08428904
-0.0072337934 0.06706869 -0.017162153 0.035587527 0.02123206 -0.08500436 0.029844405 0.00029383367
-0.016969973 -0.15866144 0.059456717 -0.054525428 -0.025737178 -0.18768597 -0.010462215 -0.0036655175
-0.17765518 0.0101911565 0.084104344 0.044705767 0.13877599 -0.06705835 0.1758658 0.025538312
-0.20092723 0.23099522 -0.14803939 -0.25745866 -0.07961997 -0.09329262 -0.012452967 -0.21646002
-0.1416927 0.10115953 -0.28850263 -0.096228346 -0.08904794 0.17143457 0.08877851 0.06691111
0.18547168 -0.04705996 0.037118748 0.20101549 -0.00851322 0.051713854 0.051547416 0.14930138
0.11265586 0.06453447 0.10011102 0.13892059 -0.05604627 -0.024325226 0.16430475 -0.15802106
-0.19543521 -0.08135545 -0.13973844 -0.18592831 -0.051343236 -0.13281597 -0.16214563 -0.05680373
-0.06545215 -0.113751456 -0.0019543977 -0.07128887 0.0884192 0.056651548 -0.0023420344 -0.0053566205
0.051283006 -0.09852743 0.034982212 -0.026846934 -0.12226064 0.0426637 -0.06915567 -0.067656115
-0.017365364 -0.04038182 0.0051561804 0.0041485503 -0.19735071 -0.08802917 -0.17728418 0.04760537
-0.01364739 0.16910811 0.24671823 0.05689912 0.013008793 0.019337803 0.00093938364 -0.03649185
-0.065516725 -0.08416785 -0.04859126 0.025922403 -0.04901597 -0.045360863 -0.09764145 0.069878615
0.05240651 0.05724094 0.05638725 0.12466264 -0.0028016816 0.1333463 0.033621084 -0.0037241117
-0.018857539 -0.063585855 -0.047034573 -0.05868473 -0.042870417 0.14073648 0.048218433 0.012532761
0.015584537 0.22094184 0.104203284 -0.10612738 0.037704308 -0.029821897 -0.16082053 -0.020276837
-0.114143856 0.059313506 0.08362385 -0.11378023 0.06347835 -0.117848344 -0.033523686 0.14323972
-0.06314712 0.011440048 0.12436093 0.033430148 0.07855555 -0.048874 0.15729535 -0.10862186
-0.019904586 -0.06904782 0.00858686 0.1021976 -0.04913413 0.0018660894 -0.02713666 -0.15418994
-0.10253251 -0.09451732 -0.015763422 -0.10710511 -0.039264493 0.034909748 0.08908159 -0.046716243
0.02544883 -0.014466005 -0.12218795 0.026250351 -0.0051917247 0.077420294 0.10762632 -0.03661377
0.017762572 -0.019292006 0.029951517 -0.12515521 0.093936466 0.059806943 -0.21809629 -0.105064355
-0.12079711 -0.23486897 -0.2505634 -0.21944669 -0.08503856 0.10134569 -0.09679735 -0.1331653
0.03814985 0.06464876 -0.069281 0.038279317 -0.021144679 0.021276737 -0.044534557 0.051099982
0.16860558 0.023355087 0.055901084 0.16859718 0.08795059 0.12952283 0.066629104 0.11961362
-0.17529367 -0.16112788 0.0020232215 -0.2119122 -0.15445201 -0.2740006 -0.062420644 0.10643633
0.089096 0.068609804 0.19182642 0.10867094 0.13645206 -0.13049872 0.18370847 -0.08292559
-0.13051896 0.12356468 0.0040600062 -0.06868772 0.017617166 0.00813075 -0.13994637 -0.06797249
-0.065416604 -0.10560225 0.14566468 0.2050079 0.14222334 0.15020452 0.029943852 0.10225509
0.2205144 0.07193018 -0.0784271 -0.14716281 -0.040845096 -0.16532634 0.021883808 0.0054620784
-0.08621896 -0.007912513 -0.0015432404 0.055728994 -0.04568114 -0.122026704 -0.05184915 0.056761976
00000000: d49c f63b 991e 0f3e 57a8 103d 7135 c03d
00000010: 9e15 ceba 6b53 9cbe ac5f 49bd bb9f ac3d
00000020: 7509 edbb 4f5b 893d a597 8cbc 3ac4 113d
00000030: dbee ad3c c416 aebd 417c f43c b00d 9a39
00000040: 9d04 8bbc 2578 22be e388 733d 0e56 5fbd
00000050: c6d6 d2bc c030 40be b669 2bbc 2e39 70bb
00000060: 3deb 35be cff8 263c e63e ac3d 651d 373d
00000070: 4b1b 0e3e e355 89bd 2a16 343e b935 d13c
00000080: debf 4dbe 038a 6c3e a397 17be 9fd1 83be
00000090: cb0f a3bd 3310 bfbd 8807 4cbc b2a7 5dbe
000000a0: e417 11be ba2c cf3d 9eb6 93be 5e13 c5bd
000000b0: c45e b6bd 8b8c 2f3e 82d1 b53d b108 893d
000000c0: 4aec 3d3e f2c1 40bd d409 183d 01d7 4d3e
000000d0: 087b 0bbc e8d1 533d 6223 533d 76e2 183e
000000e0: 1eb8 e63d a62a 843d 0207 cd3d 3341 0e3e
000000f0: c690 65bd b245 c7bc 813f 283e 46d0 21be
00000100: 2b20 48be b09d a6bd 9817 0fbe fe63 3ebe
00000110: 494d 52bd e900 08be 8109 26be 07ab 68bd
00000120: c70b 86bd 86f6 e8bd 5a15 00bb e6ff 91bd
00000130: 2015 b53d 740b 683d d17c 19bb 9786 afbb
00000140: 210e 523d c0c8 c9bd 8249 0f3d 1aee dbbc
00000150: c963 fabd 22c0 2e3d 7da1 8dbd 4a8f 8abd
00000160: cf41 8ebc 6867 25bd 2df5 a83b 90f0 873b
00000170: 4e16 4abe a348 b4bd fc89 35be d9fd 423d
00000180: 4d99 5fbc ad2a 2d3e b4a3 7c3e 0d0f 693d
00000190: d522 553c 506a 9e3c f840 763a 7a78 15bd
000001a0: a22d 86bd 3260 acbd a107 47bd 385b d43c
000001b0: f8c4 48bd 50cc 39bd 3ef8 c7bd 851c 8f3d
000001c0: 35a8 563d 7a75 6a3d 51f6 663d 204f ff3d
000001d0: 6b9c 37bb ef8b 083e 43b6 093d 3a10 74bb
000001e0: 207b 9abc 4d39 82bd 53a7 40bd 665f 70bd
000001f0: e498 2fbd 391d 103e b180 453d 3656 4d3c
00000200: 4956 7f3c 943e 623e 8868 d53d 5059 d9bd
00000210: d56f 1a3d 0d4d f4bc 23ae 24be 9c1b a6bc
00000220: 41c4 e9bd b8f2 723d fb42 ab3d 9c05 e9bd
00000230: f000 823d 795a f1bd 2250 09bd 6fad 123e
00000240: 4753 81bd 0a6f 3b3c f1b0 fe3d 0dee 083d
00000250: bbe1 a03d 1a30 48bd 0812 213e 2375 debd
00000260: f10e a3bc f268 8dbd e7af 0c3c fa4c d13d
00000270: df40 49bd 9297 f43a b34d debc f8e3 1dbe
00000280: 91fc d1bd 4c92 c1bd 4b22 81bc ed59 dbbd
00000290: ced3 20bd 86fd 0e3d 6970 b63d 8859 3fbd
000002a0: 117a d03c d302 6dbc ad3d fabd fa0a d73c
000002b0: 581f aabb 888e 9e3d 306b dc3d 52f8 15bd
000002c0: d082 913c 450a 9ebc e25c f53c b028 00be
000002d0: c361 c03d 20f8 743d a254 5fbe fb2b d7bd
000002e0: 7a64 f7bd 7e81 70be d949 80be a2b6 60be
000002f0: b228 aebd 548e cf3d b03d c6bd 7c5c 08be
00000300: 0443 1c3d 9266 843d 32e3 8dbd c6ca 1c3d
00000310: 9b37 adbc 8d4c ae3c de69 36bd 374e 513d
00000320: f1a6 2c3e 2b53 bf3c 89f8 643d bda4 2c3e
00000330: 701f b43d a2a1 043e d774 883d fcf7 f43d
00000340: 2f80 33be b5fe 24be 0698 043b 83ff 58be
00000350: ab28 1ebe cf49 8cbe caac 7fbd 4afb d93d
00000360: f777 b63d 4c83 8c3d 256e 443e df8e de3d
00000370: 17ba 0b3e 75a1 05be 131e 3c3e e4d4 a9bd
00000380: c3a6 05be 7b0f fd3d cd09 853b 26ac 8cbd
00000390: e051 903c d636 053c 1a4e 0fbe 2935 8bbd
000003a0: 24f9 85bd fe45 d8bd 1f29 153e 97ed 513e
000003b0: ffa2 113e 37cf 193e cf4c f53c 1e6b d13d
000003c0: 87ce 613e 2150 933d 639e a0bd d9b1 16be
000003d0: 304d 27bd 4f4b 29be ac45 b33c 3cfb b23b
000003e0: 9193 b0bd 7ca3 01bc 8e46 caba 1644 643d
000003f0: 261c 3bbd 23e9 f9bd c65f 54bd 3f7f 683d

conv_block_1.2.bias f4 [10]
0.2736354 -0.06384359 -0.045188047 0.015059869 0.20370202 0.5393694 0.0025659753 0.13612941
0.010387375 0.07622067
00000000: f019 8c3e 6ec0 82bd 1a17 39bd abbd 763c
00000010: 4397 503e 1d14 0a3f ec29 283b 8265 0b3e
00000020: cf2f 2a3c 9519 9c3d

conv_block_2.0.weight f4 [10, 10, 3, 3]
0.06950484 0.05140242 -0.07365009 0.022365915 -0.0653178 0.088740125 0.016224673 -0.17129295
0.027864715 0.09763311 -0.06002065 0.0013177034 -0.042447276 0.113172784 0.06416165 -0.03757964
-0.074091636 0.068592496 -0.020471124 -0.032316066 0.13055387 0.18849233 0.09862166 0.035146195
0.096483774 -0.13515814 0.00655433 0.24210091 0.027823277 -0.12671724 -0.18260026 -0.13063024
-0.12849417 -0.052220076 -0.054397978 -0.032492656 0.03589437 0.020038383 -0.15435034 -0.09402986
-0.061338503 -0.16331159 -0.19480066 -0.22663443 -0.024238007 0.2381765 0.2042054 -0.05517199
0.0074673886 -0.1526391 0.093069114 -0.29571566 0.03556021 0.22919264 0.10824444 0.21927264
0.14052643 0.035878755 -0.07021135 -0.21536128 -0.019959403 -0.05021582 0.02919809 0.026642898
0.013483508 0.015217007 -0.06106918 0.06189284 0.1334384 -0.18015416 -0.08130421 -0.10512957
0.021719495 -0.0026150553 0.048210673 0.047687326 -0.054876927 -0.051521167 -0.020250427 -0.039138354
-0.008662337 -0.07772051 -0.017468484 0.15730694 0.10619863 0.15715277 -0.15829197 0.038627096
-0.11188202 -0.24542908 0.24605173 0.028170219 -0.10489118 0.42048925 0.14144705 0.004551813
0.036202982 -0.14208764 0.13287117 0.25974977 0.08787166 -0.0245539 -0.18673278 0.07425054
0.032837182 -0.034254253 0.07795578 0.07603698 -0.13532215 0.10190752 0.14824674 0.024514874
0.044917714 0.23090646 -0.027866952 -0.05262568 -0.0428997 0.065380715 -0.009573688 0.11533922
0.03460122 0.03355604 0.07377998 -0.01453802 0.06794658 -0.04989132 0.31353715 0.19337298
-0.04728982 -0.05067224 0.15369678 -0.18592462 0.046574183 -0.13398 0.033845857 0.3394551
0.2220081 0.12378614 0.77750397 0.272985 -0.4077704 -0.44085044 -0.4639021 -0.2719611
-0.11223366 -0.07856566 0.27865297 0.11585508 0.0724192 0.054646347 0.11115997 -0.12059364
-0.3367923 0.000742041 0.11487109 -0.18615927 -0.28982025 -0.28379327 -0.10597015 -0.1431966
0.39070553 0.011156992 -0.04319822 -0.11478942 0.101272754 -0.06600438 -0.086473614 0.074278146
0.17163976 0.17584358 0.085448824 -0.3562891 -0.25587672 0.11352531 -0.46849975 -0.03579712
0.27048528 0.22866462 0.20748608 -0.20326672 0.11703608 0.1504793 0.10270852 0.26977804
-0.16827181 -0.11932452 0.27203292 -0.072020374 -0.089809895 -0.111784846 -0.02827494 0.07666498
-0.055493385 -0.031090861 0.13684346 0.057862185 -0.018560903 0.02798676 -0.05751878 0.045001213
0.2945264 -0.068492055 0.07983754 0.097841755 -0.058962278 0.13644785 -0.17623024 0.12625396
-0.020697348 -0.37066886 -0.16665702 -0.07626817 -0.23383942 -0.13534354 -0.29731533 0.04979717
0.041329898 0.2523661 -0.33131927 0.09669676 -0.2100491 -0.3846497 0.5058931 -0.14129055
-0.005756983 0.18861575 0.14974144 0.08400259 -0.15113467 -0.38635102 -0.35791922 0.09486599
-0.3776768 0.39031824 -0.018736692 0.07600037 0.12911184 -0.2891347 -0.24491592 -0.2626857
-0.25549334 -0.25684512 -0.073722 -0.09395569 -0.13943408 -0.10550119 0.008880091 -0.10242427
0.18134455 -0.08105994 0.0828625 0.2967816 0.06657127 -0.1014289 0.03668154 -0.040004622
00000000: 8e58 8e3d 588b 523d dcd5 96bd b938 b73c
00000010: 57c5 85bd 62bd b53d 9be9 843c 6b67 2fbe
00000020: 8b44 e43c def3 c73d 37d8 75bd cab6 ac3a
00000030: 32dd 2dbd 22c7 e73d 2f67 833d 1ced 19bd
00000040: 5bbd 97bd 397a 8c3d 0fb3 a7bc da5d 04bd
00000050: eaaf 053e 2204 413e 27fa c93d 75f5 0f3d
00000060: 4999 c53d e566 0abe b4c5 d63b 4de9 773e
00000070: a4ed e33c 2ac2 01be 90fb 3abe efc3 05be
00000080: fa93 03be b8e4 55bd 6ad0 5ebd 0517 05bd
00000090: fa05 133d 8927 a43c 040e 1ebe ba92 c0bd
000000a0: 153e 7bbd 273b 27be d379 47be db12 68be
000000b0: c98e c6bc 8ae4 733e 381b 513e 06fc 61bd
000000c0: ffb0 f43b 6d4d 1cbe 059b be3d 0b68 97be
000000d0: 95a7 113d 7ab1 6a3e 43af dd3d 0289 603e
000000e0: 29e6 0f3e 9af5 123d f8ca 8fbd ab87 5cbe
000000f0: e781 a3bc 1baf 4dbd d530 ef3c 3542 da3c
00000100: eee9 5c3c c150 793c ad23 7abd 5983 7d3d
00000110: 13a4 083e 557a 38be d282 a6bd 2c4e d7bd
00000120: 15ed b13c 5961 2bbb 8e78 453d c953 433d
00000130: a1c6 60bd dc07 53bd 39e4 a5bc 8a4f 20bd
00000140: 7aec 0dbc ee2b 9fbd 111a 8fbc 1215 213e
00000150: ab7e d93d a8ec 203e 4a17 22be 7237 1e3d
00000160: 6722 e5bd c351 7bbe fcf4 7b3e 3bc5 e63c
00000170: 30d1 d6bd 5e4a d73e 7fd7 103e 6027 953b
00000180: 9449 143d 6c7f 11be 610f 083e ecfd 843e
00000190: 0ff6 b33d 4325 c9bc e136 3fbe ab10 983d
000001a0: 4880 063d 304e 0cbd 48a7 9f3d 47b9 9b3d
000001b0: e491 0abe e4b4 d03d fecd 173e 6bd3 c83c
000001c0: a3fb 373d be72 6c3e 3c49 e4bc 068e 57bd
000001d0: 99b7 2fbd 53e6 853d f5da 1cbc f836 ec3d
000001e0: 02ba 0d3d 0f72 093d f519 973d e030 6ebc
000001f0: 9427 8b3d d75a 4cbd f187 a03e 9103 463e
00000200: f8b2 41bd b28d 4fbd b062 1d3e 0663 3ebe
00000210: 92c4 3e3d 0e32 09be f4a1 0a3d 0fcd ad3e
00000220: 1756 633e 9683 fd3d 800a 473f b1c4 8b3e
00000230: 48c7 d0be 26b7 e1be 9384 edbe 7c3e 8bbe
00000240: c3da e5bd 08e7 a0bd 9aab 8e3e 6e45 ed3d
00000250: 8450 943d d9d4 5f3d d7a7 e33d ccf9 f6bd
00000260: 0a70 acbe 8785 423a 8941 eb3d 89a0 3ebe
00000270: 5263 94be 5a4d 91be e106 d9bd 21a2 12be
00000280: 8e0a c83e d1cb 363c 9ef0 30bd b716 ebbd
00000290: 1768 cf3d 4e2d 87bd 1419 b1bd 241f 983d
000002a0: 55c2 2f3e 5710 343e cbff ae3d 866b b6be
000002b0: 4602 83be f57f e83d 33df efbe 00a0 12bd
000002c0: 0c7d 8a3e 0f27 6a3e 3b77 543e 2725 50be
000002d0: 9db0 ef3d 3f17 1a3e d858 d23d 5920 8a3e
000002e0: 724f 2cbe 6a60 f4bd e647 8b3e 6b7f 93bd
000002f0: 40ee b7bd 74ef e4bd d9a0 e7bc 8702 9d3d
00000300: 084d 63bd 43b2 febc b120 0c3e e600 6d3d
00000310: 090d 98bc 7d44 e53c d098 6bbd 3153 383d
00000320: 2acc 963e 9045 8cbd dd81 a33d 4261 c83d
00000330: 6e82 71bd fcb8 0b3e b375 34be b848 013e
00000340: 7c8d a9bc 4fc8 bdbe 23a8 2abe 7c32 9cbd
00000350: 9a73 6fbe 7f97 0abe b739 98be 1ef8 4b3d
00000360: 8a49 293d 2136 813e aea2 a9be f308 c63d
00000370: 1c17 57be cef0 c4be 3682 013f 78ae 10be
00000380: 13a5 bcbb 7d24 413e d255 193e 8d09 ac3d
00000390: 0cc3 1abe cdcf c5be 3041 b7be 1a49 c23d
000003a0: db5e c1be cbd7 c73e b17d 99bc 15a6 9b3d
000003b0: e535 043e 7709 94be 3dcb 7abe bd7e 86be
000003c0: 06d0 82be 3481 83be 8ffb 96bd d76b c0bd
000003d0: cfc7 0ebe 0211 d8bd cd7d 113c d1c3 d1bd
000003e0: 63b2 393e c102 a6bd d0b3 a93d c2f3 973e
000003f0: 8556 883d f5b9 cfbd 623f 163d e3db 23bd

conv_block_2.0.bias f4 [10]
-0.17911434 -0.023132086 0.14139313 0.060206212 0.09840484 0.15714514 0.25993013 -0.10541727
0.045270946 0.13841076
00000000: c069 37be 807f bdbc 5cc9 103e ca9a 763d
00000010: 7a88 c93d a8ea 203e 9015 853e 02e5 d7bd
00000020: 076e 393d 8dbb 0d3e

conv_block_2.2.weight f4 [10, 10, 3, 3]
-0.16762541 -0.07424709 -0.069617964 -0.05944508 -0.000507781 0.0026581653 0.056637134 -0.061977938
-0.010333941 -0.1199802 -0.22908881 -0.25131997 -0.25022265 -0.10639019 0.16302924 -0.34199238
0.23568116 0.3522567 0.2980759 0.011191984 -0.14619927 -0.116014116 -0.095352665 -0.17267478
-0.30587158 -0.0713615 0.2547279 -0.0033292468 0.36001638 0.04852296 0.40804076 0.12376218
-0.34304348 0.4579851 -0.2365323 -0.39717484 -0.3678292 -0.2780621 -0.50429755 -0.22010317
-0.008762796 -0.18822995 0.17217375 -0.46085453 -0.33773088 -0.04658102 -0.117453426 0.058692534
-0.009541525 0.031361345 0.1638481 -0.06073329 -0.033254858 0.2372775 -0.056927383 -0.029117536
-0.29000628 -0.0646808 0.0026012426 -0.1456272 -0.10835758 -0.37515488 -0.44701743 -0.020632947
-0.036689278 -0.073957086 0.016767323 -0.0077338284 -0.056259327 0.011902367 -0.089346215 -0.051232357
0.06595042 -0.007799065 -0.07323684 0.02335764 -0.065544404 -0.12680557 0.13273628 0.06634548
-0.12660472 -0.016540684 -0.18937328 -0.23951484 -0.2961316 -0.28297988 0.19460776 -0.1363509
0.087978646 0.0055954973 -0.2250322 -0.14345805 -0.113121755 -0.13997918 0.064878315 0.046787214
-0.14899626 0.26506925 0.09630895 0.039788093 0.0015969509 -0.028326042 0.1300246 0.13460061
0.093160994 0.0036150743 -0.31048924 -0.01597137 -0.8599751 -0.7230433 -0.5858839 0.22206658
-0.023931848 -0.14459622 0.23866731 0.09272737 0.15975988 -0.2187352 0.0047855885 0.0841142
-0.2249817 -0.61176205 -0.5986778 0.003255629 0.09389083 0.080411136 -0.05125816 0.113282785
0.48671892 0.09154703 -0.04037026 -0.13569984 -0.18905239 -0.38419774 -0.23940301 0.39572555
0.033416994 0.13386932 -0.057897955 -0.095642865 0.0053186705 0.017865334 0.047272112 0.0417863
0.24373975 -0.060240246 -0.38297236 0.1590068 -0.056184355 0.13511164 -0.046309274 0.18915392
0.0403644 -0.013597002 0.0025634787 -0.08571428 0.041374866 -0.02870494 0.054712582 0.08074262
-0.08846536 -0.07449071 0.0883337 0.051099937 -0.001470816 -0.05828961 -0.055890314 -0.053761568
-0.02436912 0.022124264 0.014396721 0.5977587 0.035221577 -0.047924794 -0.1300975 0.1940359
-0.14253668 -0.46144667 -0.39744768 -0.44469315 0.16220956 -0.04502686 0.058944646 -0.076713294
-0.28554028 -0.07134867 0.0040680617 -0.24233371 -0.18082824 -0.2527369 -0.43366146 0.05575106
-0.21847224 -0.648234 -0.19050299 -0.13573205 -0.587798 -0.4568504 0.35085654 -0.44555303
-0.26354504 0.09499823 -0.24251433 -0.17027684 0.008903529 -0.26595247 -0.21577053 -0.37333116
0.2712955 0.12927593 -0.44800046 0.051693007 -0.28755337 -0.108467326 -0.112760395 -0.20644103
-0.16862705 0.1793449 -0.17419004 -0.32542852 0.24799782 0.1628641 -0.29314834 0.16229643
0.25448596 -0.091805145 -0.1651542 0.01898272 0.079570405 -0.15441161 -0.0916314 0.09743655
-0.06396353 -0.079586945 0.13849433 0.12977861 -0.00835054 -0.31648523 0.25946328 0.20834215
-0.11713589 0.34880272 0.18153001 -0.10727956 -0.07790855 0.004680264 0.04968767 -0.013714788
0.0022595145 0.059807282 0.09611479 -0.02745339 0.018202808 0.025833758 0.01472599 -0.08245526
00000000: ffa5 2bbe dc0e 98bd dd93 8ebd af7c 73bd
00000010: 9b1c 05ba 9d34 2e3b 57fc 673d 94dc 7dbd
00000020: b14f 29bc 2eb8 f5bd 4296 6abe 03ad 80be
00000030: 2f1d 80be 1ae3 d9bd 23f1 263e a019 afbe
00000040: 6756 713e fd5a b43e 689d 983e 955e 373c
00000050: 43b5 15be cf98 edbd 4248 c3bd a8d1 30be
00000060: 339b 9cbe fa25 92bd b26b 823e 7e2f 5abb
00000070: 1154 b83e 03c0 463d b8ea d03e 0777 fd3d
00000080: 65a3 afbe 067d ea3e 8635 72be 805a cbbe
00000090: 1c54 bcbe 285e 8ebe a519 01bf ba62 61be
000000a0: d591 0fbc 5abf 40be 514e 303e 20f5 ebbe
000000b0: 10eb acbe bdcb 3ebd 6c8b f0bd 9567 703d
000000c0: 0e54 1cbc c174 003d ccc7 273e 78c3 78bd
000000d0: 3f36 08bd dff8 723e b02c 69bd e687 eebc
000000e0: b47b 94be 5e77 84bd 9c79 2a3b 4c1f 15be
000000f0: 94ea ddbd 4d14 c0be 78df e4be 6d06 a9bc
00000100: 7f47 16bd d076 97bd a05b 893c 0e6c fdbb
00000110: 2e70 66bd 2502 433c 26fb b6bd 05d9 51bd
00000120: 0411 873d 4d8f ffbb 32fd 95bd 8558 bf3c
00000130: 253c 86bd 52d9 01be 05ec 073e 24e0 873d
00000140: aba4 01be 5480 87bc 12eb 41be 6143 75be
00000150: 909e 97be bde2 90be 4247 473e 929f 0bbe
00000160: 262e b43d 6f5a b73b d76e 66be abe6 12be
00000170: 61ac e7bd b456 0fbe ecde 843d f3a3 3f3d
00000180: 7a92 18be 28b7 873e a03d c53d d7f8 223d
00000190: c850 d13a 040c e8bc 2b25 053e bed4 093e
000001a0: 31cb be3d e2ea 6c3b 72f8 9ebe 64d6 82bc
000001b0: 5427 5cbf 5e19 39bf 7dfc 15bf 6c65 633e
000001c0: b90c c4bc 0811 14be 3465 743e d9e7 bd3d
000001d0: 1898 233e 1ffc 5fbe 6dd0 9c3b 1144 ac3d
000001e0: 9a61 66be 709c 1cbf f342 19bf 645c 553b
000001f0: d649 c03d 98ae a43d 14f4 51bd ce00 e83d
00000200: 3933 f93e 027d bb3d 495b 25bd e6f4 0abe
00000210: f396 41be 91b5 c4be 1026 75be 8a9c ca3e
00000220: 42e0 083d 0a15 093e 6826 6dbd 68e0 c3bd
00000230: 3e48 ae3b 525a 923c 67a0 413d 1c28 2b3d
00000240: ea96 793e 7abe 76bd f414 c4be aed2 223e
00000250: 9121 66bd b55a 0a3e cbae 3dbd 91b1 413e
00000260: 2455 253d f6c5 5ebc 0900 283b f88a afbd
00000270: b178 293d 9f26 ebbc 4d1a 603d 635c a53d
00000280: 542d b5bd 968e 98bd 4de8 b43d 2b4e 513d
00000290: 65c8 c0ba 16c1 6ebd 3eed 64bd 1735 5cbd
000002a0: c0a1 c7bc f23d b53c 39e0 6b3c b706 193f
000002b0: 8044 103d ca4c 44bd 4738 05be 59b1 463e
000002c0: 23f5 11be bd42 ecbe 437e cbbe d2ae e3be
000002d0: 431a 263e 166e 38bd f16f 713d dc1b 9dbd
000002e0: 5632 92be 401f 92bd 604d 853b 5426 78be
000002f0: 0a2b 39be bb66 81be e008 debe 395b 643d
00000300: 30b7 5fbe aaf2 25bf 3713 43be 58fd 0abe
00000310: ee79 16bf 4ce8 e9be 78a3 b33e 871f e4be
00000320: 60ef 86be 6f8e c23d ad55 78be 0d5d 2ebe
00000330: 1be0 113c ec2a 88be f3f2 5cbe 4325 bfbe
00000340: 3ee7 8a3e e960 043e 5160 e5be 0cbc 533d
00000350: 323a 93be 1e24 debd ecee e6bd 4765 53be
00000360: 92ac 2cbe 31a6 373e e05e 32be 919e a6be
00000370: 24f3 7d3e d9c5 263e 8a17 96be 0931 263e
00000380: fc4b 823e 5604 bcbd 2f1e 29be a681 9b3c
00000390: cff5 a23d 141e 1ebe 3ea9 bbbd d08c c73d
000003a0: 50ff 82bd 7bfe a2bd 75d1 0d3e afe4 043e
000003b0: b4d0 08bc 5a0a a2be 5fd8 843e a557 553e
000003c0: f1e4 efbd 4596 b23e 01e3 393e 63b5 dbbd
000003d0: 858e 9fbd e65c 993b 4c85 4b3d fdb3 60bc
000003e0: 5d14 143b 7bf8 743d d5d7 c43d efe5 e0bc
000003f0: 0e1e 953c 51a1 d33c 4745 713c 4ede a8bd

conv_block_2.2.bias f4 [10]
0.0022788488 0.21166736 0.25371343 0.182309 0.124664314 -0.08109982 -0.16379617 -0.026395245
0.19901945 -0.241817
00000000: bd58 153b 54bf 583e bae6 813e 36af 3a3e
00000010: 0150 ff3d aa17 a6bd 2fba 27be d73a d8bc
00000020: c1cb 4b3e e09e 77be

classifier.1.weight f4 [10, 490]
-0.04462004 -0.08877142 -0.12823997 0.042640537 -0.17838754 -0.077913366 0.00019216842 -0.044058926
-0.011561896 -0.20679705 -0.0662497 -0.09945463 -0.20719908 -0.049291216 -0.010470547 0.24414597
0.16316065 0.25752598 -0.26485476 -0.118953966 0.07132492 -0.013405838 0.164129 0.34937757
-0.11912551 0.121056214 0.28662914 -0.0041360715 -0.05422522 0.001856308 -0.009349471 0.23581097
0.17594917 -0.009314705 0.010989069 -0.01788134 -0.09987923 -0.13154656 -0.022102533 0.017229373
-0.027531797 0.015939299 0.01655397 0.007324194 -0.03861817 -0.006104233 -0.027518522 0.015039757
-0.012979061 0.018869445 0.055706833 -0.012267122 0.09045298 0.061881647 0.0076966546 0.014222342
0.008731327 -0.109358504 -0.27237937 -0.005160604 -0.09215471 -0.052487902 0.01882304 -0.10703663
-0.18588994 -0.102100916 0.075735904 0.04422241 -0.02688918 -0.07431852 -0.0385886 -0.392666
-0.38471216 -0.22501124 -0.08041864 -0.00945854 -0.11737065 0.08848453 0.10555162 -0.10162608
-0.22184889 -0.10135504 -0.013114869 0.083816536 0.05152524 0.14449543 0.17291406 0.22886564
0.003988106 -0.18615563 -0.041024238 0.015612479 0.023301812 0.27539983 0.23165317 -0.046750344
-0.2437728 -0.035959788 -0.03902163 -0.12728763 -0.014082226 0.03280626 -0.014917253 0.003779502
0.02457956 -0.09291559 -0.1404494 -0.17126542 -0.0060439543 0.05145877 0.0016932095 -0.05441619
0.0091090975 0.12466482 -0.081830524 -0.07249078 0.23917957 0.3222136 -0.06944399 0.27071592
0.24978939 0.036011375 -0.16159895 0.2411229 0.29155698 -0.11968999 0.16582486 0.104027115
0.3252734 -0.104651295 0.01356086 0.09118628 -0.05832551 -0.002913394 0.22850671 0.20799862
-0.24305573 -0.29967993 -0.03600715 -0.03279896 -0.0031288236 -0.06391065 -0.048699144 -0.11341184
-0.061456162 -0.05146636 -0.04918892 0.012812217 -0.08761192 -0.17595114 -0.01232641 0.11088387
0.14198174 -0.09956909 -0.051191147 -0.017705364 0.0058015944 0.2084494 0.33825073 0.19645551
0.15729444 0.043531127 0.03322835 -0.058375664 -0.14307028 0.11699202 0.04738885 0.10262288
-0.028054332 -0.19740759 -0.21517617 -0.18170236 -0.33270878 -0.25496957 0.0019058154 0.025771415
-0.31295148 -0.18915725 0.19241017 0.1329447 -0.23724616 -0.23959823 0.019943196 -0.05275588
0.029571746 0.308149 -0.0736937 -0.13897382 -0.06639784 -0.014777585 -0.025031809 -0.032581232
-0.0034334601 0.044443537 -0.008539112 0.0028192105 0.015508491 0.011359772 -0.033386793 -0.037943292
-0.113064274 -0.04974398 -0.0075173876 0.02546835 -0.116649866 -0.063662134 -0.0665552 -0.28519434
-0.0932511 -0.0043171337 -0.009513992 0.11296595 0.12404473 -0.027985943 -0.2663096 0.22180817
0.06370911 -0.04052369 0.15132046 0.3089678 -0.21395898 0.23860155 0.34936503 0.06088178
0.014373797 0.047788624 0.039403398 -0.19787215 -0.07372805 0.27466848 -0.019113386 0.03042437
0.09173251 -0.15710524 -0.49098378 -0.45508316 -0.21800412 -0.054457456 0.02945435 -0.03193724
0.039092746 -0.12489677 -0.26882923 -0.06561263 -0.019524094 0.009227164 -0.043003973 0.0033099377
-0.020786664 0.0017749743 -0.020472186 0.0047771796 0.020621464 -0.030711228 0.026978709 0.10279196
00000000: 81c3 36bd cacd b5bd 5751 03be d8a7 2e3d
00000010: 39ab 36be 0b91 9fbd d180 4939 2277 34bd
00000020: 1b6e 3dbc 9bc2 53be ecad 87bd deae cbbd
00000030: ff2b 54be 96e5 49bd a88c 2bbc 6701 7a3e
00000040: 9613 273e 72da 833e 0b9b 87be 239e f3bd
00000050: cd12 923d 29a4 5bbc 6f11 283e 9ee1 b23e
00000060: 13f8 f3bd 52ec f73d 0ec1 923e e287 87bb
00000070: 441b 5ebd 5c4f f33a 862e 19bc 6e78 713e
00000080: 052c 343e b49c 18bc 7f0b 343c e37b 92bc
00000090: 7b8d ccbd 24b4 06be 5f10 b5bc 9d24 8d3c
000000a0: 5d8a e1bc 2293 823c 319c 873c cbff ef3b
000000b0: 162e 1ebd 0506 c8bb 866e e1bc 5069 763c
000000c0: 21a6 54bc 1894 9a3c d92c 643d 0afc 48bc
000000d0: 693f b93d 9c77 7d3d 3834 fc3b d304 693c
000000e0: d70d 0f3c 5af7 dfbd 4f75 8bbe 491a a9bb
000000f0: 9cbb bcbd 8efd 56bd c732 9a3c 0536 dbbd
00000100: ef59 3ebe 491a d1bd 6d1b 9b3d 8f22 353d
00000110: b346 dcbc 4f34 98bd 140f 1ebd 850b c9be
00000120: fef8 c4be 5969 66be 87b2 a4bd fef7 1abc
00000130: 0660 f0bd 6137 b53d 732b d83d 5621 d0bd
00000140: 5b2c 63be 3b93 cfbd bfdf 56bc 01a8 ab3d
00000150: 210c 533d 9cf6 133e 6210 313e c15b 6a3e
00000160: a8ae 823b 959f 3ebe 0809 28bd 7ccb 7f3c
00000170: 71e3 be3c 3501 8d3e 7d36 6d3e 4a7d 3fbd
00000180: 949f 79be 924a 13bd 25d5 1fbd b057 02be
00000190: 23b9 66bc db5f 063d 7e67 74bc 85b1 773b
000001a0: 135b c93c 874a bebd f8d1 0fbe 3460 2fbe
000001b0: 5d0c c6bb 6ec6 523d afee dd3a 83e3 5ebd
000001c0: 533e 153c 4550 ff3d c396 a7bd 0c76 94bd
000001d0: 7deb 743e 2ef9 a43e a738 8ebd 479b 8a3e
000001e0: cac8 7f3e aa80 133d 327a 25be ece8 763e
000001f0: f546 953e 0720 f5bd fecd 293e 2b0c d53d
00000200: 3c8a a63e 6b53 d6bd 5f2e 5e3c dfbf ba3d
00000210: bbe6 6ebd a4ee 3ebb aafd 693e 97fd 543e
00000220: 9ae3 78be a66f 99be 3c7c 13bd 3458 06bd
00000230: f30c 4dbb 96e3 82bd c178 47bd 7744 e8bd
00000240: 75b9 7bbd 64ce 52bd 527a 49bd 55ea 513c
00000250: e16d b3bd 892c 34be b6f4 49bc 1517 e33d
00000260: a963 113e e1ea cbbd cfad 51bd d70a 91bc
00000270: 4d1b be3b c273 553e 332f ad3e a22b 493e
00000280: cb11 213e b24d 323d 731a 083d 521b 6fbd
00000290: 0481 12be 8399 ef3d d01a 423d f22b d23d
000002a0: 33d2 e5bc 3725 4abe 2457 5cbe 2f10 3abe
000002b0: ce58 aabe 5f8b 82be 8ecc f93a 931e d33c
000002c0: 2d3b a0be 70b2 41be 2c07 453e a822 083e
000002d0: a8f0 72be 3d59 75be ea5f a33c 8d16 58bd
000002e0: 7240 f23c b5c5 9d3e b9ec 96bd 274f 0ebe
000002f0: 97fb 87bd af1d 72bc 820f cdbc e673 05bd
00000300: e703 61bb 6d0a 363d a2e7 0bbc 81c2 383b
00000310: 5317 7e3c 561e 3a3c 97c0 08bd 6d6a 1bbd
00000320: 3e8e e7bd 58c0 4bbd 6b54 f6bb 00a3 d03c
00000330: 20e6 eebd 4b61 82bd 184e 88bd fe04 92be
00000340: 6ffa bebd be76 8dbb 93e0 1bbc b15a e73d
00000350: 2a0b fe3d c742 e5bc bb59 88be ae21 633e
00000360: ec79 823d 2bfc 25bd c0f3 1a3e 0731 9e3e
00000370: 1018 5bbe f753 743e f9df b23e 2c5f 793d
00000380: 1380 6b3c 01be 433d 7565 213d ff9e 4abe
00000390: bbfe 96bd 59a1 8c3e ad93 9cbc 873c f93c
000003a0: 41de bb3d 32e0 20be 3a62 fbbe a900 e9be
000003b0: 793c 5fbe c80e 5fbd 404a f13c a0d0 02bd
000003c0: b71f 203d e1c9 ffbd fca3 89be ea5f 86bd
000003d0: fef0 9fbc 882d 173c ef24 30bd 8aeb 583b
000003e0: cb48 aabc 41a6 e83a 49b5 a7bc e389 9c3b
000003f0: 58ee a83c 1d96 fbbc 7402 dd3c 9784 d23d

classifier.1.bias f4 [10]
-0.06816188 0.4070625 0.017571831 0.030658625 -0.04584401 -0.07023178 0.040888652 0.0759669
-0.18548808 -0.059314445
00000000: 7598 8bbd 7f6a d03e cdf2 8f3c cc27 fb3c
00000010: eec6 3bbd aed5 8fbd dc7a 273d 8994 9b3d
00000020: 96f0 3dbe b4f3 72bd
