model_weights/model_epoch_4.pth (torch, 34439 bytes, 10 tensors)

conv_block_1.0.weight f4 [10, 1, 3, 3]
000000 8a e3 04 bf 0f 51 0e 3e 1a 72 41 be 61 75 1e be
       -0.519097 0.13898109 -0.18891183 -0.15474464
000010 f1 2a c2 3e 88 02 05 3f 98 2b b7 be 69 c8 04 bd
       0.37923387 0.5195699 -0.35775447 -0.03241769
000020 9c 11 a3 3e 70 ea 4b bd 88 07 97 bd 3d fd 52 be
       0.31849372 -0.049784124 -0.07374483 -0.20604415
000030 d3 6e 07 be f1 1a 6a bc 1c 7d 94 be 54 9f 1f 3e
       -0.1322587 -0.01428865 -0.290017 0.15588123
000040 75 a4 d5 bd 9c ca 96 3d d2 85 96 be e4 48 c0 be
       -0.10431758 0.073628634 -0.29398972 -0.3755561
000050 17 2a 04 bd cb 14 5b 3d b4 a0 60 3e c3 2d b9 3e
       -0.032266703 0.053486627 0.21936303 0.36167726
000060 7a 9c 18 3e 9b 9d 37 be c0 1a cd be ca 2c 0a 3e
       0.14903441 -0.17931215 -0.4005947 0.13493648
000070 d7 7e 9e 3d 61 65 be 3d a6 e6 f4 3e 41 c8 5f bd
       0.077390365 0.0929668 0.4783222 -0.054634336
000080 54 af 9f be 72 26 83 3e 7d 97 06 bf 3e af 94 be
       -0.31188452 0.2561527 -0.525749 -0.2903995
000090 69 2d 56 bd 0c 11 35 3e d7 32 7f be 15 2c 68 3e
       -0.0522894 0.17682284 -0.24921738 0.22673066
0000a0 71 08 a5 3e 55 9f 18 3e a7 eb 2b 3e f0 8f f5 3d
       0.32233003 0.1490453 0.16789113 0.119903445
0000b0 b7 b3 dc bd 1d cc 38 bf 98 ac 24 3e 53 c7 1b 3e
       -0.107764654 -0.7218645 0.16081464 0.15212755
0000c0 1b 7f 23 3e 02 bc ce 3e 77 2d 36 be 6c 23 b6 3d
       0.15966456 0.40377814 -0.17790781 0.08893475
0000d0 dc 83 50 3d 21 94 8f 3e 50 6e 08 3f d2 64 dd 3d
       0.050907 0.280427 0.53293324 0.108102456
0000e0 ec f6 a6 be a6 a2 15 be 16 e2 08 bf 26 cb 20 bf
       -0.3261026 -0.14612827 -0.5346998 -0.6280998
0000f0 e8 2a e7 be fc 7f 16 bf 11 14 82 3e e7 4d a0 3e
       -0.45149922 -0.5878904 0.25405934 0.31309435
000100 3d 67 b9 3c 43 16 2f bf e4 42 cf 3e 91 5a d2 be
       0.022632236 -0.68393344 0.4048072 -0.41084722
000110 55 da d9 be 15 71 b6 3c ea a0 9a 3e bb 29 fe 3e
       -0.42549387 0.022270719 0.30200893 0.49641213
000120 55 30 87 be 13 03 56 be 42 71 d0 bd 22 f8 98 3e
       -0.26404062 -0.2089961 -0.10177852 0.2987681
000130 26 7c 88 3d c0 38 78 be 20 92 a9 be a6 cc 8c be
       0.066643044 -0.24240398 -0.33119297 -0.27499884
000140 ef f4 74 3e 31 6b 4c bf 5e 18 93 bf 45 b3 ef be
       0.2392156 -0.7985106 -1.1491811 -0.4681646
000150 84 34 28 bd 64 ed e4 be 28 b3 bf 3e 88 ec 5a 3f
       -0.041065708 -0.44712365 0.37441373 0.8551717
000160 20 8a 30 3f 00 97 c6 3e
       0.6896076 0.3878708

conv_block_1.0.bias f4 [10]
000000 16 5b 21 be 00 f0 08 be 93 68 cf 3b 1e 4f a5 bd
       -0.15757403 -0.13372803 0.006329605 -0.08071731
000010 16 e8 c1 bd cf fc c8 bd 3b fe 2e 3e 0c f1 18 be
       -0.09468095 -0.098138444 0.17089169 -0.14935702
000020 49 9e 1d 3d 24 67 b3 3e
       0.03848103 0.35039628

conv_block_1.2.weight f4 [10, 10, 3, 3]
000000 17 fc ea bc ec 12 f0 bd 45 3e 58 bd 49 18 86 bd
       -0.028684659 -0.11722359 -0.05279376 -0.06547601
000010 ae 1e 9e 3d 78 98 36 bc 28 d5 9d bd 25 88 a0 3c
       0.077206954 -0.01114475 -0.07706672 0.019596169
000020 04 67 f9 bc e9 04 3b bd e6 f1 a6 3d 02 83 7f bd
       -0.03044463 -0.04565898 0.08151607 -0.0623808
000030 83 f0 a0 3c e7 ec a9 3d 94 2e b3 bd 7f 12 c7 3d
       0.019645935 0.08297139 -0.087491184 0.09720325
000040 4d 35 9a bd 36 e1 60 3d 06 3c e8 3b ab dc 0b bd
       -0.075296976 0.054902278 0.0070872335 -0.034145992
000050 38 a1 b1 3d 10 07 a6 3d c7 2d e7 3c be ab b1 bc
       0.08673328 0.08106816 0.02822007 -0.021688338
000060 07 b5 78 bb 95 2d c1 3d 6e 0a af bd 66 eb 98 bd
       -0.0037949698 0.09432522 -0.08546911 -0.07466774
000070 d8 e8 9c bd 16 3e a6 bd 89 73 f0 3c 19 7c bf bb
       -0.07661599 -0.08117311 0.029351966 -0.005843651
000080 4c 82 ab 3c 39 2a 2f bd 3a 16 07 bc 77 b5 5a bc
       0.020936154 -0.042764876 -0.008245045 -0.013348929
000090 cf 62 ea bc e9 b5 91 3c 47 13 c3 bc f4 25 d7 bd
       -0.028611569 0.017786937 -0.023812903 -0.10505286
0000a0 42 a0 79 3d a7 8b c8 bd 34 50 94 bd 24 98 b8 bd
       0.06094385 -0.097922616 -0.0724186 -0.090133935
0000b0 d8 89 50 3c 6c d8 a0 3d f5 74 7e bc 23 d1 00 bd
       0.012728177 0.07853779 -0.015530814 -0.03144945
0000c0 b3 70 1f bd 22 04 0e 3d 7c f0 5b bc 23 1b 47 bd
       -0.038925838 0.03467191 -0.013424035 -0.048609864
0000d0 a9 8a 81 bc 56 88 94 bc a3 31 b2 bd 63 ee 69 bd
       -0.015813189 -0.018131416 -0.08700874 -0.05711211
0000e0 ce c4 2b 3d be 4b c5 bd 32 6d 9d bc 7d 9b 05 bd
       0.041935734 -0.09633587 -0.019217107 -0.03261899
0000f0 16 68 cc bd 38 da 56 3d 9f 65 8e bd 0b 95 7f bd
       -0.0998079 0.052454203 -0.069529764 -0.062397998
000100 a3 24 98 3d bb c6 aa 3d b9 f0 a3 bd 89 20 30 3d
       0.07428863 0.08338686 -0.080048986 0.042999778
000110 71 af 9a bd ba c6 0e bd 3c 29 95 bd 5c 2d 97 bc
       -0.07552994 -0.03485749 -0.072832555 -0.018454246
000120 83 42 32 3d 02 a6 73 bd 53 b4 a8 3c 8a b8 a0 bc
       0.04352046 -0.05948449 0.020593798 -0.019619245
000130 e2 88 76 bd aa 0e d3 3d 62 d2 42 bb 67 ae 93 bd
       -0.060189135 0.10305531 -0.0029727449 -0.07210999
000140 99 82 91 bd fb df 12 bd 6d 21 40 3d a9 38 2e 3d
       -0.07104988 -0.035858136 0.046906877 0.042534504
000150 6f 3e 3d 3d 26 5c 8f bd 78 73 d4 bd 90 51 ea 3c
       0.04620212 -0.06999998 -0.103735864 0.028603345
000160 37 b6 97 3d c0 de c4 bd 91 57 29 be 38 31 13 3b
       0.074078016 -0.09612799 -0.1653731 0.0022459757
000170 cc 55 d5 3e 7a 6a a0 be 81 0c 30 be 61 0a 86 3e
       0.4166702 -0.31331235 -0.1719227 0.26179793
000180 b4 41 a9 be ea 15 8e be 83 65 d1 3e c3 c9 b8 bd
       -0.3305794 -0.27751094 0.4089776 -0.09022858
000190 76 a2 8e 3c 37 f6 1b 3d e6 4a 86 3d 64 8c ef 3c
       0.017411452 0.038076606 0.065572545 0.029241748
0001a0 52 c6 12 bd 8a 8f 29 3d 7e 60 ad 3d eb 33 a8 bd
       -0.035833664 0.041396655 0.0846567 -0.082130276
0001b0 24 e5 b8 bd 54 8c 94 3d 47 43 9a bd bf 01 f1 3d
       -0.0902808 0.07253328 -0.075323634 0.11767911
0001c0 2b 53 2e bd d2 28 91 3d 3d 19 4c 3d 1e a8 b1 bd
       -0.042559784 0.07087864 0.049828757 -0.08674644
0001d0 9c b5 9d bd b0 85 06 be 6c 14 06 be 4a 01 7c bb
       -0.07700655 -0.13136935 -0.13093728 -0.0038452917
0001e0 b2 e9 46 bd f8 e6 e3 bd ff 57 21 bc 72 5c 9c 3d
       -0.048562713 -0.11128038 -0.00984764 0.0763482
0001f0 88 f4 0e be 21 61 dd 3c 00 bd e8 bd 0e 8b 47 be
       -0.13960469 0.027023854 -0.11364174 -0.19486639
000200 da 45 13 bd 2c 4d 9e bd 5e c9 dc bd 98 bc 03 be
       -0.035955288 -0.07729563 -0.10780595 -0.12864912
000210 21 49 8c bd 43 66 1a bd c1 99 2a be 81 e4 40 be
       -0.06849886 -0.03769518 -0.16660215 -0.18837167
000220 f9 55 11 be 88 a7 8f 3e bf 83 bd bd ca 06 2e be
       -0.14192952 0.28057504 -0.09253644 -0.16994777
000230 ff 74 3c 3e ed 83 0d be 78 54 08 be e4 c1 c7 3c
       0.18404005 -0.13819857 -0.13313472 0.024384446
000240 1d 67 9b bc 33 2e 1c be c7 ec 41 be d0 62 20 bd
       -0.018970067 -0.15251999 -0.1893798 -0.039156735
000250 74 e0 05 be 16 71 68 be 04 9e de bc c8 80 e2 bd
       -0.13073903 -0.22699389 -0.027174957 -0.11059719
000260 1e ae c0 bd 43 9c 52 ba b4 9d 09 be 14 26 7e be
       -0.0940821 -0.0008034149 -0.13439065 -0.24819213
000270 65 d7 c7 3d ca 45 85 bd a3 2e 28 be fc 93 bf 3d
       0.0975788 -0.06507452 -0.1642404 0.09354398
000280 a4 b6 80 bd 67 2b bd bd 09 d4 2d bd 85 4c 03 be
       -0.06284836 -0.09236794 -0.04243854 -0.12822159
000290 cb 49 e8 bd 88 e1 bd 3c 71 35 bf 3c b3 be cb bb
       -0.113422 0.02317883 0.023340913 -0.0062178015
0002a0 92 45 8d 3c 05 3b a2 bd eb 9e 3a bd 6e 4a d6 bb
       0.017245088 -0.07921413 -0.045561712 -0.0065396344
0002b0 94 c0 3d bd 08 2d 81 be 05 25 a8 3c 4e a2 ea bd
       -0.046326235 -0.2522967 0.020525465 -0.114567384
0002c0 52 e4 24 be 0f 68 49 3b 8a 6c 73 3d 57 76 f1 bd
       -0.16102722 0.003073219 0.059429683 -0.1179015
0002d0 1e da 42 3d 71 ac 7c bd 0e 5d ce be 97 9d 91 3e
       0.047571294 -0.06168789 -0.4030537 0.28440544
0002e0 73 ca 5b 3b 24 e5 af be 61 9c 1b bc 3a 51 1f 3e
       0.0033537417 -0.34354508 -0.009497733 0.15558329
0002f0 e6 12 e7 bd 1f b7 25 39 83 0c d4 bd c9 42 92 3c
       -0.112829015 0.00015803844 -0.10353949 0.017854111
000300 f1 eb 0b bc 60 a2 86 bd 78 33 02 bc 05 07 0c 3d
       -0.0085401395 -0.06573939 -0.007946841 0.03418638
000310 25 60 94 3d 26 4f a9 bd 5b 79 5b bb f9 69 43 3d
       0.072449006 -0.082670495 -0.0033489082 0.047708485
000320 1a c2 a8 bd 32 c1 54 3e 61 70 87 bc 4f c4 b8 bc
       -0.08240147 0.20776823 -0.016533079 -0.022554545
000330 24 e9 6d bd 8c 2c cc bd 92 fd 25 3c 62 11 cf bc
       -0.05808367 -0.09969434 0.010131257 -0.025276843
000340 31 c2 2d be 77 e2 26 3e ec 43 26 be bf 76 b1 bd
       -0.1696861 0.16297327 -0.16236848 -0.08665227
000350 ee 23 20 bc e8 3b 19 3e d1 49 85 3e d2 bd e9 3d
       -0.009774191 0.14964259 0.2603288 0.114131585
000360 a2 ca a4 bd c5 41 2e 3d eb c1 37 be 57 76 0e 3e
       -0.08046462 0.04254319 -0.17945068 0.1391233
000370 0b 8b b9 3d 46 32 98 3d 2f 49 36 3e ba aa 2a 3e
       0.090597235 0.07431464 0.17801355 0.1666669
000380 fd fc d3 3d cc bb 2a be ac cb 81 3c da bc 01 be
       0.10350988 -0.16673201 0.015844189 -0.12669697
000390 a9 c3 dc 3d df 0b 8c 3e 13 33 5b be 55 1e 89 3e
       0.10779507 0.27352807 -0.21406202 0.26780954
0003a0 85 30 35 3e 99 93 a0 be 1c c7 15 3b 71 e8 ce bd
       0.1769429 -0.31362608 0.0022854274 -0.101029284
0003b0 ed 9b 5f 3d f7 4c 45 be 67 31 28 be 35 cd 0a 3e
       0.05459206 -0.19267641 -0.16425095 0.13554843
0003c0 5c bb d1 be 0c de dc be 0e 32 85 be ee 00 06 bd
       -0.40963256 -0.43138158 -0.2601475 -0.03271573
0003d0 3c a1 47 3d cf c1 de 3d 6e bf 07 be f4 95 37 be
       0.04873775 0.1087681 -0.13256618 -0.17928296
0003e0 5a 0d af 3e 48 6b 6a 3d 2b a0 33 3d 4b c8 86 3e
       0.34189874 0.057231218 0.04385392 0.26324686
0003f0 5b e6 c3 3d f3 2f 28 bd cb 84 5d 3c 34 04 cf 3d
       0.09565421 -0.041061353 0.01352043 0.101082236

conv_block_1.2.bias f4 [10]
000000 95 c2 a2 bd 57 3f 5d ba 07 7a 12 3f fc 3d 9f 3c
       -0.0794727 -0.00084399193 0.5721745 0.019438736
000010 4c fb a1 3e ae cd ce bd 0e 61 dc 3e df 88 80 3e
       0.31637037 -0.10097824 0.43042797 0.25104424
000020 f0 95 d0 bd d6 30 bd 3e
       -0.10184848 0.3695132

conv_block_2.0.weight f4 [10, 10, 3, 3]
000000 6b de 39 3d fa dd aa bd 35 e8 86 3d de 01 16 3d
       0.04537813 -0.0834312 0.06587259 0.036622874
000010 91 9c 12 3d e0 0e ff 3c 29 ef d1 bd c7 13 4d 3d
       0.035793845 0.031135023 -0.10250694 0.05006769
000020 57 d0 80 bd 8a fd 5f 3b 76 ee ac bb 8f af 47 bd
       -0.06289738 0.003417822 -0.00527745 -0.04875141
000030 71 7d 87 3d ce d8 45 bd cf d2 80 bd 23 bd d9 bc
       0.06615723 -0.048302464 -0.062902085 -0.026579445
000040 af 86 33 bc ba 7a 96 3d 1f 15 93 3d 2c 1a cb 3c
       -0.010957404 0.07347627 0.07181763 0.024792753
000050 12 98 2c 3d e7 d8 f6 3c aa ec 91 bd b4 e4 d3 3c
       0.042137213 0.030132724 -0.07125218 0.02586589
000060 f0 6e dc bd ac 07 e4 bd aa 6d dd bb 7f 30 29 bd
       -0.10763347 -0.11134276 -0.0067574577 -0.041306015
000070 18 b7 72 bd 9b 4a 23 3d 2d 62 09 3e fc d6 93 bd
       -0.059256643 0.03986607 0.13416357 -0.072187394
000080 90 62 df 3d 76 84 ce 3d c9 61 b3 3d 9a 98 44 3d
       0.10907471 0.10083859 0.087588854 0.047997095
000090 e8 1b 8c 3d 0a 41 88 3d 11 27 d0 bd 94 78 4d bd
       0.0684126 0.0665303 -0.10163701 -0.05016382
0000a0 45 28 2b bd 3a 1f c4 bd 92 a7 4c 3d 85 58 2b bd
       -0.04178645 -0.095762685 0.049964495 -0.041832466
0000b0 14 b3 51 bc 74 22 2e bd 64 11 9e bc ba 3b 57 3d
       -0.012799043 -0.042513326 -0.019295402 0.052547194
0000c0 0c d1 b1 bc 31 61 b6 3d 1b 4f cd 3c d1 81 a0 3d
       -0.021706127 0.089052565 0.025062134 0.078372605
0000d0 7d 9d a4 bd 93 43 8f 3a 4c e8 8f 3c f8 9d 99 bd
       -0.08037851 0.0010930173 0.017566822 -0.07500833
0000e0 e2 4a 51 3d f9 a7 94 bc 2f 7d b7 bc 33 ce 55 bd
       0.051096804 -0.018146502 -0.02239856 -0.0521986
0000f0 e5 5d ed bb 9f da 89 3c 30 61 06 be 9e cb 5c bc
       -0.007243859 0.01682788 -0.13123012 -0.0134762805
000100 4b 18 99 3d 41 1d b5 bd 7b ee fc bd a2 7f d5 3d
       0.07475337 -0.0884347 -0.12350174 0.10424735
000110 19 eb af bd 49 b9 74 bc 1a 2a ba 3c 8c c1 b6 3d
       -0.08589763 -0.014936754 0.022725154 0.08923635
000120 a6 37 d0 3d 3d bd 1d bd 1e 02 ca bc 48 b9 48 3d
       0.10166864 -0.03851055 -0.024659213 0.049004823
000130 f6 28 09 bd b5 73 47 bd ea 80 4b 3d 57 c3 3f 3b
       -0.03348633 -0.04869433 0.04968349 0.0029260719
000140 36 a7 9d bd 7e 90 af 3c 68 90 b7 bd 52 95 cd bd
       -0.076979086 0.021431204 -0.0896309 -0.10038246
000150 8e 26 33 be 3a b9 f8 3c a0 81 2c bd b2 0a 7f bd
       -0.17495176 0.03036176 -0.042115808 -0.06226606
000160 8c 2e 41 3d 45 9b 20 bd 57 07 17 3d f9 8e b8 3d
       0.04716353 -0.039210577 0.036872234 0.09011645
000170 88 63 33 3b 3b d1 b4 3c 52 02 af 3d 84 e1 aa 3d
       0.0027372558 0.022072425 0.085453644 0.08343795
000180 62 94 37 3d 95 97 0a 3d 96 79 08 3d 9c 3d 35 bd
       0.044819243 0.033835966 0.03331908 -0.04424821
000190 76 80 16 3e fa ec 01 3d 83 29 7c bd 22 18 83 3d
       0.14697441 0.03172014 -0.061563026 0.06401087
0001a0 70 e3 ac 3d ab 26 8b 3d 65 4d bd 3c 37 21 1e 3d
       0.08441818 0.06794485 0.023108194 0.038605895
0001b0 97 22 d6 bd 76 49 91 3e 93 e5 1c 3e 2c 62 83 3c
       -0.10455816 0.2837636 0.1532195 0.016038023
0001c0 f4 ff c0 3c c6 7f 8d bd d7 77 ab 3e 38 61 40 3e
       0.023559548 -0.069091365 0.33489868 0.18787086
0001d0 3d d4 9d bd 27 08 31 bd 1d 72 de bc d3 13 38 3e
       -0.07706497 -0.043220665 -0.027154023 0.17976312
0001e0 4b 88 f4 3d 7a b7 c5 bc fc 05 14 3e 12 f9 3b bd
       0.11940058 -0.02413534 0.14455408 -0.04589183
0001f0 5b ee 83 bc d0 f5 41 3d 0d f0 15 bd f7 2d 04 3d
       -0.016104868 0.047353566 -0.036605883 0.032270398
000200 68 3b 5e 3d 68 f7 81 3d 65 d5 7c 3c 69 0a 87 bd
       0.054255873 0.06346017 0.015431737 -0.065937825
000210 15 5e 6d be 07 50 4e be 35 d1 98 be 01 63 96 bc
       -0.2318042 -0.20147716 -0.29847112 -0.018357756
000220 c8 98 69 3c 62 85 67 bd 98 48 cc bd 84 1f a5 3d
       0.014257617 -0.05652369 -0.09974784 0.08062652
000230 0a 73 63 3d 4b 0c e7 3c 37 62 3b bd 6b c6 96 3d
       0.05552963 0.028204104 -0.04574796 0.07362064
000240 df 0b 61 3e 13 d9 17 3e 6e a2 5e 3d 23 11 6d 3e
       0.21977185 0.14828901 0.054354124 0.23151068
000250 52 52 9f bd 2c 87 8d be f9 f6 1f bc 93 11 98 be
       -0.07779373 -0.2764219 -0.009763473 -0.29700908
000260 6b 1b 24 be 0c 0e f9 3c df 53 91 3c dd bb 96 bd
       -0.16026084 0.030402206 0.017740188 -0.07360051
000270 9f c2 34 3e b6 80 3b bd ff 1a 96 bd 2c 02 6a 3e
       0.17652367 -0.045777045 -0.07329368 0.22852391
000280 23 03 41 be 91 79 54 bd c4 2a 23 bd 25 7b 27 3e
       -0.18848853 -0.051873747 -0.039835706 0.1635557
000290 27 fd 6e 3e c5 80 59 be 7d 66 aa bb c7 33 a8 bc
       0.23338757 -0.21240528 -0.005200206 -0.020532502
0002a0 21 bb 5b 3b 9f 46 b9 3c d1 cc a9 bb 4f 5d c0 be
       0.0033528286 0.022616683 -0.0051818867 -0.3757119
0002b0 17 9e 4f be 07 aa 4a be e8 74 4e 3d 3c d9 0b bc
       -0.2027515 -0.19791423 0.05040446 -0.008535679
0002c0 98 2e 8f be 36 e3 0d 3e a0 02 0a be 4d 28 2c bd
       -0.27965236 0.13856205 -0.13477564 -0.04203062
0002d0 fa 0e 0e 3d bc 66 eb 3c 0d ef 0d 3d ee 3f 9d bd
       0.03468225 0.028735511 0.034651805 -0.07678209
0002e0 b5 2d 3c bd 59 4a b2 3c fe 81 24 bc 6f 62 d7 bd
       -0.045942027 0.021763967 -0.010040758 -0.105168216
0002f0 06 30 79 3d 6a c3 a8 3d 9a bd 27 bd ef df a1 bd
       0.060836814 0.08240397 -0.040952303 -0.0790404
000300 6c 52 ed bb f4 e7 e7 bd d1 94 0d be 6a 03 5b 3c
       -0.0072424915 -0.113235384 -0.138263 0.013367513
000310 26 5a 0e bc 40 92 51 bd 5b fe 6d bd 98 d2 f3 3d
       -0.008688485 -0.051164865 -0.0581039 0.11905402
000320 2a 26 0f 3e db 1f 00 be 00 b9 3b be 7b 4d 11 bd
       0.13979402 -0.12512152 -0.1833229 -0.03547428
000330 a7 89 8a be 61 dc 75 be d6 62 f1 bc 95 bf d7 bd
       -0.27058145 -0.24009849 -0.029466074 -0.10534588
000340 17 e2 c3 be 3b f1 9e be f2 ba 78 bc 4b 8e 26 3b
       -0.3825843 -0.3104342 -0.01518129 0.0025414403
000350 20 0e e3 3d 69 ff 98 bc e0 f8 96 3e 25 7c b7 3d
       0.110866785 -0.018676477 0.29486752 0.089592256
000360 e8 c8 bf 3d 60 bd a7 be f6 6f 07 3e 34 fc c4 3c
       0.09364492 -0.3276167 0.13226303 0.024046041
000370 d6 7b 4c 3e 40 79 cf 3e 58 2f 18 be ec 49 02 be
       0.19969115 0.40522194 -0.1486181 -0.12723511
000380 1f 3a cb bd cf 2a 9e 3d ca a1 4c 3c 9b dd 23 3c
       -0.09923195 0.07723009 0.012489745 0.010001565
000390 7f 5f eb bc 41 57 b3 3d 9d de 2e 3d 52 3d 3a 3d
       -0.02873206 0.08756877 0.04269277 0.045468636
0003a0 43 03 87 bd d0 a4 20 bc 7d 62 ca 3d a8 81 5f 3e
       -0.06592419 -0.009804919 0.098820664 0.21826804
0003b0 1e 62 10 3f e0 03 07 bd 8f 5f 94 3e d8 19 ab 3e
       0.56399715 -0.03296268 0.28979155 0.33418155
0003c0 3c 26 c1 be 15 7f c4 be f2 72 a8 be cb 90 7b bd
       -0.37724483 -0.38378206 -0.32900196 -0.061417382
0003d0 fa f3 65 3e 74 68 a3 3e 2a dc 44 be 61 a9 bd 3d
       0.22456351 0.3191563 -0.19224611 0.09260822
0003e0 08 2c d7 bd ca a2 a3 be b5 90 49 be 46 05 91 39
       -0.10506445 -0.31960136 -0.19684108 0.00027660484
0003f0 66 63 9a be 43 94 ca be ef 68 ed bd 14 f9 02 be
       -0.3015396 -0.3956624 -0.1159228 -0.12790328

conv_block_2.0.bias f4 [10]
000000 50 d0 83 bc 7a 54 df 3b 36 2c 05 be 8e 3e 0a 3e
       -0.016090542 0.0068154903 -0.13005146 0.13500425
000010 f3 4f a1 bd 6d 90 83 3d cf ae fc bc 29 57 9e bd
       -0.07876577 0.064240314 -0.030845074 -0.07731468
000020 07 2d 85 3e 99 73 3d 3e
       0.26010916 0.18501128

conv_block_2.2.weight f4 [10, 10, 3, 3]
000000 49 66 bb bd 49 29 2a bd 8e 41 26 bb f6 35 97 3d
       -0.09150369 -0.04154328 -0.0025368663 0.07383339
000010 33 ab bb 3c 22 66 8d 3d 6d 06 d5 bc 1e 9a 8b 3d
       0.022908783 0.06904246 -0.02600404 0.06816505
000020 f0 f5 d7 bd 59 11 8f 3e 9a 89 80 bc c1 33 d8 bd
       -0.10544956 0.27942923 -0.015690614 -0.10556746
000030 18 ca 04 bb ec ab 6f bd ee 54 89 bd 55 66 88 3d
       -0.0020262059 -0.058513567 -0.06705652 0.06660143
000040 18 9a 08 3d 91 98 9c bd 88 99 06 3e 9b 87 86 be
       0.03335008 -0.07646287 0.13144505 -0.26275334
000050 e4 73 e7 be a4 6c b3 3e a7 c4 ea be 5f 97 b6 be
       -0.45205605 0.35043824 -0.4585316 -0.35662362
000060 aa 0d 58 bd fe f3 00 bf 57 ff 93 be 86 a0 71 bd
       -0.052747406 -0.503723 -0.28905746 -0.058990978
000070 eb f4 0e be 96 44 48 3e 98 a4 04 be b1 77 17 be
       -0.13960616 0.19557413 -0.12953413 -0.14791752
000080 46 87 1b 3e 16 ed 04 bb e4 77 94 3d 13 85 94 3e
       0.15188321 -0.0020282916 0.0724943 0.29007778
000090 de 88 50 3e b7 78 85 be 5a fa 12 be 4c 00 46 3d
       0.2036471 -0.2606866 -0.14353314 0.048340127
0000a0 0c 2f 98 be d1 72 08 be e4 80 56 bd c9 5f 64 3d
       -0.29723394 -0.13325049 -0.052369013 0.05575541
0000b0 f6 3e 73 3e 60 33 6c 3c 41 12 48 be e7 5a 1f bf
       0.23754486 0.014416546 -0.19538213 -0.6224808
0000c0 09 69 49 3e e3 ab 9d be a3 d2 a5 be 40 a3 3c be
       0.19668974 -0.30795202 -0.32387266 -0.1842165
0000d0 80 cb 1b bf 18 b6 de bc 16 ac b2 bd 7b 23 50 bc
       -0.6085739 -0.027186438 -0.08724229 -0.012703772
0000e0 24 05 fa bd a9 11 e7 3d a3 53 8a 3c 2c fd e7 bd
       -0.12208012 0.11282665 0.016885584 -0.113275856
0000f0 03 49 33 3e 00 cd 0e 3d ee 27 8d 3d e2 0d 2f 3e
       0.1750832 0.034863472 0.068923816 0.1709514
000100 88 76 1a 3e 31 9b 7c bd 02 1e da 3c 89 be 42 be
       0.15084279 -0.06167144 0.026625637 -0.19017996
000110 6d ea 09 be c0 d7 67 3d ab 0e a2 be b6 ae ec bd
       -0.13468333 0.05660224 -0.31651816 -0.11556761
000120 08 b9 73 bd 2a 73 10 be 53 b3 95 3e ab 4b 62 bd
       -0.05950263 -0.14106432 0.29238376 -0.055247944
000130 49 37 0f be 73 9f da 3e a7 e0 7b 3d 62 e4 84 3d
       -0.13985933 0.42699775 0.061493542 0.06488873
000140 a8 f8 8d 3e ac b9 d1 bd c7 2c 0d 3e 50 b6 f3 be
       0.27728772 -0.10240492 0.13786612 -0.4760003
000150 fb 99 c8 3e 3d 1e 26 3e f0 25 0c bf 77 ff a3 3e
       0.39179978 0.16222472 -0.5474539 0.32030842
000160 0f b7 62 be f1 93 a7 be 08 55 3f 3d cf 9f de bd
       -0.22140144 -0.32730058 0.04671195 -0.10870325
000170 3b 94 94 bd aa e4 3c 3d 2b c0 c4 3b b7 50 97 bd
       -0.07254835 0.04611651 0.0060043535 -0.07388442
000180 54 7f 39 3d 1f ca 79 bd b6 4d 3a bd 1e 58 eb bd
       0.045287445 -0.060983773 -0.045484267 -0.114914164
000190 e7 f0 95 be 65 be a2 be ae 34 35 be 49 06 49 be
       -0.29285356 -0.31785884 -0.17695877 -0.19631304
0001a0 e2 dd 35 be b0 fc 37 3c aa 65 eb bb 55 4b d4 3d
       -0.17760423 0.011229679 -0.00718375 0.10365931
0001b0 1f e0 0f 3f df a4 75 bd 5d 02 74 3e f1 ec 50 3e
       0.56201357 -0.059971686 0.23829027 0.20402886
0001c0 eb f0 5a 3e 6e ce 02 be 34 55 a0 be ce 8f 9e be
       0.21380965 -0.12774059 -0.31315005 -0.3096909
0001d0 3e d7 22 bf fb fc 42 bd a9 29 fa bc 53 66 29 bc
       -0.63609684 -0.047604542 -0.030537443 -0.010339337
0001e0 1a 47 b7 bd 25 ca 60 be e6 78 c4 3d 51 6d b8 3d
       -0.089491084 -0.21952112 0.09593372 0.090052254
0001f0 95 7e ae bd 01 e0 6c 3d c5 32 78 3d e1 3b 2d be
       -0.08520237 0.057830814 0.060595293 -0.16917373
000200 b1 2a 82 3c 19 9b 55 be e8 be 51 be b1 71 a3 3c
       0.015889497 -0.20859946 -0.20482981 0.019951673
000210 c7 fd 93 be 3c c7 b4 bb 81 53 30 be 3e 92 26 bf
       -0.28904554 -0.0055169147 -0.17219354 -0.650669
000220 98 34 06 3d de 63 a3 3e be 54 1b bf bd 56 13 bf
       0.032765 0.3191213 -0.6067618 -0.5755423
000230 16 cf 12 bf d5 7e f7 3d 3f d0 82 3c 5e d9 83 3d
       -0.5734724 0.12084738 0.01596844 0.06437944
000240 0d 4a 0f be 87 e9 37 be f0 71 91 be a0 28 f7 bd
       -0.13993092 -0.17960177 -0.2840724 -0.120682955
000250 38 5c 1f be 5d ef 48 be a4 86 db 3c 6c c0 b2 3b
       -0.15562522 -0.1962256 0.0267976 0.0054550674
000260 3a 33 d1 bd ed 45 21 be f4 d4 97 bd 0f e6 7f be
       -0.10214849 -0.15749331 -0.074136645 -0.24990104
000270 fa 30 0f bf fd 98 06 be 1e 71 9f be 07 ab ab bd
       -0.5593411 -0.13144298 -0.3114099 -0.0838223
000280 b7 42 8b 3e 1f 82 e7 3e 1a e3 f7 3d 0b e7 8d 3d
       0.27199337 0.45216462 0.12103863 0.069288336
000290 56 08 cc bd 41 4f 76 be 76 a4 79 be b3 32 e8 be
       -0.099625275 -0.2405367 -0.24379143 -0.4535118
0002a0 5b ec 03 3f ad 7c 77 3e 96 34 bf 3d 5a 08 dc 3d
       0.51532525 0.24168654 0.09336202 0.107437804
0002b0 46 ef a6 3d e1 62 5d 3e 29 69 90 be 3f ff 83 bd
       0.081511065 0.2161975 -0.2820523 -0.06445169
0002c0 8a 1f ba bd 65 4e 92 be db e0 b3 be 27 61 f5 be
       -0.09088047 -0.28575435 -0.3513249 -0.47925684
0002d0 c8 39 6b 3d df e5 d3 3c 7f b6 c4 3d 6a 84 70 3d
       0.05742815 0.025866447 0.09605121 0.05872003
0002e0 22 0d 43 3d 7b 48 7f 3d ac 0c b0 bd dd b3 14 3d
       0.047619946 0.062324982 -0.08596167 0.036304343
0002f0 ba 8d ae bd 23 af 3b 3e 67 89 e3 bd 9f 2b 4b 3c
       -0.08523126 0.18328528 -0.11110192 0.012400537
000300 55 20 ca ba 71 8d 33 be e5 a6 a9 3d 2d 4d 15 bd
       -0.0015421013 -0.17534424 0.08283786 -0.036450554
000310 b0 50 3e be e4 88 0a 3c 1d 2e bd be 25 00 11 be
       -0.18585467 0.008455489 -0.36949244 -0.14160211
000320 16 b4 fc bb b1 d1 49 be ec 2c 75 bd e3 60 04 be
       -0.0077118976 -0.19708897 -0.059857294 -0.12927584
000330 7b 55 11 3e b7 05 c1 bd c0 bb 13 3d ac fd 13 bc
       0.14192764 -0.09424918 0.036067724 -0.009032648
000340 fd d0 81 3e 95 2f 64 bc 9f 89 28 bd a3 82 23 bd
       0.25354758 -0.01392736 -0.04114687 -0.039919507
000350 ed 3f 7e bd 86 f2 40 bd 80 b5 e9 bd 86 cc cb bd
       -0.062072683 -0.04710629 -0.114115715 -0.09951119
000360 69 ac 33 be 1c 93 5b 3e 4a bd 3c 3d 65 07 e5 bd
       -0.17546238 0.21442837 0.046078958 -0.11183051
000370 1f d4 b8 3c ec 97 90 be 2f 18 e0 bd 97 9d 57 be
       0.022562085 -0.28240907 -0.10942113 -0.2105621
000380 7d 74 86 be b4 0b 0a be 84 b6 05 bf 0d 87 28 3d
       -0.26260749 -0.13481027 -0.5223162 0.04114442
000390 64 0f bb be 0a d2 68 bd a5 d3 0c 3e e7 3e f2 3e
       -0.3653518 -0.056840934 0.13752611 0.47313616
0003a0 0f 1b ef 3e db 98 87 bd 13 13 07 3e 6b 99 4b 3e
       0.46700332 -0.06620952 0.1319087 0.19882743
0003b0 c4 9a 8a 3d 74 d8 9d bc dc 13 70 bd 69 b2 1e 3d
       0.067678005 -0.019268252 -0.05861269 0.038744364
0003c0 7c 25 33 3d 84 13 ab 3d 36 10 55 3d a5 99 83 ba
       0.04373692 0.08353332 0.052017413 -0.0010040296
0003d0 4e 06 64 3d bb 02 a1 3e 1c 0e a8 3d 64 f3 74 be
       0.055670075 0.31447396 0.08205816 -0.23920971
0003e0 91 09 4d 3e 63 88 b5 be 66 78 b2 bd 00 4d 0d 3d
       0.2002318 -0.35455617 -0.087143704 0.03449726
0003f0 11 4a 19 be c9 f6 8c bd 9d 66 d9 bd a3 8f d9 be
       -0.1496966 -0.06883008 -0.10615275 -0.424924

conv_block_2.2.bias f4 [10]
000000 e6 8c 00 be b3 ec 9b bd 28 1d fc 39 33 da b7 bc
       -0.12553748 -0.07613506 0.0004808691 -0.022442913
000010 1b b5 28 3d e3 6e ac be 89 9a 0f 3d ff d4 37 bd
       0.04118834 -0.3367835 0.035059486 -0.044880863
000020 4a 6f 81 bd ff b3 cf bd
       -0.06320055 -0.101417534

classifier.1.weight f4 [10, 490]
000000 e9 e1 be bd 2e 6a d5 bd fb 70 c5 3c f4 2f 5f bd
       -0.09320433 -0.10420643 0.024101725 -0.05448909
000010 42 3b fe bc 71 7c d7 bc b9 91 c7 3b 66 2d df bc
       -0.031034116 -0.026304455 0.0060903695 -0.027243327
000020 9e 56 1a bd da ab b8 3c 55 55 30 be 0b d3 9b be
       -0.03768026 0.022542883 -0.17220052 -0.3043445
000030 cf 75 e9 be eb b4 70 be 9d 55 81 3e b1 2b 80 3d
       -0.45597693 -0.23506515 0.2526063 0.062583335
000040 7a 8c 59 bd 96 dc 9a bd 0b 94 07 be 37 d1 c6 be
       -0.053112485 -0.07561605 -0.13240068 -0.38831493
000050 74 2f 0e be 72 23 2f 3e 5e b3 46 3e 88 ac b9 bc
       -0.1388529 0.17103365 0.1940436 -0.022665277
000060 9f 1e 54 3e bf b0 ed 3d 2c 86 4e 3e 74 75 bc 3d
       0.20714806 0.11605977 0.2016837 0.0920209
000070 e7 b0 0c 3e 82 18 13 3d 92 f7 2a be dc 23 14 3e
       0.13739358 0.035912044 -0.16696003 0.14466804
000080 a2 fc 98 3e 9d 16 a1 3e b5 d3 6c 3e 9d 3c a4 3d
       0.29880244 0.31462565 0.23127635 0.080193736
000090 60 9a 0d bd 02 a3 87 be f5 33 50 be c5 d4 2b 3c
       -0.03457105 -0.26491553 -0.2033232 0.01048774
0000a0 23 c8 a2 bd e9 97 16 bd a0 91 d6 bc 05 c0 aa bb
       -0.07948329 -0.036765967 -0.026192486 -0.005210879
0000b0 14 c4 e0 bc d1 3e 71 be 61 0c 84 be 69 fc f6 bd
       -0.027437247 -0.23559119 -0.25790694 -0.12059862
0000c0 08 cf b6 bd 02 48 5e bc c6 37 6f bd 5f fc 86 bc
       -0.08926207 -0.013566973 -0.0584028 -0.016477762
0000d0 95 ef 8d 3c 98 5f 53 3d ca fd 14 3c d3 88 2c 3a
       0.017326156 0.051604837 0.009093711 0.00065816677
0000e0 d0 75 48 3c 8d 8d de 3c 6b 38 b4 bd 15 49 17 bd
       0.01223512 0.027167106 -0.087998234 -0.03693493
0000f0 d0 11 7e bb 2a 8b 3d bd 66 64 ca bc 42 07 29 3c
       -0.0038767941 -0.046275295 -0.024706077 0.010316672
000100 76 86 2c be b6 f5 50 be 87 b8 31 be c1 71 26 be
       -0.16848168 -0.20406231 -0.17355548 -0.16254331
000110 88 45 87 bd 6b e2 1a bd 55 dd c3 bd cd f8 06 bf
       -0.06605059 -0.037813585 -0.095637 -0.5272339
000120 a8 79 35 bf 49 02 57 be 11 8a 2d 3e 96 ce 8e 3d
       -0.7088876 -0.20996965 0.169472 0.06972997
000130 f3 5b c8 bd b0 e3 ae bc ad 29 9f be b5 b7 f7 be
       -0.09783163 -0.021348804 -0.31086484 -0.48382345
000140 ed 96 b5 be 81 59 ab bd a7 9a 5b bc f6 94 82 3c
       -0.3546671 -0.08366681 -0.013403571 0.01594017
000150 e1 29 8a 3c 15 14 89 3d 24 89 ec bc 04 a7 07 3e
       0.016865673 0.066932835 -0.028873987 0.13247305
000160 de 7c 3d 3e d1 a3 af bd 80 54 d4 bc 36 69 1c 3d
       0.18504664 -0.085761674 -0.025919199 0.038186274
000170 03 31 ba 3d 6c dd 68 3e 8a c2 9f 3e 2b 7e 44 3c
       0.090913795 0.22740716 0.3120311 0.011992971
000180 16 ab 8e bd c0 a9 6c 3c d1 4c 06 3d c5 e2 e6 3c
       -0.06966226 0.014444768 0.0327881 0.028184304
000190 ff 8b 09 be b7 22 cf bb fb 81 85 bd 68 de b2 3d
       -0.1343231 -0.006321277 -0.065189324 0.08733827
0001a0 fc a2 ba 3c 50 61 29 bc 0d fe a6 bd d5 d8 79 3d
       0.022782795 -0.0103381425 -0.08153925 0.060997803
0001b0 6d 40 ac 3d 5c 3c c5 3d d8 a8 04 be f6 03 81 bc
       0.08410726 0.09630653 -0.12955034 -0.015748959
0001c0 94 5c b5 3c d4 82 06 bc d8 3e 39 3d be 46 9e bd
       0.022138871 -0.008209903 0.045225948 -0.07728337
0001d0 53 ca b4 be ed 6f 9d be d8 04 e7 bd e9 1c 25 3c
       -0.3531061 -0.30749455 -0.11280221 0.0100776935
0001e0 a8 57 bc bc 33 43 86 bd 7f 1a cd be b2 33 1f be
       -0.022991017 -0.06555786 -0.40059277 -0.15547064
0001f0 6c 2e a7 bd 2b 4f 2b be ae dd 09 bd 83 36 3b bd
       -0.08163151 -0.16729419 -0.033658676 -0.045706283
000200 f3 af 85 bd 58 37 05 3e 16 ea 7b 3e f6 af aa 3c
       -0.065277 0.13009393 0.24601015 0.020835858
000210 88 4d 9b bd f2 93 0b bc 03 bb 38 bc 75 c3 c1 bd
       -0.07583147 -0.00851916 -0.011275056 -0.094611086
000220 9f 9b 3c 3e 57 63 4e 3e 99 5c f8 3c 0f 69 3d bd
       0.1841874 0.20155083 0.030317592 -0.04624277
000230 de cb a0 3c be 2d 99 3c f3 db e1 bb ac 78 1f bc
       0.019628461 0.01869857 -0.006892675 -0.00973336
000240 5f d7 cf 3c 23 18 00 bd cc d6 6e bb c3 46 08 bc
       0.025371252 -0.03127302 -0.0036443947 -0.008317652
000250 5b 80 91 bd 2e 96 bb bd 77 02 ff bc c9 a4 16 bd
       -0.0710456 -0.09159504 -0.031129105 -0.036778245
000260 0f af 01 bd bd e7 1c 3d ac 33 71 bd 6f c6 eb bd
       -0.03166109 0.03830694 -0.05888717 -0.115124576
000270 99 7e 46 be 67 d9 6c bd 4b 82 78 bd 8f 48 c6 bc
       -0.1938423 -0.05782452 -0.060671132 -0.02420452
000280 11 39 3a bc 9b 87 ae bd cf 7d c6 bc 0a aa 1c be
       -0.011366145 -0.085219584 -0.024229912 -0.1529924
000290 0e 4e 67 be 36 29 1d 3e 2d 46 3d 3e 5b ad 9a 3c
       -0.22588369 0.15347752 0.18483801 0.01888149
0002a0 45 08 f2 bc 60 e8 2a 3d c5 66 82 3e 04 8d 88 be
       -0.029544959 0.041725516 0.25469032 -0.26670086
0002b0 c9 d8 51 3e 9d 89 b9 3e e8 d9 41 3d be bf f7 3b
       0.20492853 0.36237803 0.047326952 0.0075606992
0002c0 83 da ed 3d 05 37 93 3c 50 af a8 be bf 31 bc 3d
       0.116139434 0.017970571 -0.32946253 0.09189176
0002d0 5f c8 62 3e e6 58 50 bc 7a 1f 60 3d 87 9e cd 3d
       0.22146748 -0.012716508 0.05471752 0.10040002
0002e0 7c e6 82 3e ac d0 db bd a1 21 89 be 53 cd ec bd
       0.2556647 -0.107331604 -0.2678347 -0.115626
0002f0 2b 25 2a bc be 6f c0 3c 8c f6 dd bc 30 0f 33 3c
       -0.010384838 0.023490783 -0.027095102 0.010928914
000300 ba bd e5 bd f8 d4 27 be 2d 7b 30 bd c0 19 3b bd
       -0.11217828 -0.16389835 -0.04308622 -0.045678854
000310 b6 f1 c4 bb 12 4b 9d bc 02 49 d2 3c 61 f7 29 3d
       -0.0060102595 -0.019200835 0.025669578 0.041495685
000320 c9 4b 1e 3d 4f e5 b8 3c a5 cb 51 3d ea 7c 04 3d
       0.038646493 0.02257028 0.0512196 0.03234569
000330 3c f7 be bd 8f e0 93 bd 45 df 9d 3c bc 7d 3f 3e
       -0.093245 -0.072205655 0.019271502 0.18700308
000340 f9 7d 8d 3d fd 2f 91 3c 78 6a 87 bd b6 f3 17 be
       0.06908793 0.017723078 -0.06612104 -0.14839062
000350 2b 60 16 be d8 b7 13 bd c8 b3 0c 3d da 7d 96 3c
       -0.14685123 -0.036064 0.03435114 0.018370558
000360 3a f2 10 3c c0 3a 1e be 68 5e a5 be 96 72 ce be
       0.008846814 -0.15452099 -0.3229859 -0.40321797
000370 62 75 b3 3d 59 05 09 3e bf c1 76 bd 60 5f b7 bd
       0.08762623 0.13380946 -0.060243364 -0.08953738
000380 cf 3b c1 ba 33 85 cf bd 75 85 a7 bd e7 39 24 3e
       -0.0014742556 -0.101328276 -0.08179752 0.16037713
000390 ef ac 15 3e 4f f5 f0 bc ca 46 26 3d 3e b0 17 3c
       0.1461675 -0.029413847 0.040594853 0.009258328
0003a0 83 53 c9 3c 70 84 0c 3e ba 9c e5 bb 83 05 df bd
       0.024575954 0.13722396 -0.0070072087 -0.10889723
0003b0 e9 2d c5 3b dc a1 11 bd 9d e6 e6 3c 95 46 1a 3d
       0.006017436 -0.03555475 0.028186137 0.03766497
0003c0 ed 72 ef 3d e6 67 83 bd 05 cd 77 be 8e e4 0e bd
       0.11691842 -0.064163014 -0.24199302 -0.034885935
0003d0 8c e9 4b 3c c8 09 c0 bc d6 97 c1 bd 43 fe c1 3a
       0.012445819 -0.023442164 -0.094527885 0.0014800507
0003e0 dc c1 7f 3d 74 4f 93 ba d0 ec d2 bb 0d 97 1a bd
       0.062440738 -0.0011238889 -0.0064369217 -0.03774171
0003f0 69 b0 7b bd fe 14 db 3c 5e 4a cc 3b 75 b6 f8 bd
       -0.061447535 0.026743408 0.006234451 -0.12144176

classifier.1.bias f4 [10]
000000 71 c5 44 bd 37 2b 9d 3e da 01 20 3e 7c 19 48 be
       -0.048039857 0.30697033 0.15625706 -0.19540972
000010 b6 b3 b6 bd 8b 1e a4 3c 3b ef e3 bd eb a3 0a 3e
       -0.08920996 0.020034095 -0.11129614 0.13539092
000020 9b 60 08 bd d0 86 24 be
       -0.033295255 -0.16067052
