results_pytorch/model.pth (torch, 89851 bytes, 8 tensors)

conv1.weight f4 [10, 1, 5, 5]
00000000: de12 97bd b199 9d3e afca 273e 9b2e 7d3e
00000010: 5b1f 643e 5b8a 173e 8622 893e 79b3 573e
00000020: caf6 4f3e dfc3 3c3d 5979 53bd 3e8c 3fbd
00000030: 0d8f c93b ac95 84bd 84f7 c43d 779b 8dbd
00000040: 025f 76be 1815 a3be 29cc 7dbe cfba 72be
00000050: efef 16be e8c2 1fbe ce4a febd 535e ddbd
00000060: 7f33 7ebe 4cf0 533e e41e a03e d29a b93e
00000070: aaf8 2a3e 47ec 45be 0685 73be d44e b7bc
00000080: 2b1a c83e 75dc 9c3e 3189 a63e 6b82 abbe
00000090: 16fa ad3b 99ba a6bc 1119 a83e c25a 913e
000000a0: c488 cbbe 1e75 f8bd c180 65be 307f bcbd
000000b0: f96a 7a3d dd89 76be 23ba b7be f546 92be
000000c0: 691f 1ebe 4f12 98bd cb6f a93e 6067 d33e
000000d0: c781 293e f301 fabd 9561 ea3d 4966 943c
000000e0: e819 21bd ef11 813e 272a 2f3e c383 493e
000000f0: 284c 40be 72cd 70bb 8d11 033e fde2 f63d
00000100: 06b3 29be 3208 19be 41d9 3c3e 7a5c 853d
00000110: d658 fa3d 2dec dabd 2669 d03c d841 c83d
00000120: 9f10 d73d cf87 223c 23f1 b9be 599a e83d
00000130: b6fa 41be fdae 5ebe 010b b3bd e27f e3bd
00000140: 57b9 553e d315 b4bd a16f 78be 1b8a 953d
00000150: 76b8 72bd 8faf 7b3e 05c0 363e d695 04be
00000160: 8022 5b3d f92b d43d 618d b9bc b376 283d
00000170: 3865 163e 335f dd3d af74 00bc 6fe0 b23d
00000180: a0c3 b03e 577a 4d3d 83b0 363e eb98 373e
00000190: 2871 35be 2227 55be e371 203e 9c63 543d
000001a0: b950 2e3e bfe9 ac3d aa4b 2e3e 68e1 a13e
000001b0: 9a7c a93e 104d d3bd 778a c43d 7109 333e
000001c0: eb02 1c3e 0aeb 333e d86d 0fbe 8584 17be
000001d0: 44d3 63be 336f bdbd aa2d 6e3e 214b 3fbd
000001e0: 6636 a6bd 8f86 a6be 1742 9fbe 59df aebc
000001f0: 147f 443e d0bc 8c3e cf8a b73c 4c18 123e
00000200: 0f62 5a3e 82e0 c53d 3398 373e 18af 803e
00000210: 7bbe 3b3e 46cf 8e3d 06e6 3fbe b738 57be
00000220: 0a0a 1cbe 72f7 68bd 3050 f1bd 4ce4 b03d
00000230: 5aaf 4c3d f167 cebd ad15 c33d 9dba 253e
00000240: 0db3 973e 794f 473e 3b0e 08bd f89f 6e3e
00000250: 01b2 f53c 4353 373d c914 adbe 681b a9be
00000260: 278e 64be 1607 0bbc 1ec9 9b3e 0812 c4be
00000270: 8876 8ebe 4f0b 723d 7c6b 6b3e d029 bd3e
00000280: dfcf d6be c868 6dbd 460c fb3c 1006 9d3e
00000290: 7a4c 133e 8672 a4be 0eef 7fbd 1a85 8b3e
000002a0: b89b ab3e 9cca 6e3e d5af a03d a8c9 4a3e
000002b0: d504 7f3e d011 083e fe0c 87bd 64b0 b33d
000002c0: a8b3 cbbd dd06 b2bd bbbd a1be e61b 5ebe
000002d0: 821b babd f610 883d 43d0 b5be aeb3 d6be
000002e0: 564a 90be f5d9 f7bc 7572 063d 10e0 9bbd
000002f0: e183 fbbd 8bad bd3b 9609 6c3e d937 83bd
00000300: 0f7c aa3e e4e0 dd3e 2515 e03e 6849 29bd
00000310: 94d1 683e 927f 0f3e 275e d83e 1321 483d
00000320: 786f 8d3e e526 1a3e fdb7 29bd 5dcc 4bbe
00000330: 482a 4dbe 7d87 933e 2282 563e 4fbe e6bb
00000340: ec7d edbe b686 13be 9744 ab3e e97d b63e
00000350: abe5 863d 1d62 c8be d81d a1be 5d5e ab3e
00000360: 0787 5d3d f683 5f3e 20a8 91be 0849 98be
00000370: 7b63 5e3e 173c 2c3d 1bae 3a3b b0ce 543d
00000380: f02a 0e3d 5855 183e caa5 debc 2da2 49bd
00000390: 2df3 a93e d920 b63d c8e5 57be bd96 fa3b
000003a0: 0b3e 01be 80ff 253e 1b8c 743e 196b 9dbe
000003b0: 3ae8 abbe 0c31 48be 17b5 b7bd a3fd 26bd
000003c0: ec4d 22be 28ab 4bbe ec20 c9be dbec adbe
000003d0: 33b7 9bbe be88 813e 73fe 363e 68b5 6ebd
000003e0: b2a0 92bd 058d a0bd
-0.073766455 0.3078132 0.16385911 0.2472481 0.22277586 0.14798872 0.26784152 0.21064557
0.20308986 0.046085235 -0.051629398 -0.046764605 0.006151086 -0.0647386 0.09617522 -0.06914418
-0.2405968 -0.3185203 -0.24784912 -0.23704074 -0.14739965 -0.15601695 -0.124166116 -0.108090065
-0.24824332 0.20697135 0.31273568 0.3625093 0.1669642 -0.19328414 -0.23781213 -0.022376455
0.39082465 0.30636945 0.32526544 -0.3349794 0.0053093536 -0.020352649 0.32831624 0.28389555
-0.3975278 -0.12131713 -0.22412397 -0.092039466 0.061137173 -0.24076028 -0.358842 -0.2856976
-0.1544167 -0.07425367 0.33093104 0.41289806 0.16553412 -0.12207403 0.114443935 0.01811518
-0.039331347 0.25208995 0.17105924 0.1967917 -0.18779051 -0.0036743549 0.12799664 0.12055013
-0.16572198 -0.14944533 0.18442251 0.06511779 0.12223975 -0.10689578 0.025440764 0.09778184
0.10501217 0.009920075 -0.36316785 0.113575645 -0.18943295 -0.2174644 -0.08742333 -0.11108376
0.20871483 -0.08793225 -0.24261333 0.07301732 -0.059257947 0.24578689 0.17846687 -0.12947783
0.0534997 0.103599496 -0.022650423 0.041128825 0.1468705 0.108091734 -0.00784032 0.087342136
0.3452425 0.0501655 0.17840771 0.17929427 -0.17718947 -0.20815709 0.15668444 0.051852807
0.17022981 0.08443021 0.17021051 0.31617284 0.33102876 -0.10317433 0.095967226 0.1748407
0.15235488 0.17570129 -0.14006746 -0.14796646 -0.2224856 -0.09249725 0.23259607 -0.046702508
-0.081158444 -0.32524535 -0.3110511 -0.021346735 0.19189101 0.27487803 0.022405056 0.14267081
0.21326469 0.09661962 0.17929153 0.25133586 0.18334381 0.06973128 -0.1874009 -0.21017729
-0.15238205 -0.056876607 -0.11782873 0.08637294 0.049971916 -0.10078419 0.09525619 0.16184469
0.29628792 0.1946391 -0.033216696 0.2330321 0.029992105 0.04475714 -0.3380492 -0.33028722
-0.22319852 -0.008485576 0.30426878 -0.38295007 -0.27824807 0.059092816 0.22990221 0.36945963
-0.41955468 -0.057961255 0.0306455 0.30668688 0.14384642 -0.32118624 -0.06248384 0.27249986
0.3351724 0.23319477 0.07846037 0.19803488 0.24904187 0.13288045 -0.06594275 0.08773878
-0.09946376 -0.08692715 -0.31590065 -0.2169033 -0.09087278 0.0664386 -0.35510454 -0.4193396
-0.28181714 -0.030255297 0.032824 -0.07611096 -0.12281013 0.00578851 0.23050532 -0.064071365
0.33297774 0.4333564 0.43766132 -0.04132977 0.22736198 0.14013508 0.42259333 0.048859667
0.27624106 0.150539 -0.04143523 -0.19902177 -0.2003566 0.28814307 0.20948079 -0.0070417295
-0.46385133 -0.14406857 0.33450767 0.35642937 0.065867744 -0.39137354 -0.3146808 0.3347043
0.05408385 0.21827683 -0.28448582 -0.29743218 0.21717636 0.042049494 0.0028485123 0.051954925
0.034708917 0.14876306 -0.027178664 -0.04922693 0.3319334 0.08892984 -0.21083748 0.007647364
-0.12621324 0.16210747 0.23881571 -0.30745772 -0.33575612 -0.1954996 -0.08970087 -0.04076923
-0.15850037 -0.1988951 -0.3928293 -0.3396977 -0.30413207 0.25299639 0.17870502 -0.05827847
-0.071595564 -0.07839397

conv1.bias f4 [10]
00000000: ff3f 6ebc c585 b4bc 1ea1 2f3e b881 e13d
00000010: 187f ee3d 7a72 b63b d02d d13d 0fce db3d
00000020: b47d eabd f72a fd3d
-0.014541625 -0.022036443 0.17151305 0.1101107 0.11645335 0.005567846 0.10213816 0.10732662
-0.11449757 0.123617105

conv2.weight f4 [20, 10, 5, 5]
00000000: abd0 19bb f43a 99bd 451c 8d3c 962e 0abd
00000010: 348f 3b3d cb8d 12bd e8ee 88bc 5cf5 7ebc
00000020: b85b dabc 1884 53bc 01eb d2bc 046c a7bd
00000030: 1faf cabd 8593 44bb 761c 0bbd 08b4 31bd
00000040: 3899 70bd 38a8 49bc 43a5 8abc 7032 48bd
00000050: 98f5 9fbd 6ee1 92bd 39fa c9bd b16d a53b
00000060: f8e6 32bd 02ec 403d 5831 81bc 6f1c 61bd
00000070: 3051 8d3d 8fba a23d 12d0 413d 6f80 afbd
00000080: 9622 edbd b197 b6bd b768 08be 109c 73bd
00000090: 21c2 aabd 0088 d0bd fc28 75bd 6285 9bbd
000000a0: bd5b e7bd 1000 05be a565 d9bd 7784 1ebd
000000b0: d3a2 e6bd 032b c9bd f6c5 efbd c5c4 85bd
000000c0: 78f4 d7bc d899 bd3a f656 c93d b0bf 40bd
000000d0: b995 f4bc 8d81 453d f366 9d3d 38ea 703d
000000e0: 50d0 4bbd e537 32bd d0cc 90bc 95f9 a13a
000000f0: 62cf fc3c c58b bdbd 599e b1bb b64a 853d
00000100: 6440 083c 7817 60bd b9aa ebbb e3d8 ea3b
00000110: 33c2 3d3d bde4 ccbd 3468 31bd 72b5 bbbd
00000120: 97d3 bcbd 5d58 0dbd 1390 82bc 2374 b93a
00000130: 0fc5 5fbd 66c2 90bd 0934 a5bd d5b1 6b3d
00000140: 7e5a 2cbd 5c8d 3cbd 71ea a2bc fb9c ebbc
00000150: d800 2fbd 7913 8abd 4951 b53c 99c7 1c3c
00000160: f16a cebc 1131 d5bd 7f5b fbbb 9628 333c
00000170: a001 113d 259a d5ba 013b 1fbc 68c6 87bc
00000180: 5f36 84bd 3b4e e1bd 618c f6bb 62f9 e9bb
00000190: adfe 203d 2337 47bd 75ef 91bd 87e3 4cbd
000001a0: 37c7 67bc 2d62 89bc f471 06be 6ed1 55bd
000001b0: f07c aebd 9c10 2abd 9758 22bc c92f c1bd
000001c0: 47ff 2dbd 0489 7a3d 0183 793d 5e60 a6bd
000001d0: ce09 a4bd ee34 1ebd f4d2 df3d 0bf4 96bd
000001e0: adcc 12be 9f41 d7bc c8bb 1e3c 640e b53c
000001f0: 99b5 69bd 20ed b9bc f251 13bd dbac d63c
00000200: 3be9 183c 507d be3a ac28 ef3b 4189 8abd
00000210: 58d9 3dbc 1a7d 35bd 7401 1a3d 1f82 34bd
00000220: d7e4 01be 0639 1438 c4bc d0bc 997b 9ebd
00000230: 3c03 c0bd 1940 1cbe ef86 cfbd a287 12bd
00000240: 149a adbb 3047 93bd 7740 b2bd 8b0d 2f3c
00000250: 3e8c 3e3d 591a d5bd e0f1 673d 5cb5 523d
00000260: 1ad4 203b 449c 6bbc 667f bebd c793 1c3d
00000270: 2fbd 27bd ba18 ba3d c171 933d 25ae 4c3e
00000280: 53db 843d c074 e53d 1b7a 813d 1869 ee3d
00000290: 92eb 0d3e 61f4 a03c b89e 013d fab4 af3d
000002a0: cd99 da3d 17b4 053d f9a0 e83c 7b87 7c3b
000002b0: fa79 ca3d 8f3c 8f3d eb7f 26be 5c0a 0c3c
000002c0: bc7b d0bd e5d7 dd3c cc78 efbd c732 46bc
000002d0: b40b 80bc 208b c23c 1087 96bc 8899 c23d
000002e0: 27ad 923c 9b48 a0bd b532 403c e68a ce3c
000002f0: f74b 783d 10cb abbd 39d3 613c 62e4 0abc
00000300: 84fc 8fbd 32d8 c2bd ef2e 783c 8cc5 69bd
00000310: 43a0 33bd a1ed 2fbe 930c 4bbd 6241 3e3d
00000320: ca03 c63d 250e 003e 22ca 3dbd 812e 40bd
00000330: 23e4 103c 9526 483d 45a0 6c3d 77ae 95bd
00000340: 4ce9 c33c 94fd a93d 0381 253e 5e7b 943d
00000350: 3337 03be f186 763d 6986 6f3d 1ff4 613d
00000360: f6ad d93c 5872 c6bc 90aa b63d b606 043e
00000370: 007c 2c3e c5fc 14ba 1843 623c 5fd8 133e
00000380: fa51 f83d 2905 9f3d 035d 543d b0ae c43b
00000390: 12ed b13d 9196 43bc c400 643d df36 143d
000003a0: 8778 953c 9a16 12bd db80 d7bd 9cbf 1b3d
000003b0: b49d 81bd 8ae1 69bd fb26 b9bd b3df 8abd
000003c0: c109 fdbc 71c9 11bd 1a45 55bd 4350 e2bd
000003d0: ac2a 503d 83d7 f8bc 56c4 1bbd 0c42 49ba
000003e0: 6336 c0ba 2f1c b53d c0c4 03bc 75a1 98bd
000003f0: ad36 96bd 5fd6 82bd fced 15bd de32 c5bd
-0.0023470323 -0.074819475 0.017225394 -0.033735834 0.045790866 -0.035779756 -0.016715482 -0.015561428
-0.026655063 -0.012909912 -0.025746824 -0.08174899 -0.09896683 -0.0029995155 -0.03396269 -0.04338458
-0.05873987 -0.012308173 -0.016924506 -0.048876226 -0.07810515 -0.071719036 -0.09862179 0.0050484766
-0.0436773 0.047100075 -0.0157706 -0.054958757 0.06900251 0.079457395 0.047317572 -0.08569419
-0.11578862 -0.089156516 -0.13321196 -0.059475005 -0.083378084 -0.1018219 -0.05985354 -0.075938
-0.112967946 -0.12988305 -0.1061509 -0.038700547 -0.11261525 -0.09822657 -0.1170768 -0.065316714
-0.026361689 0.0014465405 0.098310396 -0.047057807 -0.02985655 0.048219252 0.07685652 0.05881712
-0.04975921 -0.043510336 -0.017675787 0.0012357706 0.030860607 -0.092551745 -0.005420488 0.065083906
0.008316133 -0.05470988 -0.0071919826 0.007166968 0.04632778 -0.10004566 -0.043312266 -0.09165467
-0.09220045 -0.034508098 -0.01593784 0.0014148991 -0.05463129 -0.070683286 -0.080665655 0.05754264
-0.042078488 -0.04603325 -0.019887181 -0.028761378 -0.042725414 -0.06741995 0.022133486 0.009569072
-0.025197478 -0.10409749 -0.0076708193 0.010934969 0.03540194 -0.0016296549 -0.0097186575 -0.0165741
-0.06455683 -0.110012494 -0.0075240587 -0.0071403245 0.039305378 -0.048636567 -0.07125751 -0.050021674
-0.014146618 -0.016770447 -0.13129407 -0.05220168 -0.08519924 -0.041519746 -0.009908817 -0.094329424
-0.04247978 0.061165825 0.06091595 -0.08123849 -0.080096826 -0.038624696 0.10928908 -0.07370766
-0.1433589 -0.026276408 0.009688325 0.022101589 -0.05705795 -0.022696078 -0.03596682 0.02620547
0.00933295 0.0014533196 0.0072985496 -0.0676446 -0.011587463 -0.04430876 0.037599042 -0.044069406
-0.12684952 3.5339057e-05 -0.025480635 -0.07738418 -0.09375617 -0.15258826 -0.101331584 -0.03577388
-0.0052979086 -0.07191312 -0.08703702 0.010684381 0.046520464 -0.10405416 0.056627154 0.05144249
0.0024540485 -0.014380518 -0.09301643 0.03822687 -0.040951904 0.090867475 0.07199431 0.19988306
0.06487145 0.11203909 0.06322118 0.11641139 0.13859394 0.019647779 0.031645507 0.085794404
0.106738664 0.03264245 0.02839707 0.00385329 0.098865464 0.069939725 -0.16259734 0.008547392
-0.101798505 0.027080486 -0.11692962 -0.012097067 -0.01563058 0.02374798 -0.01837495 0.0950194
0.017904831 -0.078263484 0.0117308395 0.025212716 0.06061932 -0.083883405 0.01378327 -0.008477302
-0.070305854 -0.09513892 0.015147909 -0.05707316 -0.04385401 -0.17180492 -0.04957254 0.046449073
0.096686915 0.12505396 -0.046335347 -0.04691935 0.0088434545 0.04886492 0.057770032 -0.07308667
0.023914956 0.08300319 0.16162495 0.07250093 -0.12814026 0.060187284 0.058477793 0.055164453
0.026572209 -0.024224445 0.08919251 0.12893185 0.16844177 -0.00056834175 0.013809942 0.14438008
0.12125011 0.07764656 0.051846515 0.0060022697 0.08687796 -0.011937753 0.055664793 0.03618514
0.018245948 -0.035666086 -0.10522624 0.03802453 -0.063289076 -0.057099856 -0.09040638 -0.067809485
-0.03088844 -0.0355925 -0.052067854 -0.11050465 0.050821945 -0.030376201 -0.038029037 -0.0007677383
-0.0014664646 0.08843266 -0.008042514 -0.074526705 -0.07334647 -0.06388544 -0.036603913 -0.09628843

conv2.bias f4 [20]
00000000: bb7a 5b3d 9e21 23bd c357 71bb e2b2 f4bc
00000010: 911b 5abd 87c4 97bc 967d db3c 59e0 c6bc
00000020: 2913 8abd f846 a13c 2782 64bd 6506 87bd
00000030: 5e0c 1dbd dafb 203b 7154 9cbd 32d9 93bc
00000040: 7313 2fbd ea7d 08bd d884 8a3c 0ac9 093c
0.05358384 -0.03982698 -0.0036825992 -0.029870454 -0.053248946 -0.018526329 0.026793282 -0.0242769
-0.06741936 0.01968716 -0.055788185 -0.065930165 -0.038341872 0.0024564178 -0.076332934 -0.018047903
-0.042743158 -0.033323206 0.016909048 0.008409748

fc1.weight f4 [50, 320]
00000000: e286 81bb 2255 0dbd 1dc3 e83d 2f1b 7d3d
00000010: 0903 a0bb f969 5f3d 6292 0a3b b900 20bc
00000020: 3c69 74bd 778a 233c deb1 0abd c75b 28bd
00000030: 0b4a 663c 932b ad3d 9a7d 8c3d 5361 5b3d
00000040: b7c3 0ebd 1d17 1dbd fdaf e93c 5c67 a13c
00000050: 512c c3bc 569a 6bbc 9d68 7a3d d7e7 c83d
00000060: c0c4 353c 8cac 143c 1746 973c 8cb6 1b3d
00000070: 4c2b 22be 1c4e bbbd 812e a83c 6d8d 393c
00000080: 0b70 e1ba b1f8 5ebc 96e4 13bc 0003 313d
00000090: d8fb d83c a991 e13a d593 1abd efc5 46bd
000000a0: 541a c9bc 2e8a 41bd 61a3 6a3d 3d72 93bc
000000b0: bc77 28bd 4ee1 a93d 45eb c13d bdf1 f13c
000000c0: 3042 20bd 483d f63c 253e 8dbc 351e bfbc
000000d0: 3a54 e1bc db84 07bd ccfa 40bd aa7d 2bbd
000000e0: 858e 02be 5f1a 653b 7836 0a3d 3cef 14bd
000000f0: 09e4 e23d dd11 2c3e 5632 4f3d 901a 5b3c
00000100: e5e0 4abd 1cbc 28bd e818 4abc 8b7b 013b
00000110: 0051 05bd e4a0 a83c db16 173c 0f25 13bd
00000120: 6e56 e6bc c824 263d 2b19 773c 9336 6dbd
00000130: 1e8f af3c 4670 c03d d946 003d 620b 86bd
00000140: 9667 bbbc 7999 d53c 4b23 60bc 7187 423d
00000150: c2c3 bb3c 55e3 a5bb 2e87 4a3b b1fc a9bc
00000160: fa15 603d a0f4 553d 6cec f33c ae05 cebc
00000170: 5ca3 3b3d c582 95ba d445 09bd 9780 a7bd
00000180: 7653 bc3c 89a0 96bc b72d a83c dd00 973d
00000190: 8ab9 2cbd 900f 17bd 2152 233d 3d38 2e3d
000001a0: 240c 1b3d 2fe8 de3c 2098 76bd e167 57ba
000001b0: 5576 9e3d 9877 523d 411f 8f3d 9593 ea3c
000001c0: 0bb7 b43c 5858 e53c 420c 1e3d 62c3 da3d
000001d0: d85d 7c3c 807c c23d 1a0c d13c bdcb c53b
000001e0: f9ae 8cbc fdfb c93c d25c 083d ac0d c7bc
000001f0: 074a afbd be72 89bd 44dc a23c 577d 9cbc
00000200: 0789 423d 88c0 243d 7c9a fa3c f68d f83c
00000210: df99 c53c 90d2 3dbd dea8 aebc 697a 033d
00000220: 4e6d 0c3c 2f1f 383d b17f 87bb 704f aabb
00000230: 8b36 4abd e7d4 37bc c07e 303d fe17 723d
00000240: 62c9 0f3d b883 85bb 7f06 4e3d c568 14bd
00000250: 6d2d d6bc 0d82 9dbc 9702 d03c 4399 afbc
00000260: 0ab7 c1bb 7807 89bb 206a bcbb bb64 90bc
00000270: b8b8 4c3c 63ba d03c f601 60bd 7a11 afbc
00000280: ee4b 9cbc 49e2 563c ecc2 1f3d 88ff 1cbd
00000290: 9f08 41bd 546c 053d 4de4 debc 2903 f13c
000002a0: 0460 f83d b5ef 473d 9906 033c 7c1f cbbc
000002b0: 6ad2 aa3d 3b28 13bd 6bb5 84bb 0b7e 2ebd
000002c0: 3545 a93c 42d3 053d bc77 933d 09be 093c
000002d0: 8f89 4b3d 6035 8dbb 7c5f 963d c1bb d8bb
000002e0: fb77 063c 729a 333d ae90 a7bc 05d5 97bd
000002f0: 3724 e2bb 326d 9abc 5239 13bd dfc7 9abd
00000300: 58b7 133d 5e2f a4ba 18cc 903c 7a38 7ebb
00000310: 053a 04bd e9b8 40bd 6df3 a03c 5709 aabc
00000320: b92e 083d 756f 503c 7782 3f3d f4e0 14bb
00000330: b74a 9dbd ff37 3fbc bf4e 58bc 9401 c73b
00000340: e53a e33d 4486 a13c b258 c53c 48a1 fd3b
00000350: 5498 28bd c86d 34bd 4cd7 48bd b6f4 abbc
00000360: 98b9 10ba 7f93 b43c 7c11 19ba 2e3a 173d
00000370: 62b3 063e 7ab7 183d 9575 72bd 731e 94bd
00000380: f8e6 2c3d ab53 4abc 25e7 f43c 259f 5cbc
00000390: 75ea 74bd 6cb7 843c 9dbc 293d 1da9 6fbc
000003a0: 4398 23bd 6c07 6a3c e06e babb 4edc 9fbc
000003b0: 9114 023e 1e11 7b3d 3d16 73bd 8bb4 24bd
000003c0: f266 74bc 1721 2c3d 1d87 3cbc c3fd 6c3d
000003d0: d2a9 a9bd 22f3 9cbc 864b ae3c f741 24bd
000003e0: 772e 2bbd d833 edbc 1a64 2f3c 7124 42bd
000003f0: ac7e c03c 5116 513d e0d7 92bd b6e9 a2bd
-0.003952847 -0.034505017 0.1136534 0.061793502 -0.0048831743 0.054544423 0.002114438 -0.009765797
-0.05967067 0.009981743 -0.033861034 -0.04110315 0.014055739 0.08455577 0.06859894 0.053559612
-0.034854617 -0.03835212 0.0285263 0.019702606 -0.023824843 -0.014380058 0.061134923 0.09809845
0.011094272 0.0090743415 0.018466039 0.038015887 -0.15836829 -0.091457576 0.020529987 0.011325222
-0.0017199529 -0.013609097 -0.009026667 0.04321575 0.026487276 0.0017209548 -0.03773864 -0.048528608
-0.024548687 -0.04725092 0.057284717 -0.017998809 -0.041129813 0.082949266 0.09468702 0.029534215
-0.03912562 0.030058518 -0.017241547 -0.023329834 -0.027505983 -0.033085685 -0.04711418 -0.04186789
-0.1274968 0.0034958345 0.03374335 -0.036360964 0.110786505 0.1680369 0.050585113 0.013373032
-0.049530882 -0.04119502 -0.01233504 0.0019757475 -0.03254795 0.020584531 0.009221758 -0.035924014
-0.028117385 0.04056242 0.015081684 -0.057913374 0.021430548 0.093964145 0.031317566 -0.0654514
-0.022876542 0.026074158 -0.0136802895 0.04749245 0.022920493 -0.0050625005 0.0030903327 -0.020750375
0.05470846 0.052235246 0.02977582 -0.025149193 0.04581009 -0.001140677 -0.03351386 -0.081788234
0.022989016 -0.018387096 0.020529611 0.073732115 -0.04216913 -0.036880076 0.039873246 0.0425341
0.037853375 0.027210323 -0.06020367 -0.0008217078 0.07737414 0.051383585 0.06988383 0.028634826
0.022059938 0.027996227 0.03858591 0.106817976 0.0154032335 0.09496403 0.025518466 0.0060362504
-0.017173277 0.02465629 0.033291645 -0.024298511 -0.085590415 -0.067113385 0.019880421 -0.019102735
0.04749396 0.040222675 0.030591242 0.03034113 0.024121223 -0.046343386 -0.021320757 0.03209916
0.008570982 0.044951614 -0.004135095 -0.005197458 -0.049368422 -0.0112201935 0.04308963 0.059104912
0.035104163 -0.00407454 0.050299164 -0.03623273 -0.026144708 -0.019227052 0.02539186 -0.021435386
-0.0059117125 -0.0041817985 -0.005749956 -0.017626157 0.012495212 0.025479501 -0.05468937 -0.021370638
-0.019079175 0.013115474 0.03900425 -0.03832963 -0.047127362 0.032574013 -0.027208472 0.029420452
0.121276885 0.048812587 0.0079971785 -0.024795286 0.083409145 -0.03592704 -0.004049947 -0.042600673
0.020662883 0.032672174 0.07200572 0.008407124 0.049691733 -0.0043093413 0.07342431 -0.006614179
0.0082073165 0.043848462 -0.02045473 -0.07413677 -0.00690129 -0.018850897 -0.035943337 -0.07557654
0.036063522 -0.0012526324 0.017675444 -0.0038790987 -0.032281894 -0.047051344 0.019647324 -0.020756407
0.033247683 0.012721886 0.04675528 -0.002271709 -0.07680266 -0.011671065 -0.013202368 0.006073186
0.110952176 0.019717343 0.024090145 0.0077401735 -0.041160896 -0.044050008 -0.049033448 -0.02099071
-0.00055208197 0.022042988 -0.0005839092 0.03692072 0.13154367 0.037284352 -0.059194166 -0.0723237
0.042212456 -0.01234905 0.029895375 -0.013465677 -0.05979391 0.016200744 0.04143964 -0.014627722
-0.03994013 0.014283996 -0.005689487 -0.01951423 0.12703158 0.06129562 -0.05934738 -0.04021124
-0.014917122 0.042023744 -0.011506823 0.057859194 -0.08284344 -0.019158904 0.021276247 -0.04010197
-0.04179236 -0.028955385 0.010705018 -0.047398034 0.023497902 0.051046673 -0.07170081 -0.07954733

fc1.bias f4 [50]
00000000: 8592 5d3d 676b 5f3d e14e 04bc e270 92bc
00000010: 3d62 4d3c 7743 08bc 7a8a 813d da5b f43c
00000020: 7e55 67bc 1706 afbb ebe1 313d 6f08 d5bc
00000030: c0fc c03d 561e 073d c266 933d 3a1e b6bc
00000040: 49ed 083c f82a 993d 2eed 433d 1f4c ca3d
00000050: 3291 ae3d 510b ba3c 1c27 e13c bd0c c83c
00000060: 07b4 eabc 7701 973c 7e60 6f3a 9e88 673d
00000070: 60a0 853c 390e 2abd 6f1c b6bc 4502 2b3d
00000080: 8c6e afba 5670 d6bb 7a6c 873d 7fd7 263d
00000090: 2ddd c0bb aceb b33d e6db 773d f53f 63bd
000000a0: b707 0a3d 6610 7b3c f3ea 82bd 206e 183c
000000b0: 628b 983d 1400 903c 4352 9f3d 6cf6 4f3c
000000c0: abd9 29bc 09d3 e1ba
0.05409481 0.054545786 -0.008075447 -0.017876092 0.012535629 -0.008316866 0.063252404 0.029828954
-0.014119504 -0.005341302 0.043428343 -0.026004998 0.09423208 0.032987915 0.07197334 -0.02223121
0.008357354 0.07478899 0.047833614 0.098778 0.085237876 0.022710474 0.02748447 0.024420137
-0.028650297 0.018433316 0.0009131505 0.056526773 0.016311824 -0.04151747 -0.022230355 0.04175021
-0.0013384386 -0.006544153 0.06612487 0.040732857 -0.005885741 0.08785185 0.060512446 -0.055480916
0.033698764 0.015323734 -0.06392469 0.0093036 0.0744846 0.017578162 0.07779362 0.012693029
-0.0103668375 -0.0017229031

fc2.weight f4 [10, 50]
00000000: d7c1 8dbe 8b56 4bbe 679a 30be 6f15 43be
00000010: ee72 d8bd 18ea 4d3d e6d9 56bd baf0 2ebe
00000020: 42e4 033e c3ab 273e 3b09 5a3d f580 dbbd
00000030: b15a 593e d78f 963e ac05 283e 668f d6bd
00000040: 9963 463e a75c 87be fe00 20be f7d5 5fbe
00000050: 155b 47be 7247 6ebe 3820 45be 390e 7abe
00000060: 99ed 323e fcb2 0f3d 37bd aebd 4f6d 08be
00000070: 83fd 303e 705f 4f3d fb7b 3dbe cb92 483e
00000080: fa56 163e 8726 863b fa52 56bd 59d0 3fbe
00000090: 0e63 1ebe 2980 37be 68f1 a23d a202 01be
000000a0: 85c5 123e 30d3 873e 0801 24bd f5c2 f8bd
000000b0: 65c2 e43d d5d8 293d 0167 503e b43c 883e
000000c0: cb2c 4ebe e28d 143e 5063 c83d 038e 193e
000000d0: 32af 58be ecbf 043e 4931 94bd d40e 2abe
000000e0: e17f 033e 47c8 c03d 2ec2 6abe 36f2 863b
000000f0: 8447 813e daa1 7cbe 71ca 173e f884 96bd
00000100: 1d37 7cbe 2421 c73d f02e 3bbe 4c45 443e
00000110: 4e3c 423e dbc9 553e 04e4 3e3e 0d71 8dbe
00000120: 6d75 a1be ee0d 543e 5dd0 99bc 7f2a c33e
00000130: 357c a53e 4ebb df3d b7ca 4abe 0839 27be
00000140: 0e43 1b3e 26c3 cdbd 09ef 28be 4bad 44be
00000150: c148 aabd dbf5 5e3e eabe 173d 49e6 5a3e
00000160: ae25 aa3d b0a2 4dbe 8262 423e 39a6 ddbd
00000170: 9377 06be baac 623e af9d 4cbe 5d47 263d
00000180: 663b f83d d133 bcbd b795 a0bd 5906 29be
00000190: 4776 3cbe f89d db3d 3230 0b3e 6225 043e
000001a0: 1805 1c3e d287 db3d 7d4e 213e 0c4d 393e
000001b0: 35c4 e83d 68da 323e 99dc 8d3d aa24 143e
000001c0: 7bf7 8e3d 9ab4 e4bd ad46 eabd a50a 15be
000001d0: aace 15be 484c 223e b8fd 00be 068a 92be
000001e0: 1a39 0bbe e132 a3bd c4b6 25be 7a07 803e
000001f0: a6e4 91bd 454b 753d a109 0cbe 3fd5 2fbe
00000200: 4c81 1ebd 644e fdbd 0977 503e c832 9b3d
00000210: 0610 fbbd b8fb 4ebe 5886 0c3e fa3d 00be
00000220: 01ab 4a3e fc06 753e 55e1 3abe f88f 98bd
00000230: 3ecc 88bc cf02 4f3e df2e fb3d 55bc 40bd
00000240: 3a7c b9bd 7476 d53d f0c5 143e 646d 4c3e
00000250: 0edb 043e cfd5 123d b150 ec3d 54cf 1fbe
00000260: cb15 193e 837c 153e 0dc1 84bc 2a29 703d
00000270: 0eb7 2abe b349 463e 80f0 06be b667 cebd
00000280: 0a86 eabc bb12 96bd 199c 4ebe 16e4 7abd
00000290: 07a3 9cbd f032 3a3e 1edb 2dbd 32a6 373e
000002a0: 2b12 263e 03de f4bd 0542 39be 2dd4 14be
000002b0: aecf 0e3e 8c7e 1dbd 71d9 5c3e c973 40be
000002c0: af55 1bbe 4f98 3f3e df35 6bbd f2a9 273e
000002d0: bec6 2f3e 9763 233e 60df 3e3e 0bf7 a3bd
000002e0: 1213 3abe b273 41be 0876 283e 4ed8 523e
000002f0: 6fe0 36be e567 803e 7823 27bd b4e3 55bd
00000300: d3b3 bebd dda0 42bd 50dc 993c 4141 ee3d
00000310: f280 55bd 1e2d 82bd 2d61 fc3d fa62 d93d
00000320: d790 463e 6446 d13d 0899 2b3e b30a 0abe
00000330: 8071 103e fd9b acbe 6093 633e 0f3f c83d
00000340: b8cc 103e 581e b6bc 0464 853e a3f4 933e
00000350: 9f9a 09be c824 7abd f2ac 20be c06d 4fbe
00000360: 36de 87be 3a8a 33be 2ab0 723e eeec 903d
00000370: ef52 4c3e db04 813e ca66 163d aec2 97bd
00000380: b82f 03be f89d 853b 32e3 07bd 4e63 1d3e
00000390: 1c38 85be 4050 50be bda6 cfbd 42c4 88be
000003a0: a3a0 a1bd 7b60 8a3e 3229 913e 8c01 423e
000003b0: 7289 12be 2fc6 9dbd 57bf d0bd 1bbc ad3d
000003c0: 8ab2 3dbe 346c ec3d d1d2 b6bd d649 dfbd
000003d0: 7cd4 6c3e c6b7 f3bc 55d3 133d 72ae ef3c
000003e0: 4a3f 1bbe 08e0 90be ba20 f83d df58 da3d
000003f0: 86cb 00be 81dd 7cbe 85d2 133e 7112 6cbe
-0.2768695 -0.19857232 -0.172464 -0.19051145 -0.10568796 0.050272077 -0.052453898 -0.17084017
0.12880042 0.16374116 0.05323146 -0.10717956 0.21226002 0.29406616 0.16408414 -0.1047657
0.19373931 -0.26437876 -0.15625378 -0.21858965 -0.19468339 -0.23269442 -0.19250572 -0.24419488
0.17473449 0.035082802 -0.085321836 -0.13322948 0.17284207 0.050628126 -0.18504326 0.19587247
0.14681616 0.0040939483 -0.052325226 -0.18731822 -0.15467474 -0.17919983 0.07956201 -0.1259866
0.1433316 0.2652831 -0.040040046 -0.1214656 0.1116989 0.041466553 0.20351793 0.26608813
-0.20134275 0.14507249 0.09784567 0.1499558 -0.21160582 0.12963837 -0.07235963 -0.16607219
0.1284175 0.094132 -0.22925636 0.0041182293 0.25249875 -0.24671116 0.14823319 -0.073495805
-0.24630399 0.09723118 -0.18279624 0.1916706 0.18968317 0.20877783 0.18641669 -0.27625313
-0.315349 0.20708439 -0.018776113 0.3811836 0.32321325 0.109243974 -0.19803892 -0.1633035
0.15162298 -0.10046987 -0.16497435 -0.19206731 -0.08314658 0.21773474 0.037047304 0.2137691
0.08307968 -0.20081592 0.1898289 -0.1082272 -0.13131551 0.22136202 -0.19982027 0.0405954
0.12120704 -0.09189571 -0.07841056 -0.16506328 -0.18404494 0.107234895 0.13592604 0.12904885
0.15236318 0.10719265 0.15752597 0.18095797 0.113655485 0.17466128 0.06926841 0.14467111
0.06980797 -0.111672595 -0.114392616 -0.14554842 -0.14629617 0.15849411 -0.12596786 -0.2862093
-0.13596001 -0.07968689 -0.16183001 0.25005704 -0.07123689 0.059886236 -0.13675548 -0.1717119
-0.038697526 -0.123684675 0.20357908 0.07578045 -0.122589156 -0.2021321 0.13723123 -0.12523642
0.19791795 0.23928446 -0.1825002 -0.07449335 -0.016698953 0.20215915 0.12264799 -0.047054607
-0.090568975 0.10422984 0.14528632 0.19963604 0.12974188 0.035848435 0.11538828 -0.15606433
0.1494972 0.14598279 -0.016205335 0.058633007 -0.16671392 0.19364052 -0.13177681 -0.10078375
-0.028628368 -0.07327791 -0.20176734 -0.061252676 -0.076482825 0.18183494 -0.042445295 0.17934492
0.16217868 -0.11956408 -0.1809159 -0.14534064 0.13946411 -0.038450763 0.21567322 -0.18794169
-0.15169404 0.18710445 -0.057424422 0.16373423 0.17165658 0.1595596 0.18639898 -0.08006104
-0.18171337 -0.1889179 0.16451275 0.20590326 -0.17859052 0.25079265 -0.04080531 -0.052219108
-0.093116425 -0.047516692 0.018781811 0.1163354 -0.052124925 -0.06356262 0.12323222 0.106145814
0.1939119 0.10218504 0.16757596 -0.13480644 0.14105797 -0.3371276 0.22224188 0.097776525
0.14140594 -0.022231266 0.26052868 0.2889758 -0.1343789 -0.061070234 -0.15690973 -0.2025671
-0.2653672 -0.17533198 0.23700014 0.07076441 0.19953512 0.25199017 0.03671912 -0.07410179
-0.12811172 0.0040776692 -0.033175655 0.15369913 -0.2601937 -0.20343113 -0.10139225 -0.26712233
-0.07891967 0.27026734 0.28351742 0.18945903 -0.14310244 -0.07703816 -0.10192745 0.08483144
-0.18525138 0.115440756 -0.08926929 -0.10902755 0.23127931 -0.029750716 0.036090214 0.029257987
-0.15160862 -0.28295922 0.12115617 0.10661482 -0.12577638 -0.24693872 0.14435776 -0.2305391

fc2.bias f4 [10]
00000000: 7718 243e 7688 6c3e df08 08be f545 5abe
00000010: e704 0abd dcc2 e7bd 820c 47bd 5f43 c6bc
00000020: 4602 8a3e b986 bbbc
0.16024958 0.2309893 -0.13284634 -0.21315749 -0.03369608 -0.11316463 -0.048595913 -0.024202047
0.2695486 -0.02289139
